Code/990-10/darts_logs/D-ltc_transformer/checkpoints/last-epoch=199.ckpt (torch, 653477 bytes, 205 tensors)

encoder.weight f8 [16, 1]
-0.4528481610245329 -0.9213886392688124 -0.9002643445545674 -1.072730031573599 0.5968323537932171 1.1154847198587987 0.058066736222671 1.3722685645922272
-0.9864856624442695 1.1123036895926455 1.2624440190888107 -0.7849253559428704 -0.7754085147809547 -0.7396570971369942 0.15827424147132593 0.36695148524764326
00000000: f3dc 69da 76fb dcbf 8018 1207 047c edbf
00000010: 5bbc b32b f7ce ecbf 01bb 30f7 e629 f1bf
00000020: f991 172a 4019 e33f 40b3 6f81 06d9 f13f
00000030: 40a8 1f5a ecba ad3f 280a e4e1 cff4 f53f
00000040: 1a79 4561 4a91 efbf 2a54 20f4 fecb f13f
00000050: 9f46 f07f f832 f43f da6c b2c7 1b1e e9bf
00000060: b3c5 8084 25d0 e8bf 5ca5 4e5c 45ab e7bf
00000070: 1b93 7591 5442 c43f 41dd 1615 227c d73f

encoder.bias f8 [16]
0.45705162293071305 -0.05408888803109422 -0.5827893611204811 0.04255900781954495 -0.4920819411074289 -0.9360845097878333 -0.9034311555707647 -0.13400770409579724
-0.3983626395476853 -0.9754948948865098 -0.24941844338971922 -0.5319154448893763 0.054110517228486595 -0.2825870584867623 -0.7128234432509997 0.1134397847435099
00000000: 7f8d 4473 5540 dd3f 0d53 57ea 89b1 abbf
00000010: b003 cfdf 35a6 e2bf 1566 7855 4bca a53f
00000020: fd8c 0041 457e dfbf 0797 7a80 67f4 edbf
00000030: 41a5 6b74 e8e8 ecbf 8172 4019 2a27 c1bf
00000040: 0b8e 3303 c67e d9bf 057b de11 4137 efbf
00000050: a564 b08c f1ec cfbf 6d30 018a 7305 e1bf
00000060: a163 bbab 5fb4 ab3f 8d4d 9e07 e815 d2bf
00000070: 98b9 121c 73cf e6bf 47e5 89c5 630a bd3f

transformer.encoder.layers.0.self_attn.in_proj_weight f8 [48, 16]
0.11948220115927458 0.17382635771085445 -0.3181454056401278 0.04055727902449601 0.2807629603340659 0.10930432415695805 0.009511652736360744 0.30590242889347585
0.03520535898566268 -0.012868459546693085 -0.2881693433358873 -0.27568946189913635 -0.001476440001204101 -0.07712229793184508 -0.3585771707807876 -0.08991607010536393
0.07435602150642595 -0.05561795098846063 -0.3527496358392418 0.06348102359840696 -0.28533250815203315 0.41825099426092166 0.02101548992875462 -0.09902418518693618
-0.011243197434528035 0.5821004645733788 0.6281946996357785 -0.0540330623744792 -0.11451879754133094 0.23345575409140046 -0.23048099378610287 0.41394843323673103
-0.10946457251307107 0.1779831198635199 -0.3296429009378268 0.05903554435452684 0.03433468890301232 0.36771916752152606 -0.13613392032193763 0.07905550765573982
-0.10723255628466755 0.01824805400716273 -0.2721873204079431 -0.05795671702258809 -0.24802312012600194 0.050947963701986135 0.15708586876327374 0.07533619095099299
-0.1905899036537537 0.25636799249662884 0.05514120530980326 0.25949209695354636 0.20594254015231048 0.1683503047699409 -0.11933252378447291 -0.08463858976493101
-0.37083546555026947 -0.07798113874433309 0.6491609802112692 0.14928059236787797 -0.5121097407782373 -0.15244069314857922 -0.05483454859138372 0.3156737027924915
-0.19933543095422226 0.1534761150332257 0.02808288724842966 0.07171372879360624 -0.32498717732917143 0.35005864055567426 0.1466482310288913 -0.32926614495358253
0.4226943527182827 0.12394800426298086 0.6474942338132331 0.4293434817824039 -0.39756072221658106 -0.10021329959046527 -0.010753044806671446 -0.16128794143264502
0.3696135453080174 0.2387121363758381 0.13060577043530452 -0.15794623459260496 0.18718857732691213 0.0761616981868542 -0.10462057814105903 0.5529893102254222
-0.2833263849981481 0.5487111745512089 0.6232653363425832 0.15684814072404363 -0.4453174407051214 0.08734809057926998 -0.30446313367515254 0.4060112442316686
-0.19854616216478865 0.01830258866336626 0.13953784674408704 0.17275518570322707 0.0799399297678764 0.519288584281045 0.12928679073692684 -0.12284089271610724
-0.11765465864259417 0.7830671616668367 0.06587825926274614 0.2329673538202051 -1.0591697757225431 -0.2666075926590216 -0.16054405023019483 -0.3581353162230604
-0.14929923815070792 -0.445765569892984 -0.23810077413090963 0.5236937241470743 -0.5738471816000111 0.034303719689788216 0.2333042931444017 -0.46304830012081505
0.5368763642558356 -0.2751737343604808 -0.4351785426969728 0.1504803021197709 0.8894524041682399 0.324746990176891 -0.25115185693086733 0.15055361738200596
0.22727052374204554 0.13364251401892782 -0.05946618996682249 0.16877296362953148 0.35158251454810824 0.10164862312648942 0.35274561005039917 0.22421216437796898
0.1948123975702816 -0.17600884980853476 0.4142236879361769 0.17608095146535235 0.12289176982975943 -0.01103169111026235 -0.008839893223418962 -0.19833538536323847
0.3423333728868844 -0.21381750804958827 0.07967792334246217 0.3932994362241658 -0.1513984053428835 -0.038998528545936585 0.04327881213893591 -0.11208640307595569
-0.04342715569507729 0.33366129902496655 0.3706333307436152 0.18349931789037635 -0.33568883442832215 0.33778045791750017 -0.04880391934581147 -0.1937297055681281
-0.34647461498182414 0.40536756586715217 0.26421224531633725 0.1933540643680645 0.31466726729998906 0.7504918735220601 0.3802712946587917 -0.8737214779245033
0.32303912220034675 -0.39912728781108786 0.07382369858367352 -0.46177051677262676 -0.23045320665535227 -0.05913901793624611 0.2215329480103484 -0.6205832412840935
-0.5327738325606707 0.367346159841954 0.6288855092316488 -0.17668616616687785 0.2979115554456866 0.26490158152060667 0.6805988020956492 -0.6432419956797936
0.4936180825952084 -0.2141096593853755 -0.41936470897342165 -0.286338595583454 -0.027998645776304214 -0.5133988738424142 0.6822977928545144 -0.22687192294549413
0.1836367549774144 0.0231147848285159 -0.2163106048590649 -0.16869980860447578 0.14562230857515543 -0.3271756203606104 -0.22100830922782508 0.7601260552593586
-0.43679917164776483 0.1891751902489438 0.12869014103986853 -0.0936216657518933 -0.4277165747430429 -0.07442286081313129 -0.017557884970083072 0.1341142346891527
0.13422015929865436 -0.14232093869230228 -0.07854786608357628 0.3894430025398569 -0.27977796702788166 0.2987746261741183 0.41020286991907595 -0.46696363553335885
-0.01405043493418718 -0.14978322851898632 -0.19150312636867936 -0.15246331886853626 0.24252838520261136 -0.30466298217886284 0.28359651079087617 -0.05623822696224264
0.045897596518734235 -0.23575371974261908 -0.2822751942138965 0.017578922620149373 -0.06244383513267185 -0.39416717637794213 -0.2100146524825317 0.17617983546515464
-0.054350991587920755 0.2729748162877208 0.04460357441933438 -0.19693721800485303 -0.19536862380186895 -0.21575809255268918 0.13112083815605446 0.21473489701071688
-0.1060942120684581 0.22442598256058222 0.029473710522303326 -0.1349024547311932 0.2949808415799206 0.5094950862314305 0.28148427765757 -0.49839906871538336
0.33672634485579755 0.13657043757231163 0.2378948234851947 -0.34123279444653143 -0.17931600206442241 -0.3424558626788594 0.337940165339487 -0.42973489582857266
00000000: bae4 6eb2 6296 be3f 7584 c62c f13f c63f
00000010: 4b35 268c 7e5c d4bf 2fc7 0c76 ecc3 a43f
00000020: 8207 2435 05f8 d13f c3c5 9041 5efb bb3f
00000030: e7f7 776b d87a 833f 0e53 f7c7 e793 d33f
00000040: 6087 f9d2 6f06 a23f a43b 3967 c75a 8abf
00000050: 7a98 55d4 5d71 d2bf 2c5a ad69 e5a4 d1bf
00000060: bc66 4261 a330 58bf 5ede 6873 49be b3bf
00000070: c71f 66a9 edf2 d6bf 06c5 7c54 bd04 b7bf
00000080: 487a a108 ff08 b33f bac6 21c1 f479 acbf
00000090: bebf 6635 7393 d6bf 3492 45d8 4a40 b03f
000000a0: a6e9 bf47 e342 d2bf 69b0 77d1 9fc4 da3f
000000b0: ee4c d0a7 1585 953f 8c14 e424 a659 b9bf
000000c0: b028 456a ac06 87bf bb87 4a27 91a0 e23f
000000d0: 4999 4ec5 2b1a e43f e92b 9ab7 38aa abbf
000000e0: 759e 379a 1a51 bdbf ca5a 71ce e0e1 cd3f
000000f0: 1498 54b5 6680 cdbf 5adc be91 217e da3f
00000100: 98a6 03c7 de05 bcbf 14e5 869f 26c8 c63f
00000110: f8bc b889 de18 d5bf afc6 9b28 e839 ae3f
00000120: 06de e9fb 5094 a13f d781 a7f9 b588 d73f
00000130: d959 d417 d66c c1bf 7438 f353 fb3c b43f
00000140: e822 4fc2 9773 bbbf b0a3 b42c 9eaf 923f
00000150: 696e e25d 846b d1bf 201e 64b8 80ac adbf
00000160: 51e9 cbba 38bf cfbf caaf cbfb d915 aa3f
00000170: d241 80c6 631b c43f 49f8 568c 3b49 b33f
00000180: 3f01 92fd 3f65 c8bf 8fe8 e04b 5568 d03f
00000190: bf6c efd2 773b ac3f b019 7fbd 849b d03f
000001a0: 7798 673d 535c ca3f 7a17 a1b6 808c c53f
000001b0: 51e2 0087 938c bebf b91a 05e7 dfaa b5bf
000001c0: d80f 2fad c4bb d7bf 979b 9c68 92f6 b3bf
000001d0: 3418 7b3f edc5 e43f b1e2 125f a01b c33f
000001e0: ce60 93f7 3363 e0bf 4c8c d337 2d83 c3bf
000001f0: 2226 c821 4613 acbf c6dc 6c79 ff33 d43f
00000200: 25f4 70ca d283 c9bf 9575 64f7 1aa5 c33f
00000210: deae 3ca9 c2c1 9c3f 9ebe d7b7 d45b b23f
00000220: 97e1 8f04 97cc d4bf 149b 375b 5c67 d63f
00000230: 0a86 2486 5ec5 c23f 485c 104f b212 d5bf
00000240: 1c40 489d 6c0d db3f d4c6 b670 0ebb bf3f
00000250: fb71 d2d3 45b8 e43f 8665 4015 5d7a db3f
00000260: ef09 0687 a271 d9bf 3484 5d2c 94a7 b9bf
00000270: e373 373e b105 86bf b49f d850 15a5 c4bf
00000280: 4c6b 5092 bfa7 d73f fc3d 7289 1e8e ce3f
00000290: 5021 589c b0b7 c03f a500 0d0c 9537 c4bf
000002a0: b6e4 e698 cbf5 c73f cc9c eb42 557f b33f
000002b0: f5bd 9a09 6ac8 babf ce95 4ea3 16b2 e13f
000002c0: 064d 6afd 0422 d2bf c7b5 b4bc 0a8f e13f
000002d0: 794c 8a25 caf1 e33f f090 6c91 9913 c43f
000002e0: bfae 0ab9 1480 dcbf 4af0 67c8 715c b63f
000002f0: ba3c 7ef0 527c d3bf 5921 f295 16fc d93f
00000300: 023e 9fec f569 c9bf f016 f7ee e9bd 923f
00000310: 7ef9 284c 60dc c13f 72a6 6788 d71c c63f
00000320: 7c60 ff77 f176 b43f 158b d517 039e e03f
00000330: f88b 0235 788c c03f 7abe d330 8072 bfbf
00000340: 608c 179f 9d1e bebf 8bc7 3ddd e20e e93f
00000350: 0708 0dc9 65dd b03f b1c2 d8ce dfd1 cd3f
00000360: 593d ba01 5cf2 f0bf 8b7d d54a 1910 d1bf
00000370: 3d2d a71a b58c c4bf 561f ae63 b0eb d6bf
00000380: 9966 96c8 3c1c c3bf fee1 1750 6c87 dcbf
00000390: 7ab3 050f 167a cebf cea0 4a57 19c2 e03f
000003a0: 57f6 bbc3 f45c e2bf 05c8 65d4 4190 a13f
000003b0: 442a 8942 eadc cd3f d12f 5f56 95a2 ddbf
000003c0: a02c 4f57 172e e13f 25f9 724b 729c d1bf
000003d0: e97b 331a f7d9 dbbf 7ff7 2544 f042 c33f
000003e0: 8a09 68e3 6476 ec3f 0230 9299 a7c8 d43f
000003f0: 7941 f63c df12 d0bf 92a0 7947 5745 c33f
00000400: 6e8f 6855 3317 cd3f 9d83 88a9 321b c13f
00000410: 9d1d 403a 5a72 aebf 6271 9e3b 5a9a c53f
00000420: a917 75f2 5380 d63f dcfe 02e8 a405 ba3f
00000430: 9056 be52 6293 d63f 4c33 aff4 fbb2 cc3f
00000440: 09b9 35d6 9cef c83f 56fb dd3e 7587 c6bf
00000450: 5c85 3a12 a482 da3f 1a02 ff13 d289 c63f
00000460: d5ca 5dc4 d575 bf3f f721 4e84 c897 86bf
00000470: 4e94 5b62 a61a 82bf 4428 e3cc 0d63 c9bf
00000480: 073a 383c cae8 d53f 2e4e 3142 5f5e cbbf
00000490: f914 f8ba c565 b43f cd8d 0766 d12b d93f
000004a0: 4c9f cedf 0561 c3bf b5d2 6479 9df7 a3bf
000004b0: af2f 7ef5 a328 a63f d499 89cb b1b1 bcbf
000004c0: d3f3 ef8a 153c a6bf ec32 d0eb b45a d53f
000004d0: fd7c 96dc 74b8 d73f 79b7 96d8 e77c c73f
000004e0: cf20 6005 ed7b d5bf c5f2 feec 319e d53f
000004f0: 0986 03cb d3fc a8bf 8de3 d68e 22cc c8bf
00000500: 9d6e 0fdd a32c d6bf fe8b 90cd 8af1 d93f
00000510: 8a87 357a dae8 d03f d137 8173 d3bf c83f
00000520: 8c35 8b2d 8223 d43f cf1c 9688 0704 e83f
00000530: 9ab1 8a69 5d56 d83f f0f3 afbe 86f5 ebbf
00000540: 5775 4b48 acac d43f 50bf 052e 4d8b d9bf
00000550: fe2d 1623 1ce6 b23f ade8 f2ec a58d ddbf
00000560: a3e9 eb9c 7d7f cdbf e24f e827 7847 aebf
00000570: e46f 580f 315b cc3f f458 b862 d1db e3bf
00000580: b767 60b5 7b0c e1bf bb45 b577 9982 d73f
00000590: ec80 e280 d41f e43f 85d2 abfc a69d c6bf
000005a0: 7c57 efa0 fb10 d33f 2d8a 52c3 25f4 d03f
000005b0: a752 9623 77c7 e53f b978 db3c 7095 e4bf
000005c0: 3d7b 5d4c 7097 df3f 87b0 6800 f267 cbbf
000005d0: 39cb 8813 dfd6 dabf aa43 e71d 5f53 d2bf
000005e0: 8b1c c44f adab 9cbf d29a 9e79 c36d e0bf
000005f0: 0e2e 4e2e 62d5 e53f 5a3c b7a0 230a cdbf
00000600: 155c 7cc0 6881 c73f 5af9 91f3 66ab 973f
00000610: 9ae6 d2de 10b0 cbbf 791a 6690 f497 c5bf
00000620: ebfb 7276 c0a3 c23f 4fd4 5f03 72f0 d4bf
00000630: c38d 2312 004a ccbf 59a5 85e0 f352 e83f
00000640: 1c69 4983 84f4 dbbf b0b9 aa83 e436 c83f
00000650: 04bc 8a25 eb78 c03f fdf6 99e8 96f7 b7bf
00000660: e49f 1e57 b55f dbbf 8664 4469 600d b3bf
00000670: 0a0a efb6 b1fa 91bf 5b80 f5bd a72a c13f
00000680: a368 534d 202e c13f 3e17 9c90 9237 c2bf
00000690: 5ce2 ff83 b61b b4bf 8b24 e457 a2ec d83f
000006a0: ebab a1d8 e1e7 d1bf bab7 129c 1f1f d33f
000006b0: 0ac7 c189 c340 da3f dc5e c271 bbe2 ddbf
000006c0: 6497 4b74 79c6 8cbf 453a fdc9 182c c3bf
000006d0: ebe8 6aa8 2c83 c8bf 48a3 3004 eb83 c3bf
000006e0: 0501 668d 2b0b cf3f 9ba4 302a 997f d3bf
000006f0: 4bd1 c6fa 7126 d23f abfb 2cc3 41cb acbf
00000700: 9ca3 06c8 e37f a73f 1d3a 1a8a 2d2d cebf
00000710: 1bba e7f9 cb10 d2bf e083 0287 3500 923f
00000720: b499 766b a3f8 afbf 93cb ecf6 083a d9bf
00000730: 90f0 0b98 c2e1 cabf cecc c493 0f8d c63f
00000740: 1c26 c0a6 e4d3 abbf 7497 255d 6b78 d13f
00000750: 50dc d49a 47d6 a63f b218 591f 3d35 c9bf
00000760: fd5f f2cc d601 c9bf e039 ae0f f69d cbbf
00000770: 9028 da4f 91c8 c03f 5348 fcdf 6e7c cb3f
00000780: a400 2183 fd28 bbbf fc34 bc97 fdb9 cc3f
00000790: c8e7 233b 5b2e 9e3f 773c 9ccf 7b44 c1bf
000007a0: 7711 e252 f7e0 d23f 32c6 9aa3 c84d e03f
000007b0: 1628 b8a1 d603 d23f cb52 1f35 c5e5 dfbf
000007c0: 7cdd b6a7 ec8c d53f 429b 7cdd 237b c13f
000007d0: 66d8 606b 5673 ce3f 601d 1e13 c2d6 d5bf
000007e0: 9f11 42a6 d3f3 c6bf e4dd a1fe cbea d5bf
000007f0: d6d3 88c9 cfa0 d53f eb27 e2ca c680 dbbf

transformer.encoder.layers.0.self_attn.in_proj_bias f8 [48]
0.13794040607658825 0.10110214716495014 0.01597396522435349 0.07279054935503174 0.011574978067476784 0.148546647637372 -0.08424216239580974 0.1258464014822599
-0.0794227678035799 -0.00013205280893578182 -0.3772805150599441 -0.4517049371706464 0.003647118148299857 -0.0755683516413565 0.034740032370095444 -0.2024639523868743
-4.624121224650751e-14 -5.3864721469151e-14 4.092593380355921e-15 -3.9332502354536986e-14 4.1011163784871685e-13 1.233215816817566e-13 9.045601162819095e-14 9.484922988383653e-14
3.854571081557732e-14 -6.598437167727683e-15 -7.087169245323903e-13 -2.321757401720854e-13 -1.4483143910017713e-13 -2.715111985593629e-13 4.333705890755963e-14 2.938215476632668e-14
-0.006436558623013084 0.014158856390907519 0.06262623425104878 0.008230230613520625 -0.0022247814698524537 -0.01854129073350101 0.03170583570909769 0.023142461446806324
-0.030887022824643843 0.10670963889354566 -0.03512481606582939 -0.047918259559507334 -0.009912706363156555 0.011611542049110576 -0.022219285163250516 0.04264160036957819
00000000: 0ead 72fe 07a8 c13f a8fb a08f d4e1 b93f
00000010: e976 e7a8 7a5b 903f 6a0f f0c4 66a2 b23f
00000020: 0e8b 0342 9fb4 873f a737 c498 9303 c33f
00000030: d92f 6ff4 e490 b5bf 7cc1 5721 bc1b c03f
00000040: 7e30 46ee 0c55 b4bf 428d cffd f44e 21bf
00000050: 846e 662c 5d25 d8bf 02bd 25d3 bbe8 dcbf
00000060: d2b6 7da5 8fe0 6d3f 7c89 e98e 7258 b3bf
00000070: 1a78 c80d 72c9 a13f 686d 0fbb 56ea c9bf
00000080: 8f2a ae9d 0f08 2abd 6dd0 8c76 b952 2ebd
00000090: 9623 eb5c 706e f23c eae7 9c35 6924 26bd
000000a0: 83f0 331b eadb 5c3d 2065 f9d3 205b 413d
000000b0: 61ae 7ce5 0a76 393d 2a22 2178 9bb2 3a3d
000000c0: 59b3 a0b9 05b3 253d afbb 52e8 7ab7 fdbc
000000d0: 8922 48f7 8def 68bd fa8a 619d 8156 50bd
000000e0: ee12 d63e 1a62 44bd 663b f365 1c1b 53bd
000000f0: 9b04 e744 8765 283d c9d9 b92d 6a8a 203d
00000100: 14d6 8d8c 385d 7abf bc81 2e89 51ff 8c3f
00000110: 0bda fadb 4508 b03f 5ec0 96da 02db 803f
00000120: 97a0 eb74 b439 62bf cbd6 4df5 7cfc 92bf
00000130: 5104 ed4e bf3b a03f 427c 404c a8b2 973f
00000140: 8150 9c03 d9a0 9fbf 473b 37a9 5251 bb3f
00000150: cebe 8f40 e1fb a1bf feee 60fb bd88 a8bf
00000160: 8128 28ed 1c4d 84bf 9e41 dbca cac7 873f
00000170: 7475 77fc a6c0 96bf 3ea8 12ae 1ed5 a53f

transformer.encoder.layers.0.self_attn.out_proj.weight f8 [16, 16]
-0.06947703249286581 0.3931240004079159 -0.3204020233264499 0.15503985548282861 0.17857209654479664 0.27786176533310786 -0.22526150594461034 0.1675429373551372
-0.16624278592167652 0.4211887423329466 0.00020157970521837186 -0.029279470562612448 -0.3861308222733683 0.2702902590044478 -0.2584008096520143 -0.15185456296472566
-0.35738936435656415 -0.09093074304449454 0.18379831103077818 0.06663121706759759 -0.32244243374417264 -0.0480979392994278 -0.05665353363363037 -0.37916552503778567
0.10865415504424664 -0.36520022589997836 -0.18308720939958703 -0.4598282093494507 -0.4547555346007338 0.3232577482456392 0.11657128833107348 -0.13755250560781992
0.12513835652548194 -0.5273347399297031 -0.22761068458631528 0.07322765201102917 0.29174138193764815 -0.31546228131639753 -0.4542142888917491 -0.3519325787961998
-0.03579333155201532 0.3161345980355087 -0.12040206399432177 0.14838753707031846 0.5212902970069158 0.2921308629162522 0.5540054436819747 -0.4431880147243082
0.37557038319557795 -0.29844160569520495 0.07916656130258941 0.07932097844313915 -0.2856963041746965 -0.25161967958417525 0.17592489613422366 0.09362443456416754
0.3213934562706569 -0.2251068873479192 -0.19443737177900167 0.033795294616164075 0.016680545906514438 0.22420582116383564 -0.40025638571083594 -0.14608391576891824
-0.24563359885407227 0.06068279083527652 0.3008825121936016 -0.37257586073082494 -0.511835612636088 -0.21884634023642285 -0.24941016391578888 -0.34629729830487066
0.02559733100097085 0.2913529429417734 -0.4680075078341981 -0.501008080691366 0.2529999464844673 -0.16996670488055537 -0.02717028318233279 0.3835371837889662
0.18128978488678646 -0.07237572160452037 -0.18609634670947559 -0.29800854994465353 -0.2839996845333776 0.34437975673038834 -0.22514046407992905 -0.31253425267568186
0.16179411637968888 -0.18114402738050966 0.20858268529996524 0.04470334468671708 0.32860499480556027 0.3782142396145828 0.25818665204635854 -0.16886079641221385
-0.4154411665874318 0.4311442092945293 -0.2583606978596255 -0.4884985883827023 -0.33274554866449696 -0.028830089841019355 0.5607897794750776 -0.2622134996405447
0.11589367292210186 -0.03513145719850602 0.09021666208985574 -0.23566469525777123 -0.27507069149406543 -0.2791656833730641 -0.2874477839709711 -0.08931240428617558
0.4946696344392715 0.42478802275586725 0.32916984143213573 0.04614953145240251 0.3231416855502792 -0.2950772965746842 0.22276994932375627 0.22862834384650796
-0.19697155611606382 0.14166594535548452 0.13976298176213012 -0.08188453828052426 -0.11886222649416847 -0.04598790659949851 -0.06875107560814897 0.4161343354681584
0.2966764215924413 0.05986095095702014 -0.036206550954437804 -0.3639700116488759 0.4293614751158535 0.21312927124685743 0.41847370333515227 -0.2195060608346054
0.026901314871271412 0.17821648495452716 -0.3039257569387733 -0.12128709802698365 -0.14780629032158624 0.25698258619440123 0.09741161509515721 0.15161575085858994
0.09111349061586187 0.2824378462060913 -0.3459351152673038 -0.2393194001050713 0.423892518712463 0.14272036305400598 -0.2867084970788765 0.3227829853994154
-0.3031712563140797 -0.29246230344050683 0.1535250217712025 -0.3083943013075025 -0.14062825112727642 -0.16324803079782557 0.48699736666840004 0.15413599413360107
-0.2581722270008536 0.04196574277824923 0.203349485256842 -0.2390455685178142 -0.010531579272073606 -0.054671496645554096 0.37978471029131516 0.29613802849221244
0.14076067367055997 0.2267779071340756 0.06986204249889888 0.11634572425689488 0.3260915452788431 0.2847529429898636 0.1303662403656188 -0.0495117129157974
0.14413652683336042 0.11962076915202187 0.008606855502409508 -0.3875476346289603 0.15237669425451905 -0.34468714433951597 0.43351559740701634 -0.01757672066655297
-0.2489406413074667 -0.20805076434462777 -0.09541337332217904 0.1534530178349269 -0.3745995343147446 -0.20002035373556595 0.03691239530107243 -0.275343538286706
0.1606796758867563 0.3003196666039637 0.2719531193368284 -0.25942287413837833 0.4879623120009125 0.13657310421510732 -0.11280481221911545 -0.3740991173061374
-0.07850835289475369 -0.22710397672063362 0.34631071645613093 0.16337336727574675 0.41446962897822304 -0.09038131086786867 0.16013289531339397 -0.14893388132883503
-0.07082121191581932 0.36355743415980657 -0.03223301288436661 0.2612563451465716 -0.024057839203615525 -0.3932957671993863 0.0038964479985596307 0.21048027822270937
-0.3125408328108965 -0.04305301870425582 -0.2963120553269761 0.11818346852766498 -0.217341515399946 0.4273270616521782 -0.05170358800650437 0.40039346641404217
0.14306719087130157 0.24756724001216165 -0.1539335694974083 0.09907840797727685 -0.5081828833032561 -0.2587639436004808 -0.3297477548461867 0.27209748231046227
-0.31073537902249526 -0.022584073784100284 0.21561944623429408 0.0734310763171829 0.03927060191094674 0.11833167609881513 -0.025716856042067197 0.435982533383758
-0.24650787882014724 0.4420051150714239 0.046534858635172024 -0.29699151734237655 -0.2711148411927994 0.2446821063125215 -0.18969119689707112 0.2913389176506155
0.25909084084149436 0.3132140992761035 -0.3112720981052181 0.4215663684285236 0.15385531489651544 0.3578695893169291 0.21407948801963625 -0.23157440227658105
00000000: e546 612e 3fc9 b1bf 8394 4191 f128 d93f
00000010: e398 f07c 7781 d4bf 540a 7092 58d8 c33f
00000020: d3ab 5151 73db c63f 9387 bab6 7cc8 d13f
00000030: 3f37 8a78 5ed5 ccbf 12dc 4e06 0c72 c53f
00000040: 3c61 5d90 7147 c5bf 29db 70a0 c1f4 da3f
00000050: 3f5d 9f7b e46b 2a3f b5de 0a02 70fb 9dbf
00000060: b311 690d 5eb6 d8bf 887e b683 6f4c d13f
00000070: d8c7 ad8c a389 d0bf 8047 d766 f86f c3bf
00000080: 0361 f6a3 77df d6bf bfbb 93b7 3c47 b7bf
00000090: 19f7 77fb b386 c73f b2b0 3252 be0e b13f
000000a0: 0f87 f196 e5a2 d4bf f991 9708 4ba0 a8bf
000000b0: f38c 5124 b101 adbf 98b5 737a 3f44 d8bf
000000c0: 5453 7d3a c2d0 bb3f aedc aec4 705f d7bf
000000d0: e1f3 57d4 666f c7bf d2c8 3b4c d36d ddbf
000000e0: de3f 32f5 b61a ddbf 1931 3944 41b0 d43f
000000f0: 13d8 08af 9dd7 bd3f bfc2 880c 529b c1bf
00000100: e645 609e 8804 c03f 215e c11a eddf e0bf
00000110: c85a 42cf 5822 cdbf 75dc 8c22 0cbf b23f
00000120: 87f8 930b e4ab d23f da07 58b5 8830 d4bf
00000130: 109f 0acf d811 ddbf 5de7 1439 1086 d6bf
00000140: 9a90 dce8 8053 a2bf 5a95 ec9b 8c3b d43f
00000150: a2fc 396f abd2 bebf bfed 6ce1 5cfe c23f
00000160: 12bd 2bfd 68ae e03f fb29 98a5 45b2 d23f
00000170: 0f71 cd9f 69ba e13f a115 4e43 315d dcbf
00000180: ddf4 4a5c 5809 d83f 2681 0ed2 aa19 d3bf
00000190: 133d bb7f 4244 b43f 0acd 4c30 614e b43f
000001a0: 4c2d c126 d948 d2bf 9d04 b66d 891a d0bf
000001b0: 976e b9fd b484 c63f 6541 8f5c c5f7 b73f
000001c0: 192d f5db b591 d43f e9bf a16f 4dd0 ccbf
000001d0: d49b 74e4 52e3 c8bf 152d 45ea 9d4d a13f
000001e0: b874 977c b414 913f 125a bcbe c6b2 cc3f
000001f0: 392a a9f5 cc9d d9bf d97c 59b4 e0b2 c2bf
00000200: 4e42 f0f8 eb70 cfbf 2392 2294 d011 af3f
00000210: 6cd4 73b9 a841 d33f 648c 476c 48d8 d7bf
00000220: 6767 2614 f560 e0bf b615 1529 2803 ccbf
00000230: c976 a718 acec cfbf a467 ba24 bc29 d6bf
00000240: e464 0ece 2f36 9a3f 30cf 61d0 86a5 d23f
00000250: c48a 1bc3 d5f3 ddbf 973c 3319 4208 e0bf
00000260: 2998 02b0 2631 d03f a278 6f0f 78c1 c5bf
00000270: 34c4 c3d6 86d2 9bbf 761b 4b8b df8b d83f
00000280: 0704 98f0 8034 c73f 4bd9 501d 3787 b2bf
00000290: e7d9 824d 01d2 c7bf ee33 fc73 9212 d3bf
000002a0: 874a 4903 0d2d d2bf dcee 2364 510a d63f
000002b0: 2862 1d19 67d1 ccbf 75cc 87aa 8f00 d4bf
000002c0: 0c9b 446b abb5 c43f b285 bb3c ba2f c7bf
000002d0: e706 f061 d6b2 ca3f 3c0c e756 5be3 a63f
000002e0: 147f 7f3e dd07 d53f 4aac 817f a934 d83f
000002f0: c161 b34e 2186 d03f 5c5f 1507 3b9d c5bf
00000300: 48ed f98b 9696 dabf f5e7 b1e1 dd97 db3f
00000310: bb3e f84e fb88 d0bf 5ebc 4f95 8f43 dfbf
00000320: 6fd4 59fc b34b d5bf 2c1c 0894 a285 9dbf
00000330: 2cd9 5868 fdf1 e13f 7ba7 6121 1bc8 d0bf
00000340: 0185 032f 35ab bd3f c8f1 7417 c0fc a1bf
00000350: 44ef 3a6d 7018 b73f 801a 7abf 422a cebf
00000360: 0787 031a c29a d1bf e52d 10be d9dd d1bf
00000370: b1a1 dd63 8b65 d2bf f747 897f 2ddd b6bf
00000380: aa6b 8fd3 aaa8 df3f 5603 5e1a ba2f db3f
00000390: 2ff4 f161 1e11 d53f 5ea9 a050 e9a0 a73f
000003a0: be6a da76 5aae d43f a424 a5e2 8be2 d2bf
000003b0: 2845 70c7 b983 cc3f d733 e18d b143 cd3f
000003c0: 5e5f e12b 5d36 c9bf 091e 2115 1c22 c23f
000003d0: b50d eedd c0e3 c13f 6381 f695 62f6 b4bf
000003e0: caae 853f c16d bebf 5573 b615 ba8b a7bf
000003f0: 4844 4da5 ab99 b1bf 0d05 65e8 f1a1 da3f
00000400: 4bf7 0e1a bffc d23f eef1 5535 18a6 ae3f
00000410: 1f23 8040 aa89 a2bf 226d 30e0 484b d7bf
00000420: f13b 728d a87a db3f 24ac e9e8 d147 cb3f
00000430: fdde 83ed 45c8 da3f 327a 474c c618 ccbf
00000440: 94b4 5dae 048c 9b3f 416f 3e3b cccf c63f
00000450: 6db3 9d04 8573 d3bf 46e0 73d7 ab0c bfbf
00000460: 7982 8907 51eb c2bf 4f2c d616 6772 d03f
00000470: c390 15b5 f7ef b83f 1d81 bf19 2568 c33f
00000480: 4b66 6bb6 3653 b73f d9e6 2630 7613 d23f
00000490: 9c1b a709 cd23 d6bf 8ef3 5fa2 04a2 cebf
000004a0: f5e6 3816 0e21 db3f 5a25 e52d a944 c23f
000004b0: fd19 9c98 6e59 d2bf 1eba 7ff7 79a8 d43f
000004c0: 7a32 bd69 2867 d3bf 5ebf 25cf b3b7 d2bf
000004d0: 1700 d039 b5a6 c33f 13dd 9873 bbbc d3bf
000004e0: 351f be45 1b00 c2bf 34df b4bc 4fe5 c4bf
000004f0: ad0c c500 f72a df3f 965a f86e baba c33f
00000500: de10 edcd e485 d0bf 2ae2 91a9 887c a53f
00000510: be14 6b1e 5b07 ca3f a3d4 8491 0b99 cebf
00000520: c4ea 63a4 9491 85bf 1868 3b04 e7fd abbf
00000530: cb35 8e87 644e d83f 4576 deea ecf3 d23f
00000540: 8f2e fd1c 7204 c23f 9f4f 4cf7 0e07 cd3f
00000550: 6cb8 c393 7ae2 b13f e479 b658 d5c8 bd3f
00000560: 0c62 9e12 afde d43f a732 6568 6439 d23f
00000570: 2bb8 6f49 d7af c03f 850d 7c67 9959 a9bf
00000580: 7c43 74d2 1073 c23f 1d28 6e7b 779f be3f
00000590: 95e5 3b97 78a0 813f 1be8 1798 94cd d8bf
000005a0: c074 3f5b 1481 c33f f28c 12ab 5a0f d6bf
000005b0: 83d1 4a34 b8be db3f d02e bcc1 a1ff 91bf
000005c0: 7bc9 8774 49dd cfbf 244d 624e 68a1 cabf
000005d0: 7911 05c6 026d b8bf f768 8936 59a4 c33f
000005e0: 54a2 3e53 70f9 d7bf cd0f ea56 449a c9bf
000005f0: c82f 4575 2ee6 a23f 0cce 0681 3a9f d1bf
00000600: 3e62 88d0 2691 c43f aa37 9afa 6f38 d33f
00000610: 0233 660e ae67 d13f df8d 1066 629a d0bf
00000620: ad5d ee46 c63a df3f aafc 0e3c 3a7b c13f
00000630: 7201 50b3 c6e0 bcbf 7fb5 926c 3df1 d7bf
00000640: c252 2598 1f19 b4bf db40 673c be11 cdbf
00000650: 03bd 5b6c f429 d63f 224d be22 6be9 c43f
00000660: e463 699f ab86 da3f e5db 58c6 3a23 b7bf
00000670: be41 3116 3c7f c43f b96e c9f2 4310 c3bf
00000680: ada1 0ac5 5621 b2bf 5ac7 7b66 8644 d73f
00000690: bc3a 6170 d880 a0bf 96ba 9188 6cb8 d03f
000006a0: 8c29 5e42 9ea2 98bf b6b3 7102 c22b d9bf
000006b0: 561b 2e97 71eb 6f3f c2b2 b58b 04f1 ca3f
000006c0: 0898 e543 ab00 d4bf b05f a896 0b0b a6bf
000006d0: cd8d c2d6 c6f6 d2bf 0c11 4194 4541 be3f
000006e0: 3e59 5ac6 d8d1 cbbf fb7a 9f9a 5359 db3f
000006f0: 57c8 2587 e478 aabf d6f1 f1ea 0ba0 d93f
00000700: 4b1f f694 0650 c23f 4be4 b487 48b0 cf3f
00000710: 93bb 5f5f 18b4 c3bf e08c 00da 335d b93f
00000720: 4195 05c0 0843 e0bf b579 c9a4 968f d0bf
00000730: 609a bf53 961a d5bf 603b f68e 0b6a d13f
00000740: 6e27 a7a4 16e3 d3bf 75ad 4089 4720 97bf
00000750: 3c9d fa02 6b99 cb3f 76d9 4a07 61cc b23f
00000760: 5ab2 cdbd 461b a43f e1de ec16 fc4a be3f
00000770: a160 a0fe 8455 9abf 85ab a048 23e7 db3f
00000780: 1493 def6 918d cfbf f85f 79d2 cf49 dc3f
00000790: 6e91 ecbf 6ad3 a73f f531 8bb5 e801 d3bf
000007a0: 1a88 1810 f259 d1bf 9fab 4346 be51 cf3f
000007b0: c789 8117 cd47 c8bf ae21 d7fc 4ba5 d23f
000007c0: fade 06c0 f194 d03f 955d 4226 b30b d43f
000007d0: d33a 61ce e1eb d3bf a09d 5f81 f1fa da3f
000007e0: aaed e5ec 87b1 c33f a958 96d9 55e7 d63f
000007f0: 23f6 e4e7 f466 cb3f 5e30 2fe2 3aa4 cdbf

transformer.encoder.layers.0.self_attn.out_proj.bias f8 [16]
-0.0011997411043090185 0.01631451276756888 -0.03347474511172444 0.01160452716157996 0.047002383272756285 -0.04254443797820514 -0.000979098383905782 -0.0005585176603511592
0.03135031769269065 -0.03160590518136956 0.00605338126706766 -0.009226658333938114 -0.05231525100931496 0.019572784823195855 0.017990644865263767 -0.010316643405460707
00000000: a78c a033 14a8 53bf 9ac4 256b c0b4 903f
00000010: 915b fe0e 9a23 a1bf 27ff 2745 1dc4 873f
00000020: ce28 fb45 b210 a83f 7b76 7c73 62c8 a5bf
00000030: 8ad4 75e2 a20a 50bf 93ea ef8a 2f4d 42bf
00000040: 892b 6b1a 260d a03f 669a 3a32 a62e a0bf
00000050: 7409 2829 6ecb 783f 4973 5d1e 6de5 82bf
00000060: 1a86 5588 10c9 aabf f03e d45a e30a 943f
00000070: 352f 52bd 236c 923f 9061 3f70 e420 85bf

transformer.encoder.layers.0.linear1.weight f8 [128, 16]
-0.01533272177175379 -0.019182566980095923 -0.1410789321352098 -0.13006289130682974 -0.20840399198363188 0.09370142688940074 -0.18759544182504656 -0.04658379920044539
0.09979544749382563 0.03132660728366084 0.046708524582133995 -0.07095833201258213 0.1381709313310324 -0.22411586905992065 -0.018004976138683546 -0.010123955590041055
0.04836730038765495 -0.17183792232036466 -0.22751288141487894 -0.040141738755947086 -0.23407291937530322 0.11153090785458286 -0.14726387290198753 0.04630285185246999
-0.08956635731334406 0.10328406284863606 -0.09411402219955053 -0.138393530198558 -0.07701120157820822 -0.13764326145356728 0.05686077702787946 0.09577509025398549
-0.03110085928616056 0.08457558980150388 0.0967273696023083 0.12639854395297093 0.2297387660787229 -0.015121375099701564 0.006988970052291233 0.04976349009800197
0.08006318330792044 0.06868001909623442 0.20721106900099603 -0.024325436363660993 -0.022699460475699713 -0.20050368834951474 0.08316173030254649 -0.08093052024923097
0.08328852991308876 0.16784725245563617 0.019165401335408953 0.1108437904768874 -0.07133233209318038 -0.15629787489283553 0.05548750243429795 -0.09688508224257224
-0.008183775030473926 -0.13645253449897538 0.21216347868089547 -0.15688677125289838 0.01427471985694683 -0.009424195707957958 0.035936172142233797 0.06651525083784818
-0.07522676716153087 -0.0942041765659767 0.19964193344050957 0.2577587251450473 0.06452259225149032 -0.23286671503006212 -0.062320758435894824 -0.3685715463611434
0.3066813629162994 0.049313185901794974 -0.19326570367725343 -0.039841632981253 0.044903991781981976 -0.16946462057753725 -0.008494029670908202 -0.030468012401052454
0.08355608510541812 0.00020519964595809359 0.04946113835797461 0.025406718765717717 0.013853626052410457 0.03229672308264898 -0.19038799093035927 0.18964541515670325
-0.017250777027778674 -0.0384919046569914 -0.17494022497534575 0.05918452952057082 -0.04183942637903958 -0.16970472076855111 -0.03832521457699295 -0.032746809319126775
-0.15222466937314186 0.03471698897065154 -0.06832760276334876 -0.0011665910790446376 -0.12118486334149077 -0.08939742622811722 0.14982584185520018 0.06995907990586422
-0.17496182323410217 -0.02419817636713549 -0.09351812161397512 -0.17522362236234634 0.12506600680919316 -0.0807026368399964 0.018911303816151165 -0.1987045397181348
0.13448010488317874 -0.10707258017220422 0.07138009729088315 -0.13330107515714204 -0.058252808574266 -0.010586806156290153 -0.07896386714154201 0.16877528507687264
-0.11507410244338734 0.08290786547328254 -0.1380694803291038 0.11974715133159056 0.01929767510587558 0.027550743831066458 -0.13188619747722433 -0.01713841227179942
-0.12085780603496146 -0.04833439403423815 0.18316668199143216 0.025479297042863502 -0.15175905802867917 0.18051577296650692 -0.005437317626608746 -0.06316481422761924
0.42836751987100263 0.0020758469492362045 -0.020724838836578902 -0.11541853737461279 0.06054168703666483 -0.080030197910934 0.04069558491054419 0.0365119529672398
0.05149353364212488 -0.029182207066851384 0.13727650814767217 -0.06400721637870269 -0.10754049007291555 -0.10847567014049736 0.21808150934112247 -0.12902371239562901
-0.18171813506745801 0.10825924108570024 0.06001907875723563 -0.011257887556107233 -0.06051649719061599 -0.13714665803721615 -0.04747343049240944 -0.10959939220674898
0.1209164808357028 -0.05617010781211169 -0.1215229028667506 0.11872349850337534 -0.009157379424125105 0.23496103890956882 0.04274541862071144 -0.08421596285638103
-0.19642966950450666 0.10562083071595565 0.14013547513129926 0.10267984112289547 -0.12829504832309208 -0.15763121755023088 0.09387774710011242 -0.03816836282520305
-0.13712229627626782 -0.047493381688974656 0.11398497556970935 -0.13884965276004624 -0.13939642007062966 -0.208810706036969 -0.22729172441381887 -0.0695553130994107
0.09130281696518366 -0.04399372398771353 0.041434141421325135 -0.15285889642875441 0.21158963526804203 -0.22950532365790993 -0.11969075841277395 -0.1464816609260881
0.024541528102763752 0.04297788421108796 0.1453195971626802 -0.0668917356055104 0.005766493784114454 -0.009139320502507488 -0.14196162470977866 -0.3631954067973483
0.2967017499335039 0.10476548503296651 0.4098551778229448 -0.08901641995975247 0.3372307688309365 -0.011956037771155857 0.006767337012266988 0.19265072848066203
0.1439859145764806 -0.00797576990256778 -0.08429131890768703 0.04768655984208045 -0.10435471399088228 -0.15933533959097504 -0.12560655600214501 0.03974477268552461
0.1181573548202835 -0.18256095496068492 -0.2652777562520548 -0.07249009618819859 0.029132713067599823 -0.07651215560985565 0.0011333777847426815 -0.10493584309557867
-0.13692049320294133 -0.15931818127453962 0.1952588512290165 -0.014055738902939081 -0.18206897610528514 0.20825465213590474 -0.10396201595284336 0.05667988558670787
-0.2614677054550592 -0.09525791637986886 0.3375892784004728 -0.17027350817074816 0.19335092072848215 -0.2413113336756168 0.022067813818254362 -0.05523990905425319
-0.15738325350844898 -0.11095938554910173 -0.14246068868725334 -0.13592829473272067 -0.045251744721827025 -0.14529910419813447 -0.03809473637033517 0.04810309032578649
0.22406059855170543 -0.1739734305261722 -0.46393397778066664 0.12128886355513162 0.007566706152279789 0.06532693885756742 0.03930652323722705 -0.16216725418707914
00000000: eefa 8b14 c366 8fbf 65d4 5447 98a4 93bf
00000010: 3371 d6db df0e c2bf 3e03 4b9c e6a5 c0bf
00000020: 4378 f664 fbac cabf 4f19 1414 d1fc b73f
00000030: 1a35 c29f 2003 c8bf 7cbe 2dec d4d9 a7bf
00000040: 1092 46c7 318c b93f 9a50 8e83 0a0a a03f
00000050: 8aa2 0c03 2eea a73f 8d6c 5f43 532a b2bf
00000060: ff8d a9c7 95af c13f cc40 102c d4af ccbf
00000070: 793f b97e e56f 92bf 2cb4 5251 debb 84bf
00000080: f6b8 b84a 99c3 a83f 140e 4af8 c8fe c5bf
00000090: a53d 8c60 241f cdbf e39e 523e 758d a4bf
000000a0: 5e4f ccf6 19f6 cdbf 0887 ba21 4a8d bc3f
000000b0: f987 ffe6 8ad9 c2bf e4f5 d5e4 01b5 a73f
000000c0: d08f 7b1f d2ed b6bf c405 2208 d370 ba3f
000000d0: a62c 7147 db17 b8bf 4a24 1713 e1b6 c1bf
000000e0: cb3d 3490 01b7 b3bf cb9a 3a5d 4b9e c1bf
000000f0: 5910 8513 db1c ad3f 8b8d 6960 b784 b83f
00000100: bbd5 0b56 e7d8 9fbf 4dc4 3cf0 bea6 b53f
00000110: beec 11f9 1fc3 b83f a91f 45d6 d32d c03f
00000120: b03b 7773 1468 cd3f bbac 309c f4f7 8ebf
00000130: 5ac2 ea5c 77a0 7c3f 21f0 02a5 997a a93f
00000140: e3d1 eb51 057f b43f fe2f e883 0395 b13f
00000150: bf3e 5d6e e485 ca3f 1748 9266 c4e8 98bf
00000160: 2218 8501 873e 97bf 2522 18d8 1aaa c9bf
00000170: 219f ed4f 164a b53f 90fd b7d1 dcb7 b4bf
00000180: 6fcf 1ba8 6552 b53f e59c 02ce 047c c53f
00000190: 711a cd4f 18a0 933f b71a 1037 4260 bc3f
000001a0: bad4 7cf1 d542 b2bf f4ac 8c9a 9101 c4bf
000001b0: f884 95a0 db68 ac3f 03be b3f3 75cd b8bf
000001c0: 2cdf e8b0 a7c2 80bf 8a90 90d2 4677 c1bf
000001d0: 6886 2b41 2c28 cb3f cb65 da9f dd14 c4bf
000001e0: fba9 8f77 103c 8d3f 0bb1 da22 fe4c 83bf
000001f0: c44a 30d8 3966 a23f c2a6 08bb 2407 b13f
00000200: d819 beb8 0f42 b3bf d15a 7fd1 c31d b8bf
00000210: e2c2 84eb dd8d c93f a46c b073 1e7f d03f
00000220: 64c3 9277 8d84 b03f dac6 b096 93ce cdbf
00000230: d42b b0a6 81e8 afbf 54dd 761c ad96 d7bf
00000240: 672a 01de aaa0 d33f fb67 6bf1 933f a93f
00000250: bab9 5d3a eebc c8bf 62f1 585d 1f66 a4bf
00000260: bbb1 53f0 a7fd a63f 3ad3 9a45 04b1 c5bf
00000270: 0fb4 2e5d 5165 81bf dfb8 58b3 0133 9fbf
00000280: 28d9 e87c ee63 b53f b22d 7e89 5be5 2a3f
00000290: e042 5767 f852 a93f 532a ca08 3804 9a3f
000002a0: f7e2 9b36 4a5f 8c3f 41de d032 3289 a03f
000002b0: bb6b 4c39 a25e c8bf de99 f70b 4d46 c83f
000002c0: e3da a80c 30aa 91bf e436 53ff 35b5 a3bf
000002d0: 2f12 83f8 7064 c6bf 9ca3 7045 6f4d ae3f
000002e0: bf76 f62f fa6b a5bf 27c0 d660 e2b8 c5bf
000002f0: f8d3 70ce 5c9f a3bf 01e3 2596 30c4 a0bf
00000300: 3510 4d14 197c c3bf 7d34 7dd8 6cc6 a13f
00000310: 8c5c 48f3 ea7d b1bf b33c 11a2 091d 53bf
00000320: 256a d2a0 f805 bfbf e20f ffed bfe2 b6bf
00000330: 738f 6e41 7e2d c33f 0e02 4198 d6e8 b13f
00000340: 6964 6b26 2665 c6bf 3c8f 7a20 68c7 98bf
00000350: f155 eab9 cdf0 b7bf 1c37 c447 ba6d c6bf
00000360: 321c 8bb4 2902 c03f 84c2 ed91 eda8 b4bf
00000370: 280d a91d 7c5d 933f cefb d37d 266f c9bf
00000380: a8cb 37e2 a436 c13f 0851 23ce 1b69 bbbf
00000390: b21b 734f f745 b23f fb28 2977 0210 c1bf
000003a0: a607 74e7 4fd3 adbf 01d0 ae11 89ae 85bf
000003b0: df48 f0da f936 b4bf 879d e3b4 6d9a c53f
000003c0: 1864 9c12 7f75 bdbf 67f6 c92a 7339 b53f
000003d0: 6f6b 4bbf 42ac c1bf da22 c2d2 bfa7 be3f
000003e0: 8ad0 df0d c5c2 933f b98a f01e 4336 9c3f
000003f0: 59af 7a9c a5e1 c0bf 73d9 d960 bb8c 91bf
00000400: c2ef 6284 89f0 bebf b54d 4c23 49bf a8bf
00000410: 405d 6f7e 0172 c73f 90bf 18ae 3e17 9a3f
00000420: c86e 8d3f d76c c3bf cdd2 a60e 241b c73f
00000430: 2ee2 25d6 7045 76bf 0a94 5dbb 912b b0bf
00000440: fcee 209a 5f6a db3f b464 45d8 5d01 613f
00000450: 9568 1264 e438 95bf 1d49 60bb 118c bdbf
00000460: 1dfa bbeb 51ff ae3f 5749 b8ea db7c b4bf
00000470: e693 903c 0dd6 a43f c894 d0d7 b1b1 a23f
00000480: f794 e545 5c5d aa3f 23ae e8c3 f0e1 9dbf
00000490: 1a6d 80d0 4692 c13f 42f5 0de5 c662 b0bf
000004a0: 70e6 db07 c687 bbbf 4c45 aabf 0fc5 bbbf
000004b0: 94c0 3d4b 18ea cb3f 07e9 9258 d983 c0bf
000004c0: 4b38 9a33 8a42 c7bf c5ee f3ab e0b6 bb3f
000004d0: dbf7 cb18 d2ba ae3f bd13 0117 600e 87bf
000004e0: 3bb6 9ab0 04fc aebf dc44 838d 058e c1bf
000004f0: c9a3 c9fe 6f4e a8bf b980 30ad b40e bcbf
00000500: ee9b bcea 61f4 be3f 59b2 2110 54c2 acbf
00000510: f015 87fd 1f1c bfbf 2db5 56c7 a964 be3f
00000520: 0942 26a9 1ac1 82bf 36b3 f90c 3413 ce3f
00000530: fd3f 0f3e bae2 a53f 52f1 4466 2d8f b5bf
00000540: 6f33 3e7f 9b24 c9bf c28d b37d f709 bb3f
00000550: 9663 5991 f5ef c13f dcd0 94df 3949 ba3f
00000560: 6aa9 64de f86b c0bf cb7b 1a7e 422d c4bf
00000570: fffc 9d3d 5f08 b83f cbf7 26bc cd8a a3bf
00000580: 148d 0731 398d c1bf e0dc 4272 0d51 a8bf
00000590: a2a8 4e8e 1e2e bd3f 582a d54e d3c5 c1bf
000005a0: a700 b1ec bdd7 c1bf bee1 bd28 4fba cabf
000005b0: 4120 812d e517 cdbf 0367 0683 60ce b1bf
000005c0: 5cec e514 9f5f b73f 6351 836b 5886 a6bf
000005d0: 0a53 af14 db36 a53f 1d36 885c e190 c3bf
000005e0: 2a0c d381 5e15 cb3f e22e af31 6e60 cdbf
000005f0: 4d2c 04b5 0da4 bebf 6e16 923b e9bf c2bf
00000600: 5985 6112 6a21 993f 829a 467e 3201 a63f
00000610: a90b a422 d599 c23f 6660 cc18 d11f b1bf
00000620: 231c 7263 9b9e 773f 21d4 53d5 a2b7 82bf
00000630: eb2f b56b cc2b c2bf 3621 90f2 973e d7bf
00000640: f957 2856 29fd d23f d456 f72b e9d1 ba3f
00000650: ca21 3636 113b da3f 4dbd 88b4 c7c9 b6bf
00000660: 1e5d d55c 3095 d53f 8c1e bc39 687c 88bf
00000670: 2c10 6132 11b8 7b3f a100 3071 c7a8 c83f
00000680: b166 1865 216e c23f 89b6 22b7 9955 80bf
00000690: af93 0baa 1d94 b5bf cc01 f66d 5f6a a83f
000006a0: c236 c693 fdb6 babf 15f5 51b4 1965 c4bf
000006b0: bda0 1829 e013 c0bf b618 be45 6d59 a43f
000006c0: 0428 bc76 8f3f be3f f494 8a49 285e c7bf
000006d0: 8d5d dd8d 4ffa d0bf 6986 6900 b68e b2bf
000006e0: 89f3 7947 f7d4 9d3f 353e 17f6 4c96 b3bf
000006f0: 8e34 3f21 bb91 523f 0f11 464e 13dd babf
00000700: b9ba 3a58 9c86 c1bf 8ebd 1dc5 8964 c4bf
00000710: 6f3e 24f6 3dfe c83f b71e 4657 41c9 8cbf
00000720: 0f84 fe44 094e c7bf c7ef 14a4 16a8 ca3f
00000730: 6f2f 8b32 419d babf 7d32 df5d 2505 ad3f
00000740: ddef f80a e3bb d0bf 3461 89a3 d262 b8bf
00000750: 1075 8d0f 109b d53f 84f9 7bb6 85cb c5bf
00000760: b414 9714 b9bf c83f ca3c 252f 4ae3 cebf
00000770: f510 93ea f198 963f 58e1 a4c5 6748 acbf
00000780: f9e0 606b 2225 c4bf 1c1e 1e94 d567 bcbf
00000790: 534e 70df 263c c2bf de31 3d2e 1966 c1bf
000007a0: a099 5597 3c2b a7bf 8aa4 553a 2999 c2bf
000007b0: 587d b83d 2781 a3bf ab52 92df f7a0 a83f
000007c0: 7706 8d87 04ae cc3f a0cd 3de9 c244 c6bf
000007d0: c98d 8423 18b1 ddbf 9b9a 5676 c90c bf3f
000007e0: 4c55 6637 44fe 7e3f 3de8 f029 44b9 b03f
000007f0: b08e a50f fc1f a43f 9199 9b86 e5c1 c4bf

transformer.encoder.layers.0.linear1.bias f8 [128]
0.1915617375740229 -0.11932146769295579 0.03877198888202073 -0.12863291110974207 0.0943234968403695 -0.016334857779813736 0.07409861465596335 -0.25986778830100643
-0.053829911095523056 0.16592438756455125 0.1837245978882902 -0.15758284118698226 -0.08233571844960873 0.122641540204981 0.19094473047537452 0.06514334981478953
0.15567591140797676 0.1272129188978268 -0.1587832523886846 0.049236353211245455 -0.1819768707135381 -0.08695970554269679 0.19429006666423693 0.13826540437267504
0.23484664511592457 -0.10948654593025232 -0.1421768460020281 -0.21367547662308572 -0.18498741438098099 -0.25066180290733386 -0.24134516500452416 0.1322540305339854
-0.17858136984142717 -0.1223351497049479 0.053297395834979375 0.19132246220991284 0.021868339763600572 -0.06387338173183638 0.12158826915476643 -0.2149062021466612
0.15619320650896712 0.25111016933431207 -0.2409022594366379 0.20273215118497084 0.08238317141028116 0.027597706925930644 0.004880500762148237 0.07809998380758876
0.13014589736490526 -0.03354642977120023 0.08419477212674538 -0.022752730344531017 -0.23111124536557184 0.01961647033229634 -0.18859808469138659 -0.024872802586541704
-0.1794204092009857 -0.01963934908774632 0.10553194372586726 -0.04677403860407965 0.20515610658318828 0.14610282672581934 0.16911252181467956 -0.2964370018551384
-0.23834390286109636 0.21521357975442945 -0.17957695367349072 0.08472899768072538 -0.2670177035792991 -0.019237998766401698 0.06914059213434494 -0.14029464946630887
0.01764098810150933 -0.26126343381586503 0.018834084283518713 0.0988227951965301 0.06883590026185393 0.02117520625822883 0.1313477300040951 -0.0251638186655779
-0.15920359486494542 -0.20320665897981957 -0.17473871772422886 -0.23988798337499628 0.060601908080052266 0.24001471260097798 -0.2156364005673362 0.1710419406526279
-0.270622459744658 0.11421006893434528 -0.18050324987505223 -0.19428271547122752 0.0871323038209718 -0.2292336418376709 -0.11776283356140099 -0.13270441756442009
-0.17600524255855696 0.047942740065516694 0.052503151347830936 -0.1414937664431515 0.15255745997749878 0.15033214745785448 -2.089395276703938e-05 0.09038098258622863
0.20333048276625246 -0.0390090265405668 0.1308570330004752 0.015523257818622902 -0.14246123486688542 -0.17449696664770517 -0.15572590326897146 0.00170351833168374
-0.056232017495284115 0.16147157477522728 0.11350180025146299 0.018846683263402515 0.11021954522103626 0.05445892076529479 -0.15954168368763763 -0.1368241174959952
0.10343598774311637 0.11687339124050362 0.18793391497028797 -0.04094504226406005 -0.20824248989578842 0.03888732025748701 0.1398210235964397 -0.10112679124004015
00000000: 72ce 0553 1885 c83f 06b4 7309 da8b bebf
00000010: 3291 7f10 ecd9 a33f 44eb 3311 0b77 c0bf
00000020: a47a 2cae 9525 b83f cce3 cbbf 15ba 90bf
00000030: 2853 a076 20f8 b23f de58 0281 aca1 d0bf
00000040: 125a 6717 988f abbf f66a 19a5 023d c53f
00000050: 9052 b3a1 4984 c73f 6b88 a7ae ac2b c4bf
00000060: bfa2 0822 f413 b5bf 02bc 4f9c 6f65 bf3f
00000070: 441d 5e7e e070 c83f 00a4 010d 3cad b03f
00000080: 34d9 2232 30ed c33f 2fbe 254f 8348 c03f
00000090: 9bb9 1476 0253 c4bf e519 a2dd 8135 a93f
000000a0: 99e9 2ba2 044b c7bf 152c 60c3 fd42 b6bf
000000b0: f259 2135 7fde c83f 1274 f946 aeb2 c13f
000000c0: 4892 2c72 740f ce3f f157 1f6e 4f07 bcbf
000000d0: b1df e9d3 d932 c2bf b0d4 06d0 b759 cbbf
000000e0: 8c0d 78e7 aaad c7bf 36fa 75cd d70a d0bf
000000f0: effe 5efb 65e4 cebf f72d f437 b3ed c03f
00000100: 6168 921b c1db c6bf d34e 223b 5b51 bfbf
00000110: de7a 25d8 cb49 ab3f 4a44 1723 417d c83f
00000120: bcf0 6870 a764 963f 7c87 9f85 015a b0bf
00000130: dbd2 98a7 6820 bf3f 7fb7 f6e2 0b82 cbbf
00000140: 1a1d e894 23fe c33f 18f8 3e63 3012 d03f
00000150: 080c e89e e2d5 cebf 6ef5 978b 20f3 c93f
00000160: dfaa f242 1017 b53f 5a0f c4c2 9242 9c3f
00000170: 39a0 9572 93fd 733f a88f 454c 5cfe b33f
00000180: 1107 72ea 9ea8 c03f 7c9c 8765 ff2c a1bf
00000190: a54e c7e0 c98d b53f d1da e5e2 7d4c 97bf
000001a0: 859e 4aa4 0d95 cdbf 8c21 290a 5716 943f
000001b0: 2f3b eb66 fb23 c8bf 481e ad86 4178 99bf
000001c0: e967 e07a 3ff7 c6bf 5bb7 2f68 561c 94bf
000001d0: bf64 fc36 2404 bb3f 4a75 364c c4f2 a7bf
000001e0: e4bb 2c28 8e42 ca3f 81fd 5157 7fb3 c23f
000001f0: 9ee1 44a7 7aa5 c53f f1b1 12e7 d2f8 d2bf
00000200: faa4 fe91 0d82 cebf 78a5 595b 1e8c cb3f
00000210: 2d4c 92ab 60fc c6bf 67c3 0fb2 ccb0 b53f
00000220: 04df 146c d116 d1bf 3032 2b3e 20b3 93bf
00000230: b507 0ba6 32b3 b13f 787b a1d1 2cf5 c1bf
00000240: 3145 dcab 7a10 923f a84e f843 8ab8 d0bf
00000250: d9f7 3000 3e49 933f 3de9 7761 734c b93f
00000260: 6056 6ac4 3a9f b13f 30e9 7509 f4ae 953f
00000270: 1abe 629e 00d0 c03f d732 d848 8bc4 99bf
00000280: 9ddf ac8c c860 c4bf 77e9 5201 ad02 cabf
00000290: 9b3a fc9a d65d c6bf a845 a641 a6b4 cebf
000002a0: 0edc 8e9a 3607 af3f 890b 9756 cdb8 ce3f
000002b0: 53c6 213c f999 cbbf ec77 acca b3e4 c53f
000002c0: 03a6 8add e051 d1bf 4169 f2fe de3c bd3f
000002d0: 067d 8401 bb1a c7bf 6341 908a 41de c8bf
000002e0: d711 567b 4d4e b63f a3fa 6a29 8757 cdbf
000002f0: 349c d47e b425 bebf 28a9 bc56 75fc c0bf
00000300: 9755 5bfc 5687 c6bf b1f4 5269 f38b a83f
00000310: 85a5 f36b b1e1 aa3f 8908 bbbd 771c c2bf
00000320: a79d aeba 0087 c33f 3f39 6f74 153e c33f
00000330: 70ef 4780 ade8 f5be e960 6344 3523 b73f
00000340: ad66 e1b6 bb06 ca3f ce26 7bba fdf8 a3bf
00000350: 2625 985a ecbf c03f 1f53 4465 a8ca 8f3f
00000360: efbb 5974 2b3c c2bf 7765 80a6 ea55 c6bf
00000370: ce13 d78e d3ee c3bf cd36 74e1 12e9 5b3f
00000380: 98bc 4268 71ca acbf 0655 72be 19ab c43f
00000390: 13fe 1d38 740e bd3f 557d 0481 8b4c 933f
000003a0: 47b6 1a1e 5937 bc3f 9f25 5327 0ae2 ab3f
000003b0: 53c2 e4a4 dc6b c4bf a884 f9e2 7383 c1bf
000003c0: 610d 96e8 c77a ba3f 258c 2621 6aeb bd3f
000003d0: 1ba6 4df1 370e c83f 423a eaa2 bff6 a4bf
000003e0: 08b9 de9d b0a7 cabf f44f 78f1 09e9 a33f
000003f0: f9e9 d1c1 a7e5 c13f ac19 2005 72e3 b9bf
