Code/800-200/darts_logs/M-data_Bahamas_transformer/checkpoints/last-epoch=199.ckpt (torch, 653477 bytes, 205 tensors)

encoder.weight f8 [16, 1]
00000000: 6e40 83cb 1860 dbbf 2f60 775f 0cd1 eebf
00000010: bb1f ac21 6efb e4bf bfe1 befe 5dad e7bf
00000020: 24f1 de9d dd9e e03f 6189 a658 98d0 ea3f
00000030: c622 4c8d 4e89 d13f 1f30 1569 ce0d ea3f
00000040: 2d17 7a49 c315 e1bf 3394 5c8b 91e4 e63f
00000050: 20d4 4eec 7bb9 eb3f 472d d338 b908 e5bf
00000060: ea21 cc11 9592 b6bf 3651 8c2d f9b1 edbf
00000070: d4d6 cb6b 98fd c63f 1d0e da71 3ea0 d73f
-0.4277402865818719 -0.9630185951782603 -0.6556921632445588 -0.7399129844189288 0.5193927844443675 0.8379632693725335 0.2740055446488835 0.8141853382489933
-0.533906596669771 0.7154014322192154 0.8663920989407679 -0.6573148832189099 -0.08817416843897488 -0.9279752626048665 0.17961411727417576 0.36915551298463517

encoder.bias f8 [16]
00000000: 7f32 5139 3227 da3f c8cd f24a b969 c1bf
00000010: f7c5 7d3d 3c13 dabf 7619 1784 e1e7 b53f
00000020: 911e f53d b0ad dfbf 1371 36f6 c72e f0bf
00000030: 722e 6ce3 dace e8bf d571 0690 5498 d8bf
00000040: b9a2 3c45 8e27 d3bf cec8 a50a 08a1 f2bf
00000050: 61c3 7eb2 f050 e1bf 5f11 a9b8 b7ad e0bf
00000060: 9ef9 8492 672f be3f 37ee fe74 1968 d9bf
00000070: d182 9938 1ccf e5bf 8542 be0c 8e49 ac3f
0.4086423454034857 -0.13603893432228475 -0.40742403035173375 0.08556947207316576 -0.4949761014035881 -1.0114211671526092 -0.7752508584830606 -0.3842975050445408
-0.2992892910138312 -1.1643143096849147 -0.541130398391129 -0.5212057692192892 0.11791083647856346 -0.39697872567532805 -0.6815320115529976 0.055248679214064324

transformer.encoder.layers.0.self_attn.in_proj_weight f8 [48, 16]
00000000: 0b5f 493f 6eae c4bf e991 a036 5eeb cb3f
00000010: 36a3 31d3 ace0 9e3f f73f e1dc 7f16 d3bf
00000020: 0132 7d09 fb3a ea3f af1d 2f15 4d60 d13f
00000030: 66eb 5a28 e364 c43f 87f5 ba48 946d d23f
00000040: 5e7b cd97 6497 d43f ffb3 3973 19b7 cebf
00000050: 4656 ab56 c4ef ddbf f6d5 4d03 0199 e0bf
00000060: 9b68 426a eebf cebf 0c67 676f 5b91 d7bf
00000070: 3528 5501 726c aa3f e026 09b0 bf53 d8bf
00000080: d5f1 3f1e 4f82 e03f 8aa3 db48 a95b c1bf
00000090: 4ab6 af10 9392 e6bf 8fb2 0f3f 7703 d03f
000000a0: e05b f04b 1889 e9bf 32a1 663d 2128 c7bf
000000b0: 63e2 d615 9770 993f 5dc9 d29b 0bfc c4bf
000000c0: 2276 6264 59e9 80bf 7fcd eb0b 731e e13f
000000d0: 8206 35a0 6611 db3f e1cc a86d 8ac4 c83f
000000e0: 5ff9 8f9d 9bee e43f 5dc7 ebe9 99bd dc3f
000000f0: c10e a094 c0b3 e3bf b813 a63f 6444 e53f
00000100: 1564 deb4 0c1d b1bf 038f 0731 ac1b cb3f
00000110: 84d8 d347 9fd1 d1bf 7134 1056 30ea c0bf
00000120: 0ae3 9708 7256 d03f 1d26 da38 47d7 d03f
00000130: a06d 7917 fb6c c0bf c7c7 6066 2c6c b33f
00000140: e2d6 75c9 2413 8cbf 039a 71f3 e87f a5bf
00000150: b877 f30a 105a c0bf 6e29 7a7e 2523 bebf
00000160: 4250 f1ce 8353 c2bf cee1 a4be 65c7 a5bf
00000170: 5526 e2e9 cbe9 c23f 7631 2f1f 61e3 b23f
00000180: cadc 6975 e808 c3bf 9819 3c0f df4d ce3f
00000190: cb60 8c5a 40a2 c23f 25c1 5658 bef0 d33f
000001a0: 19b3 8a7f a41b c13f e0b1 c0a1 dd50 bd3f
000001b0: c5fc 2280 b80c c7bf 88fc f202 1b7e c4bf
000001c0: e1a5 5603 8f21 d1bf 0fd1 7272 7e6f d2bf
000001d0: 669e 467a 260f cb3f b4af 14af c96f cd3f
000001e0: 4092 be09 e2c3 bfbf 285c 1408 03f8 b0bf
000001f0: 69ab 8172 092d 923f f28e 9594 2ff9 cb3f
00000200: ff51 fce0 1394 d3bf f9d8 6f46 33d4 c83f
00000210: a324 fe1e e43f 8ebf 23e7 0455 378d acbf
00000220: 9bae 8cdc a021 a9bf c265 43db 5190 d53f
00000230: b93e 6953 6afd d0bf 1328 3c07 2006 c6bf
00000240: 841a c7e7 1b1d c63f 09c0 bbfe 4746 b3bf
00000250: bea3 d917 dc0c c93f 2728 487e 1bf4 ce3f
00000260: 8f6f bb10 1ebc c23f ce62 4ce3 e03c c4bf
00000270: c81d c959 f42b a9bf 52ce c8ee 8af1 c5bf
00000280: 940e 8b10 c755 d23f 72c0 4ec4 5ca4 98bf
00000290: 3552 f9fe 9578 b93f d2bb 60b5 b640 bebf
000002a0: c0ca 4c42 3bd0 cb3f 488f 81ec d315 84bf
000002b0: 937c 0002 e398 c23f 97ab cf6b 2b09 c03f
000002c0: 7979 5343 c217 c33f 5f3e 681f 6693 b03f
000002d0: a8fe b88a 0494 b33f c7d5 13e4 a83d 813f
000002e0: 694b b0d3 2b16 cd3f f0ef a4cd 185d 72bf
000002f0: dfbc aa89 e898 c4bf e7a4 f66b 9e3b d03f
00000300: 8351 eaf8 e648 cbbf 75fa 7501 abff c8bf
00000310: 8d75 9bb2 ca25 a13f 9e79 28ec 37e0 ca3f
00000320: 3eac a0a4 1a0d c4bf 5984 c859 206b c33f
00000330: 0a40 56e2 1b50 c0bf 90e0 7dff e3be bb3f
00000340: 154a c02f ec8f d1bf b12c 0884 d459 e03f
00000350: b014 851c f0c0 cabf ecc9 afe6 d264 d53f
00000360: 71b1 758b 080e d1bf ff3e 8732 691b c7bf
00000370: 9e78 fec3 99a2 dfbf efeb 2de3 1975 c3bf
00000380: 79b1 1a40 aca2 d3bf c21b a5ec d8f7 d1bf
00000390: 6579 fd11 2dad c6bf b638 72b0 a5db d33f
000003a0: 4a9a 3cee 56f4 d9bf ff77 5df6 0142 d23f
000003b0: d632 4a61 3fa3 d0bf 54e3 9e63 09b4 cd3f
000003c0: 1484 69ae 55d3 ddbf 406f 8331 1664 e23f
000003d0: dd4a 5b72 23e6 c7bf b8a8 0928 7532 c63f
000003e0: 80ad 5d89 4f2a a13f c6ed 8fb3 0333 ce3f
000003f0: 02a7 7d07 5759 dabf e11d 3831 0de2 ca3f
00000400: 98f5 ea55 6b63 c33f d131 81b7 e22b b43f
00000410: f6df a141 963a c2bf 68f9 caea fe9a d03f
00000420: 55b5 9d1d dcb5 d53f c9ac 4a02 e59f d03f
00000430: 81e0 d3a9 3add d23f fc3f 1794 e489 bd3f
00000440: fb27 6d2b 9cf7 c33f d835 3c1b ae72 c6bf
00000450: 9b2e e102 8f18 df3f 63d5 4990 f413 b53f
00000460: 6f94 a919 4ea0 bb3f ad3a f7cc e3b4 b2bf
00000470: 4301 1111 784a 673f 182e 7713 bb1f c5bf
00000480: d4ef bda1 2013 d73f ed5e cb88 471a c2bf
00000490: ac61 bd47 43c3 ac3f fd4b 4988 512e d93f
000004a0: 180d 0b86 1292 b6bf 0c48 8be6 add2 843f
000004b0: 7984 35fe fc98 b6bf c8a9 7a02 94f2 bebf
000004c0: d3e0 9a86 6c4c c4bf c130 4ea2 0f99 d13f
000004d0: ffde 9059 208e b43f b3bc e1c9 107c c13f
000004e0: ee6f b7d9 8c03 cbbf 8c58 00c8 fe0c d63f
000004f0: b1e8 09b3 848d b1bf fa3d c138 6a81 c8bf
00000500: dab6 c412 d687 a83f 2d48 cb49 5dfc d9bf
00000510: 549b 29f4 205e cbbf bce6 ff4f 0a8d d93f
00000520: 5fd4 8c33 a924 9c3f 73d3 2a79 c6d9 d63f
00000530: f595 60c2 79fd cabf c9c1 0a11 ceca d2bf
00000540: dec1 1f4f 5300 aebf 85d1 3779 ad5b c2bf
00000550: c619 b21f 13d3 d43f 8082 cb5a 4074 babf
00000560: 4ad6 5a74 2b2a 73bf 5b95 c16c 1e72 d13f
00000570: 4cdd 51ad 6770 cbbf 1a1b c9d5 b263 c3bf
00000580: b2cb b98b 978e cabf 0925 e23b d603 cc3f
00000590: cfe2 3283 fa2d d73f 0812 19eb f865 d4bf
000005a0: e43e 8e63 0617 c6bf 826b abb0 f936 d8bf
000005b0: 08f5 c441 7c63 d23f 7b53 3ac2 6c9f bfbf
000005c0: e86e 47b6 76cc c03f d496 1cad 4250 a23f
000005d0: b61f 634f 52fb cabf 3173 311e 8b3b cb3f
000005e0: 79b5 9cf4 7834 d1bf 193a aab4 4d7f 96bf
000005f0: d318 9ae9 64b3 da3f eb35 b5f3 5884 a63f
00000600: d9bb 8f28 0fd9 c33f 441e aaac 9f4b c43f
00000610: a897 d106 030d b7bf adac 3961 fa16 db3f
00000620: 335f 9da2 2629 dabf c27d 7d21 9aa8 d2bf
00000630: 07f4 d9ad de45 b0bf 623f 5fb2 8d13 dd3f
00000640: 9674 3ba3 6cb5 c7bf de73 2645 74e9 bebf
00000650: c4f7 0fb3 50f6 c6bf ef10 1ccc 674e d53f
00000660: 63d4 5454 d80a d03f 0303 8fed 68e0 d33f
00000670: ea4b 7b96 148e cabf 35a5 6bb0 a80e d13f
00000680: 468b ee12 ae9d 893f 8375 7f6c f3de d4bf
00000690: 2a71 bf51 9790 c3bf 479a 6dac cf68 ce3f
000006a0: de4c 08ed 5657 d2bf c052 7c24 3113 cf3f
000006b0: e425 47ff 3cfa b43f 24e6 d2ea 4657 d1bf
000006c0: a0be 2056 ce26 cebf 42af d5f0 3cb4 b0bf
000006d0: 6e6c 7991 6266 c7bf 1b8b 19cd 6562 c4bf
000006e0: 4bd5 71b7 dbe0 cc3f 9480 aed1 66ec d3bf
000006f0: 133e 0a6c ce07 cb3f 1ece f883 14c2 7abf
00000700: 1ec8 f92c c8b1 c63f d36f eda8 18ab d2bf
00000710: 946c 5aa1 649d d3bf 2064 e83a be94 c23f
00000720: 9e24 0061 c396 c2bf 2e5a 99cf 3f01 bfbf
00000730: 0e75 3811 2e0e dbbf 34b0 99ae da6a c43f
00000740: bbac 8d59 72f8 c5bf dba0 428a a429 d63f
00000750: 7aeb 12d0 7541 9b3f f898 bea3 23f2 b5bf
00000760: ebcd a48c 18ee dbbf 16d7 9602 5e22 c8bf
00000770: 5836 1653 3cfa abbf 3582 8574 28d2 d23f
00000780: f3a0 27c3 3d95 c83f 77fc 101f 4584 d1bf
00000790: 9001 1404 a74d c8bf 9a67 1a46 6706 b73f
000007a0: e70e 7246 7f6f b1bf b95f b73c 17f2 a33f
000007b0: 7f43 6ce6 d7e1 a8bf 7918 5914 d7be d1bf
000007c0: c379 ad04 0dca c93f 75f0 83d3 8fe0 ca3f
000007d0: bb23 8166 32e5 d13f 6992 6fa5 ec79 c2bf
000007e0: ea35 3581 2cb5 c33f ded0 5d2d bcbf bbbf
000007f0: d2ca 66a4 7b13 b63f e9c7 f6b4 47d2 cbbf
-0.16157320108572323 0.21812036197037735 0.030153942480328065 -0.29824825830746654 0.8196997819264312 0.2715027529597717 0.15932883711306117 0.2879381857163356
0.32174029182890773 -0.23996275068512316 -0.4677592131023157 -0.5186772408039235 -0.2402322787136811 -0.3682468974999302 0.051608622229267466 -0.3801116198634258
0.5159068671051111 -0.13560977990644246 -0.7053923917680518 0.25021153601009244 -0.7979852183515241 -0.18091216562357598 0.02484355994031019 -0.16394181355060314
-0.008257578254695256 0.5349669678529806 0.42293706555583566 0.1934979472585843 0.6541269376173594 0.44907234042977057 -0.6156924155079296 0.6645985835208341
-0.06684951225032905 0.2117820014383299 -0.27841932310492035 -0.1321468754034956 0.2552762111586594 0.2631395392605514 -0.1283258309002635 0.07586934565986701
-0.013708388708191636 -0.04199150058484593 -0.12774849447936076 -0.11772379243681083 -0.14317367176647805 -0.04253690674017073 0.14775990409934772 0.07378203402840264
-0.14870935185510908 0.23675144428143535 0.14557651921564338 0.3115688193020268 0.13365608432413792 0.11451516341248391 -0.1800757051150638 -0.16009843486788022
-0.2676732571222527 -0.2880550496731908 0.21139985056400973 0.22997399376742822 -0.12408268678570611 -0.06628436038259677 0.01774992715256066 0.21854204897964952
-0.30591294261219554 0.1939758390360067 -0.014770300098250927 -0.0557648936541695 -0.049084689066458874 0.3369335786097417 -0.2654672445832876 -0.17206192353506874
0.17276333634636754 -0.0752911564738953 0.19570494808729494 0.2418245665178926 0.1463658887577108 -0.15810786341241684 -0.04916347118392711 -0.17143379840273326
0.2864854489855386 -0.024064492684999945 0.09949624514531126 -0.11817495277567439 0.21729222047141228 -0.009807258277028233 0.14529073331593576 0.12527983440608345
0.14916256225019334 0.06474912897851358 0.07647732149870967 0.008418387852070176 0.22723911129341026 -0.004483315360911164 -0.16091639253634235 0.2536388449030497
-0.21316229967181863 -0.19530236789065084 0.0334914534594005 0.20996760398061282 -0.1566499046178666 0.15170673736523346 -0.12744473029715692 0.10838150966253779
-0.2744093386001237 0.5109655932186766 -0.20901299851008082 0.33427879837031926 -0.2664815294181358 -0.18052401511385338 -0.4942993558887653 -0.15201114266150692
-0.30680376300985973 -0.2807524023996245 -0.17715991381096355 0.3102812026126104 -0.4055383039980468 0.28527878817646973 -0.259963841447456 0.232056783335589
-0.46602384598196633 0.5747176138934051 -0.186710768545331 0.17341484503714866 0.03352592994527992 0.23593183772741905 -0.41170287829901053 0.21002354529649295
0.15147153563695492 0.07879464130491633 -0.14241293148711492 0.25946019104949025 0.33922484295074656 0.25975918983267526 0.2947527559731569 0.11538532844065225
0.1559939586680342 -0.17537475900500854 0.4858739402886642 0.0823357441202766 0.10791481138729052 -0.07307266000791897 0.0028431267787995275 -0.1650308461233727
0.3605424479972019 -0.14142698459067252 0.056177237040802325 0.3934520560189297 -0.08816638729608817 0.010167463873049364 -0.08827191549564074 -0.12088894901777458
-0.15858227322110582 0.2749671063436488 0.08029367624919458 0.13659868104466497 -0.21104584341708182 0.34454316645986505 -0.0685656487566202 -0.1914494301913548
0.0479113481436408 -0.40602810102893977 -0.21381008073805197 0.39923341572248794 0.027483600398415905 0.3570419486307436 -0.21086046210363887 -0.29362823166141233
-0.05859623280401015 -0.1434227792630162 0.32538297744067923 -0.10333635536836461 -0.004678888076957552 0.2725902616569635 -0.21436782801513699 -0.15148005903957867
-0.20747656176135149 0.21886709140770957 0.36218130886440475 -0.31872389754087793 -0.1725776659118231 -0.3783554292000916 0.2873221056250519 -0.12352637998476539
0.13123973751395757 0.035768588668629114 -0.21079472423866513 0.21275462126041014 -0.26882766616730397 -0.02196999945823039 0.41719935238542155 0.04397848105382337
0.15506162148036998 0.15855785303959824 -0.09004229465935387 0.4232774686303838 -0.4087616527590285 -0.2915406539013611 -0.0635661291543813 0.4543184511103303
-0.18522413225483508 -0.1207497280906433 -0.1793919443443298 0.33291048939305673 0.2506619285152906 0.3105718917759505 -0.2074609503530092 0.26651971081317366
0.012507781937363693 -0.326107841448753 -0.1528500699195175 0.23757358474104448 -0.2865807833451991 0.242773192229512 0.0819433329808344 -0.2709519665910156
-0.2355592651888303 -0.06525021438363601 -0.1828120432208808 -0.15925285830152167 0.22561212975748854 -0.31130381085132197 0.21117573047057245 -0.006532745493632612
0.17730047412948208 -0.29169289109063107 -0.30648151166105575 0.14516427875858628 -0.14522592769961745 -0.12111281221709966 -0.4227404754800127 0.15951093221099344
-0.1716444909355682 0.34629167081813045 0.026616898369620647 -0.0857260012404345 -0.4364072202181137 -0.18854880453516704 -0.05464352144472845 0.29407702807478425
0.19205448178332282 -0.2736981204397532 -0.18986976336601602 0.08994145833494685 -0.06810756177770437 0.03895638099828553 -0.048598048093601236 -0.2772729586325862
0.20147860268020965 0.20997808292293355 0.2796140671749147 -0.14434583738251952 0.15396648701646082 -0.10839439494685929 0.08623478664120945 -0.21735473953373166

transformer.encoder.layers.0.self_attn.in_proj_bias f8 [48]
00000000: 9ce8 ac13 f248 d2bf 532f 83f0 2ae9 df3f
00000010: 3bc4 cce2 e507 713f d210 54eb e2e0 7abf
00000020: be75 c0fb 0d46 9e3f 3f5d 395e 18ad ac3f
00000030: f69e 42f7 5546 c13f 2639 eb91 5cbd c83f
00000040: eec7 61d7 09e2 b1bf c973 5e33 f576 ab3f
00000050: 3d79 15ce 1dd1 ad3f 8cd5 78ea 324e c0bf
00000060: 7b2d 524e 934c c93f a607 6599 7102 883f
00000070: fc6c 8d2b 4a61 b63f 6661 c9f3 862b b63f
00000080: a232 774c 7477 5abd a04b 30e4 6d07 5bbd
00000090: 6400 019f ef4d 313d e935 e832 44c2 343d
000000a0: b05d 8d9b f317 463d 3882 36c9 bce8 37bd
000000b0: 2a5a 6c2a e9c7 4b3d 63ed 3ea3 a77a 47bd
000000c0: dc5f 6669 96e6 43bd 2a7b 6e5b bb96 50bd
000000d0: ba97 1bcf 67a2 36bd 05e4 3df5 5570 4cbd
000000e0: 7cf3 64f8 80ea 5b3d c100 a846 339e 5bbd
000000f0: 2237 d295 9174 2c3d 3e1b 6f31 adf2 4c3d
00000100: ec14 4054 8d23 9fbf 5a33 8d50 18f6 943f
00000110: b9a9 5b7c 41c6 a93f e4c5 cc81 2faa 873f
00000120: 6599 6f1e e4a1 73bf b244 57e7 e3fc 903f
00000130: 3757 7bfb 983a 703f c8fe 8283 faf1 a83f
00000140: cdf4 5b3e 40b6 99bf 90bb 65cc e481 b03f
00000150: 15f2 9323 aeea a3bf 4da4 cb36 973f 96bf
00000160: 2a65 664b 0b73 8cbf df49 0df2 0bdb 943f
00000170: 6009 1af7 a16e 96bf d391 2f98 d7b9 a33f
-0.28570224687030943 0.4986064289812379 0.0041579227370656625 -0.006562124636961113 0.02956411217757248 0.056008111478770044 0.13495897839788257 0.1932788574690189
-0.06985532291744764 0.053641951103805825 0.058236056715701846 -0.12738644074276484 0.19764939617412466 0.011723411077244904 0.0874220234231195 0.08660167171308827
-3.761132678510698e-13 -3.8410548425974117e-13 6.147771208715953e-14 7.375026147810441e-14 1.569841920980967e-13 -8.494229549273995e-14 1.973951780803017e-13 -1.6682918476349995e-13
-1.4140320985719502e-13 -2.357409747347212e-13 -8.041353005644441e-14 -2.0206991006417023e-13 3.967106526723742e-13 -3.924749579153336e-13 5.054684929186719e-14 2.056875929455116e-13
-0.030409057872039222 0.020470027843930573 0.050340696745326104 0.011555071972540305 -0.004793063249030592 0.016589699740340698 0.003962133014018757 0.04872114997260507
-0.025109294706443564 0.06448202123804792 -0.03889984306622211 -0.02172695419259112 -0.013891304243588271 0.020366846703220417 -0.021906405169383247 0.038527238204355684

transformer.encoder.layers.0.self_attn.out_proj.weight f8 [16, 16]
00000000: 832f f2e4 32f8 8ebf c42c b3d0 98d4 683f
00000010: d027 30d6 d9b2 d5bf 5256 f7b4 26f4 c03f
00000020: c1b2 8816 ef59 ce3f 9a19 1dcc 06cf cd3f
00000030: 2947 b47c aca9 d0bf fd49 10aa 250a c23f
00000040: b721 970a 8315 c2bf 11a7 c00c 3413 da3f
00000050: 984f 6416 490b 773f fae2 dbbf 2ac1 8e3f
00000060: db4a d972 d14d dabf 523a dc2b 43a2 d13f
00000070: d861 4cdd f6e3 c5bf 7768 b711 88e5 c2bf
00000080: fed8 6a1a dbcc d7bf ec87 0e26 62c3 d2bf
00000090: 02ea d91b 8afb c73f e16c db41 c505 b43f
000000a0: 698b 0292 a965 c8bf 045b f713 9c07 b2bf
000000b0: 61c1 b9f4 5adf c2bf 39be 49c5 d70b dabf
000000c0: 92e3 ee0b eb4d c03f a340 92f9 d8e3 d7bf
000000d0: d711 680d 7d61 c4bf 57f5 327f ce0b d9bf
000000e0: 02c5 49a9 cb4c dabf 88b7 9a12 453d d73f
000000f0: 43f9 6250 743f d13f bc0e a913 dd14 d0bf
00000100: 0334 8738 f907 a4bf a86b dccd 2e4a c0bf
00000110: f5f7 a835 6dde c9bf b5d0 6871 f48e 96bf
00000120: 07b9 2dc0 85ed 90bf 4d67 0939 ee55 c4bf
00000130: 04f1 7032 67bb d1bf d6d9 4532 9784 d0bf
00000140: 6d1d 9010 61e4 9cbf c576 4b1e 83c8 d63f
00000150: a595 71c8 c122 b0bf 52b1 df9a e66f c03f
00000160: 33cb ed46 0cdc dc3f 303d 2c3c 2ce4 c73f
00000170: 5cea 589c afed d13f 0a82 9cd5 92f4 cebf
00000180: 0941 a493 b640 d83f 5080 ca93 a395 ccbf
00000190: 6522 5b7f 94ca b53f f1dd c6d5 6deb a03f
000001a0: 5840 addb 7654 d1bf b222 3561 9a04 cebf
000001b0: 24a3 18da 7d88 c63f e8a4 7c7b 7522 ba3f
000001c0: 5b48 4d22 64df d33f e6c7 267e f948 cbbf
000001d0: 4271 77bf 45de c8bf b0c3 a6a7 106d ad3f
000001e0: dd0e f60b 5706 9ebf 4b1c b300 186d ca3f
000001f0: 9669 88e1 c815 d7bf 4379 048e a528 c8bf
00000200: 4294 69de f8c9 c4bf b16b e729 7cbc 9cbf
00000210: 128a 9efc 48f3 d03f ce71 df2a 752e d9bf
00000220: a737 efc8 437f d7bf 3537 adec 0eb8 cabf
00000230: 2868 fd0c 7ca5 cbbf a195 8e45 53a9 d7bf
00000240: a643 0302 725f b33f 3f18 542a 8f3a d03f
00000250: 7044 4241 42f5 d6bf 2062 98c6 da33 d4bf
00000260: ecea e5e8 1dcc cd3f 4ca2 0b16 3aa1 c2bf
00000270: 7fb0 95d0 b150 c13f f907 680d ea0f d63f
00000280: 980f 93dd 2d51 cb3f 5d7b 7f8e 19fc c23f
00000290: f03e a714 1edc c8bf bdc0 f326 1555 d9bf
000002a0: 4107 d246 2d84 d1bf 8ddf 1bed 5d29 d63f
000002b0: beea b029 d1bf c2bf ebc2 3ca7 20f4 ccbf
000002c0: 2263 f4e6 fc00 c13f 845a 812f 936f bfbf
000002d0: 45c1 0808 0057 cf3f abe3 d161 839c aabf
000002e0: a6be a33f 21c0 c73f 44b5 dedd d1a9 d43f
000002f0: ec39 8be2 e54c bb3f caf5 a5c7 ca08 b2bf
00000300: dbc1 464f c056 d4bf 3daf c7aa 932e ce3f
00000310: c6bb a806 9e2f ccbf a737 f6a6 1679 d7bf
00000320: 897a 5fe7 1f55 a3bf ad23 0bc7 378e bbbf
00000330: 9302 0f2e 285b d63f 380d b4e0 f415 d6bf
00000340: 54a1 57a2 8d82 ba3f d9e7 9d80 bcc9 a1bf
00000350: 7963 6823 734b 90bf 19d5 2770 cb8f cdbf
00000360: 075c 6040 7732 c0bf c6a8 95de 10b3 c9bf
00000370: 1a74 9a68 c7e5 bbbf ce7e 5a0b 9386 d0bf
00000380: 8355 66ff 53c1 d13f 8763 eafb 70d4 dd3f
00000390: b96d 8f37 3601 d73f 8b07 3f30 3999 c13f
000003a0: 5398 2a98 4aa2 d33f b96c 50ed c970 d4bf
000003b0: 6fb3 0a1b 18f1 ca3f dd47 2cd8 6ac7 cf3f
000003c0: 727f 6d27 e384 cfbf 4541 4d8b d90b c33f
000003d0: f9f8 9f38 3293 bc3f f8b0 88b0 9d1c c1bf
000003e0: d0ce 3349 2a7b 77bf 92cc a2e4 4607 a73f
000003f0: db37 f4b7 52f5 b8bf 9856 1385 e1b4 d33f
00000400: b1d1 291f 7bcb d53f a8f4 7050 e33a 59bf
00000410: 5973 66a9 f488 9ebf 16f5 4f1c dadf d8bf
00000420: dcce b4d8 b252 db3f e901 c463 2c1a cd3f
00000430: c140 6263 cf44 d73f 8284 ae92 4a5c cdbf
00000440: 3cd2 e0f2 ab13 843f 79ae 764b 8cbc c53f
00000450: 7c8d e926 4d8a d5bf d090 18ae 7428 bdbf
00000460: cd9a 42be 7474 c9bf 861e b18e 79af d13f
00000470: ca1d b767 0269 be3f 702f 9f3e 33d9 bb3f
00000480: d554 631a d509 92bf db9a 616f 2715 de3f
00000490: 9225 7fd6 3ee5 d5bf 90b3 766f cdc1 c5bf
000004a0: e046 1306 d50f d93f 9f6c e146 a477 c23f
000004b0: ef6f 805a 2814 cabf 1f58 a8b8 74f4 d53f
000004c0: 410c 56bd 4d84 d3bf 4423 d795 9344 d3bf
000004d0: 7c23 c05f b6ff c53f 3398 4bdc 7f01 d5bf
000004e0: ecbb dc99 4ec1 babf 9924 e3dd 1067 c5bf
000004f0: 3089 76e0 6d9f d73f d730 a289 34d8 c93f
00000500: 5bf1 a34c 8213 c4bf aa76 169d 228b b23f
00000510: 24b3 75d6 b115 ca3f baec 8e23 841a c1bf
00000520: 8566 8e97 a1dc ba3f 350a 5f9b 0e9b bcbf
00000530: 3154 b0ec 7097 d73f bf61 5837 2835 d23f
00000540: 7e24 b981 7132 c13f 2380 df9f ba92 ce3f
00000550: e71a fccb 3fae b93f bceb ef93 9bbf c13f
00000560: 53d6 b7dd 65ca d63f c7f7 de33 ee46 d33f
00000570: beef 3a92 5fb9 c43f 2f27 ecb6 25d8 b7bf
00000580: 0545 8f27 6729 c03f 813b fe5d 3b15 483f
00000590: a75b c4f2 7020 843f 7aa5 07fc 57ad d7bf
000005a0: feac 6216 ba2f 6a3f ec8d 7df1 992b d2bf
000005b0: 3232 7566 7f60 dd3f 3cf7 8885 17aa 81bf
000005c0: f6a0 b8f1 38b6 cfbf 3f21 908c 6320 cbbf
000005d0: 800b e9d5 bc63 bebf 335a 3f1f f336 c73f
000005e0: 1629 6b88 0f07 d4bf 2b21 df03 8fc7 c6bf
000005f0: 7566 c2d2 3060 a03f 9a22 5e28 4e19 d3bf
00000600: 3150 e0de dba2 d63f 9293 8f8b be06 a2bf
00000610: dcdb 47bf 4838 d13f 8cba 9e27 edd7 cabf
00000620: 3be8 7d00 fa69 d53f 388f e82f d451 bb3f
00000630: 473a 98e1 07ef c2bf dd88 d680 58b8 d7bf
00000640: a260 d88c 52ba b2bf 701b 5ac4 41e4 cebf
00000650: f0de 4592 86d0 cd3f c2c2 8908 c193 bc3f
00000660: 8740 b8e6 4087 dc3f ca9b bc69 5d90 a3bf
00000670: 139a b5cb 0640 b53f 99c7 0e18 d42a a03f
00000680: 8539 2efb c833 cabf f9be 35c9 49d3 d23f
00000690: 2274 ba3f 7c14 a6bf b627 c583 eefb cc3f
000006a0: e4dd cfa6 c04e b2bf 504c 16ba 0635 d6bf
000006b0: 905e 6345 70cb a03f f430 ed34 a385 cb3f
000006c0: 1b47 25fa 3f0c d2bf 968d 0b6a 96d8 aabf
000006d0: 09bc 44af 7eb2 d1bf 9b76 6aa2 53a4 c03f
000006e0: ee4a f31e 0ba3 ccbf 2a5d d016 6a70 d83f
000006f0: c9eb 387a 52fe afbf 7f08 2e0d 6fb1 dd3f
00000700: 7326 9f67 f481 b43f 1883 2fe9 3f67 d73f
00000710: b4af 752c 2523 c0bf 8be2 91cd e102 b23f
00000720: 6f7a 7695 58a0 d5bf b558 4a77 842c d1bf
00000730: bded 0e85 acbf d7bf cab5 ebbb 3cbc d13f
00000740: 27b9 9a89 749c d6bf de7f bc45 4d06 40bf
00000750: e3a2 8cbe 5797 c63f 1fcb 2468 bbac b23f
00000760: b57f 26da e42a b03f 1a0b 6bf9 1641 c13f
00000770: 63f6 2aea 6687 923f 52d8 03f1 6366 d73f
00000780: edf2 6175 5255 b7bf f716 6ac4 cd2a db3f
00000790: 8e72 847d 384c 9c3f c3fb cee6 9a60 d2bf
000007a0: 61e4 7190 646f d4bf 0874 8503 18fe cc3f
000007b0: d860 1e07 1f03 c9bf bb55 fbec a94e d13f
000007c0: e5b9 f603 4086 d13f e2ca f7b4 9928 d33f
000007d0: 4557 d2f2 ee36 d4bf 672a d1a8 ca81 d93f
000007e0: 6257 1e71 f1e8 bc3f a095 99bd 21a3 d63f
000007f0: 9404 5857 14c5 cd3f b2a9 1bcc c80c d4bf
-0.015121839153174004 0.0030310616180933853 -0.33904119412238476 0.13245090328443837 0.23711956596652864 0.23288044897544752 -0.26035606554170215 0.14093466571701177
-0.14128149048907598 0.40742207761160026 0.005625997064516407 0.015016874294347716 -0.4109996434755609 0.27552871020535463 -0.1710194187696874 -0.14762974610386312
-0.3718784101469196 -0.29317525593262306 0.1873638759605712 0.07821305139389124 -0.19060248975173558 -0.07042861449677323 -0.14744126271717575 -0.4069728304520797
0.12737787325548006 -0.37328171131322047 -0.15922511248221724 -0.3913456194093973 -0.41093722850844483 0.3631146127398712 0.2694979462647959 -0.25127341194113817
-0.03912333312073459 -0.12726388027007585 -0.20210042114371132 -0.022029704496347963 -0.016531076292658955 -0.15887239251133636 -0.27706317830940486 -0.25809268865068924
-0.028214947353288822 0.35598829229807577 -0.06303034919399993 0.1284149414272045 0.45093066145561805 0.18665078104138777 0.280132200892387 -0.24183879308931494
0.3789497796833677 -0.2233166190753786 0.08512237653042971 0.03304618105488178 -0.27078029110726254 -0.23451547380888865 0.1760403933451694 0.1020883013230961
0.3105097136477803 -0.2131645074819623 -0.19428321694329936 0.05747272535825887 -0.02932106028084901 0.20645427736437436 -0.3607046320409152 -0.18874043878981625
-0.1624137006757867 -0.028062763269058603 0.26484894437649686 -0.39346055208968955 -0.36714262602333253 -0.20874201351619495 -0.21598768839140914 -0.3697097949282924
0.075675130359072 0.25357417234079443 -0.3587194096845172 -0.31566495317523113 0.23279165145853342 -0.14554525448262934 0.13527510342408175 0.34472132977691633
0.21341489142480152 0.14831847627552977 -0.1942174530836307 -0.3958180313484368 -0.2736924354177184 0.3462748351589589 -0.14647879157731397 -0.22620018163572495
0.13284264828760067 -0.12279624852940613 0.24484253303809048 -0.05197535103884062 0.1855508385410662 0.32286497752177845 0.10664212017875457 -0.07044665693498256
-0.31779487363658426 0.23579641188495684 -0.22020316434051618 -0.3667656546102713 -0.037758824342508275 -0.10763882264576692 0.34931377885735876 -0.34509012168583153
0.1035545846313018 -0.03474225111035851 -0.01591281798946251 -0.23095076538417272 -0.1265400947893058 -0.20077715748204222 -0.1089748983744844 -0.25821376904239635
0.277424811757861 0.466091390620527 0.3594489615040533 0.1374885068490211 0.3067804800033446 -0.31938408065043294 0.21048260994339382 0.2482732348949516
-0.24624289918119363 0.1487991266426524 0.1116210354084365 -0.13368579025098604 -0.005732693843345252 0.044977393541011726 -0.09749333373130702 0.30791509624155244
0.34054449122711633 -0.0015399188867058298 -0.029819319571845557 -0.38866284146190944 0.42692252314303203 0.22736124869699317 0.36357483582925104 -0.22937900697892039
0.009803145741991696 0.1698165291285141 -0.33656624603300833 -0.11389855623616829 -0.1988664559368857 0.2763351338839829 0.11878981620895171 0.10878296164372414
-0.017615632758709438 0.4700411403377253 -0.3421170324987425 -0.16997688238680242 0.39159131615916287 0.14427617512669585 -0.20374016207722387 0.3430454066559622
-0.30495017518859774 -0.30106057770585815 0.17186622309989363 -0.3282165194817736 -0.10451213127519993 -0.16720782121982294 0.36910578651635984 0.2019105598486763
-0.15684536688048464 0.07243553481245138 0.2037870690504856 -0.1336217092155943 0.1049290652284985 -0.11174098294490238 0.3686182319082177 0.28449445156868686
0.13435190996304763 0.23885281378079623 0.10031508188340475 0.13865990375037807 0.3561033883300741 0.3012042528679299 0.16190714492938513 -0.09314189639931379
0.12626351768134483 0.0007349529150689622 0.009827501686727148 -0.36995505916873805 0.003196586086308905 -0.2839112146668572 0.45901474958080535 -0.008625205767312509
-0.24774848749917283 -0.21192592967441645 -0.1187093755952855 0.18136443162684798 -0.31293094942215427 -0.17796504677813493 0.03198387692209518 -0.29841951315078463
0.35369011655098165 -0.035207705055461905 0.26906031303172795 -0.20971455034801456 0.33459329650907293 0.10671735925330672 -0.14791964068759197 -0.3706265695747229
-0.07315555513958086 -0.24134084784983711 0.2329261984084421 0.11162954767656699 0.44575521975730975 -0.038210791737860086 0.08300821755765524 0.031576755463347435
-0.20470535530735048 0.2941460099163887 -0.04312504079755565 0.2264383452805398 -0.07151416847761244 -0.3469864670998435 0.03280211302779634 0.21501579365065704
-0.28199767521174274 -0.052433681912385996 -0.27651946178497205 0.13001485281431688 -0.2237256909489455 0.38186123111650494 -0.062487199229927244 0.4639546993931915
0.08010795144869025 0.36567685863524124 -0.12607254668125523 0.07035647648616299 -0.33791174503304594 -0.2683421292252988 -0.37107384675956806 0.27711408950457594
-0.3532992690842484 -0.0004890324885060656 0.1764936142365264 0.07294818203517338 0.06315450979172861 0.1347988813268664 0.01809464267966233 0.36562441383955957
-0.09114566198145342 0.42448753529639255 0.02763450876328704 -0.2871463064183752 -0.31929887872644797 0.22650432750643312 -0.19540775153723788 0.27042625563384676
0.27381897341811473 0.2993530528321299 -0.31585286820460495 0.3985468529323612 0.11292943011934889 0.353706774860564 0.2325768877490516 -0.3132802956812625

transformer.encoder.layers.0.self_attn.out_proj.bias f8 [16]
00000000: 5da1 c597 b452 973f 5b20 d32e dacb 8f3f
00000010: 5a30 524e 36ec a9bf e452 7a9c cd23 91bf
00000020: ee62 58ae 7eb5 b03f 3fe4 f04e fde7 a9bf
00000030: 1ae2 510a 93c2 8dbf 0ace d13d 1b3f 8abf
00000040: c52f 6dd6 addd 563f 1121 06d9 2875 8dbf
00000050: c641 28b1 7485 9d3f 838a 166f 38cd 89bf
00000060: 7ba2 0b43 a376 a0bf 99f3 f1e4 af66 a33f
00000070: 6a7d 3dd1 5a03 a9bf 85b8 05ff 807f 963f
0.022776433719088874 0.01552553611180956 -0.05063028055255421 -0.016738140750549926 0.0652693915984732 -0.05059806431422275 -0.01453127742046072 -0.012815678428729011
0.0013956258423659534 -0.014383620379490954 0.02882940608293596 -0.012598458185327793 -0.0321551341383541 0.03789281530132555 -0.04885371975137327 0.021970763745621475

transformer.encoder.layers.0.linear1.weight f8 [128, 16]
00000000: 730b 7369 de2b 843f 5ea1 bfc0 a3f4 813f
00000010: ba68 4bc6 9a64 b4bf abdc 1d93 c081 acbf
00000020: a6a8 15d3 9a5b c5bf aeeb ea1a 0cbd cc3f
00000030: 087a 7a4e 8b9c d3bf ec09 694f ce37 c7bf
00000040: 5e75 0197 30f0 ac3f 8e88 446c 9244 6abf
00000050: bbd4 3e58 e80a a6bf 1f91 2596 fd6a adbf
00000060: fc8b dad7 4f89 bb3f 7074 cbb5 b631 cabf
00000070: dcb4 3b51 4034 97bf 5fca 1126 e1cc 9fbf
00000080: 103f e2e5 7d6f a93f 23d9 2fca 45e6 c9bf
00000090: f1be 780b ec5a c7bf a8c6 3832 ea8c c6bf
000000a0: 57ae c496 861d c8bf c397 f782 29ec b33f
000000b0: 464a 5fcf f9f7 c7bf b4be 1577 43ed b13f
000000c0: 1f3f f13a 125e b3bf bed4 eea3 5457 b83f
000000d0: e5e4 e83c 07ff 9f3f 8c6b 7c98 dafa c3bf
000000e0: 7699 d30f 9676 a5bf a95f 3c3c 917e cabf
000000f0: 0160 d3b3 63f5 b43f b2e0 d7cf ad1c ad3f
00000100: 638a 2962 1993 be3f 52f1 cc9b 026b b73f
00000110: 5b9d 53fa 2e91 9c3f cd9a 9ad3 3f8c b5bf
00000120: 29b8 722c 89e7 8c3f 43f8 df71 bff8 afbf
00000130: 3a4a 2fd2 670c b7bf 0d95 14eb 5dd5 c53f
00000140: 3e8a ee5b 2f1e 9b3f e7d5 eb47 001c c83f
00000150: eac9 f69b c96e c53f fdf4 694a da1d bd3f
00000160: abee 6313 6784 a4bf 386d cbce b9f7 a33f
00000170: d434 6c31 e2be ac3f 1ca8 9f71 5819 aebf
00000180: 9d89 089a a81a c23f c357 5ad6 46af bb3f
00000190: c9f0 f384 b928 b73f bb73 bb9c a240 d03f
000001a0: 87f5 f110 7765 c8bf d3d8 8042 8e5d bdbf
000001b0: 434d 1e01 020f be3f fae1 a949 b101 adbf
000001c0: dcf8 8a22 eb13 c1bf c0b5 c0a0 c8de 9fbf
000001d0: cbbb 974d 6140 a73f f776 610d 3775 babf
000001e0: c890 cbae 7e1d aabf bff4 0289 3a90 b53f
000001f0: 7300 e301 c95f a9bf b289 831e 9119 bb3f
00000200: 3680 206a 25e6 c6bf cd30 7667 8913 c3bf
00000210: 0e4b 7f50 039f b73f acfd 8406 23db cd3f
00000220: 23cc 67fc 7e59 b33f 1505 84d1 fedb b43f
00000230: c4bd 249b 1e29 b3bf 3650 6231 af4c d7bf
00000240: c329 8340 b7d3 cf3f 9b0d 3ee9 ab68 c93f
00000250: 7cb3 781e 97f3 a3bf 8948 20a2 1a88 82bf
00000260: 8d64 5e9a 5291 b8bf 21f8 6e87 bb3d aabf
00000270: 8bd5 dedc 7ada a63f 778f d574 64d5 b5bf
00000280: 264d bb08 7601 b23f 7452 5a87 e8a2 a73f
00000290: 217c b96f 384b b93f 6fee 2a08 7b31 a13f
000002a0: bc8d 51ea ec4c aabf f6bd f222 caef d23f
000002b0: 570b c713 41fe b6bf f86f fdf8 502a b13f
000002c0: f07c 66da a72c 9cbf 7f79 3de3 7563 9bbf
000002d0: c076 0e29 9a80 cebf 8cf5 d623 379e a33f
000002e0: e840 05a5 9cd0 a6bf 91a0 8c40 aa1c 1bbf
000002f0: d4be 7235 a919 96bf f9f5 7431 21c2 9fbf
00000300: 0712 059e dd0d c9bf 45dc 5386 2c47 94bf
00000310: 69b6 bf3c 9d5b a6bf 2d0b 7b17 a1c1 c0bf
00000320: 94c7 c5f9 c1a7 bebf 9bf6 7d9f 6f5d 8bbf
00000330: 640c 007d bad0 c03f 61a4 6e63 2368 c43f
00000340: 17b0 6422 1881 c8bf 08d0 6e40 84b3 96bf
00000350: 150f 5546 d305 c4bf 9973 24f6 23a1 c5bf
00000360: d850 1cd0 24e1 bf3f 0851 e5f7 6bf1 acbf
00000370: c571 a10c 2aad 81bf b672 0396 48be c5bf
00000380: 3465 6dde 840b cd3f 37d9 16c6 5469 8bbf
00000390: f841 5fa8 07e7 bb3f 313f f713 c1ef 883f
000003a0: fcea 04cd 21c4 c0bf eb46 e675 b36e bdbf
000003b0: a0b0 a810 c2a9 a1bf 3d28 1779 22ce a63f
000003c0: 8ce6 6968 0fb0 c2bf 7076 14a1 4749 ae3f
000003d0: c467 6e20 e97f cdbf 9b4c f4d0 45ed c03f
000003e0: 8260 cf84 43ec a33f 23eb 34dd 6860 ba3f
000003f0: 7b05 168b aec1 c0bf 17de 8eec 488a 6a3f
00000400: 9920 d337 7323 a1bf f0cf bdc9 b54e 8abf
00000410: 821b 3702 c89f b03f a23e f317 3f07 c23f
00000420: 18fe c251 b698 c5bf 6143 b5c9 1110 cb3f
00000430: 61ba a76e 7f06 aabf 02d9 e242 9ee0 b4bf
00000440: 4aa0 03e5 80a4 c73f d4bd b21a e756 c23f
00000450: 5234 b15f 233c b83f 3289 497b 3f77 b0bf
00000460: 987a 47b2 c9ee 80bf fd89 90ef da08 9bbf
00000470: 9900 fc91 c62a a53f 0795 8b0b 0f4c 863f
00000480: 868b f1b3 e363 61bf 9c96 c4ee d443 a53f
00000490: e41e 77d3 7aaa c63f e0df 7726 7576 863f
000004a0: 5eca 3d57 d41d bcbf e4ee a336 a660 c03f
000004b0: f96b 767c d4ad c03f 705f 3a95 11d0 c3bf
000004c0: 5afb c581 7977 c4bf fc8a 6adb 50c4 b53f
000004d0: 2c49 d95c ac0b 703f 7d5d 0bd0 5fb3 a7bf
000004e0: 6045 da7d ea1d b3bf 737d 4538 33d2 cebf
000004f0: ba83 80e3 95e6 a7bf 0c48 7d5f da59 c2bf
00000500: 5125 0c42 fb4d c23f 744a 7358 6820 b5bf
00000510: 8198 6a31 82f0 b2bf 2a30 85ab 4072 acbf
00000520: 5937 079e 8cda 9d3f c30f b566 c214 cb3f
00000530: 1ef0 71bf 1604 af3f 4e05 8393 059f b7bf
00000540: 8a24 3877 e231 c2bf 6d72 054d 2611 ba3f
00000550: 38ad 6b41 217d c73f 6369 8a91 3c88 a13f
00000560: b559 1b96 7db3 9bbf efb2 477e 685b d3bf
00000570: 6deb 982a 96b3 bf3f 8f27 ee24 b14c abbf
00000580: 717a 08d6 2e96 afbf 8809 a0cc e72e b2bf
00000590: 1778 46b6 b336 da3f 4159 aa3f f4eb a5bf
000005a0: 5f61 f748 a8cc c6bf 5d58 ec2b 1f86 cebf
000005b0: 2155 d901 cd27 c8bf 3650 b79f 3bc2 afbf
000005c0: 425e 3bdc 6c27 bb3f 112d 038d 820f cbbf
000005d0: a95d a611 44ee d0bf 0699 b6bb 251d bcbf
000005e0: 50b1 6625 14d7 bc3f 53d9 7571 c0b8 b9bf
000005f0: 1102 bd90 2b9f babf ec92 2920 ab86 c1bf
00000600: bf0d ded5 49cd 813f b9b0 aaa0 f86e a83f
00000610: 8fff 68e1 27f8 8b3f 649e d10b f806 c2bf
00000620: 4749 4f3c 2063 cd3f bd3e be32 f78b b6bf
00000630: 6774 0808 6637 d3bf 25e6 3b4e 8e13 d1bf
00000640: a160 0978 63d9 c43f 103d 1de8 893d cd3f
00000650: 206d b28c 1286 d43f fd3b f8ac 5acf babf
00000660: c8be db99 56d4 c43f d648 8573 0b7e c1bf
00000670: 74fc f68b b04e 92bf 758c 9cdc 4cda c43f
00000680: 8bb9 442f 6cc1 c13f 0ba9 b163 9a4f 853f
00000690: 8bc3 9dbc 5ab0 bfbf e5c9 2cb4 31d2 7d3f
000006a0: 5883 d9ff 9197 bdbf 167a 99dd e2e4 a1bf
000006b0: 4d79 9ab7 3504 d2bf 0424 ac7f a501 c63f
000006c0: fa98 3d5d 3437 bb3f 1192 6d52 5865 c1bf
000006d0: a4da 47db 31f7 ccbf 0cfa 297d 6d9e a3bf
000006e0: dbf1 99fa 24fd b6bf 1a93 30ae 3e18 97bf
000006f0: 54e7 0c1d 7097 a83f c2bd 1166 a288 c1bf
00000700: b10e 114d 84a0 c0bf c0f2 c909 9517 b9bf
00000710: e031 5b3c 1e2d d03f 3988 0f2a c0e8 60bf
00000720: 087a fe8c 2a68 b6bf 59b9 e659 5908 c03f
00000730: 277d 1359 2ee3 c2bf 569b 3345 b5ab b13f
00000740: b3f3 53a0 8382 c0bf 9072 3e3f 0fb9 c9bf
00000750: 57ca 2642 a871 9b3f 4ba9 b13c 45d3 c7bf
00000760: cf1f b396 1dd3 af3f 2fdb bcc1 3431 c7bf
00000770: 3c54 5aa2 f767 b83f 31b4 8be8 bdeb c4bf
00000780: 0144 7bb3 9dcd bebf 53a6 fc6b 525e c5bf
00000790: b634 aa1c f7fa c2bf 583c b0ad 9d05 babf
000007a0: 9638 9264 9e52 a0bf de41 cb50 1d0d 64bf
000007b0: 86d1 c3e5 8767 a5bf 269d bec7 bbfb b1bf
000007c0: 0f3a 7547 7b66 c03f 658d dfdc 1abd cabf
000007d0: 92ca 1387 7bc8 cbbf bed1 397c b513 c53f
000007e0: 21c7 4d67 3ae7 4dbf 787d a6ac 10c6 b33f
000007f0: bc2a 38ba a222 923f 4d35 db38 1bad c1bf
0.009849298089084723 0.008767394370764844 -0.07966010419059702 -0.055677431067061654 -0.16685805613389454 0.2245192653116112 -0.3064296976462235 -0.18139056088882854
0.05652000277835144 -0.0032065257857008594 -0.04305196835722699 -0.0574568982872583 0.10756396312585531 -0.20464214207359843 -0.022660260160525122 -0.031054990719392325
0.04967873984526083 -0.2023398625603444 -0.1824622207654936 -0.1761753792975942 -0.18840105401737858 0.07782229850235382 -0.18725512147519136 0.07002660424563595
-0.07565416277907076 0.0950825596072091 0.03124629315627638 -0.1560929531632066 -0.041920365745499774 -0.20698752824023117 0.08186934604907493 0.05685942804478951
0.1194320549634909 0.09147659591412108 0.027897581127857545 -0.08417128482924881 0.01411349455733209 -0.06244467034410708 -0.09003304368460699 0.1705739400723946
0.026482334123679722 0.18835452567843378 0.16744346728735532 0.11373676602120848 -0.040072651974665995 0.038999372952924494 0.056143826039354444 -0.058787120695186185
0.1414385559192625 0.10814326031899583 0.09046515937729106 0.25394501977808276 -0.19059646918678316 -0.11470879672637872 0.11741650130561702 -0.05665353798116608
-0.133420364252692 -0.031123289882250438 0.045413056108251824 -0.10335105969121715 -0.05100627788286399 0.08423200459488366 -0.049558907966912445 0.10585886950460724
-0.1788985031316785 -0.14903371383514355 0.0922700950170958 0.23325002497038605 0.0755843511795296 0.08148186316613633 -0.07484618461307152 -0.3640554411188107
0.24864855432526953 0.19850682152546714 -0.03896782156912246 -0.009048660347648745 -0.09596744793670293 -0.05125223186722417 0.04463561960384784 -0.08528735973737676
0.07033479417014074 0.04616476680999862 0.09880402305269388 0.03358063196853044 -0.05136814461073011 0.29588559544478643 -0.08981711132859736 0.06705194548470661
-0.027514097886180033 -0.026746599192273287 -0.23829962734901322 0.0383164626359572 -0.044560332435709615 -0.00010342396866447531 -0.021582263838978502 -0.031013983386619846
-0.19573564735232216 -0.01980275697584612 -0.0436677109390587 -0.1309090962077674 -0.11974727962458892 -0.013361808829127233 0.1313698873856054 0.15942804675185854
-0.19143964461670812 -0.022169176514310635 -0.1564277738017316 -0.16898011702224094 0.12452917176080136 -0.05652940178939231 -0.008631065855461703 -0.1698694927680628
0.22691403256139042 -0.013384496970371458 0.10899398670813543 0.012176044866378884 -0.1309854746885647 -0.11497041347891084 -0.034498276265680916 0.04454143264918329
-0.14599793051074916 0.059152830517842925 -0.23046602328832766 0.1322409887585295 0.03891192432610159 0.10303359413675799 -0.13091069976148248 0.0032397674844693125
-0.03347358757452063 -0.012845440119896495 0.0649380689056738 0.14084614438478577 -0.1687229060389519 0.21142790173555695 -0.05083082414409002 -0.08155240185701376
0.18470774824459318 0.14327706149695862 0.09466763578639473 -0.06431957969610805 -0.008267951729917386 -0.026400967475760585 0.04134197742496432 0.01088725809081349
-0.00212282632087252 0.04153314032218455 0.17707763028578605 0.010968127476175427 -0.10983016137996901 0.12794950168596764 0.13030487134241733 -0.15478725229763368
-0.15989607655134358 0.0850267921146432 0.0039173825185392745 -0.04629039206127581 -0.07467523167203671 -0.24078979728345082 -0.046681102772942976 -0.14336709654395496
0.14300480580304023 -0.08252575072700968 -0.07398236948447058 -0.0555591782927823 0.029154011864924587 0.21157102599147323 0.06057807051635698 -0.09227022982942865
-0.1421473581433797 0.10182418232347752 0.1835061616360265 0.034242527738757265 -0.027051889693064008 -0.30245411235846026 0.12383402385687044 -0.05331948829468935
-0.06169268000325168 -0.07102822061282243 0.40958874512023286 -0.04281581189313722 -0.17812064707573946 -0.2384680714100708 -0.18871462431221978 -0.06202875446948079
0.1060703313518099 -0.2114108265435353 -0.26454259608859815 -0.10981975396007124 0.11265684044946522 -0.10047533769634258 -0.10399124416017737 -0.13692225523404689
0.008692337836470608 0.04772164307846211 0.013656913343879555 -0.14083767487612697 0.2295875830155387 -0.08807320584150609 -0.30025625977015696 -0.26681859626805454
0.1628841720692025 0.22844051202489668 0.32068313350619526 -0.1047264740266058 0.1627300502072926 -0.13665907993942622 -0.017878302138111882 0.16291199466749942
0.13871528919248663 0.01040573708288097 -0.12378470520867617 0.007280534892560618 -0.11559402939157104 -0.034949388075563956 -0.28150694780369606 0.17192524656300645
0.10631110454923834 -0.13590530419163874 -0.2262937851625867 -0.0383180823600818 -0.08980017774769726 -0.022553424245546606 0.048030379816238394 -0.13698225005962966
-0.12989858401316703 -0.09801608551965568 0.25275379079974236 -0.0020641091546034465 -0.08752695028531587 0.12525479211530913 -0.14755801534099897 0.06902630748264235
-0.12898297623169483 -0.20096006954272072 0.026800755536621725 -0.18613496268819527 0.062157559057197546 -0.1811891504273375 0.09533641542141508 -0.16344426970263862
-0.1203249514758369 -0.16694097779081804 -0.14828385257388782 -0.10164819231452904 -0.03188033082652557 -0.002447659737619497 -0.04180550269839771 -0.07024739862992088
0.12812748898655044 -0.20889602455927583 -0.21705574126788868 0.16466396871295602 -0.0009125743077744477 0.07724098410698399 0.017710249534540465 -0.13809528614221236

transformer.encoder.layers.0.linear1.bias f8 [128]
00000000: e4e4 2f7a 266d c53f abf7 2314 ff67 c2bf
00000010: 6e5f 11e9 a3c3 b63f 09c3 9271 aefe b5bf
00000020: 9a4d b7e7 be02 a13f 8f00 81dc 1860 98bf
00000030: aa75 aebe 2c2d b33f fefb 4d6f e830 d0bf
00000040: 01ec 7d69 07ff aebf caea 8f09 460d c43f
00000050: 34a2 6fac 4075 c43f 4eb4 a6fc 22ae c1bf
00000060: 27be 26a9 7894 babf 54e5 1359 7af4 b43f
00000070: e349 60c5 3067 b83f 5409 22ff 4155 ae3f
00000080: 8728 bc52 1cd8 b83f 9873 acd6 35e8 b83f
00000090: f9ef 573b 0ad7 c8bf 5d95 cd7f 8106 793f
000000a0: 0c0b abce 1d84 cbbf e813 3445 7251 b5bf
000000b0: 0412 d07e 8052 ca3f e8eb 2910 8268 c03f
000000c0: a8b8 e2b1 0b6c ca3f 642d 59ae 799d c3bf
000000d0: 3c05 b462 837e c0bf cf58 bbc7 9213 ccbf
000000e0: 8aa1 a744 75d6 d6bf 24b4 b755 22ec cebf
000000f0: 66ed 11cf 3105 cfbf 07d0 5617 bcd5 c03f
00000100: 1e29 fef0 4e21 c9bf 5908 8107 e3c6 c0bf
00000110: f427 5c6e e51f ac3f 7bf9 d37c 0a68 c83f
00000120: 4445 0d82 df08 673f 35a3 1b11 8052 a3bf
00000130: 62a8 66de 5407 c03f 8595 dbc4 1b80 c8bf
00000140: e4cc 617f e42f c33f 8069 9093 808a cf3f
00000150: 34b6 530c 2d5f d2bf 3e26 59f6 6816 c93f
00000160: 324c ef51 340a b03f 0121 992b e974 813f
00000170: c9a8 60b3 a73c 913f 9fe1 8fc8 78ba b23f
00000180: 44f7 97ce f742 bf3f 71ab 1236 b6c5 8abf
00000190: 60e8 a796 21fc bb3f a49f 473e c28b 63bf
000001a0: 9f1e 5e65 438f cebf 80b1 2e29 6346 a43f
000001b0: 7c32 5172 183f c5bf fa80 b3dc 3f9f 853f
000001c0: d6cb d05b 8a3d c8bf 49f0 b9f4 ff47 bdbf
000001d0: ad1c 270a de5f b23f e1bd 39cf bd92 7cbf
000001e0: 5bee ef35 5f49 c93f 219b ec21 72bb c13f
000001f0: 8675 24ff cd44 c13f 2b7b 028c 7467 d2bf
00000200: 6b1d 55c5 fb43 d0bf 687e dd0b d4eb c83f
00000210: 84a1 83c6 c2ee c3bf 1a4e f1e5 e77f 993f
00000220: 1d7e 891e c881 d1bf 96c9 391b c0d0 acbf
00000230: a035 225e 3622 793f c3f8 0abf a5e1 c2bf
00000240: b77d 3537 fd2c 633f 3b89 bc42 f01e d3bf
00000250: a7a3 24ee 0a46 af3f bd15 45b2 bc88 bd3f
00000260: 1eca d3f9 a61e b83f 7b28 a55d 1bea 983f
00000270: e77f 31d0 9f4b b63f c974 a8d7 b16d 983f
00000280: c27f 3113 f042 c5bf 6b09 b4e8 a857 ccbf
00000290: 28d0 0680 56a2 c8bf 21c8 9797 d70c d3bf
000002a0: 62fd 9f40 0a4e ad3f f9f5 98a4 aa49 d03f
000002b0: 5591 fd05 4b0c d0bf d2b3 6da7 4c51 c23f
000002c0: fdd1 9275 7188 cebf f4e8 c946 1c01 bb3f
000002d0: 10cb fad2 bad7 c6bf c4f5 2e34 19bf c6bf
000002e0: b8de 20fa 7341 9d3f 867b d761 fcca c9bf
000002f0: c01b a910 21af c1bf 07ed 79b8 1428 c6bf
00000300: bcc6 7107 bcdf cbbf 5861 f344 c64f b13f
00000310: ec05 dec5 6e6a bb3f a619 eb0f bd2e c9bf
00000320: 6d85 1999 fc79 bb3f 9554 3d00 4bce be3f
00000330: 1cc6 ad5f 32d5 95bf 374d 5eb9 a877 b53f
00000340: 878b 55b7 56aa c83f 853c a497 267b bebf
00000350: 254e a37e 65bf c23f 7977 30da 9849 923f
00000360: 0267 d466 5996 bcbf 175b 215f 52b3 d6bf
00000370: 0941 c11d a817 c6bf f95d 64c5 56d7 91bf
00000380: 444e 9b32 0ed5 a6bf 9d87 5916 1da6 c33f
00000390: ac9b c8da d5f5 b53f 8b6b 4301 1191 983f
000003a0: 21be 1355 2d8e c13f 6010 771c 9c58 aa3f
000003b0: 2070 82d2 ac78 cdbf adf3 e3af 6ee3 bdbf
000003c0: 21da 3408 9323 b83f 42e7 af42 c37c b73f
000003d0: ebee 1743 35b3 c53f d54f 5ed3 30ed c0bf
000003e0: 845e 4ab2 deec cbbf fe97 8112 3ef7 a23f
000003f0: 956d 40d0 07c0 b83f f95d 6e60 6413 c0bf
0.16739350286642385 -0.1437987182943606 0.0889227336896263 -0.08591738007340778 0.03322407320561212 -0.023804081400385754 0.07490806250867502 -0.25298510427086274
-0.0605394665025969 0.1566550776186289 0.159828266331958 -0.1381267293594725 -0.10382799272223818 0.08185543703793502 0.09532456225159751 0.059244215387496496
0.09704758663079548 0.0972932480912746 -0.19406249902374365 0.006109720093126239 -0.21496937361924784 -0.08327402295624575 0.2056427592471125 0.12818933285947698
0.20642229257413658 -0.1532432652769372 -0.1288608772229426 -0.21934733154802763 -0.356839482351028 -0.24158124146870918 -0.2423460255703091 0.13152266635518137
-0.19632899062373438 -0.13106954447181599 0.05493084880988866 0.19067507834547456 0.0028118482008855656 -0.03773880204045669 0.1252237401907364 -0.19140956031985126
0.14989906520677387 0.24641425328520583 -0.28705908016022197 0.19599639919970174 0.06265570640907539 0.008523770945558786 0.01683294327100596 0.07315783401998609
0.12211560052670928 -0.013072417760062046 0.10931596687433531 -0.0023859781087942223 -0.2387470478972675 0.03959951284136576 -0.16598802167790783 0.010557650492444715
-0.1893780659025583 -0.11437988018764246 0.07177531955595624 -0.0069758810455904105 0.19755163320211264 0.13853289276559003 0.13491225202680485 -0.2875644080431125
-0.25414938231229794 0.19469690875392875 -0.155723902636293 0.024901984605390927 -0.2735462473119428 -0.056280139277890814 0.006136143087258544 -0.1475112135721642
0.0023407884233816695 -0.2987633372996645 0.06108125836391958 0.11536769249240471 0.09421771621035943 0.02433054694237356 0.08709143479200031 0.023855952060434036
-0.1661052793233449 -0.2214251648184232 -0.19245415927218912 -0.2976588230513944 0.0572360233199969 0.25449625085806776 -0.2507503088475194 0.14310606169911338
-0.23853891602415436 0.10548569420089732 -0.17845855046979198 -0.1777068619539205 0.028569996015191917 -0.20150713708332207 -0.13815701783661716 -0.17309817321424978
-0.21776533473489745 0.06762351210943984 0.10709278422111596 -0.19673884656203916 0.10733011949334577 0.12033528095101283 -0.021321093644877206 0.08385710263819567
0.19269832565177245 -0.1190666313379883 0.14646595653049235 0.01785887557718222 -0.1116691471146645 -0.3546949318892287 -0.17259694531322392 -0.017423015401702078
-0.044594234159060636 0.15350688544554894 0.08578240004918197 0.023990884496793135 0.13715140012890095 0.051457289194815514 -0.2302452113989384 -0.11675159258079644
0.0942928214106833 0.09174747827628685 0.1695314958195618 -0.1322384864876073 -0.2181661959227662 0.03704256034761498 0.09668015321988428 -0.1255917998175702
