Code/800-200/darts_logs/D-dep-92_transformer/checkpoints/best-epoch=79-val_loss=0.00.ckpt (torch, 653413 bytes, 205 tensors)

encoder.weight f8 [16, 1]
00000000: 4840 82cc c159 d6bf b0ed 61e7 4490 e5bf
00000010: 1e10 fe1d 653f e9bf b4e1 c41b 40ef eabf
00000020: b4a8 da5f ce34 df3f d8c2 ada5 850a ea3f
00000030: c02b 8fe3 19bb b73f cfbb e90b 2282 ef3f
00000040: 7687 7a6d 3c45 e5bf 7ec6 1780 b63b ee3f
00000050: 6262 d78b ab1b f33f c2aa e4f5 573c e6bf
00000060: f3b9 5f3b b34f c3bf 1765 4ccc f303 e3bf
00000070: 2ef4 d1b0 7300 ba3f e6b0 c1ee 2949 da3f
-0.34922833415567256 -0.6738609809103107 -0.7889886461057392 -0.8417053739895466 0.4875980316234163 0.8137844310677691 0.09269868665357617 0.9846353752781115
-0.6647016657118303 0.9447891713918606 1.1942553961327111 -0.6948661615945968 -0.15086975478284578 -0.5942324629023997 0.10156939570329435 0.4107155639274097

encoder.bias f8 [16]
00000000: ff20 3215 ea86 de3f fea3 5448 f99f 9bbf
00000010: 0d0c 8a97 a67c e6bf f4a2 37d1 41a0 b53f
00000020: 1d15 3fcf f0a4 dfbf 22c6 6abc 5e59 efbf
00000030: 9426 aa35 0ce7 edbf 94b8 ad3c 7b23 cabf
00000040: ab87 8ab0 f9cc d6bf 4ad7 a6b4 8473 ecbf
00000050: 36a7 5929 7788 c5bf ad36 7c07 ef6e e0bf
00000060: 3b65 ce4c b3a4 9e3f 5064 ed6b 98cb cfbf
00000070: 8404 3a1a 540a e8bf 49ac 92ef b323 c63f
0.4769845206251517 -0.026977438964568272 -0.7027161559821039 0.08447657926411606 -0.49444217909725 -0.9796594314595419 -0.9344540641916006 -0.20420780623266366
-0.35626070251793845 -0.8891013649324375 -0.16822709578564748 -0.5135417123980993 0.029925157130127316 -0.2484007384289577 -0.7512608062971968 0.17296456525704887

transformer.encoder.layers.0.self_attn.in_proj_weight f8 [48, 16]
00000000: 5502 186a ec59 ca3f becc 4021 e8b1 c23f
00000010: 15a3 1ee7 3553 d3bf ac84 f4d1 73aa b2bf
00000020: 3fb2 5699 1526 d13f e9b5 8213 bb33 b63f
00000030: a9ac 1eff de07 bd3f c570 fe07 e7f1 ce3f
00000040: e98e 8a91 049e ca3f c107 b915 747e b1bf
00000050: 28ec 3d0d b498 d1bf d98e 99f9 ff09 d0bf
00000060: d88a 483e 3581 a43f 18ba 7692 6079 c1bf
00000070: 17a8 29c8 b841 cdbf 3280 db6a 07f5 c7bf
00000080: 3c0e 6e3c c4a1 a03f 1c1c f503 070b bc3f
00000090: e0b1 7704 9fba d1bf afa6 5395 8af5 b33f
000000a0: ca2a 2b29 3633 cfbf f55d cfd0 0f42 cb3f
000000b0: 8ae1 1411 2abf c53f 27bc 2e82 5666 d4bf
000000c0: f1c0 a944 f58f c63f c16f 7530 9074 d83f
000000d0: 35aa 8607 2442 d53f 8941 7ebf 2ba0 c9bf
000000e0: 6ca2 15c2 e131 d13f 9d7c 7b2f 2bab c33f
000000f0: 3b0b 52bf ca74 bcbf 0bc0 c0d0 acb8 d33f
00000100: 60fc 9635 1992 c5bf 2529 d361 4ffd cb3f
00000110: 1ee4 29d9 a0a9 d0bf b737 a578 cc21 ab3f
00000120: a8b0 46bb aacc b13f 30a3 4da2 51e0 d53f
00000130: 17d0 f9c0 7893 c2bf cce5 a890 ab3d 923f
00000140: 587b c0b2 6f95 b4bf b4c6 2755 a384 98bf
00000150: 3806 382e 1c3a cbbf 5e68 10c5 29ea a7bf
00000160: abee d95a 70ac c7bf 434c 8266 9f7f a03f
00000170: 361c 1b23 6508 c93f 1aba 737b 056f ae3f
00000180: 09bb 7dfe 9511 cbbf e084 371b 165d d03f
00000190: 2db5 a749 e4cf cb3f 2ab4 d158 08de c23f
000001a0: b006 308a cdba d73f e7ae bc39 42c7 b43f
000001b0: 3d8c 457f a86f c5bf 9fba e11c b334 bebf
000001c0: 8c52 1c7e e5af ccbf de03 9a9e 7744 d5bf
000001d0: df71 4bbd 30d4 cc3f 4f62 d67d 589d be3f
000001e0: 5c63 1dfc e446 c2bf 3b77 a649 a2ef ccbf
000001f0: 8ace 29d2 9721 a53f aeb6 935b a319 c63f
00000200: ca18 7c04 dabc d0bf 37a7 7245 f291 c63f
00000210: 655b 5b6e 0c5e c13f ab98 9705 f54b c23f
00000220: d831 2ff8 49cc c6bf eac4 fd3d 2664 d23f
00000230: e5f7 cff3 f549 aebf 1ba4 a503 7a6b cfbf
00000240: 46ff 01e9 fc33 d43f c4a9 6860 f4bd a9bf
00000250: 61b4 6f45 2e8e cf3f 0a69 3f1a bc87 d33f
00000260: 440b 4b26 3cce c43f 3654 824e b2e2 b6bf
00000270: 8f41 eda6 34b0 8abf c721 0888 0b90 c7bf
00000280: 4c34 a9f4 d73a d93f e735 1f48 3524 b33f
00000290: ee72 3f05 7e0f 973f 8696 dc44 83f3 ccbf
000002a0: 7c1a ec0e e5c4 be3f a8fd 6c64 a4dd 7bbf
000002b0: 5f11 a9b6 6748 d43f fc65 231d 1715 c23f
000002c0: c188 7e8b d5ba bc3f 02e2 20a8 22a3 cc3f
000002d0: d4e5 d41c af8d cf3f ae0f d1da e712 a93f
000002e0: 8ffa 6f08 394b c43f 5c95 5d7f 6331 9b3f
000002f0: e56d afc4 8cda c3bf 22f6 8f2c f621 d23f
00000300: 7aef 6976 b375 c2bf 1c99 9b3c c0d7 873f
00000310: 551d 408c ae70 b33f 10aa b75b fdea cd3f
00000320: 4c9c bf97 6ccf b13f 4880 4fc2 ad09 d03f
00000330: 8c6e 030c 3b9b a4bf 262d feaf 5056 c3bf
00000340: c40e 12c1 1e81 a53f 7523 ce7f 1bbc d53f
00000350: a07b cbd7 6de3 c6bf 8612 fe9e 975d d03f
00000360: 2a12 1592 9e97 d1bf f454 b261 9f5c c5bf
00000370: 9b08 9636 8268 d1bf 6a7c 4d03 8f1b d2bf
00000380: aa30 d8eb 0b21 bebf fd3f a54e 1737 dabf
00000390: 8c89 2513 06f8 c7bf 8244 f645 eb61 d13f
000003a0: 0948 f462 2652 d4bf a520 1676 52c2 b13f
000003b0: b9da e32b 4cba a43f d772 4222 8592 b8bf
000003c0: c3a3 b4a3 3980 b93f 263a 3204 e1a4 c83f
000003d0: d66b 7718 0320 d4bf 677c 1f40 1963 b23f
000003e0: dd6c 5a2e 2ada b93f c15b 2e81 ff54 ca3f
000003f0: b1fd 87d5 f3fd c4bf 61dc c5fc ceb8 a63f
00000400: 32d6 8fb6 d433 b83f 144d 8292 08a6 bd3f
00000410: e7a0 6e8a a3d5 b2bf 3569 f7a0 35c5 c63f
00000420: 4fb1 3d54 05d0 d83f 2f5b e804 29db c13f
00000430: 887e 9842 ab93 cd3f a347 3178 0b3b d03f
00000440: cd2d 69cd a0f5 b83f dccd 87d0 ae3d c5bf
00000450: 7824 460d 0a25 d33f 8bce ce4b 6cc1 ca3f
00000460: c8a2 fdcd 98f2 c23f 9ba2 38d0 68a1 843f
00000470: 39b4 d450 3bd7 adbf a3d2 04f1 0cf5 c4bf
00000480: a15f 78bb 8b02 d83f 8cc8 990d 5c62 c0bf
00000490: cd3e 6f72 9051 ba3f 8959 7b91 7016 d83f
000004a0: a676 7a58 c2d8 a8bf 63cf 1e0c 91f5 a7bf
000004b0: bd99 ba1b 83d1 77bf 388c 4e8e 84f5 b8bf
000004c0: bdc0 abe9 be05 c6bf d7d7 196a 25fd d73f
000004d0: 8913 9dcc 9dc7 c83f 11ac a5ea 551e c23f
000004e0: 34d1 0ee8 1367 d1bf fd00 f5b8 ce86 d53f
000004f0: b2a3 d04c f81b 9cbf 3a67 3bfd e988 ccbf
00000500: c50e b82d 17a9 c0bf 6cf8 275b bb6d 61bf
00000510: 3ffb bf54 3caa 95bf 28fd 4050 b3dc cb3f
00000520: 1a44 9482 0e0c c63f 60a8 43cc e224 d93f
00000530: 7f4d 2c68 8cbb c1bf d7c8 756d ea3a dabf
00000540: d329 4faa 240a b03f 1ee6 3f9d db70 d4bf
00000550: 7ff2 09b2 e9ce b93f 88b0 77dc 76c0 ccbf
00000560: e9f5 9702 54a6 92bf cc77 73d1 5f3e c43f
00000570: 7073 3f07 0f4c a5bf f0d0 3786 04db d8bf
00000580: 8fd6 b720 ad0e d3bf b48c 6736 eb89 ae3f
00000590: e2bf 36e4 1141 d43f 4f9e 58e4 7e0d d0bf
000005a0: 679d 166d c529 a3bf 93be f8a0 31fd c3bf
000005b0: b2c4 7f6b f28f d03f 5746 c0b4 f46c d5bf
000005c0: ecca e9ba 1d77 d23f ba4f 1649 215c cdbf
000005d0: 388f 6011 cfbf dabf 417c e7c7 0758 a33f
000005e0: c80d 25be b207 babf 12d7 965a 50a5 d2bf
000005f0: c224 0311 36ce d43f 743f 960f ecdd a53f
00000600: 966e f56e 0092 c03f e6ff c4e6 c6ac c13f
00000610: 4201 85af 2d66 c1bf 1474 870e 8f67 aebf
00000620: a8a0 c8a7 3bbf cabf 8973 5f2a eced dabf
00000630: 38ce d36f 7153 acbf 42c7 0f7c bb3b df3f
00000640: b83c acf0 85b3 cfbf 3023 b7cc 9798 9bbf
00000650: 12a3 ded8 0f14 b0bf 3775 ab47 6bd3 ae3f
00000660: 3db1 34fa 1931 bdbf cff1 e334 79e1 af3f
00000670: 7927 0c07 20dc bbbf 2c44 c445 9115 ca3f
00000680: c2ff a294 b21d ae3f a310 d303 f1a0 d3bf
00000690: eb44 0476 f11c c6bf c789 569d 044a b33f
000006a0: 041e abab 72c6 ccbf 16c1 fb88 a55d a53f
000006b0: 6042 442e dac1 c23f 7948 fc59 09b8 cbbf
000006c0: 431c 4265 381e cbbf 35f1 7660 2d10 c3bf
000006d0: 022a d919 4663 d5bf bba6 862a 82a4 c3bf
000006e0: 676c d75f 3b68 cf3f a8ef eaae c355 d4bf
000006f0: 8fed 7706 d551 cd3f 4829 3ab6 1e60 b0bf
00000700: bdd1 7d63 d45c 973f 0d6f 8df8 098a c5bf
00000710: e5d5 b0a3 a4bd d4bf 678d fc24 e81b c53f
00000720: b876 8936 a626 c9bf bcb6 699d 7d7f d5bf
00000730: e23c 18bc 8698 cdbf 1494 cc10 f0cd b93f
00000740: af0b e6f4 94a5 98bf 8ec1 4045 cdcf d53f
00000750: 0f95 7de0 5338 c13f f9b6 acda 3c67 bbbf
00000760: a254 55a9 5d22 d0bf d172 6b89 3dea babf
00000770: 2eb1 7757 0335 9b3f 3a43 f9ca f3b2 d43f
00000780: f621 d7b3 6677 a7bf c195 5f0d d1bd be3f
00000790: 2c69 6660 045c b23f 91af c503 bcf3 a8bf
000007a0: f996 3f5a 2f5a d33f bc5b 8137 4f17 d23f
000007b0: a905 e507 f94b b83f 6ced e533 a957 d9bf
000007c0: eba7 71ee f5cb d13f bfe4 0d18 f0b7 973f
000007d0: d5c5 1139 513e b13f c2b8 c7ce d7db d4bf
000007e0: c42c 502b 7b1c b03f a125 edba 1a34 d5bf
000007f0: fc1a 18fa 99c8 d83f 5102 9660 f76e ddbf
0.20586924724922775 0.14605428336799336 -0.301953769400414 -0.07291339755876675 0.26794948553541426 0.08672684885342331 0.11340135315429002 0.24175727739646483
0.20794732195383084 -0.06833577661839653 -0.27494527142670444 -0.2506103456018827 0.040048278668356196 -0.13651663924743285 -0.22856817029543272 -0.18716519086501787
0.03248418080968604 0.10954326483361893 -0.2770154517773147 0.07796541352913765 -0.2437503529566441 0.21295354553033943 0.16989637216626036 -0.31874621117725827
0.17626825192156262 0.38211445553110585 0.3321619103905136 -0.20020052767041488 0.26866954759183304 0.15366115396952731 -0.11115710421476603 0.308146671161922
-0.16852107159317864 0.2186679103527435 -0.2603532906283038 0.05299223873826924 0.06952921936198442 0.3418163380616077 -0.14512547896049519 0.017813378052073323
-0.08040521730479833 -0.023943473885032332 -0.21271087891368423 -0.046708398156810146 -0.18494991718386208 0.032223683608343844 0.19556869711070285 0.0594407761762918
-0.21147417951893768 0.25568154008767685 0.2172818526882251 0.14740089737770862 0.37077654356844914 0.08116544637294575 -0.16747003759800974 -0.11799163298722214
-0.22411793382402256 -0.33230391014518357 0.22522553675561505 0.11958840439036432 -0.14278852758686866 -0.22606304737285562 0.041271919636440904 0.17265741321118838
-0.2615265888019961 0.17632892981537804 0.13568263424414365 0.14294302723937355 -0.17810940378548312 0.28736263326488987 -0.05915802575326249 -0.24546742609098335
0.3156730914561091 -0.05027736355653503 0.24652651205488765 0.3051595932316934 0.16254379148275622 -0.08939661423421871 -0.01303139814777479 -0.18408340589691205
0.39421652691527664 0.07477124224461527 0.022520035810759724 -0.2261814199675209 0.12019187559426742 -0.006803171307921664 0.3169192584794213 0.14126862452285127
0.1122258630335038 0.22372849664112954 0.2465113535670712 0.048972363911644265 0.15854561721785784 0.02655559029462516 -0.15510711292050341 0.283322852628631
-0.14421695024418196 0.011641980981448578 0.0759381382377929 0.23373381594076692 0.0695712919692692 0.25059074378623736 -0.0402468158879091 -0.15107163041498345
0.042000733440571675 0.3396061657045302 -0.17881558453424606 0.255712418809971 -0.2748791147789996 -0.16688911695806719 -0.27200370150252134 -0.28293204615142165
-0.11769175060198003 -0.409612490465406 -0.1872565835465817 0.27160150367951286 -0.3175140348768087 0.0693713701531374 0.04048383746878898 -0.09598571859755665
0.09961281058043796 0.19253170685665671 -0.314453863041931 0.07182462516310438 0.10098518020315646 0.20571893508596698 -0.1640000145562062 0.044378727298799665
0.09454087693287574 0.11581471993331532 -0.07357236985865577 0.17789335593881508 0.3876965830484282 0.13950073947554517 0.2310689997839186 0.25360380876110805
0.09749798788941817 -0.16594491178658088 0.29913569732941125 0.20902780248217243 0.14802846964018657 0.010073489050300302 -0.05828271257119195 -0.16372834938524247
0.375155385090233 -0.12800169624421576 0.10280707162678056 0.37636961180887646 -0.04852874116953147 -0.04679539940789714 -0.005815040723666729 -0.097496304266813
-0.17205034646713627 0.3748258148328864 0.19359180918595723 0.1415507693994589 -0.2719163671674949 0.3363529974194675 -0.027450446785369294 -0.22292828430982486
-0.1301602338063416 -0.0021275195406352167 -0.02115721003792292 0.21767274302144668 0.17224294067321538 0.3928763384598195 -0.13853602491927217 -0.409845930952668
0.062654773311045 -0.3193882976189303 0.10081348988200921 -0.22462354435936427 -0.018212616594601192 0.15815351225950136 -0.04159590686297221 -0.3883677778933494
-0.29777076907280614 0.05964598693005865 0.3164715508128194 -0.25082371043615564 -0.03742806393284575 -0.15616436347908244 0.2587858247562266 -0.33477513934585573
0.2885202718090756 -0.2293740851279134 -0.417957083673389 0.037780993606923115 -0.10167996542173008 -0.291339958635363 0.32508613263469155 0.04270875635404439
0.12945561807542977 0.13808523433726733 -0.1359307391194396 -0.059383841060231785 -0.2089609689003329 -0.42077163827871594 -0.05532412042694229 0.48802077403444255
-0.24766611339189182 -0.026949283475718733 -0.06280612034482783 0.060206749438047096 -0.1140304790357662 0.06226710100779408 -0.10882759258325149 0.203783186975245
0.05882032455838228 -0.30669808743938115 -0.1727582765820793 0.07534817544232118 -0.22480615026709938 0.04173009202156856 0.1465409017478292 -0.2165538491613608
-0.21185975021600897 -0.148931190587868 -0.33418419384238984 -0.15345789982284494 0.24536840610275876 -0.31773464280899555 0.22905981841891473 -0.06396667431741776
0.02281505448577702 -0.16827511440612178 -0.3240748976271262 0.16491414838774718 -0.19649198210657004 -0.3359064137683665 -0.23121723350821016 0.10079861078391189
-0.0240691446756604 0.3408082176493047 0.13453148328259387 -0.10704403246628748 -0.25209752594430246 -0.10513672451947832 0.02656941624984304 0.3234223825611938
-0.04583283372227591 0.12008387161730295 0.071716569457213 -0.0487345461468457 0.3023794537860876 0.2826726953548435 0.09490925257434547 -0.3959753996675406
0.2780737713388805 0.023162604778438785 0.06735713618561275 -0.32591815179229056 0.06293458754969367 -0.33130520109679124 0.38724374221094116 -0.459897846529235

transformer.encoder.layers.0.self_attn.in_proj_bias f8 [48]
00000000: c36c 60c8 fe8e 833f ac61 51bf 78ac 7b3f
00000010: 09ff 01fb c446 82bf e9ea 0aed 1e6a acbf
00000020: 78fb c3fc 3bf2 a33f 534b 03df f492 aa3f
00000030: e0be f656 f97c 8d3f b4ab a7a2 7329 a13f
00000040: d6db 6fe4 5dc7 8fbf 4b0f 5355 10e5 933f
00000050: 36c9 582c 3656 bdbf e359 38e5 1b93 c0bf
00000060: f519 5d90 59c7 b73f ecc8 0679 79b7 9abf
00000070: 560c 8d32 8d98 c13f 47aa 53f0 a941 cebf
00000080: f1f9 f2fd 6422 1e3d dac5 b8f3 4dee 6bbd
00000090: 6fc9 f7da 5388 30bd 25a5 a7bb 2a76 02bd
000000a0: 5ffe bed7 4cc8 5dbd 9cd8 cd30 a74c 093d
000000b0: 12a6 30e9 7d29 24bd 8b0f 16b2 6bf5 52bd
000000c0: caec 1443 97ef 00bd c706 11b3 ebe2 44bd
000000d0: a6d7 6bca d2aa 563d 794b 2109 5d36 483d
000000e0: 5e12 3fdd f8c0 25bd 7f09 4815 1a10 54bd
000000f0: 3646 32bd 1e1e 083d d6e2 9a33 398f 2f3d
00000100: 9e47 466a f0b0 43bf 9c6a b6cf e2f0 5cbf
00000110: c025 aae3 aae5 a03f bca9 6c6c f643 843f
00000120: 9c2f 9d61 0e20 403f 39d5 5bc7 2aa2 8ebf
00000130: 0116 868a 5639 903f c26e 7ef3 946a 8b3f
00000140: 3e6d e973 9474 90bf ae3b cf8f f4c3 b83f
00000150: 3b34 424d 62f2 95bf c9d4 cfc0 4229 97bf
00000160: 64c7 4087 5cf7 64bf 547a 12aa d132 9b3f
00000170: ded2 ca9f 8eae 94bf 566f 72dc 78fc 953f
0.009550085535059321 0.0067562786762995035 -0.008924044523382262 -0.05549713748538016 0.038957476239366906 0.05190243933033991 0.014398525206018531 0.033519376378385785
-0.015516980680315411 0.019428496558944002 -0.11459673483549157 -0.12948940937412975 0.09288558744911042 -0.026090524684783498 0.13746800392445618 -0.23637890085895405
2.6764682484040593e-14 -7.93843268914636e-13 -5.87353438099467e-14 -8.19859271771955e-15 -4.2323367960416005e-13 1.1235202158276746e-14 -3.581504425980945e-14 -2.694189696966428e-13
-7.521051259798565e-15 -1.484068618298223e-13 3.2212140739247814e-13 1.7203914461260203e-13 -3.864250673579589e-14 -2.8511092860107977e-13 1.071039103657473e-14 5.606087430165671e-14
-0.0006009267713571358 -0.0017664160685401447 0.03300222424611432 0.009895253356792526 0.000492102644082493 -0.014957746705003149 0.015843727307148118 0.013386882477610999
-0.016069717001625287 0.09674004088377217 -0.02143243404912119 -0.022618334787655656 -0.0025593573755253052 0.026561046605474495 -0.02019713259024313 0.021470917181985648

transformer.encoder.layers.0.self_attn.out_proj.weight f8 [16, 16]
00000000: 9b66 71db 7b80 9cbf 151e d386 d2ef d53f
00000010: 1bfa f2ae 07b0 d4bf 4ae9 424d 61ae c43f
00000020: 60d4 ddb8 538f ce3f e58c 89d7 c1e2 cf3f
00000030: c309 49e4 03ae d0bf a386 02e8 7334 c33f
00000040: 0d16 eaa2 1fcf c3bf d17a 4356 dfc2 da3f
00000050: 7c58 aa18 abfa 7bbf ee61 aaf1 6288 4c3f
00000060: 9551 f8c3 37f8 d7bf ce59 570b 7597 d13f
00000070: 85f0 43cc db2a cabf 81c8 ab81 4dd8 bfbf
00000080: f5b5 1471 f702 d6bf 1a93 15b9 841d babf
00000090: f01d 6074 fe12 c83f d68f a4a8 06b1 b53f
000000a0: 56a4 478e 38b6 c6bf 099d d167 fcb8 b8bf
000000b0: c6d4 c85c 3fcb c2bf 2d59 6ebe 720c dabf
000000c0: b8b3 abfd 93f4 bc3f f81c 4dac 3a71 d7bf
000000d0: 05d5 ec0c a270 c4bf 00c9 1d9b a872 d8bf
000000e0: 6328 1888 d743 dcbf 4e3c f9ae a627 d73f
000000f0: abef 66d4 d191 cf3f 3613 1b62 6479 c2bf
00000100: 9368 fd6a 6f1c b13f 9dce 7241 3c5a d5bf
00000110: 3cfb 8416 b08c d0bf da7e b516 8e3d 5a3f
00000120: 562c 8612 9c88 c03f 6807 1e96 3ea1 d2bf
00000130: f0fd 2c88 2048 d8bf 88b4 f1ee a58c d3bf
00000140: ea7b 256d e87d 73bf 9648 ff6b 627f d53f
00000150: 0d75 3a25 8ba4 76bf 4f82 08e5 d0f2 c43f
00000160: 9a45 dd5d fc27 db3f 0251 8335 c28d cd3f
00000170: f5e5 2e7c 7436 df3f 8577 9431 f2a3 d6bf
00000180: 0833 38b0 d1f1 d73f d804 ef65 ecb2 ccbf
00000190: a29f ba5a 7239 b63f 928c a7f6 4a24 b33f
000001a0: 754b 2a98 79d8 d0bf 7b35 ae71 11df cdbf
000001b0: ca60 c98f c1e1 ca3f db6a 195f 0412 bb3f
000001c0: 09b2 98e3 ceab d43f 81ec 0af1 c35b cdbf
000001d0: a126 f030 3544 c8bf 46fa a531 781c b23f
000001e0: 7f78 257d 3d72 85bf f491 7cb2 52d1 c83f
000001f0: 221d 88d2 d7ae d8bf 6349 877f 9276 c1bf
00000200: b9c2 08b0 576e d6bf cf76 4125 5e69 b93f
00000210: edfb 0843 688b d43f 2a9f eb7c 3ae4 d7bf
00000220: 19ec 5c4e a9ec d9bf 5481 741e ee7b c9bf
00000230: 896a 63ae 4e75 cdbf db9b ab10 abaa d5bf
00000240: baff c62b bd2d 8b3f 2b3c 0a60 c8dd d23f
00000250: 52be 49ea 8aa6 dabf 989d 50a2 1464 d7bf
00000260: 2e08 175e 7c99 d13f 5260 71be e6a3 c4bf
00000270: 6d36 391b c179 b13f 651a 00ab f43c da3f
00000280: 4d09 7181 68a7 bd3f 1e35 fa44 36ba 76bf
00000290: 269b 0c73 ef76 c7bf 630a 4a76 f773 d4bf
000002a0: 885a 64f8 785b d2bf 4cdc f994 cb16 d83f
000002b0: 4736 506a 78d0 c3bf 5d44 f57f 0373 d1bf
000002c0: 2a31 0e8e ec79 c33f cd3b 10ec 01b7 c2bf
000002d0: cfb4 4b86 18d7 ce3f ce5c 4937 7ce1 603f
000002e0: 040c 18df 6fc2 d13f e153 d50e eec4 d63f
000002f0: 4173 39cc 6084 c73f ac56 3649 fbda ccbf
00000300: d9cc 0eb4 f469 d1bf 82ca b635 9224 d03f
00000310: 3365 1fdd 0c0d d0bf 9cdc a09c 19ea dabf
00000320: e198 9680 ec34 adbf 11cf fafd 1138 bfbf
00000330: 965a c67c 59bf d83f 3c8b 6751 0c59 d6bf
00000340: 5e75 d359 b81a be3f c599 566f 3060 a7bf
00000350: 0152 07b1 08e6 7abf 4a56 2486 553f cdbf
00000360: 61b1 e590 40b4 cbbf adf5 893f 7380 cbbf
00000370: a415 b8e5 0770 bfbf 5368 9962 ba03 c9bf
00000380: 6c66 4d00 9f48 da3f 98df ce29 5bd8 d03f
00000390: 6336 ba7b 26f6 d43f 98b5 66df 9919 b43f
000003a0: 79a9 c1c9 5036 d23f 552b 5144 29d5 d4bf
000003b0: bcf0 2fec 5d58 c53f eaef 5172 d4b9 cb3f
000003c0: c06d 3f3c 9c27 ccbf b4fd 8c0b 0659 c03f
000003d0: 4ac2 fd9d 7024 c33f eaf4 b29f ef36 bdbf
000003e0: 3ef5 ceec 4bb3 a5bf 3d3b 6516 9b2f 983f
000003f0: 07cb 6df6 59ca b3bf 522c 6856 02ac d53f
00000400: aa66 188b 56ac d43f cdf8 dd86 200f a63f
00000410: 00ff 00c6 5bc2 9ebf eb74 c245 3bf8 d6bf
00000420: 6be4 0069 1e6f db3f 9335 3dbb 4e02 cc3f
00000430: d78e 96d3 3fbf d93f 4218 a2d5 69fb ccbf
00000440: 6fa4 8605 ea82 a03f 391a 6dd1 6e2d c63f
00000450: aea6 bc4d fa12 d5bf 711b 50d8 fca6 b8bf
00000460: 5967 2406 fccb c3bf ce66 3a17 0bca cf3f
00000470: 0247 fe48 fd4b b83f 9230 66f8 ebed c73f
00000480: 11b5 8987 a9b0 9d3f 1880 3be5 f0e4 cb3f
00000490: 1538 efb2 0f9d d5bf 2f64 eacd 5432 cbbf
000004a0: b0a3 6e29 17e3 da3f 0df0 1d08 f2b4 c33f
000004b0: 52e4 59a2 3822 d1bf b0c1 85b0 3815 d53f
000004c0: 47c7 7f3f 380d d5bf 9455 a6ac d957 d3bf
000004d0: c8b1 bdcf 052d c63f e815 c923 1e10 d6bf
000004e0: 38ac 542a 69f6 abbf c131 90c6 eb9d bfbf
000004f0: 169b e778 7803 e03f 75ce 1aa5 3529 943f
00000500: 9c76 b003 5d4c cdbf 9579 c41a 5092 b33f
00000510: 81c7 54fc f8f2 c83f 8ac4 e858 552e cfbf
00000520: 52cf d12c 7dc3 a23f 13c9 4d08 c4aa b1bf
00000530: c91c fbd4 ca29 d73f 8640 251b 4a6b d23f
00000540: 54d7 a697 7ae0 c13f 2018 da5a 4712 cf3f
00000550: c8c5 fc1a 551f bd3f 71c3 9015 7878 c03f
00000560: ddfb ee5f 2b5b d53f 8116 58ca a4bf d23f
00000570: 83cd fb5c c316 c43f 94da c62a 12dc c1bf
00000580: b894 063e eaa8 c53f 22e4 e31f 66ae c03f
00000590: c004 f662 8f61 7a3f 31da aba3 3e86 d7bf
000005a0: df58 bc1e b1b0 b03f 9398 c529 ffac d3bf
000005b0: e071 26e8 62df dc3f 8158 e05a ec82 6abf
000005c0: 116f 3de3 2a7c d0bf 3d4b b67c 634d ccbf
000005d0: fc02 0520 5b93 c0bf cc04 24d2 e012 c53f
000005e0: 377f c724 b14b d5bf 6cbf 58aa b7a0 cabf
000005f0: 40d3 8494 846d 9f3f 42ca 5203 741f d4bf
00000600: 8488 6159 92a9 cd3f 83d6 b24d af32 d73f
00000610: 7c51 421e 8d21 d13f 3c44 0270 a3b3 cfbf
00000620: dd61 8865 2ab5 d93f 655f 1fe4 2d64 b93f
00000630: f03a eca4 a8d6 c8bf db35 0913 f44f d6bf
00000640: e186 a74e fdc7 acbf f1ed 42af b82b ccbf
00000650: efec 3efb 6f54 d13f f9dd dd27 bd74 b83f
00000660: b653 427d 13d9 d93f 8f7d 4af4 d1ee bcbf
00000670: acaa 16a6 75e7 c03f cb8b 8fe5 d5d1 a63f
00000680: 1aad b0c8 be6a afbf 60a7 c0e1 1469 da3f
00000690: 0a70 787c 46aa 9bbf 2f31 ea53 849c d03f
000006a0: 52dd fc96 0331 b0bf 2a2a c8f4 2946 d6bf
000006b0: 256c 81fd b2b1 9a3f 8069 1774 8768 cd3f
000006c0: f6fe b75a e7ab d4bf 4e2e 6f34 a6a7 a8bf
000006d0: 26d7 d388 46fc d3bf 943e 5052 6ff9 bd3f
000006e0: 8e29 d484 5cf0 cabf d18b 91fd 9abd d93f
000006f0: cb7e d35d 38ee b5bf 4161 1c34 ad81 da3f
00000700: 0699 dccb f23f c83f b954 178b 949d c93f
00000710: 53fe 1be4 413d c4bf 2049 3309 d278 b83f
00000720: 45fe 85db 03ba d6bf 91aa e5c8 871d d4bf
00000730: 5758 2f08 d174 d7bf 936f 413a 4ff8 cd3f
00000740: 6de1 44b5 c298 d2bf 272d 594e 4335 96bf
00000750: f6ad 7d1f e993 cb3f 4b5c cec4 b0c3 be3f
00000760: 1adf c0ae b1e3 983f 0b0e b089 f737 be3f
00000770: a886 aeed cb25 933f 87a1 f381 e8a1 de3f
00000780: 8155 ee11 13d6 cabf b324 d737 70c9 da3f
00000790: 86be 06aa 0295 ac3f df70 d920 a6c1 d1bf
000007a0: 869e 0b79 915f d4bf 7458 d7ac 9391 d13f
000007b0: 70db 9149 61a1 c7bf edf9 8e1c 74e7 d33f
000007c0: 8222 0bb4 a412 ce3f 9257 d5fe e2fa d33f
000007d0: 9c90 ca33 d7f5 d5bf e52a 9fe7 5668 d73f
000007e0: eeb6 4269 d592 c83f 30b3 ee17 dac0 d63f
000007f0: a907 5239 a13a cb3f 7fcd 3c5f 0725 d4bf
-0.02783387686608894 0.34276259581062735 -0.3232440193641268 0.16157165787246647 0.23874899412809025 0.24910758041651274 -0.2606210450504955 0.15003823116881163
-0.15475841002277982 0.41814406799487097 -0.006830852837671594 0.0008707507252721494 -0.37452501428313073 0.27486921412983356 -0.20443294023414552 -0.12439426818653666
-0.34393106501633436 -0.10201291578921393 0.18807964975734093 0.08473245255714743 -0.17743594119318357 -0.09657266173018199 -0.14682762175076486 -0.4070097789457517
0.11310696547634691 -0.36628596140185676 -0.15968728667363777 -0.3819982065971459 -0.4416407422110124 0.36179511153472255 0.24663756247707389 -0.14432959356613545
0.06684013711984198 -0.3336325301308792 -0.258586904517802 0.0016015899262455308 0.1291689959001327 -0.2910915819157851 -0.37940228746808113 -0.3054594834746429
-0.004758747020189505 0.33589993044473354 -0.0055280146949858834 0.16366015609038917 0.42431553999366545 0.23088863003670929 0.48769867064728994 -0.3537564739398181
0.37413446625650737 -0.2242103097651469 0.08681406703055797 0.07477253457868674 -0.26321258411297005 -0.233369999416407 0.21001452942687698 0.10574366876373224
0.32298633791177217 -0.229362957665078 -0.18958153619341991 0.07074691021078036 -0.010471802121795768 0.19388803210416905 -0.3856715732549266 -0.13643103816009292
-0.350484773548526 0.09926403436244445 0.321008744682273 -0.373304960243774 -0.4050696625960782 -0.1990945481020484 -0.23014243617111088 -0.3385417616649968
0.01327083387229765 0.2947865426912723 -0.41641495589917554 -0.36548343516411697 0.27499303043817036 -0.16125187205284647 0.06826407351146609 0.40997044276483613
0.11583569679445312 -0.005548679342280564 -0.18331711881293095 -0.3195780425232099 -0.2868330407813251 0.376391311153786 -0.15479951087074736 -0.2726448773947306
0.15215832649517697 -0.1462099459317571 0.24093920285614565 0.0020606447308569647 0.27749249254719666 0.3557696480614237 0.1837273595037008 -0.2254327876550425
-0.272092033231457 0.25223212476263523 -0.2507965239907037 -0.42053833289851084 -0.05704440183335336 -0.12194931460072335 0.3866790503028964 -0.3491850657430182
0.11759521668451131 -0.045655740347956754 -0.006567033721200933 -0.22849530267619605 -0.21643836093006555 -0.21485748865590662 -0.12280320509315473 -0.19542627157608425
0.410682440085657 0.2632053287775249 0.3275238235736195 0.07851564125186028 0.2845651598242039 -0.3255103270682203 0.16675924332219505 0.21660857755693935
-0.2199588102510983 0.12771678508759765 0.14954955782333662 -0.11411950730230883 -0.04238354936340237 0.023619101755055317 -0.07730638758020457 0.33862360418487925
0.32301868041541104 0.043084160292879405 -0.030038293800543237 -0.35890085041485403 0.4286571526932394 0.2188204206708347 0.40229793227102334 -0.22642252856548067
0.03224879567580607 0.1732615015591408 -0.3292833098554223 -0.0962980297191345 -0.15466261196052747 0.24835337289987652 0.09490950614988594 0.18694829586855072
0.028994225404336996 0.21792422478665752 -0.3377112624556287 -0.21247348837349153 0.4201105026827987 0.15395951649031794 -0.2677136979542115 0.32942025412105647
-0.3289318676098571 -0.3022369562180185 0.17324898379901144 -0.3447337483852082 -0.054614340226486424 -0.12350343320594616 0.5004236565990563 0.019688451959793036
-0.228892924119397 0.07645130780699667 0.19491493531091567 -0.24360148278495714 0.036647712441576843 -0.06901192858439158 0.3619258003131561 0.2877984299748352
0.13966305165166182 0.24274532257203507 0.11375934513923547 0.1286764245319563 0.3336895405627141 0.29294700393834466 0.15694467582907742 -0.13952853287419897
0.16921737698172534 0.13032223279131566 0.0064406968152763144 -0.367568645320179 0.06519610405334529 -0.3074338825157465 0.4511344210712007 -0.003236257201034099
-0.25757858458904176 -0.22111171330888083 -0.12949694694000147 0.1646386171414974 -0.3327448710606293 -0.20802970712383784 0.03069121510016548 -0.314419749494082
0.23173741688066596 0.36246855342628964 0.2676728053568451 -0.24766962975675877 0.40168247142130814 0.09918486422918489 -0.19405086567754593 -0.34862996920568684
-0.05621329865586034 -0.2200842719811216 0.2707786515781682 0.09553129409129459 0.40387427551587096 -0.11301910604605879 0.1320635853747566 0.04456966807608572
-0.06136127662497355 0.4126636700262818 -0.027016736361574124 0.2595530337792011 -0.06324789463257233 -0.3480324640701463 0.026068493578673597 0.22975247543838506
-0.3229921708989275 -0.04815406217639105 -0.31227267610607823 0.11708732375722725 -0.2104602478578496 0.40219759714653686 -0.08566620150258612 0.4141648301024539
0.18945155100045258 0.2001214675098362 -0.1581194270911391 0.09559357380502265 -0.3551034587653457 -0.3143023931394647 -0.3665049152308532 0.23414030403625627
-0.29057376577431776 -0.021687556893352024 0.21545137441294998 0.12017350010715792 0.024306083956815085 0.11804148780361616 0.01869887006944873 0.478632094293538
-0.20965803504502037 0.41854482129253795 0.05582435918347266 -0.27744439323374864 -0.3183330232700218 0.2745103061582832 -0.18461242763779806 0.3110018042461025
0.23494395056902212 0.31218790899344484 -0.3431299215101349 0.36574337596236567 0.19198100700071258 0.3555207475390487 0.2127267389187726 -0.3147600584081473

transformer.encoder.layers.0.self_attn.out_proj.bias f8 [16]
00000000: 9965 6822 c4c6 723f 6ee5 efbf f58b 8c3f
00000010: e8a9 9953 0e6a 763f 01d9 561f 5347 3abf
00000020: d17d 3a9c 1ebf 873f 0668 c0c6 0939 a7bf
00000030: 10df c965 b68a 503f c8cf 7efd 621d 853f
00000040: 7033 3a94 7e72 953f 0be1 5b82 1395 a6bf
00000050: d918 1590 f23f 8e3f a468 303e ca3b 8bbf
00000060: f5a8 0dfa 9591 8fbf efdc a808 305c 623f
00000070: 5fd3 7f06 a613 a03f 0754 084a eb0b 95bf
0.004584089422246329 0.013938827438311843 0.005472236598146975 -0.00040097979885035667 0.011595000403132357 -0.045357041846912735 0.0010096341349292194 0.010309956894935982
0.02094457416255885 -0.04410611120505522 0.014770407697721687 -0.013297634146557442 -0.01541440171577733 0.0022412241135288872 0.03139990643823042 -0.020553280252062957

transformer.encoder.layers.0.linear1.weight f8 [128, 16]
00000000: 5fb6 a550 471f b53f 3589 8812 37e8 a73f
00000010: 8aea 7a2d 44cf c2bf 7a63 66c5 098b c2bf
00000020: f350 08de be89 c5bf 15f2 eaeb 9356 b93f
00000030: 8126 bdfe df95 cdbf caad f7a2 aac8 b2bf
00000040: 8afd e136 6196 a63f 7b44 5d4f 568e 9e3f
00000050: 058d 9416 c474 ba3f 873b eae5 e845 b6bf
00000060: 5e16 3a20 6dc8 bc3f 124c f71a 8a18 cdbf
00000070: 563f 95c3 a925 32bf 710a b449 131f abbf
00000080: b64e 848a d330 45bf 3308 8a46 6ed8 c7bf
00000090: b221 20bf dca0 cabf 8ebb 55b2 adfd bcbf
000000a0: 3f5a 24ec 2d55 cbbf a099 6734 250e c13f
000000b0: 5b1e 7604 a630 cabf 42a8 924e 985a b73f
000000c0: e76c 8a0b 3790 c2bf 8b88 70cb f364 bb3f
000000d0: 1e10 b99e f157 b63f eba7 3c13 4458 c4bf
000000e0: e917 3758 dfc4 abbf cc2d 32a4 6478 c6bf
000000f0: 925b 56a1 4a5b b23f 0dc1 842d 5313 ba3f
00000100: dd6f 3ac2 e919 ae3f 0cf6 c55b 7c88 c13f
00000110: c735 4907 ea00 b63f 22d6 7efc dc7c 93bf
00000120: 5de9 1435 938f c93f 7a22 a801 bfdd b8bf
00000130: 8c54 e0ef bf57 bbbf 2b24 78b0 c846 ba3f
00000140: 0952 433c d076 a83f 1256 ce88 02f0 bb3f
00000150: 6df3 2a8d 57dd bf3f e0b1 b4eb 1e4f b43f
00000160: 921a 3070 262e 9f3f 06e5 175a 8d69 b7bf
00000170: 9f56 3ce5 4646 77bf 31e8 f84d 991d a5bf
00000180: 7de6 54af 8705 a03f 9b84 60d4 638f b93f
00000190: 063b b15d 7a84 b13f 153f 65bb c2ee c53f
000001a0: cf44 c645 a420 b4bf 0887 4320 f144 bdbf
000001b0: afc3 a191 4cac af3f e9c5 3aa5 8d52 bebf
000001c0: a00a ca03 8490 96bf 30a6 d647 8a6b babf
000001d0: 0cc7 7291 3829 c13f 073b b6fe 0d6c c3bf
000001e0: d835 62da 168d a3bf a606 53f7 f95d a43f
000001f0: b761 0824 8eea 89bf 7568 d966 70e4 b63f
00000200: 15c7 871e 105c bcbf 6af4 39f4 4433 b93f
00000210: fad2 4484 4064 ca3f 0a82 bb5a a839 ce3f
00000220: 1e7e 7714 0b0a a53f e8ff 8122 bb81 a6bf
00000230: dbf3 29a3 fae8 bdbf e58c f546 da6f d8bf
00000240: 3a09 1825 f15b c83f 6cb2 4e1b 45c2 bf3f
00000250: 9c39 86df fbc8 d1bf a62c 34ee cbcc 9d3f
00000260: 292e fe47 fcb8 aabf b6ff a017 6c8d b2bf
00000270: 2498 21db f9f5 9ebf 2135 2ea6 0519 a5bf
00000280: c711 203b b48e b73f 067d cf59 a047 b33f
00000290: 5909 788b da00 af3f 613e 1163 a598 b23f
000002a0: f18a a286 13a5 78bf d8b6 8c63 eece a5bf
000002b0: 7c29 0c40 49a1 b3bf fcd0 4bc3 a79b c03f
000002c0: cc34 7692 afdc 7fbf da40 21e9 0c96 a5bf
000002d0: ff07 30ba a4e0 c9bf 1bfe 38a0 d484 b13f
000002e0: e649 3778 9b50 9fbf 6119 e425 7a1b c4bf
000002f0: 4f52 f3a1 b913 aabf 2158 99c0 b5da 9bbf
00000300: 3600 ad0c 8e45 c5bf 359f 6b7c ec3c a43f
00000310: e992 947c 629f b5bf cc48 c23a 7290 99bf
00000320: 432d 50e3 b1cc c0bf b38f 9394 5b51 bdbf
00000330: d7e0 14f8 166a c63f e419 e81c 7030 b93f
00000340: d0ec 40d1 a174 c7bf 3fdd 64df aee5 93bf
00000350: 625c c6d3 8baf b4bf f63a f73b 365e c5bf
00000360: edfb ad13 ffab be3f ee1c 2cf6 5b28 acbf
00000370: fd86 30c1 cc2a 933f a963 c1c6 0140 c8bf
00000380: 4b73 5dd8 0125 c83f 7aff ad9e 2404 a5bf
00000390: c11d d97f 430c b13f ba23 1a5f 3887 a4bf
000003a0: fed3 2ada 9f93 b4bf 3e8e 9240 a4a3 bebf
000003b0: 5312 7dc3 4255 b0bf 5bc9 f4f3 8fb8 b63f
000003c0: e3f0 ce2c f140 bfbf 7502 f289 82a8 af3f
000003d0: 7a36 21c0 f05f c0bf 51b0 bf7a 924c bf3f
000003e0: f9dd 581f 75a5 ae3f 9144 3430 3b7c a73f
000003f0: cabb a108 f45f c1bf ee41 4635 c330 73bf
00000400: 1cc0 e563 8e2c c1bf 267b 498b 416e 51bf
00000410: 6c5f 52eb c8db c03f d77d baf8 3012 b73f
00000420: f1be 98d1 8e55 c6bf a63d c6bb ecb7 cb3f
00000430: b3fc 9a06 2845 a0bf 15c4 f559 1a80 b6bf
00000440: aefe ff10 d4b0 d23f bf6f 62b0 fc78 c13f
00000450: 4143 f3fd e353 c1bf c04a c284 172a aabf
00000460: e4f6 7964 ab69 af3f 44e6 ede1 2b5b adbf
00000470: d0eb 529b f16f 9c3f 4675 475c 015f a13f
00000480: c465 4265 802a b33f aa56 b55d d20a b2bf
00000490: d47d 184c 2fc8 bf3f 35cf a0d1 6f47 adbf
000004a0: a602 decd 7f11 bdbf 7211 c22c 845b b2bf
000004b0: bd4f c9d1 1562 c93f a1cf cffa 0f5b babf
000004c0: 28d6 4846 2fc3 cbbf 725a 57e2 370d ba3f
000004d0: ad4c 62ad 4b98 b83f 9941 a25c 4854 96bf
000004e0: b44b 554b 18f9 aebf d8d4 d74e bd5f bebf
000004f0: 1b5c 251f 4871 afbf b9d2 6526 e11e b8bf
00000500: 8db0 15e1 e00f c63f 3023 17fc 0599 b0bf
00000510: 0d7c 3d35 24cf bfbf 810e 6336 1634 b93f
00000520: 84a6 07f7 8b37 82bf 6a5f 23ac 24b7 ca3f
00000530: 5cbf 9ae4 7c85 903f fe89 3193 23b9 a9bf
00000540: 6760 1341 5b23 d0bf 8b66 7068 9a39 c03f
00000550: fb27 0332 cbc9 c83f 6392 40f7 63ac b53f
00000560: ceca 91ea 83c3 b1bf 057c 71ba dd55 c5bf
00000570: 6c1d 3f6e 103d b53f 8ac2 830e 9273 a2bf
00000580: 2a5c 3678 c23a c1bf 0abb 7ad5 f021 8e3f
00000590: 7daf 5826 688a 953f de0d 7dd0 4e8e bebf
000005a0: 8322 5c9e 32bc bfbf 8861 0e0f 94aa c7bf
000005b0: 5eb8 6a33 cadf c2bf baab d9da eb88 b4bf
000005c0: a9dd e726 0606 c93f 4e05 c8fb 5fe7 bdbf
000005d0: 9756 2296 9ca6 b2bf 5898 2e6d bba2 c1bf
000005e0: b0c1 09db a35b b23f aba1 2bff 4560 cdbf
000005f0: 59e7 c1e6 75c0 b3bf 334b 7183 14f2 c1bf
00000600: ded1 52f9 4ed7 a6bf 6e40 53dd 8690 bc3f
00000610: d53e a0d5 0e06 b53f 5c0a c231 ab5c 373f
00000620: a1c8 78ae 799a ba3f 7e48 30ce 5b61 c0bf
00000630: d7ed 8d5d abef c5bf 0537 d9be a044 c4bf
00000640: fc76 2fe0 219b d13f 4354 c9ae f08a bc3f
00000650: 14f1 b3d5 24b8 a53f 1382 97ff 439e b8bf
00000660: 90ef 258c 1133 b03f 08b1 4913 6ccf adbf
00000670: 865a 4f5b ef92 b83f 0a70 0823 9ba6 ba3f
00000680: 555b 737e 7863 c03f 1d4b fc67 5613 74bf
00000690: 7dcd 87e7 b480 bcbf bea8 faad cf2f b23f
000006a0: f79b 7cb5 4c2a bebf 33fd 5f7a 487a c0bf
000006b0: f84a fe46 3344 bebf 53a6 e640 2072 d1bf
000006c0: ae38 bc7a 0672 c13f bed9 19b2 c370 c8bf
000006d0: 28be 6d5d 00ad cdbf 0bea 01f9 61bf a2bf
000006e0: c31e b5fe 99fa adbf 1326 0ca0 9316 793f
000006f0: 480f ef3b 05d5 8ebf 6325 951b 260f b7bf
00000700: 818f d817 daec 773f eda7 7a35 aa7e c7bf
00000710: c221 3fcf efb1 b53f ab44 a6fe c3f5 80bf
00000720: 8a3e 8692 d108 c0bf 1a7b e55f a4fd b63f
00000730: 5ce6 cd34 9e96 b5bf d193 0f0e d72d be3f
00000740: 788c 5953 69de d3bf 5d4d 043b ec3a a9bf
00000750: b294 621d a48f db3f ea23 e401 7417 c8bf
00000760: f0cd 6df5 8d7b bb3f d643 a140 b515 ccbf
00000770: b0fc cc14 2029 b13f 9370 060b adfd b7bf
00000780: 3fbd 487d 4e64 d1bf 0608 161c b3aa c8bf
00000790: b432 aa7c 5032 c5bf 590b 2cf8 2914 abbf
000007a0: 8ef9 e180 455a b1bf 029a d863 0b15 b5bf
000007b0: 6f47 6fcf db8d a3bf 54b0 0345 d8d1 a73f
000007c0: c181 6a6b 8a50 be3f a119 72c6 4e81 c3bf
000007d0: 8a02 6b75 a888 c7bf 70cf 940b 426b c13f
000007e0: 1b43 c384 4b17 193f 6805 32fc 129d b93f
000007f0: 4d2e cbed e06a 9e3f aaf5 5db4 60a6 c1bf
0.08250852316788258 0.046693535816546484 -0.1469502660819056 -0.1448681081644983 -0.16826616136007252 0.09897732267104005 -0.23113632143422438 -0.0733744285459387
0.044116056394155015 0.029839848131193208 0.10334420729900635 -0.08700423825415103 0.11243326222219127 -0.22731138531398237 -0.0002769031012421671 -0.05297146105478568
-0.0006466896930156982 -0.1862924427442195 -0.20803412754345413 -0.11324582675818659 -0.21353696852084345 0.1332441812402978 -0.20460963456956702 0.09122611921580506
-0.1450260931349938 0.10700916020189959 0.08727941632338385 -0.1589436620645864 -0.054236392515619354 -0.17554910676368107 0.07170549811267637 0.10185737477582198
0.05879145141554407 0.13697771531217062 0.08595144918327612 -0.019031002913569968 0.19969406215552513 -0.09713357725571284 -0.10680770498614062 0.10264257725079122
0.047781474453277246 0.10913101043691878 0.12447116085509231 0.079332287354823 0.030449486348539674 -0.09145434808296579 -0.005682255683287756 -0.041241446273901146
0.031292190697468115 0.09984420714364932 0.06842770373735271 0.17134889745874973 -0.07862307265738198 -0.11433321988763734 0.06186141278966006 -0.11844716342854834
-0.02203565858008949 -0.10320343259686449 0.1340704641530056 -0.15173506676770662 -0.038185800703199824 0.03977948326202112 -0.012654409861213673 0.08942320357292195
-0.11077976937647478 0.09843855822141881 0.20618444879951153 0.2361345713643604 0.041092249153504165 -0.04395851894605568 -0.1168362282132444 -0.3818269436798814
0.19030584632134567 0.12405807415661635 -0.27789208248659647 0.029101549543196235 -0.05219257716006737 -0.07247043206098067 -0.030235198974331592 -0.041206528220849366
0.09202124064910953 0.07531168167723842 0.06055338814259654 0.07264169376980469 -0.006016804001918828 -0.04259438481527206 -0.07667978109035362 0.12975022350259013
-0.007778821781710476 -0.042160418947448 -0.20216807452385407 0.06843308364567983 -0.030580929958725543 -0.15708853578707774 -0.0509317407792521 -0.02720149982481968
-0.16618514651236332 0.03952731150439918 -0.08446326772225245 -0.02496508105884558 -0.13124679183270346 -0.11452267052987856 0.17511260140759674 0.09839535432556762
-0.1832468291994247 -0.019430858979118112 -0.08080362243923525 -0.16693761756911102 0.11981195669612506 -0.05499541645081672 0.01871795586715218 -0.18945333676199752
0.18862937035273783 -0.041047233934476915 0.06659337874690775 -0.04009414826311493 -0.08037756992673903 -0.11968447281338343 -0.06380097649259513 0.08875369745218135
-0.1220846876521509 0.061832503642112714 -0.12792786961874808 0.12226214882656562 0.059856090618662657 0.04586968387059998 -0.1357407610080073 -0.004685175449040886
-0.13417224767499725 -0.0010638847426418046 0.13170730104752282 0.09012132713768693 -0.17448601946079337 0.21655043762846765 -0.031777621084523665 -0.08789219566621427
0.29204274807123454 0.13650473225140833 -0.135372637747901 -0.05110238547890367 0.061353069319904724 -0.05733620770383799 0.02777078161737362 0.03392795802549613
0.07486727211143945 -0.07047762668420413 0.12414832694820827 -0.057185644473433696 -0.11354826713614816 -0.07170892803885012 0.19830582374072306 -0.1029520022710231
-0.2168940632997629 0.10176419521244798 0.0960738466549624 -0.02180588784591606 -0.06049419326395569 -0.11864836859588779 -0.061411145975107405 -0.09422118365712152
0.17235957136597727 -0.06483495144415197 -0.12425447749909342 0.09845103099638132 -0.008895009495023538 0.20871408848938283 0.016134215786848358 -0.05024062320514487
-0.25215798716590715 0.12675790881694513 0.19365825597770922 0.08466172014647948 -0.06938957669062093 -0.16668292621304218 0.0829630154759024 -0.03603798319989433
-0.13460570211165762 0.014713174357294818 0.021035792675476273 -0.11935894575167746 -0.12396541944702659 -0.18489313826718168 -0.1474545241412128 -0.08021425335907298
0.19549633884137776 -0.1168117513371005 -0.07285479226478696 -0.1377786906352323 0.07171081636057042 -0.22950053176397253 -0.07715546497084115 -0.14020019929974978
-0.04461142343044221 0.11158030417868911 0.08212368693807133 0.00035647563505151135 0.10391960630002696 -0.12797114913752589 -0.17137662952505536 -0.15834435766958435
0.27509352582079294 0.11149505870101088 0.04242053135564752 -0.0961649416926849 0.0632792441519412 -0.05822313056418876 0.09599204997298658 0.10410470586106171
0.12803560423227603 -0.004901254200165875 -0.11133890774345008 0.07104204175508053 -0.11783294134930587 -0.1287317845853778 -0.1182281540225566 -0.27259069765077476
0.1362922763150371 -0.19094129749619343 -0.2318420845217457 -0.03661638416902598 -0.058552563039993476 0.006125046406631823 -0.015054741755995985 -0.09007490323451388
0.005841113973961033 -0.18355300532613175 0.08474634942752515 -0.008281260689530908 -0.125269123597253 0.08980777112217844 -0.0843294981877078 0.11788696378023579
-0.31044991626385565 -0.0492776701013564 0.43064215535771233 -0.18821573345510895 0.10735404245297508 -0.21941247611769538 0.06703377254324283 -0.09371453780335263
-0.27174722895411557 -0.1927093398226704 -0.16559797370100215 -0.05288821367687175 -0.0677836837439598 -0.08235236346863675 -0.03819167048608462 0.04652286379300166
0.11841645357572529 -0.15238365831119174 -0.18385797246266505 0.13608575406544388 9.571455410940478e-05 0.1000530114852346 0.029704584611677288 -0.13788994605049015

transformer.encoder.layers.0.linear1.bias f8 [128]
00000000: 8028 49ce 74cb c53f f6c9 0348 8efa bdbf
00000010: 33ae b6f9 533b ba3f d035 4acf 1519 bebf
00000020: c32b d5ed 8982 ba3f 2d41 b4f1 ef96 6bbf
00000030: d0f1 d26d f2b2 b43f fdca 588f 28d6 cfbf
00000040: 5cf7 4bee f508 a4bf 2420 c1e0 bae7 c63f
00000050: 088d 60a2 cd30 c83f 58b2 3cb2 8341 c7bf
00000060: 8aa9 d2ca 4caf c7bf b1a5 b653 9afa c13f
00000070: 311e f582 2b2e c53f 2398 e504 c3fb b43f
00000080: 3a4f ed3c a4cb c53f 59ad eabf d554 c23f
00000090: 6795 fe52 6c2c c2bf b7e3 6d8f 40e3 a63f
000000a0: a5fc c462 e24e c6bf cd90 53ad c85b afbf
000000b0: 06dd ae1e 159d c83f 38bc 6820 039b c83f
000000c0: 8697 c151 586f d03f c105 5ef4 565d bfbf
000000d0: 1403 9e85 c1f7 b9bf 88c7 3189 17f9 cbbf
000000e0: 605c 8e47 a620 ccbf 1f60 bb6b 0721 cfbf
000000f0: 5650 4845 a33a cebf 912f e433 d84f c33f
00000100: 432f 8a45 7c06 c6bf a6b2 c485 735b bcbf
00000110: ef41 13df 39ca b03f 977b e9d7 8265 cb3f
00000120: 5878 ccba e027 963f f60c 8ee1 92ad 9d3f
00000130: 4094 9235 51ca c13f 9699 2b0a 47e3 cabf
00000140: 5bf0 98a6 3154 c73f 811b f353 dc49 cf3f
00000150: 50cd 8fe5 624c d0bf 29b8 10ae c277 ca3f
00000160: 5974 b570 e6ba b73f 70c4 d16e 2071 a23f
00000170: f617 d0af 6051 993f 0e63 2afa 13ac ba3f
00000180: 047e f2f4 20ef c63f 735b 0948 2b73 98bf
00000190: 92dc b044 1bca bc3f ef53 c3db 1efc 8a3f
000001a0: 1bad 83f1 feb8 c9bf 0bee 71ec 5438 9b3f
000001b0: d644 80a5 eca7 c7bf dae0 4fc5 e71f 463f
000001c0: d0b0 fe32 c113 c0bf c4c6 45ff aa71 8f3f
000001d0: 63a8 e814 faa2 c13f f53f 8ac1 67f0 7cbf
000001e0: dfe7 19a7 8936 c13f efe5 7d74 eb9b c63f
000001f0: 4cbb b715 f7de c83f cb7a 5d74 2c1e cdbf
00000200: 3ef4 a63b 2b3a c9bf acea 243d c67e cd3f
00000210: e956 edd4 a8d7 c9bf 66bd 13b7 5df1 c53f
00000220: fa3b d0a2 406b cebf de6a 75ed 8563 92bf
00000230: bcea 15d0 c00e af3f b71e 0dff c81c c3bf
00000240: e24f 32f8 db66 8b3f d4fd 408a 2011 d3bf
00000250: 8865 ab01 bf0a b03f 7ea0 2929 aa28 c03f
00000260: 9cb7 5046 ac7d b73f 2d52 86ac c08d a03f
00000270: a98b d5d4 1204 b73f 0cbc a85b df06 9bbf
00000280: 6c85 3ec7 97bc c1bf ab92 0a69 a0d6 c3bf
00000290: f33d 3010 8012 c4bf f77c 676e 3025 d0bf
000002a0: 2b51 3a51 117f aa3f e166 9228 a478 cc3f
000002b0: bbf0 9033 69ae c9bf 8580 00b3 23e2 c73f
000002c0: fe68 6eb8 406a c0bf ee55 6cd2 fe3c c03f
000002d0: 0312 a71c 5918 c7bf 9aff ed39 970d cbbf
000002e0: 10c7 6570 6ef9 ba3f 2707 4f5a cc1a cfbf
000002f0: 7877 9133 9b28 b8bf 0690 00ef e5ba b7bf
00000300: 799e 7a1b eee6 c4bf f619 61f1 5383 b53f
00000310: 752e 2631 4c1b b93f 40e4 e628 f0b2 c6bf
00000320: e9b0 c836 a7b3 c73f bfa7 9b43 7678 c33f
00000330: aa54 00c0 9016 7b3f 94fa 339b 1b94 bb3f
00000340: b43f 0e58 ec38 ce3f efeb 8582 c2fb a2bf
00000350: 330e 0b70 3505 cc3f 1b83 2954 4f01 5dbf
00000360: 71bd 60b7 c594 bdbf 8baf fd12 766c d0bf
00000370: 475e 061e a265 abbf 9f57 7545 84b8 8b3f
00000380: dd04 3314 652b a6bf 7f84 d303 fc59 c83f
00000390: d87b c13f e738 bd3f a6ae 4571 2983 a63f
000003a0: b977 b10a 509c c43f b2a7 6d14 7962 ad3f
000003b0: a729 e356 b3c2 c6bf 8683 f87f 4075 babf
000003c0: 171d edc4 c72e c23f 52b2 59db 4a03 c13f
000003d0: 0f45 24f7 7fc1 c83f 574a 081d 4630 b3bf
000003e0: 24fd 61e3 c53b c9bf e37e 778a bbcf af3f
000003f0: 3adf 55d6 a0d3 c23f aebc 6343 2df1 c0bf
0.17027149269626207 -0.11710442789243544 0.10246777388118104 -0.11757026968753981 0.10355436378919962 -0.0033678709420500636 0.08085551434755378 -0.2487230968414095
-0.03913086446662703 0.17894683813415313 0.18898935726711152 -0.18168684199317187 -0.18503723052465332 0.14046029174396105 0.16547149557503496 0.08196658010055606
0.170277147054202 0.14321395750935542 -0.14198068668808192 0.04470254660458955 -0.1742823583863117 -0.06124713054467321 0.1922937774486188 0.19223059732891712
0.25679595932012267 -0.12251800027845318 -0.10143670570506585 -0.21853918265292926 -0.2197463845629697 -0.2431954647097436 -0.23616448290761366 0.15087416204221119
-0.17207291980263947 -0.11077043548420792 0.06558572479412537 0.21403537314014606 0.021636496926582843 0.028982443825509706 0.13898673168037767 -0.21006095882985382
0.1822568953956559 0.24444154833892287 -0.2546622506917702 0.2067797994545242 0.09269562007598732 0.0360193381574242 0.0247244937236459 0.10418820245321234
0.17917262993158556 -0.023876835128557383 0.1124589007093724 0.013176194268831735 -0.20095812599843374 0.02658207600732791 -0.18481214600664114 0.0006751901333919245
-0.1256028651236023 0.015353523173618717 0.13778615971506544 -0.007065205857216474 0.13447685870397572 0.1766332930381362 0.19430435715136196 -0.22748332673923807
-0.19708767330840432 0.23043134675557064 -0.20189390560943046 0.17142840804397536 -0.23764808606981075 -0.01795777570564893 0.060659432793689544 -0.14931595281290352
0.013379782211167372 -0.2979203558097343 0.06266397276649205 0.12624098787205534 0.09176136700327081 0.03233148675932216 0.08990590759417096 -0.026393403977802918
-0.1385678980705437 -0.15498738411874532 -0.15681458273364476 -0.25226984769501776 0.05175069920110994 0.22243167859124127 -0.20063509958152345 0.1865887283356679
-0.12824257855829296 0.12686143183297766 -0.18043054484418528 -0.2113522560939572 0.10536852115708606 -0.2430053177795852 -0.09436960228910418 -0.09269558987631407
-0.16329742757556057 0.0840351547532022 0.09807277870111782 -0.17733575818218306 0.1851700799464944 0.1521137075536085 0.006613316945750439 0.10772869624268316
0.23611215877144576 -0.0370770248727793 0.21890895815714514 -0.0017703318304926388 -0.11555133559226306 -0.2566199479540436 -0.053509775319238666 0.013535531396580867
-0.0432998263509121 0.19024610697582386 0.11414952570474612 0.04396943576543082 0.16102028391008874 0.057391914123243196 -0.17781678907915685 -0.10335162281309182
0.1420526229432901 0.13291297636478078 0.19340514724221022 -0.07495535095976301 -0.19713662722276937 0.06213174882190999 0.14708338227841883 -0.13236013212688164
