Code/990-10/darts_logs/D-TRX_USDT_transformer/checkpoints/last-epoch=199.ckpt (torch, 653477 bytes, 205 tensors)

encoder.weight f8 [16, 1]
00000000: 92e3 35ab 5ed3 e0bf 0f63 5337 5220 efbf
00000010: ef06 9b62 2c4c edbf 416b 1b2d c1be f0bf
00000020: 6a99 5ff8 c0b5 e13f fcaa 16a9 a8c8 ed3f
00000030: 507f 4991 b04f e33f d354 d699 3531 f43f
00000040: 5748 b393 1e63 ecbf 2a5e e21c 554d ee3f
00000050: e4c3 cee8 7ab3 f13f 6c88 cfd9 1516 edbf
00000060: 4855 ba61 bd93 e3bf 3bbe db65 2a6b eabf
00000070: 88df 27d0 9302 c83f 2131 d51d 7363 e03f
-0.5258019775347853 -0.9726954536991758 -0.9155485082521561 -1.0465709459301282 0.5534367419284483 0.9307444860945391 0.6034777486456537 1.2620140084521168
-0.8870995411655355 0.9469399990220542 1.1063183874177804 -0.9089459661593202 -0.6117846401927318 -0.825581740324146 0.1875786558518906 0.512139852778578

encoder.bias f8 [16]
00000000: 22c9 089a 927c da3f c522 44f9 7821 95bf
00000010: 35e8 cba7 589b e0bf 8b53 84a4 e24b a83f
00000020: 6464 8665 820a dabf 4609 d8cb 7622 efbf
00000030: f7d9 24df ff02 efbf 5506 5918 b0bd c6bf
00000040: 4e4e 64a5 1827 d3bf 1197 9527 6e39 f1bf
00000050: 3c89 eb80 8cc3 d2bf 97b3 f297 acf5 e0bf
00000060: 1d7f 0bac 2d77 c13f e801 c4d7 badf d4bf
00000070: 010f da60 b42f e5bf ac37 f8d3 0e61 9c3f
0.4138533119431874 -0.020635500158308746 -0.5189631726527809 0.0474539590669912 -0.40689144053027904 -0.9729570370985037 -0.9691161497383395 -0.17766381443839188
-0.2992612471727839 -1.0765210672629488 -0.293185354135989 -0.5299895255790145 0.13644953632955828 -0.32615538664688737 -0.6620733157764961 0.02771399658927691

transformer.encoder.layers.0.self_attn.in_proj_weight f8 [48, 16]
00000000: 4f15 2db7 7162 c93f dbbf a260 f039 d03f
00000010: c132 29eb 4372 d2bf 45b7 0694 b85e babf
00000020: 5ee6 d2eb 774b d73f 7710 ece5 c091 bd3f
00000030: 1ca1 af00 cac4 c83f c4d4 7286 5507 b73f
00000040: 0adc d5bc 693d db3f a249 7dde c85f d0bf
00000050: bd86 579b d7a4 dbbf b1c0 600e 75d4 d4bf
00000060: 5bc3 dccb 8fda d53f 95bb 601b feca c8bf
00000070: a3d0 477a 187a c5bf 834e 84fd e9c7 cfbf
00000080: e608 0b02 ba07 b63f f30a bba0 01f0 c0bf
00000090: 7ba8 eccd edfd e3bf cdda a3e4 d29d d93f
000000a0: 3935 3d70 7c75 d7bf b957 d75c f448 bb3f
000000b0: d061 4c6e 6044 bf3f 8423 4c17 5748 c7bf
000000c0: 8db2 ef8e 26c1 9bbf 71db eae0 f32d e33f
000000d0: 8584 bade 0b60 e23f 6eef 405c a8d7 afbf
000000e0: f0fe d7c8 fd23 ccbf 5743 707a 7eb5 d43f
000000f0: 952f 7ca5 7824 d7bf f97f 155c 55a9 e03f
00000100: 30fe 0f06 d838 bfbf 3ba4 6001 a169 ba3f
00000110: c874 6cf7 ec01 dcbf 987b 56f0 4b29 9bbf
00000120: 8b78 cc92 3a2d b53f 50bf 54ff 49a0 cc3f
00000130: 1187 0459 ab23 c3bf baba eac7 5c66 ca3f
00000140: 87fe 4cbb 69ae c2bf 6781 f079 da2c b53f
00000150: 54ac c7ff e1c2 c6bf 1351 3497 3e2d 76bf
00000160: 8c89 301d fd4d d9bf caf5 b8a2 c08b 853f
00000170: f09c 154f 82fe c93f 34ab 35e7 048f b73f
00000180: c548 dfb6 507f b7bf cf4c 9c33 e541 c63f
00000190: 98ff 5796 9898 cd3f 6148 96a4 a360 cc3f
000001a0: c118 7f2e 1831 d43f ec4f 259e a2dc c53f
000001b0: 0d27 71fe 7bb1 debf 88d5 d8b4 a010 9c3f
000001c0: c796 d192 f051 ddbf 58be 6226 44f1 c9bf
000001d0: a8d0 f9f5 2713 ca3f 6607 12de 1798 c53f
000001e0: f6c9 a63d 70d4 bbbf cd8e cfc7 3ce5 bdbf
000001f0: e415 35c2 8a00 8fbf b7a8 ab16 7492 ca3f
00000200: 3b9e b2ff 9ce2 b7bf acba b91d fe40 c83f
00000210: 2419 5af2 f210 b93f b46f f58d baa5 9b3f
00000220: 0ec9 930a 2c5c d2bf 5ad0 2ad9 8535 d23f
00000230: 52b7 fa63 745b d6bf e8d9 5551 447a cabf
00000240: 6151 da11 deaa d23f 0d46 a416 eee3 c7bf
00000250: 6057 bd13 f31e 9e3f 8df1 4564 0a69 d93f
00000260: 50f5 c4f5 faac de3f 9bf6 0577 a53f b93f
00000270: 2cbd 7325 7945 c6bf 3ae8 0566 d88e b2bf
00000280: cf01 acff bf97 c23f 2811 c653 eea9 b43f
00000290: f150 9e6b 4931 b83f ae28 fba0 309d cabf
000002a0: aeab eee7 04c3 cc3f bc40 d16e 68d4 a0bf
000002b0: fa42 7df4 b25b ce3f 5380 7c13 62a9 ca3f
000002c0: 42c3 55d6 7391 923f d9d6 5d95 3a50 d33f
000002d0: aa5d e0fb 50bf c23f bb44 0cb0 d119 9cbf
000002e0: 101f 852c e2ed d1bf 654e be7b 1814 bdbf
000002f0: 9bcf 1567 ceb1 b7bf 7dd0 4392 d651 c73f
00000300: e133 6675 8ee3 c2bf 4809 fb53 643f a1bf
00000310: 9644 527b 9518 a33f dcf0 82a3 ee41 d33f
00000320: edf9 cab2 2ae1 c0bf 1119 6842 be8e de3f
00000330: e393 d519 dd94 ce3f 7d5b 0041 fa11 afbf
00000340: 5105 f9de 503f d7bf 103f 4ab0 affa e63f
00000350: eee8 a33a 71e9 b4bf f988 3a0e 0a1d d03f
00000360: 2535 aa07 d8bc f2bf 1ff5 e2b7 f712 c4bf
00000370: 5d9d 84d7 4211 d1bf db28 a6d0 7963 cfbf
00000380: 4159 3528 70c5 c2bf 6506 06df 07b8 ccbf
00000390: f5eb 13f6 1ef2 893f 0d13 53a0 6856 e23f
000003a0: 3b2d db2e cc0d dbbf ca7d 9ba0 3467 bb3f
000003b0: 18c5 23c2 a1d5 823f 996a 5f72 a616 e9bf
000003c0: 9a11 acc6 d948 ef3f c649 00c3 fbba d5bf
000003d0: 6a51 95fe 555b dbbf d146 9a3a 308f c73f
000003e0: 38c9 5173 5c2e f33f 8d76 4b7d cb79 d03f
000003f0: 54c3 4189 7455 bebf e9ef d92a 1207 8b3f
00000400: 9668 f28d 8452 c63f 4373 f1d6 324d c63f
00000410: 3af1 b89b 73b7 9cbf f826 8bf5 388e c43f
00000420: ed68 63c3 c4c6 e13f 19ff 5c5e 7824 b43f
00000430: bec5 6131 2533 cc3f 4242 1a4f 1a83 c23f
00000440: 57ca 8fe8 b661 cd3f 1758 765b c72a d2bf
00000450: 92e1 f8f0 e722 cd3f 32e1 710b 61c3 cc3f
00000460: fe1b b249 2d07 e13f 45be a6dc f347 a23f
00000470: cb0e 0a1c 3c8d b4bf 3815 1389 7aff c7bf
00000480: 4bf1 270a 2b84 d83f d717 f8b0 0f74 b7bf
00000490: d634 bb60 7297 b93f aab5 a9fb 01df d43f
000004a0: 2993 3bce 1589 a83f 390e 9610 1ef7 babf
000004b0: 4e56 53d6 2047 6f3f 6953 6dda 8c3d c7bf
000004c0: 504b 7705 8f7f 69bf 56d7 7495 1236 cf3f
000004d0: c8e0 923c 4ebe ad3f ce73 2d73 e165 b53f
000004e0: 767a 9cfa b5c6 b7bf 77da a894 56d3 d33f
000004f0: f6cb 2ba7 2c23 87bf 0bfe 52e6 1467 d1bf
00000500: 40a4 a889 55dd d0bf acd0 2be3 9745 d53f
00000510: cafa 29ab 79c0 bb3f 25e6 d47f 4c00 e33f
00000520: 719e dfba 7eed b63f e686 7c60 c541 dd3f
00000530: d1df 1c72 2b62 f03f 67fc 2e3f 6b08 f0bf
00000540: 9f88 7f6b a0b0 e13f 0e14 8287 825a e2bf
00000550: 40b0 b066 70ba 523f 72b8 5dfb 9565 dfbf
00000560: 5c25 864a 44c3 ca3f 9f56 3985 33de b4bf
00000570: 6ad2 b9f5 38df cd3f f2e4 93d6 23d9 e4bf
00000580: e09e da3b 0d83 d3bf 0cbf 308d b627 cc3f
00000590: 05f0 4029 25b9 dc3f 2302 8224 85b4 babf
000005a0: dee5 a6cf 274b c7bf 5b85 4f1a c485 a83f
000005b0: 50cd 9cea 781c f13f ede9 afd3 0392 ebbf
000005c0: f9bf c469 6dfd ea3f 39aa e899 667f d9bf
000005d0: 0f43 2ff2 5fe1 d2bf e166 823f 40ca a1bf
000005e0: f7f9 618b caec e23f db73 580e 1458 d3bf
000005f0: 267d 8f9d cfa7 dd3f 4f3e 234e 94dd 9fbf
00000600: 7248 ce3e 56ec c8bf e060 2be0 b33c c83f
00000610: 907c 48ae b3c3 b43f a0bd 3225 483e ba3f
00000620: 25e3 e760 a002 c9bf a910 3a6d de4b a33f
00000630: f81a bf33 a4e5 c53f 830d 32d4 b9bc cc3f
00000640: 2fba 0f86 3b3e b1bf 6d63 d875 88c4 c5bf
00000650: 8b01 615e 0563 a1bf be0b bd6a 773f aabf
00000660: 7ac5 d1b1 efb6 b6bf dc8e 52d6 2cc5 a3bf
00000670: 581e 38f2 c0ec 933f 1ba4 2f1e 8402 b63f
00000680: b3a6 c17c e4cf acbf 1be2 10a7 9f9d a33f
00000690: d935 53e7 ef8a 703f 9dbf 81f8 a407 d43f
000006a0: fc6d 4221 13f9 d4bf 98b9 ac17 d0cb de3f
000006b0: 2ae7 1e37 bd87 e13f 34b8 45e0 0a0f e5bf
000006c0: e8ef 641f 61e2 bd3f 84e1 f259 12b2 d0bf
000006d0: db8f 6720 0a28 d3bf ce0b c158 34e2 cfbf
000006e0: 9fb1 aede 56ec da3f 8ceb f50e 82c0 d6bf
000006f0: eb6c be66 67da d43f 59be d605 d094 c1bf
00000700: 9ef7 3b94 751a b83f 0279 28b2 1eb7 bbbf
00000710: 19d7 1eb9 0f8f ccbf 58a2 70c5 2b6b a8bf
00000720: 71ed c2bc d870 c0bf 5b8f 6dff f2cb d4bf
00000730: e2ac 498f 6d1b cfbf 5384 ce12 7166 c33f
00000740: b072 fe32 f915 a3bf 7eee 290d 8408 d23f
00000750: 29c4 c532 ec06 b43f 65c7 1a0d 9f91 babf
00000760: 2bcd 7e1f e104 d2bf f366 c888 448b c6bf
00000770: 43bd 1165 2cf8 bd3f e96d e292 c288 cf3f
00000780: 6156 6546 8a74 c0bf accc 2784 62ef a13f
00000790: 00ab 973a 2c5e 9dbf 6a3e f01f 94cd d23f
000007a0: 66fa 85ae bed4 d53f a09b 8b27 9510 ce3f
000007b0: d63b 68c7 6d89 d83f 8440 9796 cfbe dfbf
000007c0: 9b66 e343 362b d73f 30e1 0748 1cb7 ad3f
000007d0: 588d 83dc 5db0 bc3f 3673 8bbb 8165 d9bf
000007e0: d357 ca10 2a22 b03f d6b5 d523 0b70 d6bf
000007f0: 0954 72b0 761f d53f be15 aa9f b757 dbbf
0.19831677860399075 0.25353631436428054 -0.2882242008679832 -0.103007827891557 0.3639812281577174 0.11550527203877602 0.19350552590845715 0.08995565922198795
0.4256233543487161 -0.2558462307689756 -0.4319361702929248 -0.3254673614892552 0.3414649477809257 -0.1936948426896065 -0.16778856249550697 -0.24828839186431048
0.08605539846306307 -0.13232441280532434 -0.6247471830331642 0.40025780037050823 -0.36654578171586 0.10658194796209743 0.12213709538298834 -0.18189514768189607
-0.027103998636379734 0.5993594544332678 0.5742244100730579 -0.062192212354118634 -0.21984836870978297 0.3235775180519815 -0.36160102997450255 0.5206705854907333
-0.12196111820230082 0.10317426952009694 -0.43761753237215517 -0.026524721664482692 0.08272138675644862 0.22364163367591994 -0.14952604147497842 0.20624885331695514
-0.14594766278786528 0.08271565892255738 -0.17782235135323055 -0.005414242262549845 -0.395385054116695 0.010520462957283611 0.20307949887794718 0.09202604908720674
-0.09178642716077252 0.1738859655384659 0.231219361696273 0.2216991952560106 0.31549648800536195 0.1707957527347611 -0.47958278510906 0.027407179868722348
-0.4581262048508105 -0.2026753604345568 0.20370959768809382 0.16870401709825983 -0.10871030335582774 -0.11677913549606984 -0.015137752582300608 0.2075944052406322
-0.0933015941869763 0.18948341800156265 0.09791487137599525 0.026999392427896132 -0.28687573464334626 0.28451677520502516 -0.3493319488869605 -0.20685628863766614
0.29167892211378016 -0.1866433725886484 0.02941493804913564 0.39703616897875166 0.4793078804103361 0.09862741618959563 -0.1739951546546562 -0.07249214640424465
0.1452560423276865 0.08071794076210337 0.0945020568599977 -0.2079220567741848 0.2247015125734299 -0.03287054398299591 0.23717343271211871 0.20829416228753192
0.01813298221299254 0.3017717798860367 0.14646351145414133 -0.02744224202166799 -0.28014425609261284 -0.11358788510397629 -0.09255685822227948 0.1821850027259905
-0.14756947262176737 -0.0336867668643373 0.03729693537128147 0.3008991810600159 -0.13187154512520696 0.47746235356352523 0.23891795884551845 -0.06068403285478661
-0.36323949598962196 0.718101352993445 -0.08168704682967462 0.25177241696850633 -1.1711044597062223 -0.15682884672961792 -0.2666785339992737 -0.24522326171820094
-0.1466503330545468 -0.2243661726934533 0.012668840298365661 0.5730479365671229 -0.4227171380595853 0.10704354210928738 0.009196532952474842 -0.7840149148790544
0.9776429062190346 -0.3395375637348049 -0.4274497018971234 0.18405726300675565 1.1988186363856368 0.25743376956766256 -0.11849144316671573 0.013197080548017897
0.17439324313165078 0.17423091407081345 -0.028043562297385118 0.16059028615409665 0.5555137458971139 0.07868149093428335 0.22031083022333847 0.14462593901090953
0.2295445094637951 -0.28386100704062883 0.22762774721355733 0.2247124963648815 0.5321260871286311 0.03570520466325581 -0.08028007206490455 -0.18748408978550812
0.38306690208243727 -0.0916147048047543 0.0999671445999469 0.32611131264169535 0.04792087690819919 -0.1053332128995458 0.0038180962898007103 -0.18156586327918525
-0.0031125825296184698 0.24383766458202655 0.058092541593795455 0.08358582555724967 -0.0928758370250565 0.3097740604165788 -0.0112975586430135 -0.2719166039714486
-0.2635091633151809 0.33237263855631727 0.10840568951423815 0.5937864777290015 0.08956138670293413 0.45713934347632657 1.0239672143488756 -1.0020554035288798
0.5528108691762731 -0.573548569359106 0.0011430833499259802 -0.4905753092524555 0.20908406866900975 -0.08151552202738309 0.23337471006711336 -0.6515063467951718
-0.30487376065364735 0.2199619473844837 0.44880036381414384 -0.1043170179491502 -0.1819810642171395 0.04789555379080453 1.069451252417668 -0.8615740904345423
0.8434359613220287 -0.39840092687760237 -0.29500578547326567 -0.03474617743741049 0.5914051744765051 -0.3022508754818866 0.4633673704792777 -0.031118695515770785
-0.19471242968262775 0.18935249753736283 0.08111117367706044 0.10251284511718106 -0.19539265376786222 0.03768820842108884 0.17107059981045558 0.22450945721730528
-0.06735584280952688 -0.1700602126518577 -0.033958595057359174 -0.05126546075782511 -0.08872888652128622 -0.03861370197526323 0.019457831176650536 0.08597589241948393
-0.05627359412103541 0.03831194795970224 0.004038750766267773 0.3129665781807434 -0.32770231483456747 0.48118974983199214 0.5478197170807324 -0.6580862407988719
0.11673552528821995 -0.2608686331182286 -0.29931882061486953 -0.24909071286864876 0.42067500826194676 -0.3554997583484514 0.32583031686381386 -0.13735389981364923
0.09415373677253888 -0.10826293801844503 -0.22311588801465446 -0.047692649699744905 -0.12844380585543605 -0.324948071900726 -0.24302453514551475 0.15156377237602445
-0.03727701899990643 0.2817697647621812 0.07823063125194153 -0.10378450460373541 -0.2815478141375986 -0.1761251132855289 0.11706807582389893 0.24636108562559336
-0.1285565227250798 0.03502948630548394 -0.028679553104590916 0.2937975227259587 0.34110991519256684 0.23488106184887858 0.38338798974376453 -0.49602117258201184
0.3620124495479133 0.05803764704973202 0.11206614144935167 -0.39682048144259185 0.06302130613252581 -0.35058859347813376 0.3300453875647809 -0.4272288378927803

transformer.encoder.layers.0.self_attn.in_proj_bias f8 [48]
00000000: 8949 cd70 8ea9 c0bf fd16 5a3e d4c5 cf3f
00000010: 76d4 a39d 58a3 66bf 92c5 0201 d99e 843f
00000020: f215 36d0 82e1 c03f 8bb8 bb70 1533 843f
00000030: 84df 9850 b57c ac3f fdc2 1826 c3bb a2bf
00000040: d0d7 ffd8 8693 a3bf 8f59 771d b30b a5bf
00000050: fc5f 605f 2de3 d9bf 2bf6 344d 2482 d0bf
00000060: 689c 8965 0d2c 5c3f b1b8 aa27 c1c4 c1bf
00000070: 76b8 367f 80da b13f 07ea 45df 0cd0 c9bf
00000080: 0921 dbfa 8f5e 303d e502 726a 29fe 5fbd
00000090: 47ed 9388 fc05 09bd 9a28 67df 1918 30bd
000000a0: ab62 3e7e 622e 423d 43e2 b429 a70e 23bd
000000b0: 3bcc 0d4e 2e82 3a3d 4643 9818 a06b 543d
000000c0: 0846 0e7e 1936 f2bc 19a3 c40e d12a 313d
000000d0: 22b2 3c14 b06a 743d 196f 3ccd c180 833d
000000e0: 9990 6e1d b59e 313d 07c9 bd11 b463 6d3d
000000f0: ccee 4da1 1585 573d 3353 5c0e 08ef 5abd
00000100: 6578 28c2 f9e2 97bf 23ec 8325 4a6f a13f
00000110: 6a51 0a6c f050 b13f a834 e67e e4b3 7c3f
00000120: f4f6 762c 8839 a1bf ea61 9f40 5b4d 983f
00000130: dc01 e20c 46ba 973f f226 86db 9d79 993f
00000140: bd87 ee4d cc69 a6bf 50a5 fcf4 2065 b53f
00000150: a7f5 1a5b d288 a4bf 2b0b 8919 b5f8 b4bf
00000160: 109d 5297 fe22 76bf 20e0 4cba ee99 963f
00000170: ee55 e34a aa11 9bbf 0aa6 9646 c043 a13f
-0.13017445094972072 0.24822476429488197 -0.0027634363915419137 0.01006860288939285 0.13188204924169572 0.009863059523436376 0.05563894852497156 -0.036588762665251885
-0.03823491476934715 -0.0411048863858695 -0.40449079813106414 -0.25794322528585906 0.0017194872690653677 -0.13881697117671402 0.06974032502941604 -0.2016616907311148
5.815573608109435e-14 -4.5464530920454016e-13 -1.111261509723842e-14 -5.717788832832877e-14 1.2918512756271102e-13 -3.385245542318524e-14 9.417717825738134e-14 2.9019150278789023e-13
-4.0437267941307034e-15 6.099033266750891e-14 1.160557829570038e-12 2.2172295279360836e-12 6.259864127535015e-14 8.35298874036938e-13 3.3423733184269033e-13 -3.8275113462693775e-13
-0.023326780772656614 0.03405219753218371 0.0676412833948398 0.007007496415451765 -0.033642058780499 0.023732591456651443 0.023171515022569852 0.024877993129428462
-0.04377592517199911 0.08357435208440234 -0.0401063667500055 -0.08191997407361089 -0.0054044671025288565 0.022071581002109153 -0.026434574909975632 0.03372002469707176

transformer.encoder.layers.0.self_attn.out_proj.weight f8 [16, 16]
00000000: a2f0 79d2 4b65 8dbf 396e 8315 3c65 d43f
00000010: 33f2 69f2 9071 d4bf fef5 b8c6 ce7a c33f
00000020: 1335 6515 5417 cc3f 846a 66cf be28 d13f
00000030: 5f2a 8c79 26ba d1bf 89e2 21ce a3fe c63f
00000040: 229e 1445 0ad7 c4bf 314e 9cab 6300 db3f
00000050: 25fa b9a3 33e9 9abf c18f 5e69 35d7 a9bf
00000060: 9330 d00c 17ba d8bf 98e2 2d02 2a1d d13f
00000070: 05d3 c9e6 3fd2 d0bf a37d a6b9 cb2d b7bf
00000080: f4f3 1a89 aa57 d4bf 83dc 40f6 8028 98bf
00000090: f447 bb5f 8da1 c63f e68d bb99 b3c9 a53f
000000a0: b9b3 f7aa 0e57 ccbf 20fd 2923 4279 b1bf
000000b0: 1516 31df 6c2c c1bf e3fc 6d4c 25f7 d7bf
000000c0: 9faa 53fc b8dc be3f 63bd faf6 3f10 d7bf
000000d0: 407f e275 18e6 c2bf d30c 2127 376c dabf
000000e0: 030a c9ae 19fb dfbf f9d0 c6ae 4bdf d53f
000000f0: 676a 8691 972e cf3f 2ff9 ffb7 a442 bfbf
00000100: c729 dcdb e9dd b83f b2ef 52df bbfa eabf
00000110: 1fc9 d513 58a3 cbbf 62e5 8340 0c7a ca3f
00000120: a940 7723 d8fa d43f 04cd 07d2 3142 d7bf
00000130: 0ff6 6b65 d465 dbbf fc4e 0189 da1c d8bf
00000140: 1fe7 8d60 ecb3 b0bf e2b6 6fb5 810d d73f
00000150: a71d d3b7 fe9c a3bf 12bd 310a b68a c83f
00000160: 472d bac1 c2ab e33f 25d2 56d3 5940 d53f
00000170: 5206 fd87 3402 e13f 2eda f642 353f e2bf
00000180: 29d1 0b1a 9c1b d73f dff5 23ae cbaf d6bf
00000190: 28db b77e 3b87 b53f 49d0 7a5a 1588 b03f
000001a0: cf39 48fe 14bc d3bf efda ad6a e44a cdbf
000001b0: d831 b2e0 c4fc c33f 796e 52c2 3ac3 bf3f
000001c0: b64f b423 17fe d33f c79b 7e55 ab2f ccbf
000001d0: 0167 598f 5f73 c9bf 76f0 96b5 edb8 7e3f
000001e0: 6846 c602 4409 86bf 6a3f 13b1 f835 c73f
000001f0: ffbb d7f3 813d dcbf 32ee 3605 db5a c1bf
00000200: 7983 9776 bd18 c8bf 7acc 6fba a18d bf3f
00000210: 87cb 73a6 daf0 d23f 24c5 ab5b 653f d9bf
00000220: 6589 8e08 f2ce d9bf 61ff efe8 2caf c9bf
00000230: c903 fd0f 7e6c d1bf 9b15 f49a 8df2 d6bf
00000240: 98ed 6d81 239d a63f f3dd b93d 14d6 d53f
00000250: 08d5 0d04 535c dcbf f7b4 803d d241 ddbf
00000260: cc87 821d 6908 c33f d81f 2acc 2ab7 c4bf
00000270: 0637 06ed db39 bb3f 92b1 240a b37a dc3f
00000280: 8443 3165 c04b b73f 202a 3d25 0fa4 883f
00000290: e4b8 5c8f 2990 c9bf 9941 9968 ce7e d5bf
000002a0: 7332 0a12 0893 cdbf 3ead c4f5 6c52 d53f
000002b0: ab31 e88e 553a c0bf dd13 9825 5a26 d4bf
000002c0: 2ddf 861a 7ecc c63f f5ee ce75 2e58 c6bf
000002d0: 0673 7fd3 888f d33f 69fb 2395 9dc7 bd3f
000002e0: 5d26 b556 570c d33f 555d a740 818f d73f
000002f0: 826f 44ab eac6 cd3f d0a2 f548 1e31 cbbf
00000300: 3740 be70 473c d6bf a0ea 29a6 82bc e03f
00000310: 1641 840c 6f1e d1bf 8b13 c7dc 5e5e e2bf
00000320: 83bf 7eb1 0523 ccbf bf9c c3ab 1095 a4bf
00000330: 65f7 a52e af2f dc3f 7ca6 cf95 5758 d1bf
00000340: 252c e274 6f5c c23f 62e8 009a de15 aabf
00000350: f2bd 2291 a35a 793f f424 54ad 0a30 d2bf
00000360: cc69 776f 5d2e d5bf 4157 0a86 cd32 d1bf
00000370: 44ab 9724 1ba0 c7bf 415d d75a 3fd6 83bf
00000380: d6a7 9f6f 7b69 d53f c037 972f 78ea d53f
00000390: 7203 4b6d 5596 d43f a5c9 b229 46f0 a53f
000003a0: 7bf7 1fa1 2f48 d23f 0157 63bb ebc9 d2bf
000003b0: 8333 e4ba 45d9 cd3f 7e74 bf61 f408 c93f
000003c0: c23f d52c f522 c8bf b1c6 fd17 de58 c13f
000003d0: 6c90 1148 5860 bf3f b89f 1b86 0a08 bdbf
000003e0: 292c e43f 32f6 b7bf 1868 1a05 e1e1 a53f
000003f0: aff4 efa4 b83e b8bf ee0c 314c 14fa d63f
00000400: 97f3 d10d 9455 d53f 9911 0d15 a64c a6bf
00000410: 6c44 e888 1fe4 98bf fd2d acb8 3ef7 d4bf
00000420: 9196 4706 5cd1 da3f 75dd c631 061c cb3f
00000430: 3456 8f9f 6203 d43f fbf2 043f 888a cbbf
00000440: 8f11 15a5 1c5c 913f 11a3 f3a7 d461 c73f
00000450: 8616 f0ca 0255 d5bf 6efb 611a a0aa bfbf
00000460: 3573 0c5a f34b c1bf 8530 3133 2a6f d13f
00000470: a5a3 db7e 9b80 b83f 7b18 6090 7776 c33f
00000480: be3d b097 eaaa a83f 1f60 f8a0 ab45 d43f
00000490: a72f 7a69 449c d6bf e079 0503 04f4 d0bf
000004a0: 6c62 b613 bb73 d93f 794a c5c1 ff7a c43f
000004b0: 7b6d 9143 6303 c2bf bb72 20da 67d7 d33f
000004c0: 4771 7d40 8572 d2bf 94b5 d1c6 87bd d1bf
000004d0: a0e4 96e8 6e24 c53f bf8b a1de 685e d6bf
000004e0: 420e 99ac 5453 c4bf 2a7d d7da 540d c0bf
000004f0: b838 b4a4 bcab dd3f 18e8 df60 98dc bb3f
00000500: 4fd9 db33 a8be d0bf 3360 8d99 a027 a53f
00000510: 0ab7 a95b 238e c93f 40c6 7101 4df4 c9bf
00000520: 57cc b0f3 c8fe bc3f 0229 badd fa31 b6bf
00000530: 3970 7cf0 a26a dc3f 8118 88d7 76a6 d13f
00000540: 41db 1cfc 58c3 c13f c4bc 1396 f6bf cd3f
00000550: 5b8c 6e75 c5fe c03f ab1e f61c 980d ca3f
00000560: 9912 5e60 7c9a d73f f7b2 2dad 8aaa d23f
00000570: e620 ae06 2506 d03f 885c cc86 94cc c9bf
00000580: cada cfda 250b d13f c3ea b0fc 21f8 ca3f
00000590: 86e2 3cd9 c8ca 833f cf2a fc76 c84f d7bf
000005a0: f6ee 3bbf 426c a43f fc40 2996 4091 d3bf
000005b0: c4ee 0efd 6cd3 d93f b45d 4c46 0bb1 723f
000005c0: 83fd c27a 0da4 d0bf 987c 1ba3 bd3a cabf
000005d0: 3a45 3db7 f117 c4bf 5a90 cdc3 33ad c13f
000005e0: dbcb 7b22 a474 d5bf dca1 6b44 dd18 c2bf
000005f0: 6c50 1afe 90e2 b03f 3594 f440 64e3 d5bf
00000600: dd4f d9c0 9051 acbf 8db7 5443 4126 c83f
00000610: 2489 bc85 43f9 d03f 606a 357a 919e c9bf
00000620: fffa b836 1cae d23f fdec dc35 351b b33f
00000630: 7d81 0d73 fe65 cbbf 8090 4ef3 ef0f d3bf
00000640: cc9c 4282 3758 bbbf 748c 4a4d 8705 d3bf
00000650: 2fd4 6493 87aa d33f 1a33 398c 92e8 c53f
00000660: 5396 982a c040 dc3f a9de fa8d a9a7 cdbf
00000670: 7f88 55f0 3930 a13f 1dae e1d8 4d7a 993f
00000680: 9c39 b9b7 ed16 bbbf 53f6 12fc f1e4 db3f
00000690: d50d 80c9 84c8 a5bf 3aee f128 ccb1 ca3f
000006a0: 6cff 1f34 4824 c1bf aa31 2d01 77ee d4bf
000006b0: b804 4e8c fcde 923f d524 6074 5b3e d03f
000006c0: a522 1363 f3a0 d3bf 0c73 53f4 ee67 a8bf
000006d0: 9be9 a33d 94ea d2bf a465 6e65 1bd2 b83f
000006e0: bc4e a344 6d83 d0bf 3fab a53c 5b21 d93f
000006f0: 9a4a a080 356b bbbf 0890 0fe5 28f4 dd3f
00000700: 8508 9d67 5406 d13f 3f19 3c82 a596 ba3f
00000710: cbec dd51 01ac c2bf 320a cc5c 80fe c13f
00000720: 50c9 6f1b 36a1 d4bf a588 6893 ef35 d5bf
00000730: 7762 1825 4e78 dcbf 7a31 4ff1 32ae ce3f
00000740: 3ea2 98f4 d7ad d4bf cbc9 d654 8cd2 a3bf
00000750: 6dd5 b81f df63 ca3f e324 4c57 9d9d be3f
00000760: 98f4 bd88 e3de b33f bc40 33c4 e531 b53f
00000770: b858 fe1a c654 b43f 166f e7c4 fa0c d83f
00000780: da7c f50e 9283 d6bf fdec c89d 3dd0 d93f
00000790: d233 9ca4 8fd3 953f a654 3ad9 03d5 d4bf
000007a0: 3db7 3392 d6bf d2bf aafe b8ff 2d2b cf3f
000007b0: 472a 461a 8697 b5bf 9a71 db57 5656 d13f
000007c0: 049f 39bc 938a d13f 742d 2145 d91c d33f
000007d0: 9e25 ce56 022e d5bf 3fe5 152f 6a84 dd3f
000007e0: 7f98 d69b ef71 cb3f 1766 a494 2104 d53f
000007f0: 73fb 5847 4f88 cd3f 313c ccb9 dc7d d4bf
-0.014353363381126198 0.31867887593191174 -0.3194315306971333 0.15218529418227428 0.21946192784017934 0.26811189893638976 -0.27698671216845655 0.17964599194580824
-0.16281250355790272 0.4218987632641272 -0.026280218952246543 -0.0504700366139157 -0.3863580346230801 0.26740503514114655 -0.26283261812140807 -0.09054253847579345
-0.3178507174414442 -0.023592009573090166 0.17680518316643623 0.042554485813322704 -0.22140677783991494 -0.06825650557037877 -0.13416825197252594 -0.37445957626182585
0.1205554595978051 -0.3603668128880228 -0.1476469588860656 -0.41285494633866654 -0.49970094746473154 0.3417538840106001 0.24360937696185944 -0.12211064808068238
0.09713613145519338 -0.8431071626468933 -0.21592236488829372 0.20684960508496447 0.3278103205057144 -0.36341519842899594 -0.42809018997636 -0.3767610872211973
-0.06524541241915614 0.3601993820037547 -0.03830715173676973 0.19173312661903502 0.6147168906913202 0.3320526660784558 0.5315191894553186 -0.5702158267875512
0.3610601667744669 -0.3544797134962589 0.08409473270135648 0.06457646807649654 -0.30835461456527197 -0.22884803017560482 0.15615139934051459 0.12407271618070038
0.3123834465670784 -0.22020475077189713 -0.19883341311906835 0.007500580360496048 -0.010759860357924825 0.18133457800149283 -0.44125412762417676 -0.13558519129388596
-0.18825500765435857 0.12325487901380142 0.2959505677710514 -0.39449438049548946 -0.40325594745276866 -0.20065842985058693 -0.27224685250626784 -0.35855426914380367
0.04416762309025585 0.34119134929593925 -0.4431350268926768 -0.45714241033677133 0.14869417134201368 -0.16183981865856256 0.10635160958028331 0.4449889754348756
0.09099962683218449 0.012031668018285535 -0.19971198558909642 -0.33586464132988564 -0.23104954605914294 0.3331558609085795 -0.12678021886712307 -0.31484082862180945
0.1781156186605072 -0.17456608536109966 0.30563564924322895 0.11632714167715864 0.2976282450441426 0.36813384355396767 0.2326329551950686 -0.21243647158123347
-0.3474291420943731 0.5230115170846439 -0.2674825308067893 -0.5740198432982749 -0.21981879393342404 -0.040199776618288656 0.4404104190397134 -0.27101697568887295
0.14344590384675474 -0.050948101329098675 0.0061899556477977725 -0.2841822331107118 -0.33095489392658517 -0.26872575845606056 -0.18457354819050853 -0.009685988387828305
0.334563120849109 0.34243588111428025 0.32167564080378164 0.042848770704398555 0.28565588698244654 -0.2935742692910566 0.23319312692219904 0.19558577320904996
-0.18856682480918435 0.135524522509106 0.12256385573852108 -0.1134039475833778 -0.093600407217466 0.04273894488615343 -0.09470705057897776 0.3590136283930424
0.3333482871019497 -0.04355353362055609 -0.024307720881612857 -0.3275906375353939 0.41902828801389896 0.21179273062237383 0.3127066190912473 -0.21516516759029244
0.01695294149000542 0.18267305565611783 -0.33331365411900327 -0.12369728702650004 -0.13513032814889817 0.27240996360047404 0.09571239325636201 0.15205282735422884
0.048178988472610026 0.316752345273473 -0.35328779507175984 -0.26489353461320597 0.3976886456016817 0.16000363313158397 -0.14072838591787815 0.31002231885376447
-0.2882397775445224 -0.27719301620421644 0.16517435414224213 -0.3495123075610386 -0.15879305293684537 -0.12540684400207996 0.46360698780416554 0.10883476605513953
-0.26163678230604587 0.04131795763413528 0.1996502111027712 -0.20276796885041115 0.11326271008947351 -0.0867001334501403 0.4440085743424365 0.27578517005930087
0.13877403555098947 0.23242075279219965 0.13277500375724824 0.20353986181384207 0.36880406771551005 0.2916590396114737 0.25037503864633803 -0.20155579168269733
0.2663054119906688 0.2106974109500098 0.009664124612400526 -0.3642445718730131 0.03988846382523363 -0.3057404962937793 0.4035294028542291 0.004563373605172161
-0.26001297939725293 -0.20491762603976293 -0.15698071906312255 0.13809821186726162 -0.33524421088730855 -0.1413837989887402 0.06595712855988872 -0.3420038828210779
-0.05530979494201891 0.18866744792597637 0.26521385250284113 -0.2001516195985742 0.29187684387208884 0.0746339088918155 -0.21405010812578587 -0.2978477359813567
-0.10681483202153003 -0.29721243427247335 0.30728330034191037 0.17116004797790013 0.44145206603784465 -0.23167914803138004 0.03357106264844933 0.024880615579986654
-0.10581861243665575 0.4358487092648364 -0.042545461270517095 0.208550949089714 -0.13391974015393815 -0.3270547400941505 0.018428751052401465 0.2538059841613863
-0.3066986529852705 -0.04766794903273394 -0.29556756991919436 0.09695597864483446 -0.2580216570179166 0.3926609127290028 -0.10710462942396717 0.46802732819765014
0.26601133459565346 0.10386118344840599 -0.145874180769033 0.1405792668447972 -0.32233956031190747 -0.3314169826063654 -0.44484284994681594 0.2396911314266495
-0.3231105698237434 -0.0387157300532582 0.20617283867765526 0.11959250813756088 0.07761976326397002 0.08279262580913643 0.07941854628583911 0.37579220990095175
-0.35178042851289393 0.403335002981933 0.021314854070670304 -0.3255014058461917 -0.2929588725809145 0.2435052393575366 -0.08434332028824897 0.27089460925869846
0.2740830743918965 0.2986357855886219 -0.3309331748683578 0.4612069568462011 0.21441454991617445 0.3283771468719307 0.23072234138268363 -0.3201820196563317

transformer.encoder.layers.0.self_attn.out_proj.bias f8 [16]
00000000: 8994 ffbe 43a2 7c3f 9b82 db84 41f9 a13f
00000010: 280b 4fea 10ec a0bf d25f d631 4ad9 833f
00000020: 6104 0240 c038 b03f db57 9c04 6b84 a3bf
00000030: 4a04 416c 119a 913f c576 bb42 de7f 673f
00000040: 3730 526b 9907 9e3f 2a90 b3af c288 9abf
00000050: 1dd6 4843 5ba1 5a3f ea8c 808e e964 83bf
00000060: bf8d 4b22 2dd9 a3bf cac2 b69b 4117 9d3f
00000070: 0675 ebe7 c245 443f 0832 2998 70fa 883f
0.006990685113099756 0.0351047968558806 -0.03305104122366337 0.009691791196743713 0.06336595118229262 -0.03811964446337842 0.017189285499857022 0.0028685894993561744
0.029325864005429216 -0.025912324880565198 0.0016253844488692889 -0.009469818745918752 -0.03876629871026748 0.028409028176329433 0.0006186677636283173 0.012196426051695589

transformer.encoder.layers.0.linear1.weight f8 [128, 16]
00000000: e8bd 147a 23bc b4bf 01d7 170b 4b0d a13f
00000010: e4ec 71d2 2767 c3bf 54b1 6a74 0628 abbf
00000020: 8171 8994 44ec c1bf 65a0 e7a0 7802 b23f
00000030: b5f3 1cd7 2ee3 d1bf fac5 5a2b 630c b8bf
00000040: b987 06a4 5e76 c33f ed32 787f fd2f 763f
00000050: 2020 e9d5 f49b b7bf fcf7 93a7 3e83 b2bf
00000060: 4177 1cf8 13e8 c33f d110 2978 a05f d1bf
00000070: 501b 7fbe cf80 7dbf c9c0 3f5f 084d aabf
00000080: fe16 3ce2 96b2 afbf 28b1 b86f da8b c3bf
00000090: 404a 1227 807b cfbf ec48 91ed fa45 bdbf
000000a0: f363 6528 56d7 c3bf 4de5 96f8 3714 bf3f
000000b0: 2774 fe6d 2718 cbbf 3ee0 b34b ef57 c83f
000000c0: 5ad3 fe65 d02b bcbf 9157 5a13 a341 c23f
000000d0: ac2e dd6a 7f66 a1bf c56f c01c 73ba c0bf
000000e0: 9269 9474 1b04 b4bf 4811 5bdd 0728 c4bf
000000f0: 331e 3893 0183 b63f 47cf 9cb5 6f3c b13f
00000100: 44e3 5b02 3d36 51bf f0d5 0062 4c1b bebf
00000110: 57d0 6d1a 2404 be3f b9f5 94cb 259f b33f
00000120: e32e c26e eb52 b33f a3fb 165f 2b02 b4bf
00000130: dd77 10cc ff31 bebf 54bd 7f58 b6eb c63f
00000140: 4b74 662c 0128 783f 76a4 c5f8 337c a83f
00000150: 9b01 b90f ae71 d33f 573c f22b 67e4 a2bf
00000160: c92c d95f 3be2 d13f e6a1 6f3f dcad ccbf
00000170: 8c37 76a6 fabc b93f 005b 7441 0f19 9ebf
00000180: 761e 1358 a55d b93f 03b8 3d3b f884 c13f
00000190: 6f74 53b6 7906 9b3f 3e5b 9555 9df5 c83f
000001a0: b080 09d2 ee9a b9bf 6577 6940 e36d bdbf
000001b0: ab26 837f b7a2 953f 98ae e12c cf20 babf
000001c0: 67d4 a927 2961 a43f eaaf 701d 855b c0bf
000001d0: 0ec8 a07d 01c0 ba3f 03ff acc0 ddab c6bf
000001e0: c526 34ab 86f7 b33f aab9 efef 8223 a8bf
000001f0: 27da 7405 54da 9c3f d133 55cf ed74 b23f
00000200: 5b04 e5ef ae8a b1bf 9096 35e1 39cc c4bf
00000210: f502 7a93 ff00 da3f b73d 837e 6464 c73f
00000220: 7a51 62cd 7ebc b63f fa30 580b 90ad b2bf
00000230: 3fc9 55ed 5312 d5bf a420 b606 e202 d4bf
00000240: af49 a9ff 3eb6 d43f f75b 602a e736 b0bf
00000250: 81c0 7f97 b0df 94bf 2785 a812 c18e bdbf
00000260: 6ff1 7bf4 f5d1 cc3f 7e49 c0e3 5f54 cdbf
00000270: 20e3 19df c8b0 ad3f f30c 2279 383d bbbf
00000280: e270 baad e42a b83f 9bf9 5ad6 207d 913f
00000290: f8ee 0898 8004 b93f 31e6 bdaa 3b3a 973f
000002a0: 0d60 4809 5266 9ebf e0f9 0560 71a5 c33f
000002b0: cc27 538e 09b5 c4bf 087b 0293 5905 b33f
000002c0: 7d68 6294 e55c 96bf 9f8f 24b8 08fd 93bf
000002d0: acc9 3997 42e3 d1bf 738e b947 b56b b13f
000002e0: 17ec e146 f82c 9abf bbba 4ea9 4275 b1bf
000002f0: ec7f dc46 5ef6 aebf bcfa 8895 1021 87bf
00000300: 13a0 84bb 6364 cbbf 5e9d 8775 3aea b93f
00000310: 2ed2 7f89 7826 b5bf 2287 3519 7001 a9bf
00000320: 62d2 95f3 bee2 c3bf d1ad d5ae 62e5 b5bf
00000330: 5784 5240 5900 c93f 7af8 553a 6eb0 b53f
00000340: 082b 8b05 fddd c0bf b9e3 4963 4506 7c3f
00000350: bc32 4f66 52fe b5bf 6e44 d441 ac45 c6bf
00000360: 8093 d34a afef bb3f e7d0 e18d 8db8 a4bf
00000370: 759a 5cbd 37a2 933f d6cc ab4d 086f c9bf
00000380: e7b7 b846 99be d03f 8a98 b6e2 8ce8 a9bf
00000390: 7a08 8ecd a658 bc3f 6155 4f7e 9936 9a3f
000003a0: 4339 21e3 78af b6bf 35d0 fe69 1143 b5bf
000003b0: 442a bdc2 0774 c4bf 9135 e1ff f0dd b33f
000003c0: e4a9 b3b7 64be bbbf 1c39 66b9 2a05 a23f
000003d0: 9bcb 703e 8e60 d0bf eea6 d314 2263 c33f
000003e0: 9158 68f3 ef85 9c3f 076d ec08 01e6 af3f
000003f0: 3a52 09b1 c958 c6bf 0298 8d35 8dc0 973f
00000400: a69c 84a3 9977 a43f c92a e50a f268 b3bf
00000410: 8daa 7429 8bb8 c03f 39cf b8f3 43f8 a83f
00000420: dc3e 40ed b510 c2bf 26e2 43de 5380 b63f
00000430: 2b00 1140 c4b7 c9bf a26e 77a9 e691 aebf
00000440: 2af2 f40f 4934 d93f 79d6 1ea8 4e91 993f
00000450: dd8e 795d 6615 95bf 8dad 21ca 69f6 b9bf
00000460: aad7 4ace d96a cb3f 0015 61db 6438 b2bf
00000470: ebd4 b000 8212 b23f 852c 5f84 9fec 473f
00000480: 5c04 b50f ae4d 73bf 063e d95c 299a b4bf
00000490: 33e1 3c66 ea25 cd3f 445a 8de8 665d 603f
000004a0: a995 826c f308 b6bf 5ad3 252d 32df b9bf
000004b0: d219 75ee e443 c83f 831f d8fb 731c b4bf
000004c0: 251a 6936 e9e1 c6bf d4dc d111 f9e4 ba3f
000004d0: 541c eebf a31e a23f 6257 f59b 951a a4bf
000004e0: a0b2 90a7 9af7 bbbf bed8 9afc 1443 c1bf
000004f0: c603 3994 b4b2 aebf 1fd8 71b1 3749 c0bf
00000500: 7609 1779 96d9 ba3f 7ed2 3d06 716c a2bf
00000510: a250 6819 1c55 c5bf 9dbf 9e96 3a4c bc3f
00000520: 9298 c9cf 8abf 933f 9334 8eff d738 d03f
00000530: 7ecd 4c5f 05ee 993f f418 632e 6e89 b93f
00000540: f590 91a2 7890 cebf 81a9 5268 e804 c03f
00000550: 9240 151e db08 b83f a6d2 3421 2505 b83f
00000560: 9cdb ec98 828f b3bf 58ce f63c d658 c3bf
00000570: caa0 f613 b3c8 b23f bc65 06ee bb67 a0bf
00000580: 8e2f 1fd4 d345 c3bf 0ea0 a046 3754 b53f
00000590: c521 1b65 d431 9a3f 8bb9 45a2 9ed3 b0bf
000005a0: 2f10 ab4d a1bb cabf 72e3 62dd af27 ccbf
000005b0: 91cd 7f66 ca6b bdbf a6d9 c4da 408c c9bf
000005c0: 6884 5c50 a4d4 d23f 45c9 f331 64f7 bebf
000005d0: c3eb 9e62 38a7 a03f c434 6c53 ba90 8bbf
000005e0: 9e17 04f3 1105 d03f 57f9 9ea0 b56a b3bf
000005f0: 8103 40f3 082f c0bf d813 adb2 15e4 d1bf
00000600: 718a f1cd 6cf4 82bf 9138 7351 de16 b03f
00000610: 3946 f0a3 9e54 9b3f 20c0 d7a2 8179 9bbf
00000620: 39eb eaa0 2f9e a03f 9f39 e4bc 543a a0bf
00000630: 8f68 16f8 6149 a33f e12f 15f4 a9b8 d5bf
00000640: 97d6 24ee ac13 d43f cfc2 b7c1 1e87 c63f
00000650: d7a8 18b6 e14e cc3f f111 16ef d976 b2bf
00000660: 1824 a45e 6624 d43f f0b9 5db2 365b a4bf
00000670: 49ab 319e cd88 ad3f b09f 945a 8245 c33f
00000680: b56f cce8 2fc9 bc3f 54f9 8610 5019 bcbf
00000690: 5904 a445 30ea b9bf 9719 fc19 b11b a83f
000006a0: 27ec 2a98 af31 bfbf 2381 3aa5 4635 c6bf
000006b0: 6bd3 cede 6f26 c2bf a9dc a7fe 22eb b0bf
000006c0: 1eab f3d6 512d c93f 632a 94f5 16ee cabf
000006d0: e984 2d0e cf73 d2bf 9437 5fde 0c49 96bf
000006e0: bd45 2d53 1d00 ad3f b0e8 077d 737d 8fbf
000006f0: 29e6 90f3 2cfd 853f 4187 5ef7 2b2f bdbf
00000700: b7c4 fb7d ef7d c2bf 2d7d 7dbc 7a3d cbbf
00000710: d156 711f ebf1 c13f c99f b3db 7a98 b0bf
00000720: afbd bf88 55e2 b4bf c0b8 a9cf 83ca b53f
00000730: 77a2 39bc df8f bbbf 2b63 47c7 e622 cb3f
00000740: 8502 f699 98cb ccbf 8670 379f 8db3 b6bf
00000750: 4937 660b 1292 d73f 9807 d98f 3db0 cfbf
00000760: ecda 121e 9770 d53f 11a4 1c0e e6f1 d6bf
00000770: 27bf 64ae 4be2 c13f f9e2 1242 c769 c2bf
00000780: 29cb 2eb1 80da c2bf df52 1d42 f4e4 cabf
00000790: 6d3f 7724 22f9 c3bf aac6 fe5e 1557 5dbf
000007a0: b4ea eedd e55d a3bf 55c9 60a1 7892 c7bf
000007b0: edcf e150 d0a9 9fbf 5206 11ba dca6 af3f
000007c0: c3a4 c191 a56c c53f cf6a 0b84 6697 c4bf
000007d0: 1fc4 e3f9 a242 d2bf f766 d0a8 8a95 c13f
000007e0: 6f62 a0db f537 9ebf 4d27 2a9e 40d9 b33f
000007f0: faa2 db4d 2f7e ab3f 2b10 e6d6 0fc9 c3bf
-0.08099576693052024 0.03330454359449498 -0.15158555770526683 -0.053039743147879875 -0.14002282383706802 0.07035020759906414 -0.2794911480630689 -0.09393901642285832
0.1520498562722972 0.005416860796242357 -0.09222345564296619 -0.0723151358724578 0.15551995863727977 -0.2714615987245113 -0.007202922344680854 -0.05136896288593246
-0.06190940391210907 -0.15270548300885278 -0.2459564390924971 -0.1143490629195047 -0.15500905010665597 0.12140226191595112 -0.21167462225722142 0.19018355556886662
-0.11004354944345832 0.14262808270421748 -0.03398512057773692 -0.13068999198810452 -0.07818767162499388 -0.15747164066682218 0.08793649524897588 0.06732843574428414
-0.001050529078780297 -0.11760404007585357 0.11725068707693374 0.07664715023289305 0.07548400358262657 -0.07815810271766437 -0.11795042736090929 0.17906836816062344
0.0058975263440546695 0.047822593801193955 0.3038134721319012 -0.036898826708345815 0.2794331012743894 -0.22405579659904545 0.10053984226234841 -0.029392469759012663
0.0990851726556857 0.13687041180259038 0.02639188933686792 0.19499556235197163 -0.10002033832415935 -0.11495800325925883 0.021128527791722956 -0.10206312986127342
0.0398037777821763 -0.12779296815403934 0.10449227635470512 -0.17711994083401103 0.07799569778230893 -0.04714593104278049 0.028176606019053942 0.07209669410549614
-0.06852238995362951 -0.1624824857382703 0.4063109340859648 0.1827512376535034 0.08881371034869359 -0.07296085621800677 -0.3292436425901037 -0.3126759591618884
0.32362341849252635 -0.06333775314884336 -0.020384558913008725 -0.1154595060875364 0.22515749395087023 -0.2291374074998877 0.057989384874366445 -0.10640290219639663
0.0944044994489022 0.01707888897248609 0.09772494994916403 0.022683079048397118 -0.02968719655663681 0.15348641575469824 -0.16177482079939265 0.07430038298705821
-0.02183874815146013 -0.019519935836015297 -0.2794958569349102 0.06804974557013015 -0.025562171293568605 -0.06819550164685044 -0.06047339072233612 -0.01129353481621586
-0.21400114685207025 0.10123029107454815 -0.08261826855579876 -0.04883909518936337 -0.15535723584948175 -0.08553139465737238 0.19532313957918987 0.08472336696829244
-0.13177454729733307 0.006841918035768773 -0.08591189382350256 -0.17400124754252339 0.10912604882066823 -0.04047052723845628 0.019173499043200388 -0.19870094101461316
0.26163322359468427 -0.05060234324928199 0.11072771566799303 0.025598905882210036 -0.08861499352608342 -0.08305462682511762 -0.1597909642099059 0.07760530707419934
-0.10837392315776345 0.03519567025351675 -0.2558932885905791 0.15146280304843834 0.02785468028204058 0.06230166658334651 -0.17458459038120272 0.02319546355592906
0.03997497674054644 -0.07582009092326837 0.13063182377057495 0.048769114972314793 -0.14113496860999575 0.08789562393565883 -0.20092061165087335 -0.05970688646968127
0.3938162475422212 0.02496836567998748 -0.020589446501971465 -0.10141621765949634 0.2141983277594453 -0.07117300373018409 0.0705949069677733 0.0007301119701365188
-0.004712753226443569 -0.08047731892406071 0.2277195929725707 0.001997662537557761 -0.08607407950565595 -0.10106195070495741 0.18957196849278418 -0.07855915926495353
-0.1787692561794795 0.10505634961178895 0.035390011958093354 -0.039265322959791474 -0.10924688902805224 -0.13485967954847483 -0.05995716389998722 -0.12723442234317958
0.10488262611673868 -0.03598359299841024 -0.16665984383201243 0.11053816010712443 0.019285363132802553 0.2534694667491035 0.02532204050221542 0.09975327141282603
-0.23878391206665808 0.1251497754468112 0.09388513073395391 0.09382850704862253 -0.0764085410454371 -0.15114858605157866 0.07337493169200396 -0.032041428380761044
-0.1505684648276397 0.08331628298094548 0.025580710097331556 -0.0657290598080406 -0.20885101597207398 -0.21996115026356794 -0.11492600443289393 -0.1995926922042603
0.2942286286143543 -0.12096239299333884 0.03252578929774288 -0.013459640189035567 0.2503094552233679 -0.07584700747881833 -0.12643539311832444 -0.27954618882023174
-0.00925526622285597 0.06284894455459013 0.02668998599626191 -0.02683069759763168 0.032456863778369933 -0.03169503026775832 0.037669240507242845 -0.3393959888096543
0.31370089775314497 0.17599853953244923 0.22115727797910864 -0.07212602698388772 0.3147216724615318 -0.039758404992301766 0.05768435054854721 0.15055875227812754
0.11244487222251005 -0.10976124194619291 -0.10122968387806121 0.04708627168843121 -0.12185189690619379 -0.17350085323142492 -0.14179800395290995 -0.06608790127926291
0.19669554706282438 -0.21039092055464712 -0.2883184088187379 -0.021763039658075536 0.056641498950408466 -0.015375997784748158 0.010736800368351744 -0.11400103368080484
-0.14446824695145263 -0.2128137035715353 0.140195265152832 -0.06482665885744078 -0.08157858456228582 0.08512138194939478 -0.10766409249630181 0.21200260858929573
-0.22496325986505297 -0.08867726456759514 0.36829043496333164 -0.24756593250100134 0.33499696671371626 -0.35851432207215433 0.13971849456128746 -0.14385309911974511
-0.1472931733274774 -0.21011212566613488 -0.15604044704968648 -0.001790781850996496 -0.03782575925966594 -0.18415744666851688 -0.03092122548737557 0.061819932664104585
0.1673781358433982 -0.1608703751324669 -0.28531717685024377 0.13737614863276068 -0.029510346918046822 0.07753375874940822 0.05369708848394868 -0.1545734214124662

transformer.encoder.layers.0.linear1.bias f8 [128]
00000000: 1c27 961f 1cdd c23f b075 3c40 4f9e c2bf
00000010: 8343 43dd 8691 b13f 5d58 7009 6af1 c2bf
00000020: 9b56 2441 db0d 943f a46d a66d f94c 1d3f
00000030: c9a1 a4aa 7643 b23f 0d59 a1a8 9961 cebf
00000040: 65fd f961 0299 b6bf 9232 2345 a7d4 c53f
00000050: 23b6 92dd 5b18 c93f cb2e ea68 86f9 babf
00000060: 9dd0 847b ab20 c2bf 5b29 1772 411a c03f
00000070: 4678 45b6 1ded c03f 0051 4a0b a0a9 b13f
00000080: 9b57 89c5 6259 c33f df48 5c34 6a1c c03f
00000090: 3e0d 18ae 73df c3bf 6ebe 1dda 6dbc a43f
000000a0: a532 e6c7 4e94 c1bf 1303 e98d 0ce6 bbbf
000000b0: ce29 1e95 868e c73f d4e8 acb7 a258 c13f
000000c0: 9227 d694 a04e cb3f 55fa 2abb 836a bcbf
000000d0: 0ef2 ade8 d9c2 c1bf 5dc5 6cd5 dee9 cfbf
000000e0: 408d 0ba0 690f cfbf acca b15b 04bf d0bf
000000f0: 15e6 21d0 1470 cfbf a1f2 d591 d7c4 c43f
00000100: d8a7 49cc 6732 c8bf f18a 499c 8d5b c2bf
00000110: 3c80 9f23 53be b13f 890c c95c a353 c43f
00000120: 1e35 29fb 6bc9 8a3f 55b3 45ae a0e3 90bf
00000130: 32f6 955f 7d0a c03f 861c a3c4 ce4f c6bf
00000140: c455 3c24 597f c33f 355a 7319 9942 d03f
00000150: 4af1 be7b 5d52 d0bf e38f 278e a23c c63f
00000160: 1bf4 f255 0898 903f 6c89 9b7f bff7 a73f
00000170: c7eb 7295 cbc9 51bf 9858 1f97 2717 b23f
00000180: 7296 7cc6 a9d3 c23f 88ad 6f55 a8ee 97bf
00000190: d75c b8d3 36d7 b93f c613 454e 88b4 983f
000001a0: 2402 392a f6dd ccbf f8ed ac9f d749 87bf
000001b0: f009 b38e 9d99 c8bf ccf3 d310 51ca 8cbf
000001c0: b44d 604d ff0a c4bf c891 776f 5255 b5bf
000001d0: 980a 8dab 35f6 b93f 160d 0385 6f18 8dbf
000001e0: 088f 2b3f ca27 c43f 439f f80b fe4e bc3f
000001f0: acc6 5b84 b7dd c13f 41d9 62e9 2f50 d0bf
00000200: c831 8106 0d18 d1bf 70d3 d9d3 1a74 ca3f
00000210: a7fe faac bada c8bf b817 c9f3 851a c53f
00000220: 09a1 eed5 31a4 cfbf 86b3 3622 7641 b3bf
00000230: 24ef 7e33 5f12 af3f 7b26 165f 1cc0 bbbf
00000240: 4225 6861 50de 963f f1b5 4ea4 c604 d1bf
00000250: 7930 6021 7bc0 99bf dbd9 6dca d401 b33f
00000260: a216 f9c9 5e2c a73f 5487 4e85 5f23 b1bf
00000270: b4e7 78c4 e836 c33f 2283 f911 104b 8cbf
00000280: d409 a978 3aea c8bf 3527 cd4b ab57 c8bf
00000290: d0e9 846d ac89 cbbf c573 4148 e71d ccbf
000002a0: b2ea 39d0 8732 a23f 25a4 2840 676c ca3f
000002b0: 4d58 3720 8826 cfbf 0689 9333 29c8 c23f
000002c0: f743 fa8e bd0c c8bf 6dbc 58c2 0f75 b83f
000002d0: db7e fded c6c9 c5bf 3986 ca48 b771 d0bf
000002e0: eed3 0409 1234 ab3f 0eb2 a0b0 dabf cabf
000002f0: d207 a906 b682 b9bf 3acc 3260 07c3 c2bf
00000300: 6948 d10a 449f c9bf 5a9e 2d69 04ba b63f
00000310: f557 a5cd 3568 bd3f 17ea 02bd 3d97 c4bf
00000320: ab97 5b22 93fc c33f 4400 e5d6 8f5d bf3f
00000330: 8660 feb2 a173 523f 9623 4652 6644 b43f
00000340: 9a44 e0cd 173f c83f ec8f 2aaf c3a7 a6bf
00000350: 7f20 58cf 4829 c53f a642 c45b 3850 9bbf
00000360: 3d49 0034 cf6d cdbf 3e31 f8e4 1d81 c2bf
00000370: 4373 be8b f6e0 a0bf 7478 0f0b cfaa 863f
00000380: fc6c a04e 228b a0bf d064 e8d6 3d7d c23f
00000390: 7a87 df5b ab06 b73f 6d7b 3e86 a6a5 7c3f
000003a0: 75b7 189b 8c1a c23f 637c d39f fdf2 883f
000003b0: 43e8 1d7f 1bdd c3bf 07d3 68cc 5981 bebf
000003c0: 2858 a668 8444 b53f 5999 f628 d18e b93f
000003d0: 9d27 d6f7 16cf c63f 6c7b 184f 51ac b6bf
000003e0: 1d85 c6ef e13b cbbf dcb4 81b4 0bf5 a63f
000003f0: 77b4 22d9 1349 bc3f 4d19 39f1 0ea5 c8bf
0.14737273733435863 -0.14545622478992248 0.06862681295321064 -0.14799237690812364 0.01958410821051491 0.00011177322759297351 0.07134191194621232 -0.23735352262401258
-0.0882722367477889 0.17055216670850776 0.19605587309836023 -0.10536994992633734 -0.1416220048064404 0.12580125876258816 0.13223620796174113 0.06899452472345402
0.1511653389485986 0.12586715275444413 -0.15525671005898717 0.04050010001708136 -0.13733849297240855 -0.10897901978115625 0.18403703957694834 0.13551744431044332
0.21333701388749354 -0.11100028342750907 -0.13875888692190624 -0.24932465954911268 -0.24265785517409633 -0.2616587539152231 -0.24560794985500026 0.1622571432198088
-0.18903825259195517 -0.14341898089613594 0.06931037540152912 0.15880243330511615 0.013079494097065377 -0.016493330609068952 0.12532012145304489 -0.17431053735183272
0.15232385892220013 0.2540648220578164 -0.255027170987678 0.173725432788273 0.016204958196556967 0.04681204254827062 -0.001085709392824029 0.07066581191552002
0.14708444778186763 -0.0233713438173431 0.10094015759419804 0.02412617662163876 -0.22552372991232617 -0.01137131172219251 -0.19218797176115698 -0.014057763410613953
-0.15658561018117967 -0.08333316060413332 0.10141311109786455 -0.014206763502790081 0.1574642952392582 0.11058032791390553 0.1395787616998424 -0.25489423553098695
-0.26709294924947047 0.206668237154783 -0.19417508550940463 0.16487192538823847 -0.2471983236876059 -0.07521761260313839 0.06068704131709371 -0.10840012856911045
0.02233243555568732 -0.26591650052691224 -0.02514831916055058 0.0742466921054538 0.045260393290431425 -0.06694600109633814 0.15011319726346317 -0.013815045879881863
-0.19464808360687746 -0.19017544938315614 -0.215138963199776 -0.21966258075818082 0.03554176728080928 0.206433206870572 -0.24336339543396193 0.1467334272229623
-0.18788880807235817 0.09553621763983396 -0.17022024746528683 -0.2569406710482301 0.05313164100736133 -0.2089799272956871 -0.09965074217419037 -0.14657680699528602
-0.20017290619086062 0.08877589767291152 0.11487137098933416 -0.16086551407882219 0.15614546945215343 0.12252139088104835 0.0011262015432063357 0.07916869648592093
0.18942544510403964 -0.044248690731620716 0.1653224003241611 -0.026673203087798435 -0.22991361655346934 -0.14456533126975474 -0.03296633201464385 0.011067979359662618
-0.032311508272153205 0.14444706910652494 0.08994551651951879 0.0069939141139049145 0.14143521855424593 0.012182218017583851 -0.15518516260982737 -0.11916123619523598
0.0830767398350366 0.0998354649551393 0.17819487668412828 -0.08856685811086401 -0.21276497085367732 0.04483830049944412 0.11049007464562687 -0.19253718164891112
