Code/990-10/darts_logs/D-ZEC_USDT_transformer/checkpoints/best-epoch=19-val_loss=0.02.ckpt (torch, 653477 bytes, 205 tensors)

encoder.weight f8 [16, 1]
-0.3117903775590884 -0.6498509196055668 -0.7942495662833606 -0.6763387172983487 0.3606493623333301 0.6948695569506165 0.06934494856332496 0.9627385461797658
-0.5947394316225445 0.8377805838852459 1.0524206165932903 -0.42401654240631326 -0.1715316311083686 -0.495550144584442 0.058149720565836505 0.49460863742955347
00000000: c3b8 b4a0 5ff4 d3bf ea67 df27 94cb e4bf
00000010: 3293 0111 7e6a e9bf 7514 fa17 91a4 e5bf
00000020: c2df 2210 e114 d73f 54d8 c214 5f3c e63f
00000030: 88e7 382e 97c0 b13f 0d1a 4e11 c1ce ee3f
00000040: 10bc 0efd 1a08 e3bf 6c59 203a 19cf ea3f
00000050: 2a78 1e00 b7d6 f03f 7a47 a647 1623 dbbf
00000060: 7284 eb9c bff4 c5bf 022b 21f4 17b7 dfbf
00000070: f81f 34d8 ccc5 ad3f 370f 85fc aaa7 df3f

encoder.bias f8 [16]
0.48764520145356977 -0.0324290586180757 -0.7812574930587409 0.16126223250694605 -0.49346422039649246 -0.973377524759653 -0.9372858863925878 -0.18371355605510137
-0.39113043269833475 -0.8673073037836697 -0.09865709349424139 -0.42549725552342843 -0.029901525264194696 -0.20694127390927738 -0.7838445921779306 0.20601687370608993
00000000: add7 1238 9435 df3f b6ce 68a4 8a9a a0bf
00000010: d326 ceb6 0f00 e9bf 8440 59a7 3da4 c43f
00000020: 2f57 16f4 ea94 dfbf ea21 709f e825 efbf
00000030: 87df a1f8 3efe edbf ba54 8b01 ed83 c7bf
00000040: 2538 3af0 4708 d9bf 49a6 2a3f fbc0 ebbf
00000050: 9b80 135e 9741 b9bf 44b2 40d7 583b dbbf
00000060: 2de1 7064 819e 9ebf ab03 d139 0d7d cabf
00000070: 159f 1141 4115 e9bf e9f3 7ecb c25e ca3f

transformer.encoder.layers.0.self_attn.in_proj_weight f8 [48, 16]
0.16346496219688816 0.26075085188455305 -0.24759600281837751 0.018390129861754166 0.2951103702467185 0.15238796279863318 0.1549730424352017 0.1658675635426725
0.3170767730161678 -0.14664046360677632 -0.3135108131404716 -0.27544634155161973 0.04420483281029347 -0.16480519124540954 -0.21841898759534178 -0.20365534578213615
-0.008042150221189617 0.08122514364407064 -0.2747984872051859 -0.019782813580410778 -0.199513510621995 0.123374724337164 0.051023907473157624 -0.30920809523918014
0.19677310079222737 0.22251598338864093 0.1459165169774715 -0.23017183433218152 0.28108603823251366 0.09620673878101653 -0.11602455661498288 0.25260698194208775
-0.07137798130985512 0.2326610903852561 -0.2704404335163831 -0.02064086182570048 0.10416540805992608 0.29054480761198137 -0.12095064480285361 0.07040285926946391
-0.022541146477804093 -0.03414740543146559 -0.19319572188829592 -0.01922991009769178 -0.15694583495019893 0.043592301770252494 0.19120469493185324 0.06062443501863673
-0.22108796321530003 0.26332856005994826 0.18447500225749572 0.24125553002291905 0.2973186876970236 0.1076071218376341 -0.19493670879156902 -0.10744850276007306
-0.27899464522809414 -0.26778037748895095 0.2722779676194311 0.13636836152345672 -0.12388483620957715 -0.1853637271804311 0.0015960376226308423 0.22894726307909102
-0.29372682406618306 0.20494835432854727 0.14563193533214475 0.05984538708204519 -0.21498744078916432 0.24398788724857923 -0.14332786604846154 -0.21936677216883294
0.2991019838805267 -0.1600884901963828 0.03644011127625509 0.27974377857060645 0.1503974081181514 -0.11791695476793386 0.01829043106429606 -0.21227526865536533
0.34332351613776163 0.12748153817098365 0.07682300071770423 -0.22278018604788632 0.20122369428253245 0.005459773299867511 0.08790034549606293 0.12448507599023556
0.07368881275966979 0.09746640226029203 0.09192567895195984 -0.02432046749462369 0.09735649769410427 -0.02917422070885694 -0.14293423691312748 0.23573238884991982
-0.11568080304736547 -0.11594793962196412 0.0496757455405725 0.24518068274610746 -0.020150688014256676 0.21757686025510983 0.04619118823161792 -0.16310238397104218
0.04972249448720032 0.3352006127610442 -0.21337358993855837 0.2574016547188895 -0.2881079504186629 -0.1782922339689558 -0.2676271209956963 -0.28831913448020324
-0.1217855684140822 -0.3085227882942441 -0.2366333949704783 0.32025164791043825 -0.33732175457640695 0.17477101189185673 0.09171628219048866 -0.11521218955418971
0.010086606286268762 0.3472840017411415 -0.15258451968298564 0.12159667747777089 0.05083951019511177 0.24604754618767896 -0.1765163999057137 0.10492666694398438
0.013686180054401595 0.07992354632358811 -0.09946368358529475 0.19711559423355288 0.2887943591363373 0.13068706030003593 0.17827574595122556 0.27240391135540515
0.0186848427586883 -0.15876835564991723 0.2428178808238878 0.20193264138845013 0.1321847292593324 0.0104002823415219 -0.08970000878953667 -0.1471399906903966
0.3103554377882559 -0.15992624445342604 0.10281297986132358 0.2999955508344723 -0.03462375332066859 -0.07846064506982359 -0.0799291205127805 -0.08037780786736055
-0.17605848201253863 0.287072685200452 0.042944676158178055 0.11020397065326965 -0.27208774495170435 0.306657651595574 -0.04106260781476859 -0.2474032961996851
-0.16562618554714645 0.06165383587657799 0.10403392113535419 0.12384948446920144 0.17637743804176984 0.3757290363665906 -0.031643398539821774 -0.5025055822971433
0.1537256909153802 -0.44072124960254905 -0.05571838379827294 -0.29629044285072487 0.14094351327145666 0.09246797569288748 0.05645971468781921 -0.49808994751000485
-0.32842119077989695 0.12579375866386064 0.41988225433010445 -0.2862897783114989 -0.05007194155742059 -0.0632772056632525 0.39129703390884074 -0.38598453444054115
0.25825380259662556 -0.09053985938625483 -0.3349916957520201 0.004634725774562502 0.01621633758940588 -0.2653713605887214 0.43235908952742647 0.01270967465806715
0.06191722811511684 0.23752141087024134 -0.015651687336355784 0.14732619497304636 -0.13274151863643777 -0.20014804586080653 0.09784787449194055 0.2793401736480567
-0.06039592094085815 -0.1687359333145227 -0.1252798512716882 -0.008000786917225304 -0.033629250742293185 -0.019958806330021093 0.003967058389415653 0.08717004614552372
0.06009595360973146 -0.2979866118567057 -0.17670268746071818 0.1989402409445105 -0.28162708358221855 0.1027702761333393 0.23130610524979384 -0.2793834519815281
-0.1963479574716561 -0.08512307200968477 -0.2007938525095702 -0.14465823687657617 0.25422823551173523 -0.3017405508540522 0.23018396602113678 -0.029355465345044542
0.18218434546186918 -0.15847780495837074 -0.2919954554250073 0.13681759785698733 -0.11742681807380946 -0.2618769854073053 -0.15816175810169 0.13119349427517477
-0.047742619723241654 0.37199526256746474 0.19052088662344763 -0.13354588427181754 -0.39196858468075957 -0.14975970462296154 0.09705209853635645 0.27975976650092
-0.21179524196203078 0.07098560469000005 0.0639393852246722 -0.1049860100287291 0.28262848784429356 0.21862619928403287 0.0941037610653344 -0.4958591548529047
0.42607894192819556 -0.10486630600866714 -0.07162188219700971 -0.32832361732167287 0.3623514013503084 -0.3326666341035314 0.32807726653515057 -0.464860832986473
00000000: aeb8 567d 6bec c43f 12e4 4f57 24b0 d03f
00000010: 2ad5 5ccf 39b1 cfbf c63c 4db9 dcd4 923f
00000020: 0ae3 3a9b 16e3 d23f cb18 43e2 7281 c33f
00000030: f4a9 821a 28d6 c33f 8005 71f8 253b c53f
00000040: f33d 9b60 fc4a d43f 950e bb5d 1dc5 c2bf
00000050: 445d 58a8 8f10 d4bf 6417 31b1 e9a0 d1bf
00000060: 989f 7d0e 04a2 a63f 6e16 4e25 5618 c5bf
00000070: f211 4644 27f5 cbbf af19 e5dc 6011 cabf
00000080: 8e27 8421 6778 80bf 796e 90c7 2bcb b43f
00000090: cd56 e264 4c96 d1bf 7e25 6725 f241 94bf
000000a0: a1a5 9da1 a889 c9bf d75e 2e66 7c95 bf3f
000000b0: 6b9b d23b ce1f aa3f a27c 2dc0 10ca d3bf
000000c0: e24b 5168 dc2f c93f 36e9 be5b 677b cc3f
000000d0: eaa6 2e76 64ad c23f e261 754a 4576 cdbf
000000e0: d688 644b 50fd d13f cb22 b83c 01a1 b83f
000000f0: 7fba 310c c9b3 bdbf 90ae 8b79 b62a d03f
00000100: 1c5d 61cf d345 b2bf e5d0 20af d6c7 cd3f
00000110: e902 5e64 e54e d1bf a5b3 02ca e022 95bf
00000120: aceb fd8c 95aa ba3f 1fd4 ad3f 4998 d23f
00000130: 0cbe db17 9ff6 bebf f273 1bfa eb05 b23f
00000140: 92fd bebb 0615 97bf 368e 24cb c47b a1bf
00000150: 3c61 9e2d a3ba c8bf 36ff e56b 01b1 93bf
00000160: da60 2d16 cd16 c4bf 6bd3 ebec ba51 a63f
00000170: bd77 c93b 6579 c83f e7ae 7c7b 2a0a af3f
00000180: 7944 c641 9c4c ccbf 21db 6308 60da d03f
00000190: 690f d07a e09c c73f 0ebb b611 76e1 ce3f
000001a0: a17e 09f6 4407 d33f c8fc 1bed 238c bb3f
000001b0: 695b 86a2 aff3 c8bf 6cd2 5bbd be81 bbbf
000001c0: e2e1 405b 0cdb d1bf 49d6 f44e 5023 d1bf
000001d0: 0832 9691 006d d13f a6e6 79ba 8474 c13f
000001e0: 298e fda7 eab6 bfbf 1e64 0da5 ffb9 c7bf
000001f0: 37d6 1c59 4426 5a3f ca79 b7d7 244e cd3f
00000200: f59e d497 6bcc d2bf 8fe5 9a67 bf3b ca3f
00000210: 9a9b c037 11a4 c23f baed aaf8 0da4 ae3f
00000220: c8be 9e5d b584 cbbf 0028 2dbe fe3a cf3f
00000230: 5e4d a448 9158 c2bf 04a9 25dc 3514 ccbf
00000240: 91e0 bba5 7c24 d33f 7703 ee96 c77d c4bf
00000250: 3b63 633c 47a8 a23f 1718 0e73 52e7 d13f
00000260: d8a3 a2e6 3840 c33f a947 5f38 ce2f bebf
00000270: 5fea 000d baba 923f 9aec 4f04 d62b cbbf
00000280: 3f9a 7032 03f9 d53f 1de2 a4a6 5051 c03f
00000290: 82c2 a913 acaa b33f 35e0 a2a6 0f84 ccbf
000002a0: fed7 0fb1 b2c1 c93f b59a 43bc fc5c 763f
000002b0: ee72 3615 a380 b63f ccd7 3702 41de bf3f
000002c0: f243 e220 45dd b23f 21af 2ae2 8ef3 b83f
000002d0: 23e2 c2f8 7088 b73f e125 0df2 76e7 98bf
000002e0: 0937 a6fd 5aec b83f 2ec4 52cf d8df 9dbf
000002f0: f9a2 8248 ab4b c2bf 3ef3 5b9a 7a2c ce3f
00000300: 2e0b ddd1 419d bdbf e604 b7a0 c3ae bdbf
00000310: 3c9a 006d 196f a93f abb3 00a3 1462 cf3f
00000320: 5f72 0dc8 61a2 94bf 59be 94fd 8ed9 cb3f
00000330: 5de8 a215 5fa6 a73f c912 87f6 89e0 c4bf
00000340: dd68 650f 3a75 a93f 221a 5a45 ed73 d53f
00000350: 64e0 4e67 d34f cbbf ef0c 3dca 4479 d03f
00000360: fe01 3154 5c70 d2bf 5583 03a9 47d2 c6bf
00000370: e2be 0c81 cd20 d1bf edd2 5919 d273 d2bf
00000380: ca97 76c9 562d bfbf 41d9 725d d6be d3bf
00000390: 6c13 45ca 004a cebf f4fc 90c4 007f d43f
000003a0: f1a3 08fc ad96 d5bf 14a3 2e82 e55e c63f
000003b0: c0d3 84e0 b77a b73f 3c5d 3cca 8b7e bdbf
000003c0: 7368 0461 49a8 843f cebd 79ad e639 d63f
000003d0: 8207 f5b8 e387 c3bf b6bc 11b9 f520 bf3f
000003e0: 7dec 43e3 a207 aa3f 7f8d 116a 7c7e cf3f
000003f0: cdbe 66e2 1698 c6bf c3b0 005b 79dc ba3f
00000400: 4534 edfd 7f07 8c3f 00e1 a399 de75 b43f
00000410: e676 23b4 7376 b9bf 35e2 6173 153b c93f
00000420: 57a1 f055 9b7b d23f 5be0 ff84 5aba c03f
00000430: 05e8 4359 bdd1 c63f 91bb a4d0 106f d13f
00000440: 3c60 5192 1e22 933f cdfa 937f 8552 c4bf
00000450: 55e5 8204 a814 cf3f a00f 61c5 edd8 c93f
00000460: 7a87 99e0 6deb c03f fd40 3544 be4c 853f
00000470: 79b4 336c 94f6 b6bf c378 f9b3 7bd5 c2bf
00000480: b2ec db0d dddc d33f 638b d992 7678 c4bf
00000490: 33d3 1b92 f351 ba3f 61e4 f189 2033 d33f
000004a0: 61a5 5a60 34ba a1bf a413 9930 ff15 b4bf
000004b0: 1cb6 991e 3c76 b4bf e54e 1dd8 a393 b4bf
000004c0: 61b0 3697 1589 c6bf adb1 a01c 665f d23f
000004d0: aafb 4537 d8fc a53f e45a d8d1 5336 bc3f
000004e0: f96f 8db7 e269 d1bf 2af4 2a6a 47a0 d33f
000004f0: 9449 4e7b 2806 a5bf f2d4 0c45 e9aa cfbf
00000500: eba2 2425 3d33 c5bf cb94 8671 1791 af3f
00000510: 0b74 f390 f7a1 ba3f 3af3 6b8d 99b4 bf3f
00000520: 2b22 1230 8993 c63f d488 d6cc f10b d83f
00000530: aec4 b943 9033 a0bf e1c1 4096 8614 e0bf
00000540: 12ae 848f 48ad c33f 2d7e 6ce6 c634 dcbf
00000550: 892c 66b8 1e87 acbf 6f51 8a30 6cf6 d2bf
00000560: a6c8 0ae2 6f0a c23f 023d 8733 fbab b73f
00000570: 6458 40a8 49e8 ac3f 9f65 c1a8 b4e0 dfbf
00000580: 5aa2 6d50 da04 d5bf 0748 c087 021a c03f
00000590: f92f a1d1 59df da3f 01ba c15c 9252 d2bf
000005a0: 9468 df8e 07a3 a9bf 63eb e758 ef32 b0bf
000005b0: ee41 eab6 020b d93f 2ec5 0b7a f8b3 d8bf
000005c0: e216 0ef5 3a87 d03f 2664 0cc7 9e2d b7bf
000005d0: c1ef 6b02 8170 d5bf 1ef4 0aba dcfb 723f
000005e0: 9ff8 6dfe 039b 903f 5d82 c128 d8fb d0bf
000005f0: 3383 6975 c5ab db3f ba5b fea7 8707 8a3f
00000600: c675 a06b 9db3 af3f abcb e401 1a67 ce3f
00000610: db8c f2f4 fe06 90bf e56d a0b2 95db c23f
00000620: 37b4 ae90 acfd c0bf ea4c aa7f 739e c9bf
00000630: 280e edec 8e0c b93f 57c0 919b b5e0 d13f
00000640: 566d 81d2 36ec aebf 0a7a 9f99 2399 c5bf
00000650: 71a2 0790 2b09 c0bf 4fc7 3671 b762 80bf
00000660: 9217 4168 da37 a1bf b98c d1d1 1470 94bf
00000670: 56a9 b320 c33f 703f 19c6 62b1 c650 b63f
00000680: a75f c096 e5c4 ae3f 6281 2470 3612 d3bf
00000690: fd29 e193 319e c6bf 3186 5bb2 df76 c93f
000006a0: bcd2 699a 2d06 d2bf 5e5b fe1e 274f ba3f
000006b0: 22dd b43e 709b cd3f d378 5321 6be1 d1bf
000006c0: a313 fd0b ee21 c9bf 84a9 6a2a a0ca b5bf
000006d0: 151b e2ea 9cb3 c9bf 6baf 3d3e 2984 c2bf
000006e0: 3688 4f81 4645 d03f 37e4 7299 b74f d3bf
000006f0: f4ea 0f0f ab76 cd3f 879b 76ee 5b0f 9ebf
00000700: de0a cd0e d151 c73f a512 b82e 0049 c4bf
00000710: d562 e8b4 0db0 d2bf b411 2832 3d83 c13f
00000720: f5e3 4c17 af0f bebf 8490 f9af 97c2 d0bf
00000730: cd26 43fd a43e c4bf 330f aecb f2ca c03f
00000740: 4d62 ac7c b871 a8bf e0a0 bf37 c5ce d73f
00000750: 3a56 a008 fd62 c83f e73e bb12 0818 c1bf
00000760: 66d9 1067 0316 d9bf 699f ce74 532b c3bf
00000770: 39c9 3805 68d8 b83f 41ea f681 95e7 d13f
00000780: 2f71 d642 1b1c cbbf 995d a1d2 1c2c b23f
00000790: 4560 77e0 545e b03f 3865 9cf7 5ce0 babf
000007a0: 1d63 0dcc 9516 d23f 32a2 fc7b f1fb cb3f
000007b0: 23ca 3420 2f17 b83f bbfc 6009 28bc dfbf
000007c0: f322 469c e044 db3f 1c72 c2aa 84d8 babf
000007d0: a8d0 b6c9 cf55 b2bf 0daa b90f 4103 d5bf
000007e0: e865 9dee c330 d73f f57b 7cfe 684a d5bf
000007f0: 4c17 95ca 37ff d43f e990 b7a6 47c0 ddbf

transformer.encoder.layers.0.self_attn.in_proj_bias f8 [48]
-0.01212687582727953 -0.012762251355207322 -0.0007702015911868653 -0.012092002913323 0.004849759787874001 0.023962427667319302 -0.0028720061629592853 0.06233298641791248
0.007426806642995686 0.012491971150189504 -0.21743704042566042 -0.19480791065542477 -0.01995896796407358 -0.010339895257512648 0.07951487541131044 -0.20207372266057816
1.7097268587095918e-13 3.82829261753029e-13 -2.5737771311689978e-14 5.588397141529701e-15 7.046087268551637e-14 -4.4707443987168015e-15 1.2967491858070833e-13 1.1875618350433973e-13
1.1015582217834493e-14 1.9957626690160303e-14 -3.2058349995591803e-13 -4.38748322573914e-14 1.27189191331301e-13 -1.2460886901588527e-14 -1.2565745513339946e-13 3.360857486640941e-13
0.005548372988273209 -0.000982613362347643 0.015148051226086747 -0.0008671991830616497 -0.0049454610038512595 0.00853811948947526 0.004921429887464159 0.011295310627637941
0.0019085697933758233 0.052392933250666004 0.0021946467475930315 -0.004107995036946698 0.0072477154443491565 0.005271797987523402 -0.0080869632000231 0.012685887595343868
00000000: 2f84 a5b8 f9d5 88bf 2734 8d61 1823 8abf
00000010: a3ea 9e52 eb3c 49bf 3566 7228 b1c3 88bf
00000020: c401 eb7a 57dd 733f ebd5 a74c 9b89 983f
00000030: 69fa 6691 0887 67bf 1bff 40f4 1bea af3f
00000040: 197c 533a 926b 7e3f 38ce 6bfc 6395 893f
00000050: 5e9b c818 fad4 cbbf 9f31 a232 77ef c8bf
00000060: 5ca1 abaa 1f70 94bf f6f7 cc3f 152d 85bf
00000070: 52e5 6f3d 165b b43f e6a4 1a3f 8ddd c9bf
00000080: c621 9fb0 f00f 483d 9e4f 975a 70f0 5a3d
00000090: a027 5852 68fa 1cbd 577e aab5 fb2a f93c
000000a0: 9419 86af 3dd5 333d 7c19 08d8 6a22 f4bc
000000b0: 5252 9604 0840 423d 05a5 4e76 a4b6 403d
000000c0: bdd2 0902 0dce 083d 00dc 6fed 6478 163d
000000d0: 9ec8 c971 1e8f 56bd 4a71 969a 07b3 28bd
000000e0: 5028 103b 79e6 413d 5d06 3555 360f 0cbd
000000f0: aeea 3875 49af 41bd 5122 b7f2 61a6 573d
00000100: c083 7d08 e4b9 763f 7698 6010 6119 50bf
00000110: bbd4 e904 f105 8f3f 8ee3 af10 986a 4cbf
00000120: da27 6714 b141 74bf c626 d0ff 6e7c 813f
00000130: 9cd1 a846 7e28 743f 1e70 f3ed fe21 873f
00000140: c547 0f36 1f45 5f3f 56cc b41d 3fd3 aa3f
00000150: b2db 3a00 82fa 613f ff80 5f85 8bd3 70bf
00000160: 40fa ddcc c7af 7d3f ed16 297f e197 753f
00000170: 7993 bed3 e58f 80bf 52eb bd02 0ffb 893f

transformer.encoder.layers.0.self_attn.out_proj.weight f8 [16, 16]
-0.030130829033211383 0.36011784424618704 -0.31973039578583295 0.1669489969105099 0.23198632694533414 0.2521891732981627 -0.26199656130371585 0.15401142430538325
-0.16055023655139525 0.4191752636672543 -0.01590267400334083 -0.008577031833057526 -0.3703433968995949 0.2800824112413714 -0.21647231321277063 -0.1266256935201765
-0.3533508154633663 -0.11414435952148572 0.2017169765743069 0.09619099579675286 -0.20269039861451554 -0.06735839285296162 -0.14653765380339911 -0.39531521211443227
0.09676644293168968 -0.3695193089124797 -0.17887688754730838 -0.3980207719537084 -0.43033926005305567 0.37074404727964766 0.23611225112589068 -0.230700359103261
0.04330212127873087 -0.3996001288988805 -0.24525597540921623 0.009978589204419514 0.09585371396453277 -0.26241459144997503 -0.4016068388526615 -0.2951606861892092
-0.023636975410020866 0.34192940148490814 -0.032022632243349974 0.15235213143883303 0.42872174342846414 0.2478557525118623 0.43353095510707307 -0.3577676934290838
0.3884221246339586 -0.27505085681651487 0.077431244883686 0.07282671664885063 -0.27324655326919894 -0.2470582724780793 0.189985075721116 0.07769436488544074
0.3329638904645089 -0.2305004951810306 -0.19501439939801826 0.07325412220172837 0.00871285465499943 0.20339857978640347 -0.4029926935994184 -0.15581766081892554
-0.3630534079032002 0.14288476112106968 0.32614160614335597 -0.37520939587195135 -0.3938938136129961 -0.1837964362495143 -0.21789446980111443 -0.3363970612125324
0.015870836712096926 0.29546773475332655 -0.4309080202836853 -0.3825909886517025 0.2363938709453363 -0.16844393020782575 0.05341905614444117 0.4033863418784908
0.14844897942046306 -0.0022499985177106474 -0.22292104619997236 -0.3593569571364097 -0.27139292040598245 0.32714884125066435 -0.18259372529517967 -0.29889332050744216
0.18916388184964786 -0.15688369087405388 0.29906765024022675 0.05172611426894156 0.2528662427322825 0.3283147712884196 0.23444947049938142 -0.16778072455810591
-0.25611383785343905 0.2341341263020506 -0.25363488714968774 -0.41533860270040535 -0.028073590133565775 -0.1423333167247108 0.38345846284839574 -0.36598348434812084
0.11937199737896424 -0.04578001178327578 -3.846714302010628e-05 -0.22477325079375365 -0.1999249552026828 -0.21231846890594086 -0.09291143419897126 -0.20898545682454062
0.3961709022290936 0.321809942772528 0.3293210119613302 0.07485582945611395 0.28919795727672354 -0.3137188778969497 0.18675131127208489 0.24990708226199262
-0.21909853681919136 0.1386211251931282 0.1609035464471504 -0.11809766425378657 -0.08768493463951847 0.0005232015273843873 -0.08499488657434949 0.42384578153866526
0.3318776214127192 0.039641809800519325 -0.02308720910682648 -0.349491470713194 0.43211249294304105 0.22740266944128115 0.4073878718739891 -0.2408195152356998
0.02688095663319584 0.17087040777287388 -0.3521715592855217 -0.11072963595599106 -0.1323631569691995 0.2636799909230131 0.06216502266372518 0.17767470551981046
0.01107035642832704 0.22925472578279182 -0.3527142602929182 -0.238695650634023 0.4406612375012029 0.13148082761243732 -0.2759713701758793 0.3344159072487829
-0.31850093928793743 -0.30735062976409283 0.19461679697147355 -0.3269741927066043 -0.12395389888430082 -0.14315987478987166 0.48631980094526706 0.12652999921553978
-0.25665406627516474 0.06137582670034865 0.20806705943733184 -0.2401887105736057 0.07376247071136667 -0.06275802204001321 0.39943314148444226 0.31841578495949074
0.12964552779410884 0.2569164193348467 0.12022931487281045 0.13338896501617353 0.3249365467308022 0.30571203526503965 0.21621684467647398 -0.13437753197934185
0.18587081365324404 0.0968544308261972 0.006397524090658528 -0.3668045338267921 0.034372806597987735 -0.3272324734095941 0.4413875385581157 -0.016064196331059
-0.25471963458205865 -0.22828164147012617 -0.12795266342547526 0.16991872054098334 -0.30472471263319684 -0.21107250034454036 0.02058442263601027 -0.2840393484097761
0.23271610044403077 0.358254202058722 0.25840297763375597 -0.25837962488078053 0.3761009481917411 0.09459042033817347 -0.21666034904359882 -0.36898181285696724
-0.045459879924130364 -0.22882727495288646 0.2654703136682313 0.09859937717241007 0.39135730509860145 -0.12356342639458247 0.06306336695572755 0.0707070370399277
-0.06682742739241844 0.4159260678416816 -0.02334754984571151 0.2642336711288493 -0.06753049528833509 -0.34912289737704744 0.021747555744698072 0.2288947858098573
-0.3269207615085846 -0.046965489836884755 -0.31806018963522104 0.11150877550266819 -0.2021116968195864 0.4089438792295104 -0.08746637330778477 0.3969793059618653
0.192196085463423 0.23991855984695296 -0.14704096125446184 0.11136507527885368 -0.33851218776111525 -0.30308667913796505 -0.3604837682285322 0.23709939901938418
-0.30321990973806523 -0.01820501171482763 0.20250859164853163 0.10875677965910754 0.0324800727553711 0.13111021660085495 0.06132420776340847 0.3964458512604011
-0.18273106457818672 0.4256051016848558 0.04133267781703015 -0.2872281015947173 -0.31808812171215917 0.24164555611982197 -0.18372203000879994 0.2909126769464326
0.2501537566683713 0.3081173883472597 -0.318405069500698 0.38717679500413466 0.1959852514433035 0.35744360912515777 0.23275399240305236 -0.28210108854410126
00000000: ba2f 32b5 9dda 9ebf c993 efb6 2b0c d73f
00000010: 8afc 5b7a 7676 d4bf 9452 eab0 955e c53f
00000020: 47b8 ac5b bab1 cd3f fc22 ee0e de23 d03f
00000030: d8b0 9d39 8dc4 d0bf 5b0e 4d77 a5b6 c33f
00000040: 2539 adff e88c c4bf e08d 2f7c c4d3 da3f
00000050: 0f9e 0d63 ca48 90bf 6103 c2b9 d590 81bf
00000060: ad4a 7eca b4b3 d7bf 59db 1dc7 deec d13f
00000070: 3981 de60 5db5 cbbf 2c51 404e 4535 c0bf
00000080: 9586 1bbd 4c9d d6bf f0ea 2a93 9038 bdbf
00000090: 7da2 b7a4 dcd1 c93f d2e1 1d1d f99f b83f
000000a0: 2c9b a14c c2f1 c9bf 9722 6a4e 663e b1bf
000000b0: f8ec 5bef bec1 c2bf 7723 e92c d84c d9bf
000000c0: 60ea bd83 afc5 b83f 7b41 c150 34a6 d7bf
000000d0: a152 0317 70e5 c6bf d9de aa1d 2c79 d9bf
000000e0: b236 07ae ad8a dbbf 4b2d 903d 45ba d73f
000000f0: 52a4 621e ed38 ce3f 2f11 c3e0 9687 cdbf
00000100: 8ca9 7a15 b22b a63f e246 466b 0c93 d9bf
00000110: 2efd c33c 8c64 cfbf 7d79 5892 a76f 843f
00000120: be84 ad76 de89 b83f 8255 1192 66cb d0bf
00000130: 4537 ae2b edb3 d9bf 3ad8 8fa5 e9e3 d2bf
00000140: e317 7391 4a34 98bf 44c9 3adb 2be2 d53f
00000150: ac1d 6f3c 4565 a0bf 2aba 004f 4680 c33f
00000160: b2ff c652 2d70 db3f 47fb 94bf bcb9 cf3f
00000170: f643 7f9e f8be db3f 1ff8 b577 aae5 d6bf
00000180: c11f 9678 e8db d83f a0e0 b0e8 6e9a d1bf
00000190: 9ec8 76b8 88d2 b33f c628 488e c5a4 b23f
000001a0: b34c 821c df7c d1bf 23f3 3f00 9b9f cfbf
000001b0: aca2 7953 6e51 c83f a436 4424 c7e3 b33f
000001c0: c4d0 12c7 474f d53f a2d5 414c 0a81 cdbf
000001d0: e1ef d459 3bf6 c8bf 0b53 273b c8c0 b23f
000001e0: 5d5a 628e 0bd8 813f 3623 1ef4 f608 ca3f
000001f0: 3555 e2dd a1ca d9bf fba1 ad46 d5f1 c3bf
00000200: 6451 695c 443c d7bf 5e4e 0e40 0c4a c23f
00000210: 440a 100b 81df d43f 3401 1b45 6e03 d8bf
00000220: 6321 e465 8e35 d9bf ce10 6841 a486 c7bf
00000230: b634 e34a f7e3 cbbf ab36 188a 8787 d5bf
00000240: 6df0 8dd2 7140 903f b87a 7280 f1e8 d23f
00000250: 4df6 ac3b ff93 dbbf 3437 00ea 5e7c d8bf
00000260: 2db0 5784 2742 ce3f 8fe5 b919 928f c5bf
00000270: 9b43 3f16 be59 ab3f 3b5b 81f2 14d1 d93f
00000280: bf23 de4b 6000 c33f ae73 96c1 966e 62bf
00000290: 256e 8245 ad88 ccbf c86b 9f52 b4ff d6bf
000002a0: b59d 6069 805e d1bf 3623 86b1 01f0 d43f
000002b0: 4f7e 4c2f 3b5f c7bf bba0 2473 1121 d3bf
000002c0: 7577 10a7 8536 c83f 0938 cac8 c314 c4bf
000002d0: 9cb1 44a4 ec23 d33f 1dbe 4462 d87b aa3f
000002e0: 130b b3e4 f52e d03f 118f 5ef5 1b03 d53f
000002f0: 82ff 2db4 7002 ce3f ed28 70ba d679 c5bf
00000300: 5f8c 684b 2b64 d0bf be23 ac67 1bf8 cd3f
00000310: 0eaf 5bd2 8d3b d0bf 4055 d75c e894 dabf
00000320: b717 05be 52bf 9cbf 335f 3b66 fa37 c2bf
00000330: 09bb 535d 958a d83f 03af 09fe 456c d7bf
00000340: 7304 cdc8 298f be3f 37de d64a 7a70 a7bf
00000350: daad 4df8 f82a 04bf 205f 96b0 5ec5 ccbf
00000360: 0bf9 1f14 2497 c9bf ecd6 2468 402d cbbf
00000370: 151d 4f33 0bc9 b7bf b054 3313 09c0 cabf
00000380: 6dd9 2c33 dd5a d93f b714 efba 8898 d43f
00000390: 459c 1070 9813 d53f 83d0 6d6b c029 b33f
000003a0: c3b4 2426 3882 d23f 4322 2d58 f813 d4bf
000003b0: 4809 338b 77e7 c73f 2f51 ad8c f4fc cf3f
000003c0: 59b4 1ebd 6b0b ccbf 589e 9e47 56be c13f
000003d0: cf84 e6c6 7c98 c43f 7239 b405 a63b bebf
000003e0: dbed a016 8572 b6bf 02c0 83b9 ee24 413f
000003f0: dfff 2992 39c2 b5bf 6664 900e 4a20 db3f
00000400: 437b 8fa2 7b3d d53f dd82 4b69 ee4b a43f
00000410: 1d68 4760 2ca4 97bf 4c6c 3c79 115e d6bf
00000420: 7f89 5828 bba7 db3f cffe 22da 871b cd3f
00000430: b317 9f94 a412 da3f 0984 1683 2cd3 cebf
00000440: d0c3 7f76 ae86 9b3f fc8c 9ede 14df c53f
00000450: e89b 6d94 fa89 d6bf 0004 2105 c758 bcbf
00000460: 2b63 30a3 46f1 c0bf 46ee 670a 22e0 d03f
00000470: e572 9706 18d4 af3f a85a c474 0bbe c63f
00000480: 1e90 8416 0eac 863f 9463 d806 3858 cd3f
00000490: 5a9e 32d5 de92 d6bf 41d5 953e 948d cebf
000004a0: fcae eb30 cb33 dc3f 49be 521f 5dd4 c03f
000004b0: dd69 62d2 83a9 d1bf 0453 39fa 1167 d53f
000004c0: 902a 7fc3 5162 d4bf 5f79 cff9 a1ab d3bf
000004d0: fe53 1f05 34e9 c83f 40e5 132a 25ed d4bf
000004e0: 9575 eb55 71bb bfbf c735 2912 1053 c2bf
000004f0: fa41 1d16 dd1f df3f b1fc 4b90 2232 c03f
00000500: 4a62 422d 056d d0bf cacb e200 a76c af3f
00000510: d440 d4ff f0a1 ca3f 141a 64f0 80be cebf
00000520: 61a2 60e7 18e2 b23f 8e37 39e4 e810 b0bf
00000530: 634f e705 5090 d93f 7a98 bb99 ec60 d43f
00000540: bf63 f982 3998 c03f 474f b690 5171 d03f
00000550: 7332 662f 59c7 be3f fa24 32bd e312 c13f
00000560: 62f9 5ea8 c2cb d43f 923e 5d36 c990 d33f
00000570: 0569 5d5a feac cb3f 5790 9570 4833 c1bf
00000580: c6f6 f564 9dca c73f b307 dfb4 73cb b83f
00000590: 857f ea4b 4a34 7a3f d6e0 33b9 b979 d7bf
000005a0: f690 6b00 5099 a13f f7ef de78 60f1 d4bf
000005b0: d904 be84 b13f dc3f f380 83f7 2173 90bf
000005c0: f174 0b95 534d d0bf 0b19 3234 5538 cdbf
000005d0: 079c 6cbc c060 c0bf e0d0 d989 e5bf c53f
000005e0: 9bb9 c214 9c80 d3bf b749 0877 6c04 cbbf
000005f0: 2a65 1d38 1514 953f e99d 0c60 b32d d2bf
00000600: 1f73 5424 a4c9 cd3f 5bcb 5f08 a3ed d63f
00000610: 6810 88a4 ac89 d03f 6f34 b4b1 4a89 d0bf
00000620: 7e99 1eb6 0912 d83f 8a0a dee9 1337 b83f
00000630: cab8 bdbc 86bb cbbf 9f86 c2e4 659d d7bf
00000640: a0c3 1b73 8446 a7bf 4c7f 2d4f 364a cdbf
00000650: fde3 d032 77fd d03f 5089 5c0c cf3d b93f
00000660: 7cbf 9c82 ff0b d93f f5af 584b daa1 bfbf
00000670: f786 a6ba eb24 b03f 24fd ae3b db19 b23f
00000680: 0952 202f 9a1b b1bf 04c5 bb5e 889e da3f
00000690: 1cc2 1d8c 6be8 97bf 0007 0058 34e9 d03f
000006a0: 2fff beb4 ad49 b1bf 4b3a a190 0758 d6bf
000006b0: 5502 c4c2 fd44 963f 179e a3a1 6c4c cd3f
000006c0: b204 c40e 45ec d4bf 60b3 c755 dc0b a8bf
000006d0: 2b24 2920 195b d4bf 4c3f 00d0 d68b bc3f
000006e0: 2056 fdcb cbde c9bf f12a ccf2 222c da3f
000006f0: 434e db3c 3264 b6bf 1be1 12e4 1b68 d93f
00000700: 1f08 be9e e199 c83f 9b7f 1fc0 a6b5 ce3f
00000710: 0f52 e1fb 3cd2 c2bf cb3f 3dec 6b82 bc3f
00000720: 48cf ee05 2faa d5bf 320d b0ab c565 d3bf
00000730: e7f1 d182 2a12 d7bf d941 58ea 4559 ce3f
00000740: 488c f47a f467 d3bf 4f01 c1a7 55a4 92bf
00000750: 180d 2531 cdeb c93f 3ea9 dafb 7bd7 bb3f
00000760: fc14 8364 3aa1 a03f 5b6f 3c36 38c8 c03f
00000770: a809 98f5 e265 af3f 6617 736b 5e5f d93f
00000780: 3ecd 2945 bb63 c7bf 4bd2 2f2e 1d3d db3f
00000790: 38e3 f586 8e29 a53f bfda b5f9 f161 d2bf
000007a0: 94fc ff47 8e5b d4bf 3412 61d8 3dee ce3f
000007b0: b4a4 3817 3484 c7bf ed82 5e34 509e d23f
000007c0: 3b2e f7e6 8402 d03f 45f2 91fe 31b8 d33f
000007d0: f2b5 18a8 bf60 d4bf cf05 142e 81c7 d83f
000007e0: f541 b972 0b16 c93f 27d5 d628 5be0 d63f
000007f0: af38 b100 e2ca cd3f 67a0 5db9 f10d d2bf

transformer.encoder.layers.0.self_attn.out_proj.bias f8 [16]
-0.001717212393801583 -0.006446528027123007 -0.016226417654653134 0.006810627642409988 0.009560123832699673 0.0007428740075861103 0.002775058347730435 0.015227588240662063
0.010358897319085195 -0.023403536029961064 0.00721408184433603 -0.0119118560230818 -0.0056391542036125205 -0.00316666160880481 0.013306282659176522 -0.0015972954531161124
00000000: 3a23 96c4 8222 5cbf a2b0 c9b0 ac67 7abf
00000010: 79c3 a174 a89d 90bf d284 d4ef 75e5 7b3f
00000020: 0641 a819 4294 833f 4420 a8c8 ad57 483f
00000030: 58c4 221b b8bb 663f 82be ec4b a42f 8f3f
00000040: a82c aaa9 0b37 853f 2811 70b7 18f7 97bf
00000050: 0134 7959 838c 7d3f 192d 6e40 3e65 88bf
00000060: 1d1a 1bee 1419 77bf 989b 8381 f8f0 69bf
00000070: f0e8 d106 5340 8b3f 3f79 ecee 8a2b 5abf

transformer.encoder.layers.0.linear1.weight f8 [128, 16]
0.06642409972050167 0.03691251847880509 -0.16035151330970845 -0.08812939457565618 -0.18763909390618838 0.13185866661303441 -0.19581400006271987 -0.13054262021572688
0.05089748627643854 0.02136528574272661 0.08794261301374086 -0.08034092511833907 0.11990132857052979 -0.2074625045554351 -0.026413229318812317 -0.025528318287692347
0.0033920666008764046 -0.19720133385148036 -0.217776135205068 -0.0981578175192679 -0.2093036125851466 0.13908783309094194 -0.16906470517847516 0.06133622404350973
-0.10537274120116334 0.10965699196241095 0.05493205353197098 -0.15601204626962734 -0.05108121696819415 -0.1699403913610593 0.0682670048641812 0.09215032594389504
0.0755670962854462 0.14924141671283436 0.06168808068628468 0.005891764095560286 0.1941983273230533 -0.11306709866441998 -0.053812447866700815 0.08539939853720432
0.043225023911780666 0.10877934499542376 0.15562115733097082 0.08220540865716741 0.008770577328949751 -0.07455363320897064 0.00998453383867963 -0.0429006376515391
0.061975077419350204 0.14443557295459108 0.053845588404845185 0.16619442577329302 -0.13386287933191396 -0.10744252221552206 0.04062820416444121 -0.06585176447427502
-0.0877831506360257 -0.11216624314072433 0.12993799527467673 -0.15487868952213568 -0.028118477273341363 0.036419455534693695 -0.013658191251278236 0.14312735052092748
-0.12986891281903623 0.16045774319852465 0.1680339073827075 0.22358752430726228 0.036503431893517346 -0.05852291303101224 -0.1283961134986072 -0.34209328128739064
0.15130849227300466 0.19674035265864537 -0.2445325684837709 0.03229468426424751 -0.035939232827406804 -0.042184160329426006 -0.02839348866900384 -0.0576919112280545
0.08534419136914165 0.061323791412418754 0.058952839141904474 0.07228881375101462 -0.006331705160958587 -0.0017302741192575528 -0.17721342504140022 0.1471713309965958
-0.013873146055409792 -0.04113236394241126 -0.19466749138704592 0.06747872632319368 -0.024855677094562666 -0.16583842389130762 -0.05362045658387642 -0.022000708857318484
-0.18863424054787434 0.03535989098213135 -0.09181841966537521 0.03220340557791216 -0.13608531325856385 -0.054511305254270885 0.18109729234988006 0.07788268880951417
-0.17720298137384685 -0.02442030081743741 -0.09995531251199728 -0.16523663055458995 0.12752950561188067 -0.042142772953897734 -0.006300330595115831 -0.18177750491125672
0.21747132590307108 -0.04884080337779043 0.0622901400653598 -0.013355347994734952 -0.08238986857365187 -0.1488293669606483 -0.05554919204969368 0.08110959446278683
-0.1269207372172807 0.059614776982959514 -0.13587873358228567 0.12794157004985582 0.061274643484387575 0.061255036421181755 -0.1449938186287381 0.003955541798370414
-0.13948697593558576 -0.04336857899601494 0.15469103574261717 0.04354227401514502 -0.1717858768002152 0.18940733339340604 -0.06465160712732282 -0.0028339325374720395
0.19716175815497308 0.18730255030133466 0.0038933491375663528 -0.06930242637606342 0.04634452669421735 -0.04210925764936816 0.03743935143314285 0.02564822468356452
0.04541915945098468 -0.054625376024946826 0.14124132441297713 -0.030098071621031227 -0.10219138107648387 -0.05907389572400021 0.19945611342661507 -0.1337209657606339
-0.19084704219716328 0.09169147387038444 0.0433315765772851 -0.020131755228371427 -0.06321442208099833 -0.13971894096794896 -0.06270557224051115 -0.10654260300057722
0.06953704413330863 -0.07702360635752614 -0.1326855509975881 0.10919253694367635 -0.022108941861423745 0.24194939664036344 0.03762582848844306 -0.06434756004764203
-0.20396946405929478 0.10902275502391538 0.1285530427667056 0.09897866378666131 -0.03935662923639574 -0.16916527057667705 0.07062192602071685 -0.008356787150810441
-0.16254373277537928 0.029109983905189134 0.03098207280758749 -0.1327906557306663 -0.13680802152524765 -0.1503035027904467 -0.13421519865291429 -0.13014941632708116
0.15910226306130382 -0.11072188007598598 -0.015879866704520063 -0.11932320255354692 0.09514721525707144 -0.18320074034269143 -0.10507211047773385 -0.14879619687796952
-0.08691150822674194 0.12676500245261363 0.08381704235696726 -0.029316529583916735 0.05443036946500818 -0.09471010240459293 -0.19816162084614003 -0.20059634459114498
0.18299480326927597 0.14515036679402926 0.13199834621354448 -0.09519403013818963 0.10093947044525915 -0.04624725930013476 0.07826695434091263 0.15921399258834232
0.15027170072677778 -0.0485134110271984 -0.12268536558737271 0.06483031253292428 -0.11454205255662174 -0.13949423567610156 -0.11617766730940218 -0.06818194745931343
0.1310744527496891 -0.17604721566987774 -0.2445905677797581 -0.03916005314243654 -0.04897121621403068 -0.01844447653277928 -0.00501636350466492 -0.0903740454482832
-0.10839995633130046 -0.24136448775528827 0.11994341216463757 0.05357264357997143 -0.1550363080339047 0.107907309718081 -0.050585869232725386 0.14687243271099887
-0.21951664265538032 -0.07985294042846296 0.2040137078798523 -0.12812911358986792 0.18012793886087036 -0.2309024432761649 0.03294376772444262 -0.07989195084119492
-0.1883871108371213 -0.18211433082795395 -0.1852830418808392 -0.04740267205712647 -0.08023285085841152 -0.10773999605166398 -0.006540872362864034 0.015696208269106053
0.1308764173446838 -0.15245985834032744 -0.22987317577233451 0.14630638392108822 0.009049421953635027 0.11482259451835292 0.012790382868014056 -0.13154409637921263
00000000: 803e f777 2b01 b13f a5e2 5b97 32e6 a23f
00000010: 51c0 c3fc 6586 c4bf 09cb 84e3 a58f b6bf
00000020: 7c9a e3cd 8e04 c8bf 0209 66aa bee0 c03f
00000030: 3c25 2fe3 6e10 c9bf dec4 47de 9eb5 c0bf
00000040: f106 033e 3c0f aa3f ef89 230e c8e0 953f
00000050: f19c d136 6883 b63f 0ce5 e90d 3991 b4bf
00000060: 9616 f57c dab1 be3f bb1d 1ba0 218e cabf
00000070: a797 6cd0 110c 9bbf ab89 ab70 1824 9abf
00000080: c355 bbe3 adc9 6b3f de51 cfaf e43d c9bf
00000090: 980b 47a1 16e0 cbbf c18c 17e8 de20 b9bf
000000a0: 2772 7ef5 75ca cabf 3fd4 324f a1cd c13f
000000b0: 9c20 d389 e9a3 c5bf f66c a728 7667 af3f
000000c0: 6f4f 593d b5f9 babf 379c 410a 7b12 bc3f
000000d0: 1508 d8da 0d20 ac3f 924a 41e6 33f8 c3bf
000000e0: d4f4 a238 5127 aabf f724 9553 9bc0 c5bf
000000f0: a59b 4949 f279 b13f 37a9 3eec 2997 b73f
00000100: de1d 337f 5d58 b33f 2ec3 febd 571a c33f
00000110: 1982 3382 9495 af3f 2ce8 b261 f621 783f
00000120: 642c 65a4 7ddb c83f 0f6d 0423 f7f1 bcbf
00000130: 010e 691f 4e8d abbf 9ebb d027 bcdc b53f
00000140: 06cc 2320 9721 a63f 5153 3c91 f6d8 bb3f
00000150: 2cae a6e2 64eb c33f 28a2 bce5 690b b53f
00000160: 1ce9 5bf6 4ef6 813f cd35 6e68 f215 b3bf
00000170: d868 6c72 c572 843f 85be 6187 12f7 a5bf
00000180: 67c9 5d85 32bb af3f e407 1c67 dd7c c23f
00000190: bc22 7722 a691 ab3f 40a5 bce3 db45 c53f
000001a0: eb81 7038 6b22 c1bf 368c 1d67 5a81 bbbf
000001b0: bceb 5c50 38cd a43f 2a08 cd46 a9db b0bf
000001c0: 571f 1fe1 f478 b6bf 292d 014a edb6 bcbf
000001d0: 7b34 1be8 cea1 c03f 0826 2c9d 10d3 c3bf
000001e0: 7b93 3511 17cb 9cbf 5c55 eb24 92a5 a23f
000001f0: d159 f965 d3f8 8bbf fb43 d33c ff51 c23f
00000200: 3894 a966 8b9f c0bf 93bc b61b e189 c43f
00000210: 0ff6 6994 2282 c53f f1bd 5818 849e cc3f
00000220: a04d 59ec 93b0 a23f d5d7 111b b7f6 adbf
00000230: 9a7b 34aa 486f c0bf 0be2 d337 dbe4 d5bf
00000240: 3bb6 f5a0 135e c33f 3a77 3cb2 c92e c93f
00000250: 27eb 38dc d74c cfbf 1dca 7fc9 ed88 a03f
00000260: 592a 468b a066 a2bf 8757 0c8a 2999 a5bf
00000270: 86c8 02c5 2e13 9dbf bfbb ef4f cb89 adbf
00000280: ea82 d5ee 1dd9 b53f 6487 2afd d465 af3f
00000290: 39dd 3d08 112f ae3f ca5f ed0a 8581 b23f
000002a0: f0f8 8129 46ef 79bf 8344 57b0 4b59 5cbf
000002b0: db83 7bf4 edae c6bf 8603 c59a 82d6 c23f
000002c0: 0110 ce24 8669 8cbf df30 e11b 4d0f a5bf
000002d0: 4a05 8d46 ddea c8bf acdd bb2a 4946 b13f
000002e0: 73de f640 c473 99bf db44 8487 313a c5bf
000002f0: b742 d9f6 2374 abbf 93be 1f94 5a87 96bf
00000300: 9b8a 07b3 2a25 c8bf 847d b70e b11a a23f
00000310: ba18 a275 6981 b7bf 45cd 8dfb f67c a03f
00000320: 4baa f458 3e6b c1bf b7a2 a8e2 e7e8 abbf
00000330: adb8 0432 322e c73f 4585 5cb1 1ef0 b33f
00000340: 2d8f e058 96ae c6bf a23d 7aa5 a201 99bf
00000350: c7ec 4cde ab96 b9bf 3da6 2a52 7926 c5bf
00000360: cb64 f007 e352 c03f a811 33cf bc93 a5bf
00000370: 989a c21d 60ce 79bf 9204 5f3b 7c44 c7bf
00000380: 3525 49b4 19d6 cb3f 959a 6f6a a901 a9bf
00000390: 4d51 e344 7ee4 af3f d1a5 e976 0c5a 8bbf
000003a0: abaa 0b9f 8017 b5bf 14e3 e337 d70c c3bf
000003b0: 9266 5896 f170 acbf ad07 9c2f 99c3 b43f
000003c0: b026 c44f f03e c0bf f612 00fb d385 ae3f
000003d0: a599 7a6e 7964 c1bf f7dd 94ad 6360 c03f
000003e0: 7cd3 addb 635f af3f 0add 49f4 d15c af3f
000003f0: 92f8 904e 288f c2bf 6b65 97aa af33 703f
00000400: 6b3e ee8f b5da c1bf 1a7b ec08 6834 a6bf
00000410: 36dc bf75 eacc c33f e5eb c645 2c4b a63f
00000420: 19c4 6261 14fd c5bf 360c 46df 7f3e c83f
00000430: ace5 3efa 018d b0bf 6710 29f2 2f37 67bf
00000440: 8513 a6b3 983c c93f 5335 00ac 87f9 c73f
00000450: 23de f7e6 f1e4 6f3f 6792 d1c6 cdbd b1bf
00000460: 6822 0045 78ba a73f d5fd ec38 588f a5bf
00000470: e643 fa2b 402b a33f fc8f dd38 8743 9a3f
00000480: f856 e818 2e41 a73f 7821 1e77 dbf7 abbf
00000490: 7946 991a 3214 c23f afd5 2365 07d2 9ebf
000004a0: 1215 a8df 3629 babf 5c21 5d04 ef3e aebf
000004b0: 38c9 1326 c787 c93f 6da0 5dc3 c41d c1bf
000004c0: 0f38 6306 ad6d c8bf 2f68 98a9 1779 b73f
000004d0: a92e 9170 8e2f a63f e689 4439 6b9d 94bf
000004e0: 9532 7903 d22e b0bf 7a67 0b6d 4fe2 c1bf
000004f0: 3cca 0cee 780d b0bf 24a8 8443 6046 bbbf
00000500: e8be 6902 2ecd b13f 6857 53ae d1b7 b3bf
00000510: 56db 1713 d7fb c0bf bfee 23c7 0af4 bb3f
00000520: fcd5 f9f8 b9a3 96bf c9bb eda4 32f8 ce3f
00000530: 4b7f af4d b143 a33f 9465 fbe9 1479 b0bf
00000540: 7e37 c2e0 ab1b cabf 23f8 584f eae8 bb3f
00000550: 36fd 3d15 6d74 c03f 582a f76b aa56 b93f
00000560: d4f8 e656 8d26 a4bf ff76 5f24 35a7 c5bf
00000570: f2b6 a34e 4714 b23f 3a52 19fc 5c1d 81bf
00000580: 7d52 38a8 3bce c4bf bb82 70f3 01cf 9d3f
00000590: 262e e2b5 c3b9 9f3f 05ef c9c1 48ff c0bf
000005a0: 0105 24dd ec82 c1bf 81c7 7a2a 253d c3bf
000005b0: 8f92 6bb0 f62d c1bf 52f1 5b6f bca8 c0bf
000005c0: 94b0 4884 765d c43f 33c4 e0e5 4458 bcbf
000005d0: 6d9c a4d0 cf42 90bf 8218 9f24 f78b bebf
000005e0: f5a7 d561 915b b83f 01fb 2f32 1f73 c7bf
000005f0: 9c3b 397e 01e6 babf 5416 aef7 c00b c3bf
00000600: 2dda 7a25 d53f b6bf d6d9 e7e9 d539 c03f
00000610: 6d47 c59f 0875 b53f e238 2eff 2605 9ebf
00000620: 28d7 8521 4cde ab3f a4b4 6dd8 eb3e b8bf
00000630: 8ea2 6d28 5c5d c9bf a1a9 db19 24ad c9bf
00000640: 4493 b0ab 5f6c c73f 48fe 3087 4994 c23f
00000650: 457f 0e62 52e5 c03f 69cc 37ce a25e b8bf
00000660: 451d 704c 2bd7 b93f 348a 7284 b8ad a7bf
00000670: 5c72 4099 4d09 b43f 1bc3 9dc5 1f61 c43f
00000680: 3962 1164 1a3c c33f 4ef6 8ef3 bfd6 a8bf
00000690: 0d44 e5e0 4e68 bfbf 694d 1e28 b898 b03f
000006a0: d755 bfc1 a052 bdbf b9cc 1a76 f2da c1bf
000006b0: 5294 9ed1 d1bd bdbf 6bed 8342 5f74 b1bf
000006c0: 5c54 f333 0cc7 c03f 564f ed14 b788 c6bf
000006d0: c516 c364 be4e cfbf c1de 1c57 c90c a4bf
000006e0: 9251 2b58 c112 a9bf 2821 00de 1be3 92bf
000006f0: e47b 28d3 098c 74bf 488b 9be1 c022 b7bf
00000700: edac 547b 19c0 bbbf 9791 a912 08e5 cebf
00000710: f925 9e88 9cb4 be3f 77c1 45a0 df6d ab3f
00000720: b55e 59d0 3ad8 c3bf 650e 3d3e d09f bb3f
00000730: 5613 fd1b 64e6 a9bf e6be 9643 b7cc c23f
00000740: 49f8 9010 1f19 ccbf 0333 a107 3e71 b4bf
00000750: 00cc a305 1f1d ca3f 8958 44e8 8866 c0bf
00000760: fa6c 40ab 6e0e c73f 0b04 3815 368e cdbf
00000770: 7f8d f769 01de a03f 379a 1384 cc73 b4bf
00000780: 3f45 04a0 111d c8bf 85fd 84bb 854f c7bf
00000790: 5bd8 b0ce 5ab7 c7bf 13ed 74bc 2945 a8bf
000007a0: eb70 80de 238a b4bf 4a58 832f d994 bbbf
000007b0: 7048 2c0e 9aca 7abf ee80 bfb4 aa12 903f
000007c0: 7c12 28f6 8ec0 c03f ca22 c3fc cd83 c3bf
000007d0: 32bd 15f6 7b6c cdbf 4d8c 11e7 2aba c23f
000007e0: 8c62 b5da 8088 823f 7c56 4c78 0365 bd3f
000007f0: 0ab5 f820 d831 8a3f 951d f7db 6fd6 c0bf

transformer.encoder.layers.0.linear1.bias f8 [128]
0.19274100438025757 -0.12039741902081574 0.10831581282171632 -0.08987301241220627 0.10091647191245225 -0.0005753441197693012 0.09223505363228761 -0.24079698863317273
-0.049704592277675236 0.17452314771412056 0.21002286717580473 -0.15913588686056526 -0.13660570097023525 0.13587149199162502 0.20247094406934202 0.09156667854420052
0.15773990462301074 0.17009712658716614 -0.136606797135708 0.08423256712188193 -0.196681770953061 -0.07041230685006086 0.21268758520044445 0.1932832631125431
0.2508373564093981 -0.12360276644685993 -0.11053951864197745 -0.21747393510761767 -0.20273326556621846 -0.23299784433038997 -0.2322681525812687 0.20341185404872905
-0.17622822446222958 -0.10209677196527528 0.10136167953493559 0.18292046635116346 0.02735698130583952 0.010062045360215583 0.1739352713047598 -0.18529870987674602
0.18105681510833666 0.2481993191820738 -0.2616625938358347 0.21243761658230945 0.08018015170187827 0.04150039990786103 0.015954896150869712 0.10082902382612471
0.15207417372695248 -0.0460746192488695 0.10577055374610789 0.007579544051689225 -0.197215431190088 0.028957446106511568 -0.14379422301715145 0.0019905534846548526
-0.1714657485367872 -0.07965262544010357 0.11394181954147883 0.011934188321001914 0.1396138189106822 0.17867234825291603 0.18844173847541448 -0.21693967701694272
-0.22071160688547717 0.225330123721757 -0.17556053653446738 0.19310225053774396 -0.23152997268772613 -0.012690365239357156 0.05707195030748914 -0.12126383352846584
0.03848330616701443 -0.24768227638433785 0.05398453290313465 0.13194621800273956 0.09668145463598628 0.026891299182575625 0.12391033221662281 0.00645929341598315
-0.1307423902271345 -0.1782441797310591 -0.1620723975560322 -0.23242201561304293 0.06167290335695585 0.23148106601323698 -0.19731893902191114 0.1964608226239271
-0.1414385358785046 0.1288655404538647 -0.2009878292227438 -0.22648262210315898 0.10655089104370291 -0.24374124762678737 -0.08639626433271358 -0.1443056962157372
-0.14538381666169947 0.07972651631840323 0.09886107655381758 -0.16355845447601888 0.20870543409856313 0.16100544102306055 0.0607444435384246 0.10749017463474299
0.22687739780134428 -0.0347066427842885 0.17808293508707085 0.025036339771628155 -0.15600611441294848 -0.17933460354133451 -0.11021270715588195 0.0030711335665392684
-0.043978150570502354 0.1879793071609934 0.13401782971536286 0.04193120818871848 0.15399424015440044 0.06460531837837781 -0.14422297588951702 -0.08199710436864335
0.1459577502832309 0.12065794451840477 0.19853339634519016 -0.07993788505296627 -0.18734226779968474 0.05835346871585266 0.12220530318219247 -0.11615166565054981
00000000: b9a8 34bb bcab c83f 349b 3781 5dd2 bebf
00000010: 607c b5c9 95ba bb3f 427a 1af1 ea01 b7bf
00000020: 11df 7d72 a9d5 b93f a656 d416 56da 42bf
00000030: 433e e56a b79c b73f 32cf 938b 6fd2 cebf
00000040: 9456 965c e172 a9bf 3bdf e945 c656 c63f
00000050: 6b53 f780 07e2 ca3f 99d1 d792 905e c4bf
00000060: e7a1 0ead 4b7c c1bf 5e08 48af 3c64 c13f
00000070: 4a83 9561 91ea c93f f72c c0f1 e970 b73f
00000080: 86a3 d039 d230 c43f 0cf0 ea1d bec5 c53f
00000090: 5cf9 0ddf 547c c1bf 7cee 0bf9 4390 b53f
000000a0: b63b fb46 de2c c9bf 722c 287b 8a06 b2bf
000000b0: 62be 59c7 5839 cb3f 555d f786 81bd c83f
000000c0: 762e 9920 b80d d03f 8d9a 954f 6ea4 bfbf
000000d0: ba9d 7b61 514c bcbf b383 8297 2fd6 cbbf
000000e0: 4a87 b5e4 29f3 c9bf c900 b894 dfd2 cdbf
000000f0: da93 9e7b f6ba cdbf af06 614e 6609 ca3f
00000100: 2a45 597e a58e c6bf 0437 9e98 0323 babf
00000110: f990 abca d6f2 b93f 09a8 5f16 f069 c73f
00000120: 1f7c 1af0 7703 9c3f f721 06de 689b 843f
00000130: 73fa efce 8243 c63f d8af 743d deb7 c7bf
00000140: 4eda cda5 de2c c73f 7363 63cb fec4 cf3f
00000150: da21 c776 14bf d0bf 69a2 d4e3 2731 cb3f
00000160: 0d0f 59b9 af86 b43f 3018 c058 8a3f a53f
00000170: f35b b7f4 7a56 903f a220 d24f eecf b93f
00000180: 1a9b 5ca1 2a77 c33f c5f7 b2ad 1797 a7bf
00000190: e826 386d c713 bb3f da29 215d ba0b 7f3f
000001a0: 002e 9df1 5a3e c9bf ae39 0350 05a7 9d3f
000001b0: ca2f 9b5e d967 c2bf 46d1 c243 7e4e 603f
000001c0: b0c1 2cf3 96f2 c5bf c247 4e4d 1d64 b4bf
000001d0: 86cf 9384 4a2b bd3f c614 58a4 f370 883f
000001e0: 0241 2599 ddde c13f e10f 394a bcde c63f
000001f0: 6905 fadf db1e c83f 980c ffe8 adc4 cbbf
00000200: 93da b526 4740 ccbf 6523 1814 9ed7 cc3f
00000210: bd1e 7185 c478 c6bf 5ffb 6b15 93b7 c83f
00000220: 4468 5e2e c6a2 cdbf 312e 6bfd 67fd 89bf
00000230: 72e0 2de0 8838 ad3f ca3d 3187 250b bfbf
00000240: ddca db7a 15b4 a33f e14d 6f86 0db4 cfbf
00000250: f01a 9e56 dca3 ab3f 218a 9319 9de3 c03f
00000260: 9590 caa5 1dc0 b83f 07fb 248a 6489 9b3f
00000270: 8ec3 8168 96b8 bf3f 6a72 a15f 0f75 7a3f
00000280: 17fb 1ca9 2abc c0bf ecd8 528d b4d0 c6bf
00000290: 2c32 8bcf c9be c4bf 7ed6 f62d 01c0 cdbf
000002a0: 5f5b ef3d 9793 af3f dac4 15ec 2ba1 cd3f
000002b0: e581 fd3a bf41 c9bf 1ab9 0ed4 a025 c93f
000002c0: af03 ff6e a81a c2bf d554 ea80 aa7e c03f
000002d0: 8fee b31c f8b9 c9bf 7dcf 85ef 61fd ccbf
000002e0: ec71 6450 eb46 bb3f 1b24 9fc7 e932 cfbf
000002f0: 3c3a cec9 101e b6bf d0c1 efea 9b78 c2bf
00000300: 12ff f6d8 ef9b c2bf 4928 36fc f468 b43f
00000310: 2f60 a5a2 f54e b93f 27ba 7ac2 7bef c4bf
00000320: 34b4 f912 dcb6 ca3f 6f07 d687 d39b c43f
00000330: a58f d24c e519 af3f a192 b2e0 7984 bb3f
00000340: cf11 e18d 510a cd3f 53c9 6caf 11c5 a1bf
00000350: 445b 16ef 6bcb c63f 6c6c 1f52 20a3 993f
00000360: 4e98 b023 02f8 c3bf ee25 a0b0 6ff4 c6bf
00000370: 3990 d664 e636 bcbf 8b9e 5b47 a228 693f
00000380: bfb3 e0dc 4d84 a6bf ef64 4ab8 b40f c83f
00000390: 36ac da09 7f27 c13f 6862 b4df 0178 a53f
000003a0: 8425 9e50 15b6 c33f 6932 9561 f989 b03f
000003b0: a77d 6302 e675 c2bf 1e49 a121 c3fd b4bf
000003c0: 1538 085a beae c23f 9b89 b565 70e3 be3f
000003d0: ebb2 3bd6 8a69 c93f c78e 032a cf76 b4bf
000003e0: dfd6 add8 d4fa c7bf 3e49 7c7f 81e0 ad3f
000003f0: 48b6 90c4 d848 bf3f 6954 5895 1dbc bdbf
