Code/900-100/darts_logs/D-dep-90_transformer/checkpoints/last-epoch=199.ckpt (torch, 653413 bytes, 205 tensors)

encoder.weight f8 [16, 1]
0	0xbfd7725e51007e81	-0.3663554945978618
1	0xbfe721712b85768b	-0.7228322839761899
2	0xbfe2bc31f0c0f1af	-0.5854730322094407
3	0xbfea5a45c2b1b324	-0.823519592535011
4	0x3fe310b485443239	0.5957892039164739
5	0x3fe9c30dc7443ff4	0.8050602809835241
6	0x3fc8e860bf55b5bb	0.19459161131400812
7	0x3ff17d505c1cb4b3	1.0930942152147451
8	0xbfe5e1bd25f7b9db	-0.6838060132557148
9	0x3feefbb9346956fb	0.968227960935763
10	0x3ff2e6a575c939d0	1.1813101387993932
11	0xbfef5e4306e0212b	-0.9802565702712277
12	0xbfe52b5dfa6285cb	-0.6615438356713467
13	0xbfea57b09a88467f	-0.8232043283662306
14	0x3fe0e1a673b46185	0.5275451907973979
15	0x3fd5b49443ca2d7f	0.3391466772088378

encoder.bias f8 [16]
0	0x3fdb08bbbf963cb4	0.4224080439534632
1	0x3fa955b714bf8ccc	0.049482079775566484
2	0xbfe059e2323d548b	-0.5109721165887476
3	0x3fc01d0cdc9c1827	0.12588654300651678
4	0xbfdd9f220ce8c421	-0.4628377080981086
5	0xbfe99b098821d6d7	-0.8001754435378768
6	0xbfeb830cbdf4e9e1	-0.8597472868053125
7	0xbfd1331b12c73b34	-0.2687442477589912
8	0xbfd508696176546e	-0.3286384059695767
9	0xbfef49a28cdc6003	-0.9777386428058893
10	0xbfd6e32b23d89938	-0.35761526585192227
11	0xbfe0dc14748abbb5	-0.5268652225694185
12	0x3fc1d61897976c70	0.1393461933319915
13	0xbfd3f234ac258d9b	-0.31165806590271367
14	0xbfe411a6629adb0e	-0.6271545339467097
15	0x3fbdf876d1b9ed93	0.11707251186628857

transformer.encoder.layers.0.self_attn.in_proj_weight f8 [48, 16]
0	0x3fc355c428327113	0.15105487787958136
1	0x3fc762a2c83fdd5b	0.18269762780958385
2	0xbfcd2288255604e9	-0.22761632750556451
3	0x3f9f92b24899cc55	0.030833039933394996
4	0x3fd1e3a9312c6053	0.27952031900486424
5	0x3fd04cdc766d218a	0.25469123425548246
6	0x3fc54250b5ccbf46	0.16608628155653998
7	0x3fc3d1fa68284205	0.15484552465251525
8	0x3fd6ab9fb9aa3287	0.3542250931866779
9	0xbfc51136689a19f6	-0.16458778483884345
10	0xbfe086418924b547	-0.5163886717397553
11	0xbfa943b90273e4ad	-0.04934480814876827
12	0x3fcec27c11e27169	0.24031020043629361
13	0xbfc3d2c2ae2d308f	-0.1548693991156864
14	0xbfc51642c7cfc4c5	-0.16474184757638546
15	0xbfca2091db626f13	-0.20411895000585698
16	0xbfa5d9e827cdd9be	-0.04267812238588274
17	0x3fa371048e772f4e	0.037971632376495465
18	0xbfda360842af03d2	-0.4095478678901233
19	0xbf9d97098667346c	-0.02889647372085273
20	0xbfcd4538109b9ab1	-0.22867489634446295
21	0x3fca6fb3b7fdd572	0.2065338753124411
22	0x3fad7c1822fa36a7	0.05758738924951717
23	0xbfd01fa87a3fded5	-0.25193225801875246
24	0x3fbbc179726e3388	0.10842093509400119
25	0x3fd7854666242d59	0.3675094602083014
26	0x3fe18913720f0fca	0.547982905169641
27	0xbfdeabbb7801f4e3	-0.479231707758869
28	0xbfd4ea41ebed2ad9	-0.3267979434937565
29	0x3fc248dca732671d	0.1428485695258183
30	0xbfce6c704ff2806c	-0.2376842871062793
31	0x3fd50281057005df	0.32827783137335403
32	0xbfc48304f614a63d	-0.16024839416177086
33	0x3fc269e9488264fd	0.1438571552323892
34	0xbfd0dbd0c36e373f	-0.26341647229206794
35	0x3fa9aab84e67a10b	0.050130614825151985
36	0x3fbefc87b2bcf394	0.12104080308649962
37	0x3fdd4d9eefdf27e0	0.4578626005646793
38	0xbfd488d93f8a63f6	-0.32085257725844885
39	0xbf9f6899070ac36d	-0.030672446303188595
40	0xbfc65ba858eab249	-0.17467216817512313
41	0xbfaec4be5cddbca4	-0.06009478458042253
42	0xbfd0b935238f0086	-0.2613041732074709
43	0xbfc2e0b68a17b23e	-0.14748269789505913
44	0xbfdc1b5dd85acaec	-0.43917032364258435
45	0x3f985ec4a31acd7c	0.023799011664505695
46	0x3fc22f6791ec2df3	0.14207167267919338
47	0x3fb1922f5fc85946	0.0686368569225567
48	0xbfcda07446a92d3b	-0.2314591736816086
49	0x3fd733e605deb13c	0.3625426347087062
50	0x3fc8618a8277cde1	0.19047671671397295
51	0x3fd66be68a17d20d	0.35033572660111717
52	0x3fd1fa87fa70561e	0.2809162088099998
53	0x3fa8fbb00033eaea	0.04879522325969339
54	0xbfd85f9ebcaffa67	-0.3808361857080968
55	0xbfa88addc9a8fbaa	-0.04793446623488447
56	0xbfd75c18641beefd	-0.36499604965477755
57	0xbfceb17114249275	-0.23979009135759424
58	0x3fc90363bc28038c	0.19541594207114732
59	0x3fcdc91e94dc5eb7	0.2327001788005327
60	0xbf7d1c6b9180d22b	-0.007107181729271643
61	0xbfb389ebe67a9d50	-0.07632326485565
62	0xbfc2b4c14886fcff	-0.1461412052285382
63	0x3fd47a2684d70ae4	0.3199554726854059
64	0xbfd1b2a060a66ef1	-0.27652749479760447
65	0x3fd2feb9b65ff3ca	0.2967972069744148
66	0x3fc6314a4ccba1c9	0.173379218576214
67	0xbfc45cfe677b9bb2	-0.15908794453500047
68	0xbfc9484119d992d9	-0.1975175262661171
69	0x3fd3a2cd8e6e0a58	0.3068117037693461
70	0x3f82ea725dcf3a91	0.009236234176481591
71	0xbfb86a238b2ed547	-0.09536955020924608
72	0x3fd3e648001da7b5	0.31093025218307996
73	0xbf90a539fede8d3c	-0.016255289250364444
74	0x3fd94ade988d801e	0.39519467256286755
75	0x3fc350db972074cd	0.15090508345830358
76	0xbf7c67bdfa593974	-0.006934873677506882
77	0xbfb45c427a51aa9c	-0.0795327709799189
78	0xbf961d566f4dbbca	-0.02159628919929072
79	0xbfc529b09d2586d0	-0.16533477471516855
80	0x3fcefa3dcbfd50d7	0.24201176128793264
81	0x3fb32c6056946ca8	0.07489587892307503
82	0x3fa9ae55ebe3d36f	0.050158200307044314
83	0xbfdb43fa06f1519a	-0.42602396657937336
84	0x3fd2012fceb21f14	0.28132243332992
85	0x3f7228f8e9b5489b	0.004433605495551297
86	0xbf52c03c7fadc072	-0.0011444655235344462
87	0x3fd3f7198d86db32	0.3119567758653147
88	0x3fb7bc8237c8dbbb	0.09272016393593578
89	0x3fc5051dc18d24d4	0.1642186350893896
90	0x3fd2506b34f50c8e	0.28615837260822097
91	0xbfb3bf5293ccf73a	-0.07713810070432894
92	0x3fb0f2cc59bd79dc	0.0662048071949139
93	0x3f94bd2b5180a7a1	0.02025287327720771
94	0xbfcbe6ce36d16dde	-0.21798112560905641
95	0x3fd145a8fee99abf	0.26987671750832115
96	0xbfac64e37bbb684c	-0.055457218984614615
97	0x3f9856f075266726	0.023769147062558414
98	0x3fc62cbe65a7c151	0.1732404705394495
99	0x3fcf4b3471a6a51e	0.24448257016528258
100	0x3fb4792e94b2a23f	0.0799740899116239
101	0xbfbd82a688c19734	-0.11527481879019491
102	0xbfb9326167e746c6	-0.09842499529556922
103	0x3fc12e7472a84626	0.1342301902628133
104	0xbfd1e2a88436923e	-0.279459122766898
105	0x3fe57f015bfec8d9	0.6717535778791685
106	0xbfb7f292359c83e7	-0.0935450917136361
107	0x3fc6977bb59f69dd	0.17649790161415427
108	0xbfe85e853f6f65f2	-0.7615381468742142
109	0xbfc935b322fa0bfc	-0.19695128639077086
110	0xbfd11bd1f9fc4777	-0.26732301151888954
111	0xbfd015d920e72dce	-0.25133350575626145
112	0x3fab65dae4e8ac5d	0.05351146740243771
113	0xbfb88fc05c6a38fa	-0.09594347244476245
114	0xbfbf3888e051289a	-0.12195640064706695
115	0x3fd698c240a95b18	0.3530736571751034
116	0xbfe05e7ee8d63128	-0.5115351245490602
117	0x3fbffc677cd82bd5	0.12494513318976826
118	0x3fd285a08bfcffac	0.2894059531281481
119	0xbfcb1116fbd5b8b5	-0.2114590387022354
120	0x3fd450ce24dea9de	0.31743196106495286
121	0x3fc1716c7e02e385	0.1362739196099733
122	0xbfd5e7f4a16f2854	-0.34228244557437404
123	0x3fd13c7b5f7f3b60	0.26931652379874116
124	0x3fe99a17f0c26bdf	0.8000602438290761
125	0x3fd0913b42fc6866	0.25886422673796117
126	0xbfc402022bd1e206	-0.15631129398003923
127	0x3fbc7bdcd513ce75	0.11126499368747907
128	0x3fd16b5e5a9f848b	0.27217825746453944
129	0x3fa9c2cca647378c	0.050314326570158746
130	0x3f8eb2c831323248	0.014989437104554373
131	0x3fd5c21463592647	0.339970681209341
132	0x3fd64a514804d56b	0.34828598054021737
133	0x3fd56ec546f19a61	0.33488590171911
134	0x3fc4b2d47cc7450e	0.16170745938010395
135	0x3fcf1584f0587d2e	0.24284421668651518
136	0x3fc6b16c0631b49d	0.17728948881577802
137	0xbfcd5432973750b7	-0.22913200744244985
138	0x3fa3f8dca90d23f2	0.03900804103484025
139	0x3fe1fd44dee8bdd1	0.562166629189898
140	0x3fdf1bf56c5ee278	0.48608146269865626
141	0x3fa66843a818a1b2	0.04376422335582521
142	0x3fa0317c69e5ad4a	0.03162754814806108
143	0xbfce076be01f214f	-0.23460148280561063
144	0x3fd238b2939acee7	0.28471054472468754
145	0xbfc22d4fbbf9a3dc	-0.1420077960822529
146	0x3fac8d0267e84df6	0.055763316329969045
147	0x3fc21e065a6327bf	0.14154128468936553
148	0xbfb5d74dc984d51b	-0.08531652612585498
149	0xbfb3dc38ee051e37	-0.07757907687220543
150	0xbfa6fc458c4ecb8c	-0.04489343011609667
151	0xbfa4831806ec22da	-0.04006266674520527
152	0xbfcecc06698dda71	-0.2406013503457021
153	0x3fdbcffb658c9bb9	0.4345692149822145
154	0x3fe33c099627d386	0.6010787899709704
155	0xbfd289568eb468e6	-0.2896324533081852
156	0xbfee3ddd0ed5ed38	-0.9450516977080161
157	0x3fd434ab3027e615	0.3157146425506608
158	0xbfc279626e627c20	-0.1443293608653855
159	0xbfc234cbbf10e8f1	-0.14223620252034366
160	0x3fad1f00cdbe67df	0.05687716018219623
161	0x3fc1e13661326ccc	0.13968543764062813
162	0xbf7af7551d6a9db1	-0.0065835308838936716
163	0xbfbe83b19c67247e	-0.11919698780470075
164	0x3fd22837fcb0c0b4	0.28370475460816214
165	0xbfc46def8c598863	-0.159604972391267
166	0xbfde31c73417cc25	-0.47178821646883967
167	0x3f9fa6d01e74a5db	0.030909778460374553
168	0xbfd98ea31c96fcc2	-0.39933088104221437
169	0xbfd0c6320109c06d	-0.262096882833254
170	0xbf86dcdad94d5a36	-0.011163434750114037
171	0xbfd1d495df7d45ca	-0.2786001856339594
172	0xbfe6b712b5145f5f	-0.7098477875433494
173	0x3fc378846cd72448	0.15211539568398025
174	0xbf87da11f990167b	-0.011646404675057944
175	0xbfdd8f57743e0427	-0.4618738780191642
176	0xbfc2d3fa8f312608	-0.1470940779857275
177	0x3fd012c5ce3298a2	0.25114579330910136
178	0x3fd6ea75785519eb	0.35806023360456035
179	0xbfe176ec76ab9c79	-0.5457670514850995
180	0x3fca02dadeee1014	0.20321212659121157
181	0xbfd241db04855c83	-0.2852695030355294
182	0x3fc3b34dbc1109f0	0.15390941317498585
183	0xbfcc3d8df9371eb1	-0.2206284968253747
184	0x3fc5c3d5ac8fb1f7	0.17003889966817073
185	0xbfb320f5db681c22	-0.07472168547256833
186	0xbfe1dd0793526abf	-0.5582311513311068
187	0x3fb6baedfe1309b2	0.0887898202227351
188	0x3fc6da1b8791ff8f	0.17853111381191097
189	0xbfce0178bc995530	-0.23441991051610378
190	0x3fdad4c9cdf33072	0.4192375670652445
191	0xbfa0207280daa7a1	-0.03149755309034608
192	0x3fbbf413303b3aba	0.10919303824924045
193	0x3fb8e86e61b4e4a4	0.09729661832251907
194	0xbfaa28e5a1c79ef4	-0.05109326934672068
195	0xbfbfc76e54da3277	-0.12413682529058599
196	0xbfac7177c004264e	-0.05555319041202421
197	0xbfde8800a8e7cd44	-0.47705093855548264
198	0xbfa79ad333bfe3b5	-0.04610309607227895
199	0x3fe38f0464de33d9	0.6112081499173839
200	0xbfde45d2ad33d495	-0.47301165499022463
201	0x3fc82f095b664904	0.18893544161671383
202	0x3fd6aa5551f411b6	0.3541463184667707
203	0xbfd52f08ce10b683	-0.3309957516056345
204	0xbff097dbfe2b0090	-1.037075035899793
205	0xbfa5421c74407217	-0.04152001303757318
206	0xbfb4fe98d6f5fe43	-0.08200984237736812
207	0x3fcc6095604d81fe	0.22169749452861248
208	0x3f90fc05e7978398	0.016586391697163444
209	0xbfd030627c028cb8	-0.2529531680140269
210	0xbfc9a27f3a03eaf7	-0.2002715142515041
211	0x3fccf812aed41c09	0.22632058655310086
212	0xbfd467ad2562c13a	-0.31882790232613767
213	0x3fd10d7280c5c88e	0.266445756678089
214	0x3fc38c77faa521e1	0.15272426355865235
215	0xbfdb24a561b740c0	-0.42411169569551177
216	0xbfb6c598b6f23fea	-0.08895258394682029
217	0xbfd3729258e57720	-0.3038678997162254
218	0xbfd9ba85ad1b959e	-0.40200940995267753
219	0xbfc48034c3c5460c	-0.1601625400458463
220	0x3fd0f022db7c449a	0.26465674814341755
221	0xbfd724e34bec5e19	-0.36162645735154936
222	0x3fd571ee3ada4527	0.3350787710888476
223	0xbfc4a6ce340cf349	-0.16134049932034092
224	0x3fa757d9215f5d65	0.0455921033132494
225	0xbfd1e196e3722caa	-0.27939388476870397
226	0xbfd7e4df0628175b	-0.37334418870192615
227	0x3fc7447243fb248e	0.18177631682764112
228	0xbfc9258dd361c94a	-0.1964585573328555
229	0xbfd2f4397208fc2e	-0.2961562741874698
230	0xbfcdf37da6949cf5	-0.23399325021566822
231	0x3fbc6e417b00a9f0	0.11105736973755831
232	0xbfb4a83da6631f0a	-0.0806921511858684
233	0x3fd8f14a22d2fe71	0.38972714806366243
234	0x3fd0604f8ecaef0f	0.25587834305382356
235	0xbfb59b0f4fd9ca07	-0.08439727496605808
236	0xbfc1eb8ec04cf8c1	-0.14000114812546907
237	0xbfb795ab03401a77	-0.0921275027213627
238	0x3f84e7c888c9c937	0.010207716631360426
239	0x3fd6fc7b0954b5c2	0.3591601935503058
240	0xbfd638dd1303bbcd	-0.3472206769646931
241	0xbf86d9dad552fe9d	-0.011157712588441721
242	0x3fc8856eb1dafa9d	0.19157203373284384
243	0xbf9a16e11abf2ce5	-0.025477902657979796
244	0x3fd9ff0a0962d718	0.4061913577710228
245	0x3fd67ce8ec985932	0.3513738928317195
246	0x3fc644b182ebd59e	0.1739713563216982
247	0xbfdd745e535e80cf	-0.46022756711500973
248	0x3fd8edddd5707f32	0.389518221318201
249	0xbfc2e1250bf89f93	-0.14749587139635575
250	0xbfbc649844807255	-0.11090995476156114
251	0xbfdff0d4003b110d	-0.4990739824536526
252	0xbfe33282f9b9b618	-0.5999159696054361
253	0xbfde87e87dfdf02b	-0.477045176543245
254	0x3fdf1b47e8aabc57	0.4860400936258364
255	0xbfe37fdf97ba48f5	-0.6093595469885985

transformer.encoder.layers.0.self_attn.in_proj_bias f8 [48]
0	0x3fa1c6d0c0c1e3c6	0.03471996644015678
1	0xbfb3ec668a5a2a99	-0.07782593610515177
2	0xbfb8c5a288fe634a	-0.09676566929409805
3	0x3fb561b63b18b0ad	0.08352221434387515
4	0x3fb1183582652cd0	0.06677565034367494
5	0x3fabc3883e560756	0.05422616730630973
6	0x3f14325d36bc113c	7.704442912987315e-05
7	0x3fc2e9cb19618480	0.14775980700781943
8	0x3fa2e3006463d5e6	0.03688813424552588
9	0xbfa97f7ba73dcb7e	-0.049800743260582245
10	0xbfcb7f9af8f5d98f	-0.21483170658366332
11	0xbfc95c231a9eea2e	-0.19812430190889202
12	0xbf8b47fbfbd4354f	-0.013320892927846243
13	0xbfc6038f01d8bd5d	-0.17198360052268927
14	0x3fc41c640893c973	0.1571164171105682
15	0xbfd7ea966b82122e	-0.3736930894740763
16	0xbd2eb0ac5e2f92e3	-5.4516622550750057e-14
17	0xbd34ab27c11e1e58	-7.342953037963581e-14
18	0xbd494e94fc78cc6e	-1.7981677195619268e-13
19	0xbd453282a9e1e885	-1.5061591986666274e-13
20	0x3d532c3828679427	2.724609075313764e-13
21	0x3d43f638114dcc14	1.4183707025651436e-13
22	0x3d5da2b2850713f4	4.211463035164633e-13
23	0xbd602328e1469fca	-4.586508603395898e-13
24	0x3d1d4350cb30bbb9	2.5990722076065336e-14
25	0xbd42112e4184905f	-1.283745523001566e-13
26	0x3d1ea8269996a04e	2.722874280586522e-14
27	0xbd6667798a0fa27b	-6.367656138922307e-13
28	0xbd42c94f33799b47	-1.334851501332434e-13
29	0x3d60cfed09e3b999	4.778317666157071e-13
30	0x3d36c7a4ef2e86aa	8.093032181388451e-14
31	0xbd721f5531c54577	-1.0301388166242715e-12
32	0xbf53db397cb29158	-0.0012119351766069677
33	0x3f971e9e86861fb5	0.022577740631760174
34	0x3fa0c593c220f0ca	0.03275739426359932
35	0x3f89bdd3f8d1a8b6	0.012569099455692938
36	0xbf8cf10ecd3756ea	-0.014131656301212787
37	0x3f704fbda76ba0d8	0.0039822967871503065
38	0x3f9a82726404e9e2	0.025888240198790664
39	0xbf7a1561a2d997d3	-0.006368047133582483
40	0xbf9577e6bd749e00	-0.02096519976944755
41	0x3fb0c95133400f17	0.0655718565104134
42	0xbfa8e48b6a0942b2	-0.048618656820172204
43	0xbfa41f5c7d2d6e8e	-0.03930176761670366
44	0xbf9478f78e14cf9c	-0.019992702528909598
45	0x3f97827a0c98979f	0.022958666819384296
46	0xbf81a2863648212b	-0.00861077168612264
47	0x3f7c9a4ee623b5dc	0.006983097266340246

transformer.encoder.layers.0.self_attn.out_proj.weight f8 [16, 16]
0	0xbfa67ae21feef2a8	-0.04390627517520801
1	0x3fd9a78a84591069	0.4008508961162592
2	0xbfd3e497c1d0abd3	-0.3108271973348426
3	0x3fc64dcce0b16b51	0.17424927684154537
4	0x3fcbb02c40ad960d	0.21631386907681396
5	0x3fd181a59782161f	0.27353801532476213
6	0xbfcedb8cf0be1d53	-0.2410751510144374
7	0x3fc71906c2b0a3ca	0.18045124536845797
8	0xbfc626d49f13b7b5	-0.17306001441414556
9	0x3fdabfee96f07574	0.4179645990387464
10	0xbf95227a803def11	-0.020639337613359624
11	0xbf96f732c884a31b	-0.022427361954359442
12	0xbfd622c42b6eba8f	-0.34587196580370344
13	0x3fd1bed0f37005ba	0.27727149747087376
14	0xbfd31f45a7add1c4	-0.29878369688892925
15	0xbfc3530fb345235b	-0.15097233060285017
16	0xbfd2df29aa678d7f	-0.29487077370705345
17	0xbfc5131fe50fa541	-0.1646461361372449
18	0x3fc38ec9c82c7a81	0.15279505037411314
19	0x3fa300939fd35586	0.03711377454753077
20	0xbfcb3fead6556cc8	-0.2128881022025324
21	0xbfbe37ffacbbd9d2	-0.1180419728005753
22	0xbfc1c7ce802cdd1a	-0.1389101148467738
23	0xbfdbb49963045ee3	-0.43289789838443776
24	0x3fc1cba402b0d6b7	0.13902711993585168
25	0xbfd81ab8c9b4c86c	-0.37663097093457654
26	0xbfc26c81bd5c8344	-0.14393636461411508
27	0xbfd7c50538d78226	-0.37140017081222465
28	0xbfe12b64757908b2	-0.5365469259634408
29	0x3fda0ea03e557e05	0.4071426972131749
30	0x3fc8f214a49eb805	0.1948877147492
31	0xbfb69dad90ace909	-0.08834347517123232
32	0x3fb9af382fec2b51	0.10032988710387981
33	0xbfdbf09a857ed32d	-0.4365602782884704
34	0xbfd10c428d3fc27d	-0.26637328904966023
35	0xbf54f4586ba6fb98	-0.001278959606324048
36	0x3fad95813b1485c7	0.057781256162580834
37	0xbfd1f9454dca2dea	-0.28083927723557045
38	0xbfd87927cca2c58a	-0.38239474281279995
39	0xbfd56f0cae60e43c	-0.3349029257693166
40	0x3fa0022d9132796d	0.031266616796744674
41	0x3fd347b638355a09	0.301251940623303
42	0x3f73af2431ba16cc	0.004805699714443622
43	0x3fca67d5e137a83b	0.20629380700057873
44	0x3fced7c1576741cd	0.24095932739011375
45	0x3fd08a0e3b735b34	0.25842624479030296
46	0x3fe8a0ebd7d6c3b9	0.7696437087635025
47	0xbfd90e43125ae936	-0.39149548332683837
48	0x3fd7ebd80e0e00e0	0.3737697732212961
49	0xbfce676357563e18	-0.23753015293594681
50	0x3fadc0456d8bedb6	0.05810753786314697
51	0x3fa7454536695316	0.04545036591722444
52	0xbfd22c1d1e62d72f	-0.28394248931305105
53	0xbfce68ef554d7868	-0.23757735886732978
54	0x3fcec78099b60cac	0.24046332841326057
55	0x3fb952bbdfcb2ae4	0.09891866887771134
56	0x3fd58c9eb9a6a3cf	0.3367077649114067
57	0xbfcdcb715538ea75	-0.23277107869383298
58	0xbfc83ebcdd9adef9	-0.18941460438303873
59	0x3fb52762f91e4f3c	0.0826322420310221
60	0x3f7d2fe1c82a4910	0.00712574192097494
61	0x3fc7dbac9cfc4095	0.18639142670918277
62	0xbfe557e33738c216	-0.6669784620808652
63	0xbfb8dc8413d91087	-0.09711480602806165
64	0xbfd794c8f73cbe24	-0.36845611709847703
65	0x3fb4f248c217bd4b	0.08182196367828458
66	0x3fd289a6314323db	0.28965143976944113
67	0xbfd9fc43afee06e6	-0.40602199726718735
68	0xbfd6278926db7063	-0.3461630706276592
69	0xbfcd5b488e16ba34	-0.22934824884346627
70	0xbfd004e08386e8f4	-0.25029766888077565
71	0xbfd59fe04db5c693	-0.33788306797860307
72	0x3f91ce85561cdf49	0.01738937700358115
73	0x3fd0ec725500b401	0.26443155575799443
74	0xbfd961d9ae3bc70a	-0.3965973092555123
75	0xbfd72f63aeab7dfa	-0.36226741845709365
76	0x3fdf991812a461d7	0.4937191183139737
77	0xbfc0280b48f761c5	-0.12622204840478282
78	0xbfc836d6c3eb8400	-0.18917355123906532
79	0x3fd7f38950c85b70	0.37423928154878805
80	0x3fbe58cf55c55510	0.11854263156904588
81	0xbf536119b4f0ce37	-0.0011828185122454546
82	0xbfc9c0351d47d289	-0.2011782067271677
83	0xbfd5cef5722ea5f2	-0.34075676107985864
84	0xbfcc0b99b7ff18f3	-0.21910401806071142
85	0x3fd5b1cdbb9782ea	0.3389772731734825
86	0xbfc499a77ac1de36	-0.1609391545678009
87	0xbfd28ff6697ba461	-0.2900367765528867
88	0x3fc59aa3cfb1739f	0.1687817348601159
89	0xbfc22aec3189a0ad	-0.14193489474133028
90	0x3fd197ecef555e00	0.2748977982750773
91	0x3faa38f251023cfb	0.05121571768642671
92	0x3fc82c832f6a69ed	0.18885841193407718
93	0x3fd2ee3b73f94f53	0.29579054189274706
94	0x3fd372671acc0b12	0.3038575898828394
95	0xbfad0b1bd5eba7bc	-0.05672537790617535
96	0xbfd074b17da9b04d	-0.2571223952461466
97	0x3fe0ae164c725de3	0.5212508671856394
98	0xbfd1d593b9492d79	-0.2786607083732729
99	0xbfdda7fd964b27e8	-0.4633783309660644
100	0xbfc37c932e571c37	-0.15223922503193574
101	0xbfb712a0396bad5a	-0.09012795831556755
102	0x3fde0fe8e352983c	0.46972105216480364
103	0xbfd5d94d080cdbb9	-0.3413879946341996
104	0x3fbd2834b3fa44a4	0.11389474290833107
105	0xbfaf0a86bbbd5347	-0.06062718431227281
106	0x3f795e97a43034a9	0.00619372591883153
107	0xbfd01d1ec915d638	-0.25177735936390233
108	0xbfda430f05b0ac0e	-0.4103429370467787
109	0xbfd6dba42cd8aa91	-0.35715584163214326
110	0xbfbc3c531373601a	-0.1102954790579819
111	0xbf9c25c83b04f72c	-0.027487877466447916
112	0x3fd7079efa38e89f	0.35984014926692426
113	0x3fc98e216e0f4b0b	0.19964998125086483
114	0x3fd758f2fd5b5ab9	0.3648040270030993
115	0x3fc222fa749c6e11	0.14169245427989144
116	0x3fd5fa8c0b63181d	0.3434171782686251
117	0xbfd5acef6df4ca31	-0.33868013132010605
118	0x3fa7e65aefc9c93a	0.04667934586622598
119	0x3fcb27d33cc0a968	0.21215286699709712
120	0xbfce27c75ba85ed2	-0.2355889508769367
121	0x3fc7b1ca2fe342a2	0.1851132139040788
122	0x3fc17f54426ece5d	0.13669827693739736
123	0xbfc0d5281275065a	-0.1315050211069771
124	0x3fb9d692ffa8626c	0.10093039266247111
125	0x3fbd243b3dd9efda	0.11383409748117349
126	0x3f8cde1cc005a705	0.014095520601319142
127	0x3fd49117d2393d7c	0.32135577706954854
128	0x3fd43649b31254c4	0.3158134697672035
129	0x3f883233ce3f6b13	0.011814503413849963
130	0xbfa9c51892639e4c	-0.05033184802033172
131	0xbfd8a0ecfcf06094	-0.38482212735244414
132	0x3fd9d57bf97f2923	0.40365504612840847
133	0x3fcc15d5f554c994	0.21941637496054212
134	0x3fdb5842e676cb9b	0.42726204401258777
135	0xbfcc59f5fc177663	-0.2214953881183873
136	0x3f9bb809192d1577	0.027069227372768147
137	0x3fc2a8b63fddcdf8	0.1457736789558195
138	0xbfd64a40c72ff374	-0.34828204585919953
139	0xbfbacb302374a38e	-0.1046629034577917
140	0xbfc8d7657ec29b68	-0.19407337846243
141	0x3fca0b4f55342708	0.20347015056932372
142	0xbfc5396a27b8f57a	-0.16581465663504585
143	0x3fc9bca1dec3d411	0.20106910111613321
144	0x3faacc50647b613a	0.05234004236780483
145	0x3fc8075231f08401	0.18772342146351664
146	0xbfd49658a1467707	-0.32167640447174545
147	0xbfc6fc6ddd1f01a7	-0.17957852646760594
148	0x3fdbf7bb82391571	0.4369953891476462
149	0x3fc2cffb862255ad	0.14697212266461915
150	0xbfd6c46c73b0ae66	-0.35573874757640167
151	0x3fd3d42475f6bada	0.309823146056187
152	0xbfd3dccb5ccf5842	-0.3103512197825503
153	0xbfd1a63ad267548f	-0.275770860168742
154	0x3fc9214e4c3a0b25	0.19632891389854837
155	0xbfd429c1b20a8f98	-0.31504862200585526
156	0xbf6f9d9be18143d0	-0.003859333472100414
157	0xbfa68df079cf9811	-0.044051661366936064
158	0x3fec035a6a1d46f9	0.875409323935144
159	0xbf90a8d86e3cf02c	-0.016269094208141308
160	0xbfd04ea9e90defd1	-0.25480125197622977
161	0x3fb214247c882c68	0.07061985054331077
162	0x3fcd513d4c537deb	0.22904173113691625
163	0xbfc67d4f196dd633	-0.17569912664082352
164	0x3f724ea0edfd1f22	0.004469517356319648
165	0xbfb83be9ad475d95	-0.09466419678152811
166	0x3fca2940f08b2720	0.20438396210948273
167	0x3fd09bf58020c0bd	0.25951898109907373
168	0x3fbf72892ffeb6fc	0.12284142896416123
169	0x3fd07bf2c8b4785b	0.25756520843595404
170	0x3fb553aecd50c9e1	0.08330814850413716
171	0x3fbe9bdf16206bde	0.11956590929223362
172	0x3fd85a6e34549b9f	0.3805194388427768
173	0x3fd80783dfd40e4a	0.375458687384001
174	0x3fcb04c0b183774f	0.21108254115727695
175	0xbfabd840521ede1c	-0.05438424112747617
176	0x3fc834040dab3525	0.18908739726467974
177	0x3fb823692daea648	0.09429032674111071
178	0xbf93506252dde900	-0.01886132841853172
179	0xbfdadaae561b842d	-0.41959722908910885
180	0x3fc0223de4019fb6	0.1260449755966399
181	0xbfd219c3a091bc57	-0.28282252007097014
182	0x3fe2edf096a1af7e	0.5915453855536581
183	0xbf8361a8c6f23c8a	-0.009463614055020626
184	0xbfcb63b68bc1a7f4	-0.2139805014042505
185	0xbfca6fc608cdbda4	-0.20653605871073666
186	0xbfb728ebfc7d693b	-0.09046816744140511
187	0x3fc3c08eb6ed95bd	0.15431388790163494
188	0xbfd9f4fb764bc449	-0.4055775313600561
189	0xbfd0dfea49f1bd39	-0.2636666986572496
190	0x3fc3e6a135bf8435	0.15547576069278227
191	0xbfd217ee265c211b	-0.2827105879409985
192	0x3fd161e7ecae6b79	0.27160070527468566
193	0x3fc201ca3554a20c	0.140679622688609
194	0x3fd0a66a4451c0e4	0.26015717193423726
195	0xbfd16a6f29f1fee0	-0.2721212300893807
196	0x3fdc4d4e13446bc7	0.442218321624463
197	0x3fbbd6276529c685	0.10873647899441082
198	0xbfb3dfc1b4a79320	-0.07763300571930332
199	0xbfd4703e83ff2651	-0.3193508423833907
200	0xbfa24b119ccfa201	-0.035728979484535024
201	0xbfce0b73bbf3d6e1	-0.2347244899498753
202	0x3fd218038e2e71ed	0.2827156914225089
203	0x3fc0c4b9982a8324	0.13100356988891193
204	0x3fd968fe4909dfc0	0.39703328259156123
205	0xbfbf8e749563ab64	-0.12326744696808373
206	0x3fccf66bc0bf0fef	0.2262701693672393
207	0xbfc249423ccad202	-0.14286067932484064
208	0xbfad77ae3f0d4b0e	-0.057553715893524524
209	0x3fda224093642b50	0.40834059137039436
210	0xbfb2dd62ac02dbb7	-0.07369057368747077
211	0x3fca022e9583baf1	0.20319158840671706
212	0xbfab2e59c45123c9	-0.053088002409431186
213	0xbfd767a81f814438	-0.3657017047563076
214	0x3fb138e1ebe9f84f	0.06727420816057016
215	0x3fcafde16eb81a89	0.21087282091339812
216	0xbfd1c99f56084b25	-0.27793105508424026
217	0xbfaf8b1c581320b1	-0.0616082055581172
218	0xbfd14f4bdc92c0f8	-0.2704648641620362
219	0x3fc0a681d1aecf06	0.13008139360828624
220	0xbfd3983d1e1fa874	-0.30616691533817364
221	0x3fd99191b72c014b	0.3995098389423403
222	0xbfbae8406d770de9	-0.10510637924658507
223	0x3fe0b8e45437acdc	0.5225698132393535
224	0x3fb8c2c1b56da845	0.09672175101664589
225	0x3fd108d096fd5b1a	0.2661630129345426
226	0xbfc0d587df3bffcc	-0.13151644134631935
227	0x3fbdd048cd01b972	0.1164594173912741
228	0xbfd5547d8144a025	-0.33328187583765817
229	0xbfd25a5c1f0335ad	-0.28676512745445387
230	0xbfd5faa90e5a701e	-0.3434240951698956
231	0x3fd21131480ac957	0.28229934726109235
232	0xbfd66b7a20bac91b	-0.3503098792672447
233	0xbf80aa1240553ad6	-0.008136885250363528
234	0x3fc52ae63d3cf716	0.16537168493408022
235	0x3fb0a71e1bc1f75c	0.06505001237561941
236	0x3fc10087d7481cc5	0.13282869350243778
237	0x3fb581fde295e594	0.08401476652024648
238	0xbfcb874752754711	-0.21506587530398538
239	0x3fde8c35a9da3881	0.47730771624708984
240	0xbfc8c1e5e28896be	-0.1934172969933367
241	0x3fd8ff031dea540a	0.3905647079603233
242	0x3fb0b2a22303829d	0.06522572855784366
243	0xbfd0b015e6c46280	-0.2607474092087969
244	0xbfd5670163b07b31	-0.3344119523552989
245	0x3fd0d32ac536488a	0.26288861521710116
246	0xbfceaa3eb8e01d26	-0.23957046534653975
247	0x3fd208ba0d01e534	0.2817826392198015
248	0x3fd0bf5ddf45bb76	0.2616800957102251
249	0x3fd45dd6d14eb180	0.3182274860398806
250	0xbfd5401a66e05e51	-0.3320375446942068
251	0x3fd8a20b588f9546	0.38489040039560896
252	0x3fa8109338922393	0.04700145783960532
253	0x3fd8cec7649aa4c5	0.3876207811795889
254	0x3fd8951a3bbb7a9a	0.38410049279438285
255	0xbfdbbefe2e116628	-0.4335322809107276

transformer.encoder.layers.0.self_attn.out_proj.bias f8 [16]
0	0xbf8dee7936e17774	-0.014615008342101034
1	0x3fa7108dc9a14b3e	0.04504817091278433
2	0x3f990195a0eb6206	0.02442010683702913
3	0x3f9dc9c54230762f	0.029090006031870338
4	0x3f9f60bd4029bbc2	0.03064246849174502
5	0xbf97274456b37020	-0.02261072901897887
6	0x3f7d01fb232b38b4	0.007081967358955211
7	0xbf90737a26994f95	-0.016065510373962495
8	0x3f9d2da257625f3b	0.02849439295150023
9	0xbfa3e7dcbf8235c5	-0.03887834394218318
10	0xbf7aa80facff71ef	-0.006507931931960516
11	0x3f5f83ba4a7529b2	0.0019234961744865994
12	0xbf84d8495bdd6e53	-0.010178158870693432
13	0x3faeb761498e6e5d	0.05999282858757902
14	0xbf914131cf6427cc	-0.016850260050922647
15	0xbf818126fa71ef31	-0.008547119634605945

transformer.encoder.layers.0.linear1.weight f8 [128, 16]
0	0xbf8af91d7cfdb7ac	-0.013170462014126937
1	0x3faa5b690748de27	0.05147865499423814
2	0xbfba6d3f032bd3a2	-0.10322946383878542
3	0xbf98adba93e5f053	-0.024100222851743357
4	0xbfc1fb28b918140d	-0.1404772666720934
5	0xbf96df1b1ddde28e	-0.02233545656005958
6	0xbfd92ec457ef8c5b	-0.3934794291255394
7	0xbfc3e75632afbaf1	-0.15549733614849218
8	0x3fa80486dd70c72d	0.046909536868396585
9	0x3f90335398972c35	0.015820795238863112
10	0x3faeea780b3dacda	0.0603826059076142
11	0xbfb669237b04a319	-0.08754178765651623
12	0x3fc0cad61851b556	0.13119007289371137
13	0xbfceb1550f6eb2c6	-0.23978675130401522
14	0x3f70c17b6befe2ce	0.004090768924463984
15	0xbf9dd107b607209d	-0.02911769913205885
16	0x3f91518f51549002	0.016912688578614173
17	0xbfc15f4996209c26	-0.13572044210852247
18	0xbfd18c22a04418e6	-0.2741781773660378
19	0xbfc2700b034b9de4	-0.144044281586715
20	0xbfc7e67157e4f486	-0.18672005454746826
21	0xbfb309946c33c002	-0.07436492578176515
22	0xbfb77f37d2c2af0b	-0.09178494353789916
23	0x3fbcd6ea30b15835	0.11265433968341727
24	0xbfa6f3283ea4edfa	-0.04482389225674051
25	0x3fb7c73db1118087	0.09288392613371076
26	0x3fc292147574d609	0.1450830052869352
27	0xbfc3e2c8c3695378	-0.15535840550969815
28	0x3f9551b906912d7a	0.020819560075592027
29	0xbfc5e5d3694bdf0d	-0.17107622758316446
30	0x3fb95b28ffd73dc6	0.09904724355805347
31	0x3fb51a1ddea48b43	0.08242975888837827
32	0xbf74fc75e29d8356	-0.005123577584385716
33	0x3f96228c228d2f28	0.02161616288076043
34	0x3fabebe3facd0ab0	0.054534077039098405
35	0xbfb7e4ed8f022947	-0.09333691350380945
36	0x3fcf32326663b9e5	0.24371938704957966
37	0xbfbb78ed49ae5c16	-0.10731394814352799
38	0x3fc0f16d02f2d33d	0.13236773151370498
39	0x3fc22acdd35d12b5	0.14193127460943847
40	0x3fb91d5ae545e4b5	0.09810417268262735
41	0x3fa1e1fa62d872a7	0.034927200857258804
42	0xbfd0035979223672	-0.25020443753678656
43	0x3fcdf105b203ece2	0.23391791526942202
44	0x3fa7df85dcf555c6	0.04662721941228258
45	0xbfb2b8cce01134a4	-0.07313232870474679
46	0x3f8aaa7df81851fc	0.013020500310667586
47	0xbfaa9637e4c6bacc	-0.05192732494048399
48	0x3fb9eccfcffe5fe2	0.10126971080751404
49	0x3fb853e1535c5e54	0.09502990994621402
50	0x3fae0d8a2ce1f53c	0.05869705007442369
51	0x3fbc11a1119c9a8e	0.10964399986242254
52	0xbfbcd29ead55ecff	-0.11258880359484989
53	0xbfb56522f97d0e07	-0.0835744723418018
54	0x3fb743dedf32673e	0.0908793730654027
55	0xbfbf852daea15bb7	-0.12312589181361387
56	0x3f9c6d25c461e9b8	0.027760114775881667
57	0xbfa8773cb5341ea5	-0.04778470718343656
58	0x3fba6bdfb11d4500	0.10320852350311682
59	0xbfc17906d9468e4e	-0.13650594338570204
60	0x3f520342106dd2a9	0.0010994095952955674
61	0x3f97251497426ab2	0.022602388126510227
62	0xbf639fa0c24a2c26	-0.002395452482522059
63	0x3fb8e10dab9b3017	0.09718404235462717
64	0xbfbd3d9e5dfa4188	-0.11422147554754336
65	0x3fc62b42d4692382	0.17319522258392445
66	0x3fa2c6e90c34b86d	0.03667381547926216
67	0x3fcf0abe11185e13	0.24251533350683072
68	0xbf3aa1593101d05c	-0.00040634562993280775
69	0x3fbbf0f294a2d44f	0.10914531830606332
70	0xbf8569ec3fb56129	-0.01045593804762797
71	0xbfdf6517ca9d9e23	-0.49054522310913934
72	0x3fcafc1fae726753	0.21081920640863902
73	0x3fc15a52828bfad1	0.1355689179835822
74	0xbfa6d771588300cb	-0.04461244779077019
75	0xbf826716278e47ac	-0.008985684473177567
76	0xbfa5b6a87d98f327	-0.042409196216317384
77	0xbf9215fa09ab806d	-0.0176619594957405
78	0xbfb39761a9257e3e	-0.0765286481814593
79	0xbf9e3c0037029427	-0.029525760037945183
80	0x3fbb206108c5be49	0.10596281494303485
81	0x3fc2844d67c7584e	0.14466254775351434
82	0x3fab7b3a730aa03b	0.053674532454636346
83	0xbfa03d72d1da37ec	-0.03171881496119497
84	0x3faeb3d474b3cde8	0.05996574329938281
85	0xbfb6373b1efae999	-0.08678025728560214
86	0xbfb58742611cf527	-0.08409514304090192
87	0x3fc3c1eb26f1b61d	0.1543554248959688
88	0xbfad660c0f941151	-0.05741918268361935
89	0x3fa34c9851894d2c	0.03769374842945647
90	0xbfcfa96edf3744b6	-0.2473581876679753
91	0x3fc52afd5199d037	0.16537443622985545
92	0xbfa03d54a1b8bd23	-0.03171791528836312
93	0xbfce1c601d77c2e7	-0.2352409500013188
94	0xbfb0fb85c60228b1	-0.06633792957487362
95	0x3f68bc326ecf642c	0.0030194268242494018
96	0xbfc5956f755dca9e	-0.16862290602474145
97	0x3fb7f2fa8d9a9953	0.0935513110840465
98	0xbfae5e0e862ade5b	-0.059311345937598424
99	0x3fb81148837e6335	0.09401372156424943
100	0xbfc23bad7531a9c8	-0.14244621488917475
101	0xbfcad2f5698cff48	-0.2095629468330975
102	0x3fc67aada4494ebd	0.1756188442401391
103	0x3fb0c00c1ac2086a	0.0654304089858059
104	0xbfc1b7c067db67f1	-0.13842015334267857
105	0xbfb62ac4323f1107	-0.08659006334989182
106	0xbfa8ede244d72a29	-0.048689909842853325
107	0xbfc86f764e0b62f6	-0.19090155421033445
108	0x3fc18f4b327eea5c	0.13718547788251356
109	0xbfb3b03de1f0dce7	-0.07690798536428965
110	0x3fa27358ac59c238	0.03603627303971674
111	0xbfc8f810c8132860	-0.19507035989073795
112	0x3fc04bad0997efc0	0.1273094460337898
113	0xbfb697b8e7626c81	-0.08825259827647082
114	0x3fb34f15870a8b69	0.07542547747520491
115	0x3fb188dddbda7789	0.06849466912760084
116	0xbfb43b9e3f0551a7	-0.07903470076173012
117	0xbfb96806649bb55f	-0.09924354511504906
118	0xbfabae7a2421f868	-0.054065529738168305
119	0x3f6cf702d0f326a5	0.00353575277367642
120	0xbfa77c2e1b1da289	-0.04586929398539492
121	0x3fa2f33823cf59c6	0.037011865969975896
122	0xbfc5e459c29c71b3	-0.17103120806212999
123	0x3fc08eb246b96cf6	0.1293547482808674
124	0x3fbce44efb52c196	0.11285871158430036
125	0xbf90bab499e3b5a6	-0.016337224857968423
126	0xbfb84e5649cec32a	-0.09494532873101194
127	0xbfa0affd5927c391	-0.03259269440957902
128	0xbfabf2fbfec013e4	-0.05458819851632038
129	0xbfad967b331ab98c	-0.05778870581467563
130	0x3fb9a785f1e8cc38	0.10021245151510605
131	0xbf9120a2570dc993	-0.016726051867814794
132	0xbfc4edeca029edbd	-0.16351087399003275
133	0x3fc3c8d792c50840	0.1545667139672009
134	0xbfaf01ce0a4b2db5	-0.06056064487128358
135	0xbf822ba5e19237ae	-0.008872314401994288
136	0x3fd5b2bf02f7430e	0.3390347985232872
137	0x3fbcb6fa0fdfe656	0.11216700446666414
138	0xbfc104c41b1fba53	-0.1329579479638193
139	0xbfa4010ffacd4f29	-0.039070605626561346
140	0x3fb1f3849d46db96	0.07012204017415366
141	0x3fa08b7cfdb6a5c0	0.032314210863954695
142	0x3fb39cdfe15180c6	0.0766124653905563
143	0x3f84fbb5271c1e71	0.010245719200170119
144	0x3fc59c28b80d680b	0.16882809626514503
145	0x3f8b29fad279ce77	0.013263663814746736
146	0x3fb3b1be9c2182ce	0.07693091689862827
147	0xbfa5ffee8726571b	-0.0429682292917006
148	0xbfbb9009a83719d6	-0.10766659123246511
149	0xbfc6b8ba63e5afcf	-0.17751245382112166
150	0x3fc797b868bceda0	0.18431763757858466
151	0xbfbb17a1fe7bdfa6	-0.10582935774789223
152	0xbfc8eef6c12c8968	-0.1947925990326198
153	0x3fbde3907f133676	0.11675360777300078
154	0x3fc3aff157e56867	0.15380684654047913
155	0xbfa2fd74bef208ae	-0.03708996611477865
156	0xbf943f1b4382f7ff	-0.019771982188778733
157	0xbfbc77a78059ac10	-0.1112007797579937
158	0xbfa8cd943cd567cb	-0.0484434437045845
159	0xbfba83aea2e44ab9	-0.10357181050157295
160	0x3fad7fb0d9199030	0.05761482858795863
161	0xbf6c0e72a8116921	-0.003424858034617576
162	0xbfbb1b6fbf2aa408	-0.10588739792969204
163	0x3fc4ad04eb625679	0.1615301274620611
164	0xbfa4dffae87f9eda	-0.04077133262745543
165	0x3fcf8c9af3854f24	0.24647843256627155
166	0x3fba8fe6f11cd8c1	0.10375827204265688
167	0xbfbd362f2ba05a0a	-0.11410803618523616
168	0xbfc20bf6591eb32b	-0.1409900603443018
169	0x3fbaebfb153db222	0.10516328114108167
170	0x3fc34771bc10f878	0.15061780627178556
171	0x3fb3ce6c973afa1d	0.07736853305957721
172	0xbfb2a1981cb8575c	-0.07277823163198377
173	0xbfc2c8d56ccc41ad	-0.14675395786663384
174	0x3fb4ae3df6b1f061	0.0807837226183792
175	0xbfa7188c50b65ed4	-0.04510916219004249
176	0xbfb94febfbe7324a	-0.09887576007822321
177	0xbfaa6aa327cd2f4a	-0.051594828232366455
178	0x3fb4743009a934cb	0.07989788280356717
179	0x3fbb1f577e4d6474	0.10594698747208203
180	0xbfc88866856e0931	-0.19166261210563953
181	0xbfd4d56a5b8df3d6	-0.3255258459174092
182	0xbfc3456ec1518f36	-0.15055641593345975
183	0xbfa91da0b6aae8d8	-0.04905416707829752
184	0x3fc489c5d49fd5c3	0.1604544914440976
185	0xbfc40c0d67003ca7	-0.1566178086218077
186	0xbfbbdeaafbcdfae1	-0.10886639258931609
187	0xbfbbbebfb015ed88	-0.10837934540716365
188	0x3fd2c9f7ab2d8fe2	0.2935771152172021
189	0xbfc6585c5123176c	-0.174571551912034
190	0xbfbc4fd605b9be12	-0.11059320106300444
191	0xbfbd8efc31380e40	-0.11546302987704227
192	0xbf4092b48d0e633e	-0.0005057698818858659
193	0x3fbaa978542e0e6c	0.1041484075085976
194	0x3fc3c28271527966	0.1543734601336368
195	0xbfbfdec9d3e3589c	-0.12449323103951077
196	0x3fc3e95e3a023ee7	0.15555932838878236
197	0xbfb93494a1f3b49d	-0.09845856622605927
198	0xbfd384ed9770363e	-0.3049882868661803
199	0xbfd0cb209d5c508d	-0.2623979126667642
200	0x3fc1ff01bc9296b4	0.14059468944212983
201	0x3fc46696123ed19e	0.15938068285835255
202	0x3fcb1cf37c909167	0.21182101804982809
203	0xbfa3525ee3e19b13	-0.03773781329873862
204	0x3fc8a83460dcac5c	0.19263319711294258
205	0x3f7017e675bf3bea	0.003929043039490468
206	0xbf60169204c68f67	-0.0019638873984195063
207	0x3fc1ca3552d90e55	0.1389834074526443
208	0x3fa6c1373305421a	0.04444286821183514
209	0xbfaf38dcd3aee64c	-0.06098070224784333
210	0xbfb55be73ea2a632	-0.08343358306105911
211	0x3fb8148be4af03dd	0.09406351407143583
212	0xbfaf7f57a5d68be2	-0.061518420213608996
213	0xbfb8d49fdb9ef9f8	-0.09699439155426848
214	0xbfb627c11aeaeb60	-0.08654410273713387
215	0xbfc3eaa17e6389d1	-0.15559786483124907
216	0x3fd00f9cff2b5eb3	0.2509529582871252
217	0xbfd93e4b459564fc	-0.3944271258856842
218	0xbfe11c9a2f690fdd	-0.5347414899811117
219	0xbf8556bf8eac1800	-0.010419365445624607
220	0x3f8b54edac8ea912	0.013345581844835173
221	0xbf665b4137b036bb	-0.0027290605335171503
222	0x3f90c1fdf864b628	0.01636502102444673
223	0xbfc0ba4d16cf3f5f	-0.13068545926807482
224	0xbfb3ff5b6bcdb0f7	-0.07811519033356605
225	0xbfbd10e47bd5097d	-0.11353900931593404
226	0x3fc893bdafd58739	0.19200869641923093
227	0xbfac1cfad3283bc9	-0.05490859820940092
228	0xbfa49398984cd9ae	-0.04018856867917307
229	0x3fb263467cc1114b	0.0718273214889155
230	0xbfbd22425bad69f7	-0.1138040040799878
231	0x3fb6df335ec7da95	0.08934327186566755
232	0xbfd02287d4775f57	-0.25210757969533887
233	0xbfbb2464087a826c	-0.1060240288447944
234	0x3fdb69fa0e84a820	0.42834330957214384
235	0xbfd8f7aadd77a4f2	-0.39011642100974975
236	0x3fba4133343d22b0	0.10255737328874193
237	0xbfdbf50a6e53a49a	-0.4368311002168156
238	0x3fbdb45859cf4065	0.1160330981504117
239	0xbfbffcde23e9bc46	-0.12495220543654381
240	0xbfc768082d6fc4ef	-0.18286230295738146
241	0xbfc767b3a8eaa7d0	-0.18285222766763676
242	0xbfc09f020f56f0ed	-0.12985254048351838
243	0x3f73bbe69c83b192	0.004817868066521307
244	0xbf734ae73486a340	-0.004710105080825866
245	0xbfb8a3f324ca561f	-0.09625167511179498
246	0xbfb199f780a12d9d	-0.06875559702273511
247	0x3fa6ff61b75edb8b	0.04491715777788049
248	0x3fc2a25bb40185bd	0.1455797795234001
249	0xbfd843e0323fd71e	-0.37914280802884714
250	0xbfe0142487937d09	-0.5024588249179099
251	0x3fc3e000ad063bb1	0.15527351807074077
252	0xbf9e48f8c558293f	-0.02957524017805579
253	0x3fb8b71624770176	0.09654367819076079
254	0x3fa4c8272a0ed18c	0.04058954609300533
255	0xbfc605759d1c0e0f	-0.17204160853735614

transformer.encoder.layers.0.linear1.bias f8 [128]
0	0x3fc4b683ac69ec04	0.16181989592209345
1	0xbfc32df429f648c8	-0.1498398976223767
2	0x3fb4728600589a41	0.07987248905610846
3	0xbfbdc1c837e7d1f7	-0.1162381302345422
4	0x3fc0c8a541084a29	0.1311232154408384
5	0x3f8601168be1c1ef	0.01074426283250404
6	0x3fa166394409eadd	0.03398302989531541
7	0xbfd281f749f78083	-0.28918249343224306
8	0xbfafd06cc9b26b8d	-0.062137031193933635
9	0x3fc53c3243f7ff5f	0.1658995468023887
10	0x3fc85c016c2ab35c	0.19030778676588056
11	0xbfbdac02cc45008c	-0.11590592848824793
12	0xbfc2828346ecdcad	-0.14460793460032076
13	0x3fbbbcd6a833a121	0.10835019690023674
14	0x3faae909dfe4a8ce	0.05255919321128176
15	0x3facfa2eb0c9b299	0.056596240120460446
16	0x3fb7b1e64dd74c89	0.09255828285613367
17	0x3fbb1426ef78503e	0.10577624651369974
18	0xbfd2af16c03b5c84	-0.29193657658238004
19	0x3f82a6bb0bde03a9	0.009107075977000738
20	0xbfd246316a2545e5	-0.28553424230366736
21	0xbfb8e632bb580d00	-0.09726254533602585
22	0x3fc5ce72bcc90f7d	0.17036279886280772
23	0x3fc501ee4e64e86d	0.16412142589416892
24	0x3fce9ef2acfb03de	0.23922570654215652
25	0xbfba4936530832ed	-0.10267962958478068
26	0xbfbe18b04d1b5dc0	-0.11756421930782945
27	0xbfcccc18a84eb19b	-0.22497852533468862
28	0xbfd08c47cc1510ff	-0.2585620396605605
29	0xbfd1b3551752560a	-0.2765705802679298
30	0xbfcfa98e65f4b0b2	-0.24736194589912014
31	0x3fb5f7c4f74e83c8	0.08581191098939123
32	0xbfc668d3f58764b4	-0.1750740956183897
33	0xbfc323a524e095cf	-0.1495253019394753
34	0x3fb1a5a71c62fee8	0.0689339107802841
35	0x3fc7758a3ecc75b7	0.18327453676549307
36	0x3fa73d4c596c5aaa	0.04538954345314512
37	0x3fa78210b16ebc72	0.04591419378208962
38	0x3fbc1e74d9b33844	0.10983972849791807
39	0xbfd11f9541991a1e	-0.2675526753049854
40	0x3fca8135d133eeee	0.2070681830881464
41	0x3fc8e562a1e0ad11	0.19450028328115157
42	0xbfd2d8f2e21ad0aa	-0.2944915016225972
43	0x3fc49b553eee57e6	0.16099038670353066
44	0x3fa4fca0202ae75b	0.04098987953825769
45	0x3fa2fa75ca18478d	0.037067109031467906
46	0x3f94c632eb80ff20	0.020287318824784184
47	0x3fb2e0a82a0580ae	0.07374049211421393
48	0x3fbd099edf34ce99	0.11342804860469825
49	0xbf83460a76b27824	-0.009410936114644448
50	0x3fc0a9429f4657c7	0.130165412684333
51	0xbf72d56c8445a6f7	-0.004598068135558845
52	0xbfcc9bad1b14c4ca	-0.2235008604271001
53	0x3f984a312cd28221	0.023720520363555878
54	0xbfcdbd4cddd87067	-0.23233948547647573
55	0xbfa00de069daa105	-0.031355870172150836
56	0xbfc0d9a6b29db291	-0.1316421863697497
57	0xbfbfd5fd6923407e	-0.1243589765247197
58	0x3fc185b72e4479d4	0.13689317473558893
59	0xbfaa0721a927d5d4	-0.050835658930661914
60	0x3fc6c9538582ac5f	0.17801898974480232
61	0x3fc35edadaf61d0f	0.15133224193071057
62	0x3fc64d9cf244465b	0.17424356297901764
63	0xbfd26dfcca3d2f1a	-0.2879631018629297
64	0xbfca64a8d11a3199	-0.20619688234399972
65	0x3fcc93db9c27f4c6	0.22326226353462725
66	0xbfcd63ade0fc7a82	-0.22960446820885144
67	0x3fc4a3eb9cc42b90	0.1612524524174117
68	0xbfd185987e921645	-0.2737790332833792
69	0xbfb0669aed4c9b57	-0.06406563085020643
70	0x3fb1815d4e3fa615	0.06838019523970502
71	0xbfcdb3be299a3113	-0.2320478156219755
72	0xbfc09e9963da9453	-0.1298400628631123
73	0xbfd95c19ab357c23	-0.39624635429021476
74	0x3f944f095569b3d5	0.019832750166120256
75	0x3fb7d21ffba73cfd	0.09305000203970688
76	0x3fb6bbfe6ae1594d	0.08880605801946224
77	0x3f73c4306fad4e6e	0.004825772480063868
78	0x3fc18ed8ab7e7e87	0.1371718251584648
79	0xbfa5b90462aaf184	-0.04242719368400841
80	0xbfc533c244dfedb4	-0.165642055158839
81	0xbfd1a2695e274334	-0.27553781695046387
82	0xbfc755c596598a21	-0.18230504838273112
83	0xbfc6540bcd8593fe	-0.1744398835682261
84	0x3fa476d3c598cf08	0.03996907984801906
85	0x3fd4a10c5ea9d875	0.3223296093414157
86	0xbfd0e055973445fc	-0.26369228139910184
87	0x3fc20b8ed56961d2	0.14097772045603435
88	0xbfc9dc63a97eb80d	-0.2020382478344235
89	0x3fb4d61116962dbd	0.08139139939719704
90	0xbfcb6d7cf45bf913	-0.21427881175618121
91	0xbfcb9c5ed901ae79	-0.2157095489122758
92	0x3fb78bd7b473aa8d	0.09197757869302788
93	0xbfd021771f0fc799	-0.25204256089556903
94	0xbfba8b6606881f6c	-0.10368955287424136
95	0xbfb793d09fc909db	-0.09209922696121657
96	0xbfca53a7d6f284a6	-0.20567796702838342
97	0x3fb047ddb15ac25f	0.06359658794350186
98	0x3fbdb0ac94ccfb45	0.11597708351926624
99	0xbfca48ffac900c4f	-0.2053527443495988
100	0x3fbfea5e42412fc4	0.12466992490334322
101	0x3fba8599952bddf9	0.10360107318762592
102	0xbfabea33c6662ecd	-0.05452119633545536
103	0x3fb4ad74fde46df9	0.08077174376051478
104	0x3fcdc04e24068bbd	0.23243119010029814
105	0xbf9edb756351e31f	-0.030134042918208977
106	0x3fc37954eef39667	0.15214025180391674
107	0x3f837b9bb56e9a3e	0.009513107752195823
108	0xbfbe6f224b3e8b3e	-0.1188832696630415
109	0xbfcaa142439f7237	-0.20804622938057246
110	0xbfb0baf6e95ceb0e	-0.06535285184228831
111	0x3f58d5f2ba51d6a3	0.0015158529652387418
112	0xbf95e19ed323f7e3	-0.021368486058228952
113	0x3fbeca7bd5187f30	0.1202771563771392
114	0x3fb2331de078f20c	0.07109247904094945
115	0x3f8561d8db9604a4	0.010440534783585705
116	0x3fbb0cc83d68ba53	0.10566379069562375
117	0x3f8f09ea69c66abe	0.015155631402014588
118	0xbfaf88d1755fb8b9	-0.061590715005750814
119	0xbfb54836abb069c2	-0.08313314143780473
120	0x3fc083034e6abb3b	0.1289981968779673
121	0x3fc1ddd4db5d40c1	0.1395822592844578
122	0x3fc539d22edf1060	0.16582705773010087
123	0xbfaf1cf669cdfe38	-0.060767841735465955
124	0xbfc8bc971a78238b	-0.19325531761594691
125	0x3fa9aeab080790ba	0.05016073678032869
126	0x3fc2a6b5a3f25690	0.14571257119375902
127	0xbfc10faa48658f70	-0.13329056296344843
