Code/990-10/darts_logs/D-dep-91_transformer/checkpoints/last-epoch=199.ckpt (torch, 653477 bytes, 205 tensors)

encoder.weight f8 [16, 1]
-0.3940929602584905 -0.7882136116189001 -0.6624329131906516 -0.7740383584011307 0.5841962256565817 0.8152557801966176 0.13561513286660667 1.044497040560773
-0.7121962146999017 0.9257775028111083 1.1354230853513727 -0.8730164393011779 -0.33218426921230565 -0.7758653795885148 0.25785669702997305 0.27320331268483705
00000000: 0638 f9ad d138 d9bf 7f49 85c0 0b39 e9bf
00000010: d554 3e82 a632 e5bf 15d6 6517 ecc4 e8bf
00000020: 6f88 7448 bcb1 e23f d438 3a4a 9316 ea3f
00000030: 519c 4030 d65b c13f 0ba3 5f87 42b6 f03f
00000040: 0613 4fb7 4fca e6bf bf47 3e24 f89f ed3f
00000050: 2d52 ab65 b12a f23f dc67 f52b c0ef ebbf
00000060: 01cd 20cf 8142 d5bf 2fcd eda1 e3d3 e8bf
00000070: 9617 3360 b980 d03f a5f9 48bf 297c d13f

encoder.bias f8 [16]
0.43687361259474994 0.009460227687388741 -0.5499879265573779 0.12784027594222264 -0.42671818062348 -0.9040443751153079 -0.9062798049759994 -0.27499368435126564
-0.2730613484685752 -1.0176782330819456 -0.27380018842874304 -0.5543314337097921 0.057828216983563316 -0.3239198229788971 -0.6391923853837694 0.04494539939578006
00000000: d91b a5bd bcf5 db3f fe89 3d44 e25f 833f
00000010: fe47 b847 8099 e1bf 7a48 24f6 115d c03f
00000020: e2bb 98c5 594f dbbf 9b18 2878 eeed ecbf
00000030: a9b5 6c81 3e00 edbf 7f4b 391c 7f99 d1bf
00000040: 2259 5e4e d679 d1bf 2302 8ff8 6848 f0bf
00000050: 6b2a bc39 f185 d1bf 09b5 5d46 15bd e1bf
00000060: 7ef6 75f9 a89b ad3f 381c 8e35 1abb d4bf
00000070: a56a e296 4374 e4bf a664 0559 1503 a73f

transformer.encoder.layers.0.self_attn.in_proj_weight f8 [48, 16]
0.05861695922927356 -0.02526853491122495 0.024381058160278746 -0.3396212838260004 0.4658093216576018 -0.057673468074290524 -0.08711252204001223 0.28018238518206884
0.2544992037386802 -0.27669776321757467 -0.5066526940936824 -0.34280644387417186 0.16778653887935382 -0.36575101162277146 -0.05592726516724752 -0.3696313351378368
0.06733511001985455 0.15690773971899896 -0.5042306178319991 0.34947643700048103 -0.40467344903771013 0.24012036565263936 0.3923548166243629 -0.23530666482935333
0.051147399453139106 0.4511697585358507 0.48452896946944957 -0.17216246086164874 0.008063000744122185 0.29026558767340127 -0.24018228822941592 0.4297651322209172
-0.09176637697746313 0.17360966979910392 -0.3225877136014152 0.1653262442610429 0.12362119010073866 0.49398702521706356 -0.17963710715138492 0.06245501405512121
-0.4637924903923581 0.21350613808592525 -0.04851168965111128 -0.13499891308067502 -0.7496589102195668 0.09943210975566479 0.09675025538844065 0.1858244096911308
-0.2984744569913286 0.2334717315805978 0.15286826125832467 0.4015149668279061 0.43191161818254786 0.3646935279287983 -0.06467855994593008 -0.33753641564365316
-0.38092819175931625 0.007441351251991563 0.5246091817186286 0.08329171879528562 -0.4929359281390664 -0.08788743284616869 -0.1809489266678957 0.40685205068008223
-0.3478224819433396 0.30561733994620804 0.17599127524587996 0.02994509346439402 -0.06914529592871972 0.28364722915002044 -0.0010125726048869923 -0.3300005443436605
0.5150013722884158 -0.10602449026035979 0.2097882736661791 0.2652880642734589 0.2503879655273909 -0.14951494280463296 0.062261148345850344 -0.2392881851319698
0.4096344455531263 -0.06322525065610439 -0.08868037568895934 -0.37979859372723745 -0.15027415591642243 -0.42387105251135704 0.34021842136161873 0.4162200488184537
0.3186920307046608 0.12442628370119889 0.18702886313014142 0.2167264902928258 0.6270595588968655 0.1740075787876173 -0.25813193381086724 0.29382044469602564
-0.1549157889177096 0.05669803224302564 0.17601938199140266 0.38580334265132094 0.09266761980981146 0.3703989719136457 -0.08013976851726906 -0.452011976682041
0.6075528994521116 0.2745835250976007 -0.12392036969145233 0.41881203383503246 0.3475956144357894 -0.08869310440245089 -0.360096630694395 -0.19900813638098216
-0.08811517748867376 -0.34899834355885173 -0.19659406894690662 0.29778174792273715 -0.3797938391527684 0.12982973718143193 0.0061180169377380075 -0.23316332169414666
0.648053074157948 0.12679438091628248 -0.25925193506200966 0.20462334082787295 0.5687486337164039 0.24792912214101992 -0.19299650076544067 0.09269356539322278
0.13448329738958426 0.16299361747123248 -0.11111269612533554 0.26471245074456495 0.32934703814177385 0.17492368709379733 0.468684620781013 0.11835349451836562
0.37500705610634516 -0.1796909681659247 0.41205711957366875 0.2655059474244936 0.25766493045987365 0.0772364723710104 -0.09150590242562727 -0.13955571103729023
0.41266506328300584 -0.09898297804076928 -0.008701330042138158 0.41280020175585175 -0.22181650155914054 -0.08694295057687178 0.19468394115443802 -0.04052738464587409
-0.13380075078872877 0.38003611480988186 0.25561887137168976 0.15381519408257532 -0.454491608088749 0.4453159071826186 -0.06053099390831331 -0.15002184066196203
0.13090714653348348 -0.11976778703726483 0.03511016673956449 -0.3292367186134881 -0.10056668813770614 -0.3330479796642328 0.09980174609826026 0.280231259400363
-0.48072802871106773 -0.26445864185468576 -0.03991792268059409 -0.1895401748531005 -0.23266378527053588 0.14092663619325543 0.03220741188366916 -0.44650657093771345
-0.21333432777838598 0.14666410092932727 0.39488972687979834 -0.4523626638373287 -0.049233844701939054 -0.2285323179063258 0.18677361745224513 -0.351463193842623
0.5713562823164179 -0.1819347681633153 -0.43817224070364097 0.20858015923380582 0.5237549351966405 -0.21882948077121547 0.3489711126019922 0.017387943877321736
0.22470393512554462 0.05824440622939872 -0.09684418853677555 0.0572028108848448 -0.041678033101880306 -0.4081039928267896 0.008833001359517253 0.5234452425032565
-0.3736930246563457 0.03420702547843697 0.015917618132969845 -0.04657205585983541 -0.739639758271645 0.008175130249980933 -0.04421181993981476 0.1634640693378874
0.247988703779353 -0.33439692725007947 -0.33115729329040927 0.12816133517170245 -0.3987574203245535 -0.022917931929303262 0.10366532461598983 -0.10574541066873097
-0.36049870552767915 -0.022837928418252183 -0.19797609254314616 -0.07514623683068052 0.1645695789599635 -0.21390571392736665 0.13761513309249304 0.03971930476392744
-0.15146093008389017 -0.11786680704414183 -0.254821357718714 0.028467481802298515 -0.13942632674161617 -0.2076362910853017 -0.42103167692959875 0.12587089757948583
-0.0681845193489768 0.3526178114572369 0.12799718004603852 -0.1285138370350429 -0.2231781722578882 -0.15551740455878543 0.06511421333435004 0.2921802685995763
0.13125002832648885 0.029025252843470968 0.004474637783730205 0.0349203339031849 0.27311344790140646 0.19547902242464252 0.46585805098654437 -0.28753195665084924
0.15043491231814365 0.012689578563826055 0.059388149790474534 -0.3891771104220515 -0.2909820173935168 -0.3451100489395043 0.37765553741878694 -0.46016947672073455
00000000: 7fea c2c5 0a03 ae3f c305 3fac fedf 99bf
00000010: 70d6 c21d 59f7 983f a3b9 c3e8 5abc d5bf
00000020: fc3e ace6 d1cf dd3f 60b3 7376 6087 adbf
00000030: f3e2 3b99 014d b6bf b86c 5119 82ee d13f
00000040: 609a 3a07 b749 d03f 5c55 f988 6ab5 d1bf
00000050: 4c01 f2b5 7f36 e0bf 550c 5370 8af0 d5bf
00000060: d911 9980 077a c53f 9e84 59ee 7668 d7bf
00000070: 5b33 b29d 7fa2 acbf d39a ff2f 0aa8 d7bf
00000080: 0568 68af df3c b13f 748b 4a85 8d15 c43f
00000090: b45e a73f a822 e0bf 5cf0 e86a d25d d63f
000000a0: 934b 4b77 2be6 d9bf 6f73 ca9e 43bc ce3f
000000b0: 101a 7560 571c d93f 2f88 fc5e 871e cebf
000000c0: e675 daef fd2f aa3f b7c3 761f f7df dc3f
000000d0: de7e 75cb 8502 df3f e7f4 7f65 6b09 c6bf
000000e0: 5a6e 07a4 5583 803f e088 8d1d b693 d23f
000000f0: 750b 8310 4bbe cebf ab65 f69c 4581 db3f
00000100: b798 fd53 007e b7bf ba3b 0777 d738 c63f
00000110: 879b 00f0 46a5 d4bf a3c6 220e 6929 c53f
00000120: fe44 9368 a3a5 bf3f cd28 7dc1 7b9d df3f
00000130: d87e 2e46 59fe c6bf df09 ad85 1afa af3f
00000140: 8965 97b2 c6ae ddbf f582 494c 2b54 cb3f
00000150: 3dea 0c31 86d6 a8bf 70a9 56f6 a447 c1bf
00000160: 8a89 d1ae 34fd e7bf 23a7 92fb 6174 b93f
00000170: 5ae3 c5ee 9fc4 b83f 3801 3621 18c9 c73f
00000180: fa05 de9b 341a d3bf a6ee d6d5 66e2 cd3f
00000190: b5b6 59eb 2f91 c33f 2c58 d8d4 6bb2 d93f
000001a0: 9ad0 b6a0 70a4 db3f 5e17 e185 2357 d73f
000001b0: 705b b82b c68e b0bf e581 9956 329a d5bf
000001c0: 76c3 6ea3 2061 d8bf 2de2 3e84 d27a 7e3f
000001d0: e935 d531 99c9 e03f 87dd 4028 9b52 b53f
000001e0: 545d 9822 438c dfbf adbe cd71 ca7f b6bf
000001f0: 1278 249d 5529 c7bf b2d0 fe2e dd09 da3f
00000200: 05a7 303a b942 d6bf e334 0a08 3c8f d33f
00000210: 5bfc c7d1 e186 c63f e5c2 6b34 eda9 9e3f
00000220: cda3 af90 81b3 b1bf 0739 33b5 4627 d23f
00000230: 869a 428e 0997 50bf e990 679a ba1e d5bf
00000240: b7f6 6b28 e47a e03f f249 3ec6 6b24 bbbf
00000250: 3f82 3d97 57da ca3f b7b6 04ca 7afa d03f
00000260: b922 d03e 5b06 d03f 90fa cd3e 4e23 c3bf
00000270: d9e5 e977 b1e0 af3f 2c02 bbc8 fea0 cebf
00000280: 2dcf bd64 7337 da3f 5f70 d9af 872f b0bf
00000290: 0e8e 61d1 c1b3 b6bf 8404 c8c2 9e4e d8bf
000002a0: 3f2a 8cfc 2e3c c3bf de78 100d b420 dbbf
000002b0: 72ac 4f7c 23c6 d53f 9758 676a 59a3 da3f
000002c0: 84d4 5742 7365 d43f 6f6c 42a3 66da bf3f
000002d0: 83a8 46d1 8ff0 c73f ae05 fe91 b1bd cb3f
000002e0: 2e66 4335 df10 e43f 1c11 135e e145 c63f
000002f0: 9d56 71cd 3b85 d0bf 1a66 3744 f4cd d23f
00000300: 9b8e 84d3 47d4 c3bf 5473 7644 8607 ad3f
00000310: 10bf 8e98 cd87 c63f 73fe d780 00b1 d83f
00000320: 9b36 7bac 10b9 b73f 16d5 b5e3 9db4 d73f
00000330: ac03 e434 0a84 b4bf c5fa 4fa4 c3ed dcbf
00000340: d493 37c7 1271 e33f 3f22 14c7 c692 d13f
00000350: 6d0d 22cf 3eb9 bfbf 8f88 1ffd d0cd da3f
00000360: ff05 0fad 013f d63f a50b ca5e 97b4 b6bf
00000370: a2dc 0ebd d20b d7bf 0176 b23e 1979 c9bf
00000380: c457 985d b78e b6bf 5461 fc25 fd55 d6bf
00000390: d275 5b94 fe29 c9bf b820 2b2d db0e d33f
000003a0: 078a 98d1 8a4e d8bf 120b 9fc5 429e c03f
000003b0: 4693 9faa 340f 793f 90cb a6b4 4bd8 cdbf
000003c0: ae94 f2cc d9bc e43f 540e ad5b cc3a c03f
000003d0: eb06 a16d 9597 d0bf 154f 6dfe 1831 ca3f
000003e0: c79c ae55 3033 e23f 7c2c a937 24bc cf3f
000003f0: 42d7 83fd 1bb4 c8bf 0ddd e9f7 c3ba b73f
00000400: bac0 12aa bf36 c13f 5e72 3f90 f9dc c43f
00000410: 0559 07b4 e171 bcbf c6ae b27d 0cf1 d03f
00000420: d59d 7699 0514 d53f 578a ae3d e663 c63f
00000430: 9120 99c7 edfe dd3f b7dd 5224 6a4c be3f
00000440: 4bbe 6f98 1d00 d83f 7161 d417 1d00 c7bf
00000450: 9ac8 29d3 245f da3f 803a 45a8 0cfe d03f
00000460: 6fae 690c 957d d03f 6153 e4fa c4c5 b33f
00000470: ff1c 4f4a ee6c b7bf 2706 7027 f6dc c1bf
00000480: 5d25 c0b9 1a69 da3f e8b8 8bcd f256 b9bf
00000490: 8e94 b3bf 00d2 81bf 9eb5 9489 516b da3f
000004a0: 236f f4ad 7b64 ccbf b36c 58a9 e441 b6bf
000004b0: 1548 2844 67eb c83f 6afa 4a5f 01c0 a4bf
000004c0: dcae 680c 6220 c1bf ec11 1aff 8252 d83f
000004d0: a309 3241 0f5c d03f f634 1b5e 37b0 c33f
000004e0: 4e0c 43f8 6316 ddbf 0e3a 6f4a 0e80 dc3f
000004f0: b30e 761e ebfd aebf c117 aa69 ea33 c3bf
00000500: 5945 96bc 90c1 c03f ed78 7008 1aa9 bebf
00000510: 549c ceb3 f5f9 a13f 1796 c5e2 3612 d5bf
00000520: a454 9e0c bdbe b9bf 3d08 2a79 a850 d5bf
00000530: 9c62 9373 9b8c b93f be40 9c17 4fef d13f
00000540: d769 657e 3fc4 debf d944 7af0 e3ec d0bf
00000550: faf3 df38 1f70 a4bf 11d7 223a da42 c8bf
00000560: 94aa 594a edc7 cdbf d5eb ca4e e209 c23f
00000570: 9054 7569 7d7d a03f f119 e84b 9093 dcbf
00000580: 530e 760c 8a4e cbbf d98d 7ea6 e3c5 c23f
00000590: 2368 9e8f df45 d93f 9a37 c787 82f3 dcbf
000005a0: b3cc b3b1 2d35 a9bf a54d be07 8c40 cdbf
000005b0: d643 5ba9 32e8 c73f 4550 d37a 5f7e d6bf
000005c0: 9738 5df8 8c48 e23f e325 a273 a349 c7bf
000005d0: 5394 f594 030b dcbf 3578 4031 c1b2 ca3f
000005e0: b138 b9b5 99c2 e03f 6911 a8bb 9a02 ccbf
000005f0: 5ef4 f7ee 8a55 d63f 51ed 3029 25ce 913f
00000600: b7c7 523a 19c3 cc3f fc43 dcf7 35d2 ad3f
00000610: 47b7 92de c7ca b8bf 80b7 fad3 af49 ad3f
00000620: 6bb3 44ba d256 a5bf 95b7 a335 601e dabf
00000630: 7e9a b75f 0917 823f 7a8b b93c 10c0 e03f
00000640: e01b e925 96ea d7bf ba57 724f 9583 a13f
00000650: 36cb 3e45 b54c 903f 16a5 a6e1 4ad8 a7bf
00000660: 5023 93ff 20ab e7bf b37f 8368 1fbe 803f
00000670: 27ee 7981 eea2 a6bf 754b f0ff 63ec c43f
00000680: 943f 4106 18be cf3f c301 9b5e c266 d5bf
00000690: 75e8 205c ae31 d5bf c34a 9633 9767 c03f
000006a0: be33 d5d7 3d85 d9bf 2464 8360 cc77 97bf
000006b0: 5574 f48a cf89 ba3f ce37 8698 2112 bbbf
000006c0: 4878 9f29 6912 d7bf a6bc a86e d362 97bf
000006d0: 5f6c 6ed5 4757 c9bf 3df1 9aa5 c83c b3bf
000006e0: 1857 c6af 9d10 c53f e36e df2e 4361 cbbf
000006f0: a791 0868 5f9d c13f d93b f6b5 1656 a43f
00000700: a480 aa5e 1263 c3bf 35dd 89e1 842c bebf
00000710: 3159 6e3d fe4e d0bf fe83 5c5d 9426 9d3f
00000720: 5d40 c7cc b8d8 c1bf 2549 d673 d393 cabf
00000730: d087 bfd8 2ef2 dabf 929f 4f9e 891c c03f
00000740: 8584 b268 8a74 b1bf 108a 0c4c 4a91 d63f
00000750: 2b94 232b 3662 c03f df11 9333 2473 c0bf
00000760: edab 8333 1a91 ccbf e6f6 448b fee7 c3bf
00000770: dd9a c638 53ab b03f bdfc 8ade 14b3 d23f
00000780: b273 a109 cdcc c03f 9223 e2be cbb8 9d3f
00000790: 4bc1 146f ff53 723f 9abe 28f8 13e1 a13f
000007a0: d665 b5d3 b07a d13f 0717 2fe4 7405 c93f
000007b0: 4b31 6449 9ed0 dd3f c9b2 976f ec66 d2bf
000007c0: 88a1 4a82 7341 c33f d407 7467 fefc 893f
000007d0: 8a75 3da2 1f68 ae3f d653 671c 47e8 d8bf
000007e0: f678 1b0a 739f d2bf 15d5 6d75 4816 d6bf
000007f0: d57c 9721 822b d83f e182 48ad 6a73 ddbf

transformer.encoder.layers.0.self_attn.in_proj_bias f8 [48]
-0.1886545954656691 0.12944260895775758 0.08947832076909834 0.16448830405295015 -0.010894513417287694 0.14745728365724328 0.10329669994644632 0.0894086507332562
0.007358610288391056 0.03705266130927747 -0.20437516305415743 -0.12197455791709809 0.035984240008004605 0.05958415868666141 0.10929646110015301 -0.2446923041631507
-6.255344217123235e-13 1.0432694988538722e-12 -2.115138091247928e-13 -9.613744064412737e-14 3.652457903536201e-14 4.1792984427824977e-14 -4.0214841627422733e-13 -4.1088604748478066e-13
-9.680813203624345e-14 9.746827783146133e-15 3.20462232517716e-13 2.5477979360352353e-13 -2.66849006357567e-13 -1.0619986613229599e-13 -1.1526692334213574e-13 -4.0517810580614885e-13
0.0049475211618182765 0.010604127881171377 0.050231286351142296 0.006397821712080342 -0.009767345462977667 0.00455307758398974 0.008749471000408177 0.010025185810962024
-0.048277169354734674 0.08825951128600942 -0.054594323337599455 -0.059152793245372336 -0.006852420872258415 0.026673866277997844 -0.02704897444299966 0.031380914215321694
00000000: b8f0 e172 d525 c8bf af5b 174e 9391 c03f
00000010: 907e 671d 0de8 b63f b9af 3de7 f30d c53f
00000020: dd27 aad6 dc4f 86bf 93b3 6e59 e1df c23f
00000030: 9901 0e0c a771 ba3f 77fa e03e 7ce3 b63f
00000040: a8ba 85e8 0f24 7e3f 6731 1b01 91f8 a23f
00000050: be54 b720 f728 cabf bfaf 3281 b939 bfbf
00000060: 81f7 02bc 866c a23f 1b78 d699 d081 ae3f
00000070: b062 fe55 dafa bb3f cc57 fbd1 1352 cfbf
00000080: 7b37 5f2c 5002 66bd c6cd 1fd7 775a 723d
00000090: 4e00 708d 96c4 4dbd bd5a 72c3 6e0f 3bbd
000000a0: 03cf ac1f bf8f 243d 7819 c3f9 0087 273d
000000b0: e7c2 893a 764c 5cbd 40f0 ba70 dde9 5cbd
000000c0: e046 ffd5 c23f 3bbd 850f b3e6 a9f2 053d
000000d0: e080 7732 ef8c 563d b0d8 7469 b4ed 513d
000000e0: f30a e7d4 1fc7 52bd 28f3 4ec0 81e4 3dbd
000000f0: 8eec afb7 ed38 40bd 7ee6 9c34 0a83 5cbd
00000100: 6f64 6119 da43 743f 402c 9ef3 9db7 853f
00000110: 2474 3a48 eab7 a93f e6eb 4d30 9a34 7a3f
00000120: 9064 a8ea e600 84bf 2735 1c75 3fa6 723f
00000130: 9db3 6e1e 3eeb 813f 4724 8ea9 1588 843f
00000140: ad48 0bff c8b7 a8bf 62cb 88e2 2c98 b63f
00000150: a981 9082 c9f3 abbf db6e e960 4649 aebf
00000160: cf68 b7b8 4811 7cbf 629a 49dd 6450 9b3f
00000170: d6f9 7df2 b9b2 9bbf 89f9 8bc0 2811 a03f

transformer.encoder.layers.0.self_attn.out_proj.weight f8 [16, 16]
-0.061998135157079505 0.16430107185054935 -0.32037651366865794 0.15768644061033296 0.20611659611027283 0.25989185831816414 -0.2122049310154853 0.1687978942928643
-0.16318874727728117 0.41159464060236184 -0.025175688524780665 -0.01506592555454741 -0.3735712800471945 0.2743085922696852 -0.2638158786706288 -0.10283846127741543
-0.3050455545574783 -0.11848549827223327 0.1659060162068801 0.032541653282221986 -0.23675618781506824 -0.09262653611315597 -0.07677815069252175 -0.39551917798657066
0.1194123990600034 -0.3630733889117571 -0.14440620901547152 -0.38267833841919036 -0.4433403419467319 0.3682602283324131 0.20933295895357154 -0.1348072223042598
0.05554898934869152 -0.4229346760804624 -0.24142427378573414 0.05815851662628097 0.22493622548024655 -0.3279451235909663 -0.3737340698345669 -0.3341667222916888
-0.006233700517739882 0.3349525524838148 -0.005516075177434942 0.16759675977877897 0.5058704375568087 0.22446828028886437 0.551817049319292 -0.35578997452870037
0.4309644262985781 -0.27587522738670994 0.07281371168112112 0.021203030714265526 -0.32829256947572727 -0.2419618388183551 0.1975105752458029 0.11787337046144454
0.31596137882087744 -0.21652951953714084 -0.2000471510021261 0.07784301645109566 -0.008797331699433156 0.1819334737292156 -0.4156537551750068 -0.1371659768078574
-0.3387670448334026 -0.21534119664282989 0.27852699563111466 -0.3793786198554444 -0.5443015060574339 -0.21797258168559824 -0.3019549560379604 -0.3788078478491712
0.03898850048733918 0.2705265327635226 -0.3797481081336459 -0.35140169901895846 0.3433134053763159 -0.08542499207254262 -0.022733486291466518 0.5000286166531867
0.33350718936167095 0.2063724356295428 -0.18492730372947178 -0.3144163435276704 -0.09461538975869617 0.34135057408377684 -0.2019313654945802 -0.29455402712185763
0.15277564327320106 -0.10849341694814386 0.27892770247855364 0.03108096162117278 0.3147999267499337 0.3376361137541936 0.33433594761778485 -0.18536664637450948
-0.4840281287345534 0.38202485882987464 -0.24084888351088726 -0.42348470195294136 -0.13689584311786987 -0.0498152301853083 0.39231104579572085 -0.29226966510995545
0.11250881432544362 -0.05627601471211517 -0.010092708225598037 -0.2563738113535367 -0.2567882747999839 -0.24543689730036616 -0.17342055941547407 -0.237223023043496
0.38159625753695564 0.30438454608727444 0.3429720239835737 0.139272374398918 0.3437365652595764 -0.3382914596735663 0.20258338629701497 0.17970193667851964
-0.2037244775323509 0.10940848475097062 0.14292058863296603 -0.12153795754048272 -0.08013941205848842 0.06325749006744909 -0.06947541315203401 0.3067800452783139
0.25064510784317395 -0.0585017130808458 -0.05389977056288902 -0.42951423711436526 0.29726099823260854 0.22525964407567942 0.36730196289917055 -0.19713866516557674
0.03499009322822471 0.15244895624649327 -0.3285947916200608 -0.08906555231803288 -0.14777578549206305 0.21466268686255863 0.007876677971089995 0.1953368950152423
0.13030059933656166 0.36805137758414025 -0.3161421426608621 -0.11675632982736245 0.5736757984042685 0.11080458285982524 -0.249804968638571 0.26657028598256427
-0.3110167509252325 -0.2943433622179922 0.19256417871653303 -0.3279090268765467 -0.06605654364952075 -0.0767688145238282 0.7025287540646995 0.04573398777846068
-0.22250170557816498 0.06592520695910936 0.2171038347484335 -0.15315549843803297 0.09430474589975668 -0.08370712521415785 0.29351664523314624 0.23860549198834877
0.1439861990510627 0.20970477444449748 0.1134328255730886 0.11550941443093679 0.36432358525734165 0.30858880588186566 0.2510579023889682 -0.16301583753743262
0.10203314508532965 0.18419790916559858 -0.046569883563051535 -0.4817515044786256 -0.03185739328660368 -0.27199450604842046 0.5055144510016152 0.054419441615585123
-0.24108686771104176 -0.17731275533354382 -0.0893524197471874 0.17114354583361235 -0.3792146589920912 -0.2540438117330166 -0.005772311086646194 -0.30332669399132894
0.3431770456042728 0.2591891158776647 0.25129228850104335 -0.30143269171459436 0.43031118926841505 0.08060158442924163 -0.15069309860067212 -0.3528923367220792
-0.06543206974678317 -0.18826599378627634 0.25802790695703687 0.11272934677378883 0.41273760612032506 -0.10555673022966573 0.15548407503495829 0.013328049402448987
-0.14467348792543058 0.3419250416065242 -0.06412380938580146 0.17821206674559328 -0.13009854742573723 -0.33223878488927927 0.0337301585912147 0.256174861469499
-0.3093809361444586 -0.04373076249932357 -0.27565908964711666 0.12960279246222806 -0.24037086082236722 0.39821139136043265 -0.12397890532555361 0.46121835439304426
0.09751841022951531 0.02781895986302521 -0.1452347960215757 0.08700004674679632 -0.43877235108528256 -0.30294586090956016 -0.4197501737866502 0.26040534399050863
-0.30273117966583896 -0.038640000160930194 0.18030124460403704 0.09900174741141915 0.0697175720902176 0.13062257721095777 -0.07002741295893729 0.4578133303956102
-0.12512465205762238 0.5387479008425263 0.0443666781885789 -0.2944080370322882 -0.20486654508446506 0.25962091616030103 -0.18975178039018692 0.30119951444923365
0.22562226097916122 0.3200616924181421 -0.3195206957451574 0.3741191302143361 0.17707833203974058 0.3829303158694126 0.30007433104834386 -0.38480426627904674
00000000: 1d46 d335 38be afbf 99de 2549 d107 c53f
00000010: aa41 277e 0c81 d4bf dbd5 b8bc 112f c43f
00000020: 5e6d ba53 0762 ca3f 9748 fe75 11a2 d03f
00000030: 0b77 61fb 8729 cbbf e08d cf5d 2b9b c53f
00000040: ecc8 506e 5ee3 c4bf 2825 260c 9157 da3f
00000050: 780d 79db a7c7 99bf ad75 534c e2da 8ebf
00000060: 81c3 a183 97e8 d7bf 9ed8 33a0 458e d13f
00000070: 1f93 c3fe 5be2 d0bf 351c f513 9f53 babf
00000080: d654 27ca dd85 d3bf 5527 21cc 1055 bebf
00000090: a6ba e888 683c c53f 5ab7 35b1 4ca9 a03f
000000a0: 044b e5d9 064e cebf 5007 5967 5fb6 b7bf
000000b0: cc90 459e bba7 b3bf f228 99ab 2f50 d9bf
000000c0: 041a b39c cf91 be3f f220 db2a 983c d7bf
000000d0: fcc7 8714 e77b c2bf 8979 1949 cd7d d8bf
000000e0: a827 6a2b b05f dcbf b6bb 4659 9391 d73f
000000f0: a11a 5722 6ccb ca3f e0db 87f1 5c41 c1bf
00000100: d92e 28c9 ea70 ac3f 4009 879a 5c11 dbbf
00000110: 4765 2f98 fde6 cebf 7999 c9fd f3c6 ad3f
00000120: a2c9 0fd2 b5ca cc3f 1c2d 2d8b 0dfd d4bf
00000130: dac9 d54d 42eb d7bf 57e0 e9d1 fc62 d5bf
00000140: 9a40 b53d 8288 79bf 234d a8d4 dc6f d53f
00000150: a66b d427 0698 76bf 9c2c 1585 cf73 c53f
00000160: 033b 2a33 1730 e03f 8d3e 6a69 60bb cc3f
00000170: 5473 863a 7ca8 e13f b51b 3650 43c5 d6bf
00000180: 6046 2cd1 eb94 db3f 47c2 d991 f0a7 d1bf
00000190: fdeb 5e5e eba3 b23f dab4 f94d 3fb6 953f
000001a0: 70c1 5ad6 be02 d5bf 006c 4d04 9bf8 cebf
000001b0: 52be a5ca 0648 c93f a181 33ff f22c be3f
000001c0: 4f6c 3513 b638 d43f 20eb 8342 3db7 cbbf
000001d0: 4426 9b21 259b c9bf 5d23 e119 85ed b33f
000001e0: e86e 87df 5504 82bf da79 db97 9849 c73f
000001f0: 70eb 3b35 129a dabf 05bf 419c a78e c1bf
00000200: f068 a1f8 5bae d5bf abfe 87e2 4c90 cbbf
00000210: 3f7b 52e4 62d3 d13f 022b 4543 bd47 d8bf
00000220: 66c4 f5fd ea6a e1bf aad5 e18a 86e6 cbbf
00000230: 0415 43e1 3a53 d3bf ccbd 7e45 633e d8bf
00000240: 64c2 06fd 4cf6 a33f c3da ba84 4e50 d13f
00000250: 6ab8 4902 cb4d d8bf 92e5 428d 5d7d d6bf
00000260: a1a8 17ca d8f8 d53f e86e 368b 69de b5bf
00000270: 396a 9570 7247 97bf a8dd 7203 3c00 e03f
00000280: 2b83 d289 2e58 d53f 7591 e976 696a ca3f
00000290: bde8 d3a8 b2ab c7bf 29df 31ba 651f d4bf
000002a0: a53e b6d4 b638 b8bf 0948 0a14 b0d8 d53f
000002b0: f7fc 6a11 e3d8 c9bf b42e 5922 f9d9 d2bf
000002c0: e1eb bdfb 268e c33f 49a2 9f7d 39c6 bbbf
000002d0: eb00 0694 f3d9 d13f 9bc1 c306 b0d3 9f3f
000002e0: 7325 8b97 ae25 d43f 8375 a180 d49b d53f
000002f0: c650 399a c265 d53f bb4e f921 18ba c7bf
00000300: 3593 d01d 51fa debf a7bb bb64 1873 d83f
00000310: 3f8b fade 22d4 cebf d1a0 4f94 5f1a dbbf
00000320: 0526 9390 cd85 c1bf 3e2b fac0 6181 a9bf
00000330: e856 e3c9 9f1b d93f fca5 50d3 8bb4 d2bf
00000340: c31d 0aae 60cd bc3f 4eba 79b5 35d0 acbf
00000350: 3b5d 0e5e 7cab 84bf b71d d4b3 6d68 d0bf
00000360: c0c7 9016 386f d0bf 1e82 91eb 796a cfbf
00000370: c05d 9217 a532 c6bf b93f eaf2 525d cebf
00000380: 056c 99b5 126c d83f cb91 b651 097b d33f
00000390: bdf3 9cee 40f3 d53f 9aca a35a add3 c13f
000003a0: 0aac 8ea6 c7ff d53f b919 f438 91a6 d5bf
000003b0: 0fe7 6d9d 40ee c93f 0cf3 871a 7900 c73f
000003c0: 84b4 32c8 a413 cabf 9e0b e9c7 3102 bc3f
000003d0: ae44 0dcb 384b c23f 12e8 db90 1c1d bfbf
000003e0: b170 e939 0484 b4bf c915 1193 a431 b03f
000003f0: fa33 5d03 24c9 b1bf d949 62c5 48a2 d33f
00000400: 50af 45c7 910a d03f 1a69 e2c0 eff3 adbf
00000410: c7b5 a82f c098 abbf 49a5 6448 297d dbbf
00000420: 7643 72fe 5206 d33f 43f2 34da 4ed5 cc3f
00000430: 9125 9a17 e081 d73f 43e5 d4fb d63b c9bf
00000440: 77cc 32b4 38ea a13f c1aa b188 7283 c33f
00000450: de38 e972 b207 d5bf 05f8 6702 00cd b6bf
00000460: ac20 ea22 51ea c2bf c482 df21 117a cb3f
00000470: 26af 4bd2 a521 803f 9775 e5a3 cc00 c93f
00000480: 9b5d 66a6 b0ad c03f 2f2f 7e5d 278e d73f
00000490: c368 e740 ac3b d4bf 84a2 352a bee3 bdbf
000004a0: 8fe5 1459 8d5b e23f 433f a16b b05d bc3f
000004b0: f629 57f5 9bf9 cfbf cc59 18d1 7c0f d13f
000004c0: eed9 6ecd b2e7 d3bf 6257 a18a 85d6 d2bf
000004d0: 5efb fb68 f1a5 c83f 77de 9f24 76fc d4bf
000004e0: 4957 a9e6 14e9 b0bf 3687 bbfb 1ea7 b3bf
000004f0: efa3 e694 1d7b e63f 4bf7 a5fb 716a a73f
00000500: 9d97 6196 ef7a ccbf 7c14 df6f 79e0 b03f
00000510: b754 0af7 0eca cb3f 1f39 7f70 999a c3bf
00000520: 583e 7f17 5b24 b83f 0cab 3c85 d46d b5bf
00000530: 6ee9 060a fac8 d23f 8b33 5ef0 9f8a ce3f
00000540: e0f4 ffc7 236e c23f 26ef 0626 9bd7 ca3f
00000550: 0519 2104 ef09 bd3f 7269 5c65 0692 bd3f
00000560: 3cdf f5de 1351 d73f d227 4b43 ebbf d33f
00000570: 3e6e 0a2a 5511 d03f 7706 7af5 b3dd c4bf
00000580: 26e0 3f1d d81e ba3f 32cd ed0d cc93 c73f
00000590: c97f c3fd 01d8 a7bf 2835 2243 04d5 debf
000005a0: f681 9abc 9c4f a0bf 62db 0aa5 5b68 d1bf
000005b0: 76a2 56a4 2c2d e03f 74d3 0274 dddc ab3f
000005c0: 3e31 283a efdb cebf bf1d a932 2fb2 c6bf
000005d0: 55f4 a1d8 ccdf b6bf 906f 231e 08e8 c53f
000005e0: 8f3a a28f 0d45 d8bf 483f c9f9 4042 d0bf
000005f0: 6286 6ef5 b4a4 77bf 6694 ac5d b469 d3bf
00000600: 9bed e6da 9cf6 d53f 4c1e 0bf2 8d96 d03f
00000610: a855 3640 2c15 d03f f300 3758 ac4a d3bf
00000620: 74af 40f1 378a db3f c31e 2131 4ea2 b43f
00000630: 6384 1c55 e949 c3bf 0ebe 4ebd c995 d6bf
00000640: d009 acf7 27c0 b0bf 5268 219f 1919 c8bf
00000650: d17d 757b 8783 d03f ad5f b199 d4db bc3f
00000660: 9a6e 07fe 4a6a da3f 2988 3510 c405 bbbf
00000670: 6377 a9f4 e6e6 c33f 6986 6c82 bc4b 8b3f
00000680: f975 9e2d a984 c2bf 9f8a d891 19e2 d53f
00000690: 03fb 3400 6b6a b0bf df62 362b a7cf c63f
000006a0: c8ae 39b7 11a7 c0bf a2fb e376 6643 d5bf
000006b0: c889 1350 1445 a13f b167 043f 2b65 d03f
000006c0: 9cc3 afb2 e5cc d3bf a908 87e5 e063 a6bf
000006d0: b349 b805 66a4 d1bf d03a 8c05 d396 c03f
000006e0: 135c 12ed 78c4 cebf ed69 b2a1 4b7c d93f
000006f0: d462 c4df 14bd bfbf 4eb7 1bfd 9984 dd3f
00000700: 0595 b16e f7f6 b83f c81e 48cb 927c 9c3f
00000710: f3b2 93c5 0d97 c2bf 7a28 8793 a245 b63f
00000720: 6c38 93a0 d814 dcbf 052b 4409 7763 d3bf
00000730: cbda 39d5 2fdd dabf b224 092d 7baa d03f
00000740: dc3b 0999 f25f d3bf 246b 0442 9fc8 a3bf
00000750: cf4f 8076 1c14 c73f 74ff 60b3 2d58 b93f
00000760: 7b81 15c4 02d9 b13f 1ac2 9e98 3db8 c03f
00000770: 5d6c 7b08 51ed b1bf 0f35 6e48 d04c dd3f
00000780: 1964 41a8 1504 c0bf 9d08 dd3c 6c3d e13f
00000790: d546 b4af 3ab7 a63f 51ed aece 94d7 d2bf
000007a0: 2e55 9723 1139 cabf fa06 110c a19d d03f
000007b0: b01a 914d c949 c8bf bc5a 0854 da46 d33f
000007c0: 7ad9 13b4 30e1 cc3f 6cda 6809 e47b d43f
000007d0: 32b8 a7ee 0673 d4bf c906 455d 91f1 d73f
000007e0: e56f 78b6 80aa c63f c496 d327 ee81 d83f
000007f0: 9130 8ef7 6a34 d33f f0e7 c112 a2a0 d8bf

transformer.encoder.layers.0.self_attn.out_proj.bias f8 [16]
-0.003118788618559834 0.03970091197724684 0.009948912412656127 0.015378268520349887 0.07080813898047172 -0.039299762433038836 -0.024077465613561593 -0.0006893914857819572
0.040553450863145046 -0.04145679686196805 0.003329180889421522 0.0033690200607960643 -0.01694942607038334 0.03396020990064173 0.020683389021580175 -0.015169082303630448
00000000: d3d2 d5e3 928c 69bf b796 208d ad53 a43f
00000010: eb85 8b6b 1860 843f 977d e942 a47e 8f3f
00000020: 2c35 3671 7b20 b23f d7eb c734 191f a4bf
00000030: 7bf3 855d c3a7 98bf 1f80 5af1 0897 46bf
00000040: f8f0 6402 6cc3 a43f b529 7045 d339 a5bf
00000050: 7c6f 5c61 cc45 6b3f c3c9 61df 5899 6b3f
00000060: 8c10 a2ba 305b 91bf 3ef0 c68d 3b63 a13f
00000070: df2a acbd 062e 953f 3c43 3cc3 f710 8fbf

transformer.encoder.layers.0.linear1.weight f8 [128, 16]
0.0584682066203629 -0.006719888343660925 -0.1079129662472327 -0.06844163276732851 -0.11643482381833226 -0.033852278560903976 -0.187193294581076 -0.03145856237127327
0.1434524404936728 -0.015691393176143625 -0.03855209540057177 -0.06989618218099043 0.17338019034412058 -0.3034666218679711 0.06634140086055258 -0.1156193988803982
0.08386545801125159 -0.15927883083207797 -0.1926384655971427 -0.10820724522180604 -0.24094929857646824 0.03233105582748413 -0.14291010417347186 0.29629333343684083
-0.1270848823738296 0.1300802117348051 0.008901529672589495 -0.1591528837775915 -0.02261331153664645 -0.1630322310625318 0.06876955170460931 0.06540072828279449
0.07874651754412022 0.1383768743935302 0.04442434485877252 -0.21684856795878932 0.2475546953081261 -0.04677676075950291 -0.15157158373525217 0.14319029516107531
0.05470547233365525 0.07285068874092623 0.0013208826272294869 0.0961778290018808 0.005505614816264028 -0.11832558245899932 0.1265955721218757 -0.06844527473778497
0.1347214580806838 0.16689533489047084 0.056226675259570286 0.0978159156965256 -0.03683282391736144 -0.1875385536064793 0.011432199028301872 -0.11269457998512593
0.017134691886326277 -0.14923934813975198 0.13234237602669546 -0.18257126333187187 -0.04442031045762556 -0.01070496580618786 0.036356671422958696 0.06999628266572416
-0.07775325950299551 0.155547181509747 0.13431201728984207 0.2575526085763136 0.013755953578290766 0.039373862428895685 -0.1559724709852165 -0.4454848430559643
0.19561153396015193 0.09244324676185921 -0.23738268468065887 0.05592347832202722 -0.04890775286883881 -0.01831264306220867 -0.08007748629807539 -0.022049085166997304
0.07660381840908259 0.10808936086714017 0.13597853961137266 0.06862025499347703 0.009687568422185485 -0.045485748662572816 -0.003419164357278718 0.02485783277022286
0.025045295271038406 -0.062599375087847 -0.22663020631576547 0.06874909332342491 -0.00730077522146305 -0.17446705812045 -0.05401996807782241 -0.02819174971824829
-0.19260089142877762 0.10122082873493064 -0.05783020384815375 0.024846229502640132 -0.1925437699631298 -0.14737923816532392 0.19722650191233895 0.07104781210512473
-0.2696361600781382 -0.031268406896889124 0.04877783280971641 -0.21691910588334984 0.054870247513247754 -0.03988732740885453 -0.06305617261262329 -0.132685931426813
0.13628987387185876 -0.10429822634074055 0.038217267940666544 0.0827295572281223 -0.17229020008693885 -0.08634818698879489 0.06276455231778817 0.004161733757286003
-0.05777462230981054 0.017064038374460713 -0.13502608757678344 0.16191504607465157 0.059536054510149386 0.13145239619478946 -0.15670428985329912 0.05553028703697675
-0.08225651611476595 -0.05863774234014334 0.11495725176430434 0.11781346097428755 -0.17962951044243985 0.21077798079723856 -0.09053967344232323 -0.15699036273980366
0.3107495996372048 0.15517842170143722 -0.11523377480244053 -0.010148620591100518 0.0728183070051814 -0.0013589965064546021 0.010633884058946774 0.0449460071964273
0.14834030797200776 -0.09915320350284439 0.11181803242874422 0.03292526566564011 -0.177135693053857 -0.14016040982985323 0.24141080877649712 -0.03054844526519292
-0.19715571046757946 0.10016367590827378 0.03340724773549813 -0.007991357620263973 -0.05641511488513791 -0.06644200635689863 -0.06044377785266941 -0.08326863294760231
0.16475380367113346 -0.07356968778482707 -0.12859723926193026 0.1417030593529344 -0.005222864339266818 0.19051923014640004 0.07382249529703587 0.02782732185528219
-0.23282583285932607 0.09785488527227043 0.17786653669949803 0.06822651740402877 -0.04538879733805165 -0.15919556776387217 0.09292251150957002 -0.06362197692251091
-0.18730782215367053 -0.11833359301282499 0.004247324377178979 -0.05724120030309888 -0.1402107139028777 -0.20961721153600435 -0.03658920692730008 -0.09012378154438495
0.3115540023485997 -0.0951066477223036 -0.12267489427043235 -0.08624840530689312 0.08018457862888012 -0.2328306234781512 -0.07279900031080812 -0.15607098476396783
0.01049462835879071 0.08314276347892972 -0.010043693621159784 -0.03907893365601108 0.18140400232810563 -0.07069313650449018 -0.22844783474278044 -0.08293203319610708
0.2324217276816757 0.12309899985502704 -0.07334827930116233 -0.06822396744095474 0.06139641075235752 -0.0267608221021454 0.14414499438792724 0.050368011160695454
0.05487480648685465 -0.11731915552661634 -0.12753631410242303 0.019748758962421092 -0.09848149489122118 -0.1726866172527334 0.0015395634958989218 -0.24191180282404776
0.49236498659630545 -0.4027881434085593 -0.4642578286616662 0.08860239176323106 -0.021835807510640837 0.06620495389821561 0.04879878661204802 -0.10994906347207814
-0.04882098101162118 -0.23701273785387056 0.21906271633787328 0.025191865913362515 -0.08020431421397409 -0.0013103605500904027 -0.0076499142598286845 0.2418201544782242
-0.25379657467103384 -0.1777024030338384 0.37062123247252554 -0.25329675863233 0.11541818401102454 -0.2781397705173376 0.12323460690363308 -0.13068624115042027
-0.03703034113883275 -0.13450846527589808 -0.18407770630605075 -0.029716128922753722 -0.0958876827290631 -0.11315937105065536 -0.037875979125113236 -0.11667540488683423
0.248493873336778 -0.44646519596528567 -0.3535677670047516 0.20086246160248405 -0.07962161217817236 0.1648970421724008 0.004094974203793335 -0.11961449800369903
00000000: f198 9476 8bef ad3f ae62 b34a 5086 7bbf
00000010: a2a1 d824 2fa0 bbbf 10a7 6b0e 6485 b1bf
00000020: 684e 6a30 acce bdbf 2cda a0fa 1555 a1bf
00000030: abcb 202b f3f5 c7bf baa9 2031 561b a0bf
00000040: a9d1 394a a65c c23f 18b3 1492 6711 90bf
00000050: db1d e0a9 19bd a3bf 0d26 9558 b7e4 b1bf
00000060: 39b0 a673 5231 c63f 276f 1644 ff6b d3bf
00000070: 5520 1103 c0fb b03f 2178 f9a0 3b99 bdbf
00000080: 8a21 6ce7 3478 b53f d537 afac 3f63 c4bf
00000090: 207e d892 60a8 c8bf 19fc 6a53 78b3 bbbf
000000a0: 26a6 b036 6dd7 cebf 0730 d936 b28d a03f
000000b0: b5b4 d8d7 e04a c2bf 5a94 4850 78f6 d23f
000000c0: 1249 ce42 5144 c0bf bcfd a0e7 77a6 c03f
000000d0: bb0a a016 f73a 823f a7c5 7127 1f5f c4bf
000000e0: 7941 04a6 f127 97bf 37c2 4d7a 3dde c4bf
000000f0: 2929 889f e19a b13f 85f3 1b25 1abe b03f
00000100: 81a0 8655 bb28 b43f 247e 055b 55b6 c13f
00000110: 4b1a a1a8 c9be a63f aaa1 c8a1 b1c1 cbbf
00000120: 2bea 284c dfaf cf3f 058a 59a3 1ff3 a7bf
00000130: adaa 9299 b266 c3bf d123 6941 0f54 c23f
00000140: 18aa 2b0d 5b02 ac3f 7623 a2bd 57a6 b23f
00000150: 843b e4eb 2ea4 553f dad1 2936 1c9f b83f
00000160: 299c 4839 0e8d 763f a409 f1da 954a bebf
00000170: 917a 0aa1 4834 c03f 7a84 9028 a185 b1bf
00000180: 0c53 4380 8d3e c13f 35d2 9a8a d35c c53f
00000190: 542a ce26 bec9 ac3f 09e3 f1be 760a b93f
000001a0: 02ee 497c c0db a2bf f04e 3d69 4301 c8bf
000001b0: d456 95c7 c369 873f 7bfa 784f 8dd9 bcbf
000001c0: d27f 1db5 c18b 913f 16af c463 461a c3bf
000001d0: 7e6d 7450 98f0 c03f d792 99c2 7e5e c7bf
000001e0: 8728 6349 42be a6bf c6c8 5630 7cec 85bf
000001f0: 8b8c 8175 579d a23f 340f e4c0 46eb b13f
00000200: 4107 b93a a3e7 b3bf 1ce0 c854 f8e8 c33f
00000210: c31d dcdc 2231 c13f a56c b5ef bd7b d03f
00000220: 11d2 f3d5 142c 8c3f f90b e696 cf28 a43f
00000230: a499 faea e7f6 c3bf f37f f2db d282 dcbf
00000240: bb24 8a7a cc09 c93f bf07 9451 5caa b73f
00000250: ba88 ab49 8e62 cebf fa7e f18c 00a2 ac3f
00000260: d95d 2fde 6f0a a9bf f7d6 38ac 8cc0 92bf
00000270: a5ce cb48 f57f b4bf 59bf cb0e 0994 96bf
00000280: d8d3 d0ce 4e9c b33f f94b f88d beab bb3f
00000290: 115a 4baa be67 c13f 3948 0ad7 1891 b13f
000002a0: 5e8c 686c 13d7 833f df30 e175 e849 a7bf
000002b0: d55d 03e3 8102 6cbf 72af 30eb 5474 993f
000002c0: 275c 6e50 79a5 993f 5b99 c03c 8306 b0bf
000002d0: a0ba 34f6 3702 cdbf be29 7463 8a99 b13f
000002e0: be70 fcec 6ae7 7dbf 2aa7 6dc2 ef54 c6bf
000002f0: e34e 7358 81a8 abbf 5242 3a4c 4cde 9cbf
00000300: 62fb ee60 25a7 c8bf e72d 17b5 9be9 b93f
00000310: 2267 7fa4 eb9b adbf fb2c 923c 4a71 993f
00000320: ef24 8535 46a5 c8bf 63c5 03a8 52dd c2bf
00000330: e119 cfcf b73e c93f 0ca1 717d 3030 b23f
00000340: 2ab2 5606 b841 d1bf 5d52 0aa2 6902 a0bf
00000350: 66fe 5f79 68f9 a83f 1cc2 d258 01c4 cbbf
00000360: af86 2ffd f317 ac3f 47e3 7d9d 1c6c a4bf
00000370: 3fa1 2e07 7324 b0bf f208 0f44 dafb c0bf
00000380: d81d 8753 f271 c13f ad0e 2adf 49b3 babf
00000390: 0830 e5b7 3691 a33f 9b14 b5a6 c32d b53f
000003a0: b0b8 65f3 9a0d c6bf 698e 2f2f ea1a b6bf
000003b0: 2d90 8d73 5611 b03f 7580 1de6 e40b 713f
000003c0: bd01 b8a2 a294 adbf 4724 063b 3c79 913f
000003d0: 0fe3 1feb 8848 c1bf ac7b cfd9 a1b9 c43f
000003e0: 4aa1 1b7e 827b ae3f 2598 519f 6ed3 c03f
000003f0: a10a 08dc e20e c4bf 26ca 853d 776e ac3f
00000400: 7287 9856 c30e b5bf 960a 5323 c405 aebf
00000410: 9506 c4a4 d66d bd3f 5ec3 e9e1 0529 be3f
00000420: 2696 5f8c 19fe c6bf e9da 1edb c5fa ca3f
00000430: 55e0 6ca8 9b2d b7bf d697 e09c 4218 c4bf
00000440: f9f5 eb49 52e3 d33f 3354 20f3 e2dc c33f
00000450: edcd 2bee f57f bdbf 6b6a 4ecc ccc8 84bf
00000460: d528 2377 38a4 b23f 020b 3d63 0b44 56bf
00000470: e0de 19c2 37c7 853f b426 fdbd 2903 a73f
00000480: 368c b5b1 d0fc c23f 0f9e 56b6 1a62 b9bf
00000490: 2870 6248 1ba0 bc3f 6cf8 7d96 94db a03f
000004a0: 2870 4fe4 61ac c6bf f8e2 34bc c6f0 c1bf
000004b0: 9448 4ca4 8ce6 ce3f b53b 6e75 1748 9fbf
000004c0: 62c5 56f8 653c c9bf 0fef 45a0 53a4 b93f
000004d0: e758 f238 c11a a13f 9a92 09dd c55d 80bf
000004e0: 5a0e dd22 71e2 acbf 4d2d 62e4 5702 b1bf
000004f0: 6070 3fa2 7cf2 aebf 86e6 4ad7 1751 b5bf
00000500: 245e 5413 a716 c53f 6f44 038b 76d5 b2bf
00000510: 3d31 7ed4 df75 c0bf f5fd d46a 5323 c23f
00000520: b120 75f8 9164 75bf 0873 5e23 ef62 c83f
00000530: af87 02f3 07e6 b23f effd 36f5 c37e 9c3f
00000540: f2ba e5a4 3ccd cdbf 3c8c ff8b 040d b93f
00000550: 20ac 16a7 54c4 c63f 2a64 f804 4b77 b13f
00000560: 8ce9 5750 333d a7bf ca63 9b36 8560 c4bf
00000570: e3eb fe0b c5c9 b73f a765 30a6 8749 b0bf
00000580: 0eae 37e5 b3f9 c7bf 291d 0240 1c4b bebf
00000590: e050 ba74 a465 713f 8139 92f6 b74e adbf
000005a0: 7a7e 61b7 6cf2 c1bf bde8 1c9e bcd4 cabf
000005b0: 5456 470e d2bb a2bf 0132 5326 5a12 b7bf
000005c0: f19b c132 80f0 d33f f877 99c5 e858 b8bf
000005d0: 2288 ee32 9f67 bfbf f610 2020 6014 b6bf
000005e0: ccc5 dafe f986 b43f 1048 acd4 64cd cdbf
000005f0: c133 848d f4a2 b2bf 7f37 b54f 22fa c3bf
00000600: d76c ad2c 357e 853f 5383 0a1a d848 b53f
00000610: 5147 12bd c991 84bf fbbd 076c 2702 a4bf
00000620: a96d ae10 3f38 c73f 99a4 5605 f218 b2bf
00000630: f5f7 8755 c73d cdbf 9739 5ea2 083b b5bf
00000640: 0de5 a2c3 febf cd3f c832 8c82 6a83 bf3f
00000650: 5cfd d0ec f3c6 b2bf 4a57 f63c 2077 b1bf
00000660: 68db 8bb0 596f af3f 8a9d f85e 3067 9bbf
00000670: bb9d 63da 5773 c23f a145 6601 d6c9 a93f
00000680: 5682 78f6 8c18 ac3f 2a60 2ed0 a008 bebf
00000690: 37a7 0f25 1c53 c0bf 584f 85c7 0439 943f
000006a0: 12a9 d14f 1536 b9bf 8d57 c756 981a c6bf
000006b0: 692e 5cb7 6539 593f d3a5 d248 f7f6 cebf
000006c0: 621a c86e e882 df3f 2601 caeb 47c7 d9bf
000006d0: 8ee2 c077 66b6 ddbf e26f f876 a5ae b63f
000006e0: fd4f 8f3c 205c 96bf 4b76 d3cf cef2 b03f
000006f0: fa9c 2a91 27fc a83f a2a1 d62f 9f25 bcbf
00000700: e76a 9b49 10ff a8bf 84ad e8f2 6e56 cebf
00000710: f6d7 3841 3f0a cc3f bb76 e480 e5cb 993f
00000720: 7e10 8c1a 4588 b4bf 8bd0 59ed 0c78 55bf
00000730: b5bc 0239 8455 7fbf b2b2 7f7b f6f3 ce3f
00000740: 6121 03fd 333e d0bf a3b8 b9cc f3be c6bf
00000750: b00d 2b1e 42b8 d73f ef8d a09b 0336 d0bf
00000760: 57e9 b0cd 0b8c bd3f b4b0 85c0 0acd d1bf
00000770: f8f2 629e 4d8c bf3f dc9c e3a5 53ba c0bf
00000780: 3151 4d10 a4f5 a2bf bf93 b2c9 9237 c1bf
00000790: 4eeb 40b8 db8f c7bf d23b 8ca7 e76d 9ebf
000007a0: cf19 695d 188c b8bf b303 e635 03f8 bcbf
000007b0: 15ed 4af7 7a64 a3bf 068c 3c78 70de bdbf
000007c0: 2571 9eb1 a5ce cf3f d047 dec1 e292 dcbf
000007d0: 4721 0db3 daa0 d6bf 1ed2 c973 dcb5 c93f
000007e0: f32b 5cfc 1462 b4bf 4a36 aba5 581b c53f
000007f0: 7537 8844 e4c5 703f fea7 0d45 0e9f bebf

transformer.encoder.layers.0.linear1.bias f8 [128]
0.10704680533565676 -0.12545781049598004 0.056596169464115706 -0.16601974933347372 0.13010023547546473 -0.02931167352246048 0.11227113242988322 -0.2223340122489024
-0.02762259216645994 0.1994906583627594 0.1794516525290237 -0.18762751416563356 -0.22730582830503696 0.13722577270781372 0.11405339184368841 0.10706951372964013
0.09978379062626666 0.14023300097140015 -0.14240297504643343 0.038948783997211175 -0.18881758040443333 -0.057438422522102996 0.143378466872795 0.19465207050598882
0.22151059531903566 -0.16196729579623206 -0.11218662075337191 -0.29465523018210477 -0.21966427619013534 -0.26042685099610613 -0.2761705530696619 0.15269813958152426
-0.1591057798665076 -0.1935842852458914 0.04737925671990493 0.19091302365202562 0.006085567953948952 0.03342258018828572 0.08820292189699906 -0.24592232733062283
0.16564915455335777 0.2197231979575309 -0.24667830648895075 0.1510905642151756 0.0853428943092282 0.024845481448290366 0.018606133494152136 0.08039408691146273
0.1383189344273828 -0.11713696441801394 0.14298870604168942 -0.03103383690556057 -0.23027479593877345 0.006691562514773403 -0.16956088448142684 -0.03682493234300143
-0.1294589095694898 -0.058620137054120516 0.09010949940049619 -0.0041541676941689466 0.09015798977680022 0.18919555779013086 0.16996580594801444 -0.27328638741633404
-0.2142322894871439 0.1693282011017385 -0.1947971542722015 0.18907335822324386 -0.2904811916377778 -0.04607325380125097 0.06571730228782384 -0.14545638822178922
-0.0015869881794056025 -0.30763173043423697 0.014514070207299081 0.07929093773525375 0.07864220851182986 0.08059380809944394 0.07366307086999509 -0.037086654266239485
-0.17492543463525334 -0.20470764489036145 -0.13586503578214204 -0.2067710640620325 0.01391399107746077 0.18981547439702706 -0.19298836078399922 0.16069160976674343
-0.1344503219197063 0.09548823152245618 -0.18649266780414225 -0.2033512004609269 0.0835313715682133 -0.24856067116857497 -0.1742037097438287 -0.13487425445160764
-0.16541830144266026 0.03217477427048016 0.07993098482536341 -0.18634100750675106 0.15878377872926808 0.10670484637849391 -0.057480936144563476 0.1149470567306535
0.26053465569018375 -0.018520937662625327 0.20169679510261548 0.007571043929891208 -0.1844504972871219 -0.25883643757945723 -0.06899768573136639 0.004665527598599313
-0.02542420725902938 0.1079202791414507 0.09611657999562628 -0.015408947381916994 0.15355663266628264 0.04134991308675545 -0.20145852577396853 -0.16778168510090352
0.0875488991523828 0.11053008878958796 0.19023553028237652 -0.08710300404733978 -0.2216781805002875 0.035806106533464555 0.1560914268366518 -0.09758067315622322
00000000: 1dd4 0e60 6b67 bb3f f0d2 8d64 000f c0bf
00000010: 9ec0 da51 2cfa ac3f 3b4e f098 2240 c5bf
00000020: a6d5 48e0 1fa7 c03f aa13 ae1c e103 9ebf
00000030: 5b3c 120a cdbd bc3f 41e1 b2df 7075 ccbf
00000040: 0b59 f1c7 1849 9cbf 9145 c3ee e888 c93f
00000050: d7a3 6991 45f8 c63f fee8 95aa 2d04 c8bf
00000060: 5352 617d 5b18 cdbf d264 f936 9d90 c13f
00000070: 856d f763 9a32 bd3f b80f de5b e868 bb3f
00000080: 6225 6935 6e8b b93f 21fd 7eac 27f3 c13f
00000090: 7db9 56bc 423a c2bf c656 f952 18f1 a33f
000000a0: 259a 5faa 2c2b c8bf 8553 88a4 9168 adbf
000000b0: c5aa 15c1 395a c23f 1601 76ea 5bea c83f
000000c0: 8e6e 4e8d 755a cc3f 2db2 3b27 58bb c4bf
000000d0: 8e3a 2f2b 43b8 bcbf 3b8f 4e9c a1db d2bf
000000e0: ba06 2b81 f51d ccbf 9dd3 0162 d5aa d0bf
000000f0: 045b 6341 c7ac d1bf 05d3 d4d5 9c8b c33f
00000100: fecb 9004 945d c4bf 2348 13af 5ec7 c8bf
00000110: ddd6 3d0c 1842 a83f 6aa3 7b84 d66f c83f
00000120: 55ce 6f35 2eed 783f 8397 b6b1 c31c a13f
00000130: 9f91 f578 7794 b63f b1e0 9e00 627a cfbf
00000140: 1e57 b5d2 fd33 c53f 6f37 b3c6 e31f cc3f
00000150: bd58 809d 2793 cfbf 37e9 0484 ef56 c33f
00000160: fc0d 012c 08d9 b53f 445a 1809 1871 993f
00000170: 5117 737b 7c0d 933f 6d96 13f6 b494 b43f
00000180: 2a3f e451 6fb4 c13f 6afd 5327 b0fc bdbf
00000190: afbd 1234 744d c23f d5ab 508a 55c7 9fbf
000001a0: a936 d3fe a479 cdbf e0bb 8fa2 9c68 7b3f
000001b0: eda7 c3ca 2bb4 c5bf 9f63 2eb0 b7da a2bf
000001c0: 886d 630b 1c92 c0bf 12a8 1167 7503 aebf
000001d0: 89eb fb88 6a11 b73f d285 37e6 f503 71bf
000001e0: 6780 9011 9814 b73f 54e8 a05e 8f37 c83f
000001f0: 9f14 fe84 70c1 c53f fc49 1930 867d d1bf
00000200: 2c18 8cb2 f66b cbbf 8fe0 02e7 8bac c53f
00000210: fefa 79f7 1cef c8bf 8b8e 0e49 8e33 c83f
00000220: c7fd 8b6c 3e97 d2bf 85e6 97dc e996 a7bf
00000230: 5b88 1b60 d9d2 b03f 2114 349f 509e c2bf
00000240: d091 1995 4f00 5abf ea52 5bff 3cb0 d3bf
00000250: ae42 fa86 8db9 8d3f a02c 7130 694c b43f
00000260: ddbd a451 e521 b43f 1016 0cba cba1 b43f
00000270: 453f 4f40 95db b23f d213 629e 05fd a2bf
00000280: a89d 7fe6 f463 c6bf ddcb 0530 dc33 cabf
00000290: 7055 ad86 0664 c1bf 14e9 f366 7977 cabf
000002a0: 5d84 1345 f07e 8c3f a8ac 679b df4b c83f
000002b0: eeb7 09b5 d7b3 c8bf f749 58ec 8a91 c43f
000002c0: c478 ca0b ab35 c1bf 15b5 8aaf ea71 b83f
000002d0: 86cf 94e2 fdde c7bf ab7f ca81 6907 cabf
000002e0: fe53 13dd 4f62 b53f d5d3 de08 d6d0 cfbf
000002f0: 0887 18a2 4e4c c6bf ad94 f83f 8f43 c1bf
00000300: 8994 6d49 6d2c c5bf 09ec 7e46 3679 a03f
00000310: f712 c365 5b76 b43f 7795 92aa 05da c7bf
00000320: 5885 63e0 0653 c43f b334 8541 0251 bb3f
00000330: 6bcb c429 246e adbf 26fb 6d99 2b6d bd3f
00000340: 507e 6a8c 99ac d03f e77b 3516 27f7 92bf
00000350: 533d 5659 33d1 c93f b317 35a1 d002 7f3f
00000360: c720 caea 129c c7bf b9ae 9ab4 c690 d0bf
00000370: 8445 b713 d5a9 b1bf a2ea 4507 291c 733f
00000380: be28 d1aa cd08 9abf 55db 7cd5 a9a0 bb3f
00000390: d040 af9f 189b b83f 7aa6 91e8 b98e 8fbf
000003a0: 555a b165 bea7 c33f 48d4 ccd8 d02b a53f
000003b0: 718b d999 64c9 c9bf b825 30c9 de79 c5bf
000003c0: 8508 a9ca 9a69 b63f 0344 932c b34b bc3f
000003d0: 9dcd 8c4a a359 c83f 2445 c4e9 614c b6bf
000003e0: 8325 be5b f35f ccbf 68dc 1d91 2d55 a23f
000003f0: d185 b9ca cdfa c33f 117a ed07 0cfb b8bf
