Code/990-10/darts_logs/D_-_spain_fossiloil_transformer/checkpoints/best-epoch=89-val_loss=0.01.ckpt (torch, 653477 bytes, 205 tensors)

encoder.weight f8 [16, 1]
-0.321882354793966 -0.631995456884907 -0.699982376768535 -0.6204674938518611 0.3717954585202167 0.7544946501541071 0.1285162557104389 0.9355341731267145
-0.5920458596457921 0.7853471350481384 0.9757079012809003 -0.4463327567962897 -0.0014867520964456156 -0.5115580385896775 0.07669001862914201 0.44427255414130984
00000000: acf8 bf72 b899 d4bf f351 5189 4e39 e4bf
00000010: 21e9 ff70 4166 e6bf f664 4aa5 deda e3bf
00000020: 6b52 c92d 7fcb d73f 3b67 edf6 d124 e83f
00000030: 40ee a37d 3873 c03f 19d4 bb5c e5ef ed3f
00000040: f525 9d28 0af2 e2bf e53f a150 9021 e93f
00000050: 8f68 cec6 ff38 ef3f a2b5 6444 b790 dcbf
00000060: 1d63 6ae8 e35b 58bf 4bf4 b7f6 ae5e e0bf
00000070: 8619 f101 f5a1 b33f 3607 a326 f66e dc3f

encoder.bias f8 [16]
0.47885783650340874 0.0024534411840561898 -0.7429544200936782 0.1855183810271206 -0.48800979492868474 -0.9574800644311973 -0.9140479605436753 -0.22324659150120651
-0.35838738006852033 -0.9103336433211836 -0.17090581355837378 -0.42199224878177954 0.00545879625230169 -0.2196322923426426 -0.7657157085916643 0.1790603194252001
00000000: 06ca cd56 9ba5 de3f c5e5 bd34 3d19 643f
00000010: 6012 1759 48c6 e7bf b0bf a8f9 10bf c73f
00000020: e32a 566f 8d3b dfbf 15ba 693b ada3 eebf
00000030: b456 3082 e13f edbf b877 b824 5893 ccbf
00000040: f260 2c9f d1ef d6bf 996a 5005 7421 edbf
00000050: 7df9 f6df 3de0 c5bf 30ba ebc6 eb01 dbbf
00000060: 5a0d 1176 f65b 763f a8ea 6034 e91c ccbf
00000070: c5e8 cd3a be80 e8bf 69a5 f8d3 72eb c63f

transformer.encoder.layers.0.self_attn.in_proj_weight f8 [48, 16]
0.20785388525404616 0.19669767531874116 -0.3039289381551197 0.0885600224715373 0.30597120287732626 0.13331847160900112 0.20828417939233448 0.22650238049380422
0.24429156733351226 -0.08414301984355275 -0.2705867151224089 -0.31055683634589937 -0.0013916432756209474 -0.182915482010607 -0.21794073747023532 -0.1803810468443442
-0.012502288737213041 0.07411203706040786 -0.28516037349826234 0.020190711919894085 -0.1547640353813202 0.12894827883750107 0.11859070600105286 -0.2992887207723838
0.1744990810098735 0.24440877248485146 0.15136394017864785 -0.28046409727665234 0.28024519837229267 0.057477889038254855 -0.09084097627484516 0.24302681473027807
-0.0658447529221361 0.22030145105891882 -0.26788928474850404 -0.003971347140953514 0.14685741512022463 0.28613456039564733 -0.12788045046068755 0.0821523905336282
-0.03325613043269752 -0.03204197830978806 -0.19422958095662016 -0.02236006776482062 -0.16231141568170193 0.04004559110388263 0.19590153265975957 0.05353460630639286
-0.3684777698466424 0.3662764268183903 0.3186081276358551 0.12368616110683249 0.35051703868194 0.16710465519272483 -0.2210397919381028 -0.20711007570555728
-0.13081473103802546 -0.41656964940382696 0.15528786354073565 0.09661894332966443 -0.15311147732196206 -0.25394088726541725 0.06874149384686852 0.14355556666055916
-0.24814207244555092 0.22779691020342788 0.13690844187130566 0.03617739046767163 -0.22779513442085353 0.22576740024447803 -0.20243919003920002 -0.18948407546980137
0.2937827276934315 -0.1459405064697212 0.050089562191921365 0.3152979184135473 0.13078391228764316 -0.10236498069122153 -0.0027858234350494264 -0.20426682659305218
0.31248665216519966 0.20780945499035003 0.15371052862862283 -0.09178754498873679 0.13688385356985774 0.011817393998989761 0.08472878105748938 0.01945531197120846
0.2037780263630914 -0.013320334646045491 0.03131796043271296 0.019386867037603384 0.16576226945773298 -0.01556718497237747 -0.1434265966816882 0.19984117974548207
-0.19543901122288074 -0.15314054968621327 0.07953044903915442 0.3028921719405889 -0.25115308050278 0.2152017890021097 0.1467339190982396 -0.23387426651108936
0.1124115080215369 0.27471242120093914 -0.27321258565641654 0.2391866170053279 -0.2206054033785154 -0.18172696891943987 -0.2676898651774117 -0.31331457056579576
-0.28822587294400964 -0.26706215728895927 -0.11479504028135892 0.3805986353292022 -0.3762411095241994 0.2862672323234753 0.20429553915553517 -0.25042765723397337
0.15600825019966189 0.2028887391647952 -0.2940433120038117 0.07114182744699414 0.1313455301153234 0.18901142456701056 -0.09547738789879852 -0.004006261385292436
0.018704526980429813 0.06753494623718054 -0.11278010862604355 0.16605991309575263 0.282239722003626 0.1417257125551363 0.2355361014016672 0.28151583762278365
-0.006468209701069706 -0.1334736218205676 0.2519846415726132 0.167648773852825 0.12358666367589025 -0.010646880858242029 -0.07523743168616191 -0.14871310571902774
0.32520243662754067 -0.17081083494926586 0.0803865768933311 0.2979552245320631 -0.031068653937106498 -0.07829796029745885 -0.01732506771163384 -0.0642831465163429
-0.21253286115749104 0.3204685009981452 0.05267285828176028 0.0743751986401777 -0.2792402242063324 0.28526367225107085 -0.02790777526056649 -0.2467971344026333
-0.0134255872433475 -0.09062554388372163 -0.09366223990373618 0.2655308248469691 0.141531345058907 0.25767771791819105 -0.07679952212390896 -0.29577514668823734
-0.08126178176748446 -0.17933398385126717 0.19291449855565346 -0.2460085346712139 -0.16549962092424264 0.16789596508383695 -0.04956482516885228 -0.3503006280181329
-0.273819612420967 0.10609054344252428 0.35520597118644287 -0.15888600131592281 -0.16228653209872676 -0.1298827808781943 0.2931055723064819 -0.30692778480430366
0.1859102412364853 0.023690798182017508 -0.16343963980125903 0.11454599163243798 -0.17305482211872988 -0.17692464911038472 0.3331543921196404 0.09706475763380172
-0.03067730504765419 0.28536002078765355 0.04655906077137117 0.5783843470180394 -0.12250313371224743 -0.08365654278411992 0.3129119291900774 0.17911894866282582
-0.009084687155172473 -0.204559333603868 -0.14392882250088535 -0.12618704098185712 -0.04877203716976306 -0.12530035205636755 0.10133866747195396 0.0039167764543016495
0.031157213449537324 -0.27246516281240796 -0.1806013393271257 0.337451066932369 -0.24114227127761484 0.1736658260165268 0.3815216548391579 -0.31038273049612414
-0.19914214972289573 -0.08059839674487065 -0.21096282370252728 -0.24528207003677427 0.16618124168996679 -0.3802955963666405 0.2928805990962701 -0.06514503850904858
0.06914124801658025 -0.04199488791144778 -0.12615280763287928 0.12625434220405157 -0.07007901007947315 -0.1563662484075184 -0.13194325103285312 -0.01421407751465467
0.11945260628943793 0.18634944671896403 0.00404096056082295 -0.18214049523941536 -0.2519178902874531 -0.21483510986171614 0.1813591350831312 0.15473902496012865
-0.09993068610894679 -0.21676617641347748 -0.18305844391121134 0.18441403075167692 0.16390245941946346 0.11428403135744977 0.15684363547725547 -0.30508143259467746
0.19896337894848232 0.16528638004987595 0.2089962359025998 -0.301291224664733 0.007657069413402696 -0.27465090721301416 0.22585551449815888 -0.3133792181236762
00000000: 019f c1c3 f49a ca3f 6cbb 58b1 632d c93f
00000010: aeca 6b5c 9273 d3bf 228f 3fa0 deab b63f
00000020: b40e 783d 0895 d33f ecb5 c165 9410 c13f
00000030: b9d3 6155 0ea9 ca3f d8f0 57ae 07fe cc3f
00000040: 0269 3132 f244 cf3f 472c 6a9e 658a b5bf
00000050: 3db3 0bf1 4a51 d1bf 42e9 e9c7 29e0 d3bf
00000060: 9fbc d096 f9cc 56bf 0375 9546 c669 c7bf
00000070: d74c f369 7be5 cbbf c4e1 81e4 b916 c7bf
00000080: 8007 03ca cc9a 89bf 9415 6aa7 01f9 b23f
00000090: 5792 924b 1140 d2bf 02ff 83bd dfac 943f
000000a0: 1fa6 47d3 4ecf c3bf 65c4 3d90 6081 c03f
000000b0: 9b52 e2e3 f55b be3f 30dc f1e0 8b27 d3bf
000000c0: 824a 0f63 fc55 c63f cbc6 5662 c948 cf3f
000000d0: 0435 6ec2 e45f c33f 3858 60af 1ff3 d1bf
000000e0: 90ae 778e 89ef d13f e928 53eb bd6d ad3f
000000f0: 4cb7 3cae 5a41 b7bf f7a6 a8ae 801b cf3f
00000100: 28ed 69a4 33db b0bf 739a c783 d632 cc3f
00000110: de64 3c19 1925 d1bf 219d 7661 4244 70bf
00000120: 2fe8 8e49 39cc c23f a8e5 c954 0750 d23f
00000130: 1d61 43f8 625e c0bf b751 a166 f007 b53f
00000140: 252c 3391 f206 a1bf e11d e161 ce67 a0bf
00000150: 91ee 0fd1 83dc c8bf 4c1e 25bf 8ee5 96bf
00000160: 5468 0fd7 9ec6 c4bf a2c3 4710 db80 a43f
00000170: d245 012a 4d13 c93f 2394 944e e368 ab3f
00000180: 88d6 b2c8 2395 d7bf 2dc4 9eae 1271 d73f
00000190: 02e4 1b58 1364 d43f 1ff0 eb70 e5a9 bf3f
000001a0: cb19 7504 df6e d63f 36f3 8772 af63 c53f
000001b0: de90 be2a 084b ccbf f8e9 e93c 9582 cabf
000001c0: 7959 d27f 89be c0bf 1585 2cbf 13a9 dabf
000001d0: 0cc4 af03 79e0 c33f 7d65 c6e1 04bc b83f
000001e0: b4ba de29 2899 c3bf 2905 7b47 9140 d0bf
000001f0: 0553 f3e3 0a99 b13f f5a0 fb5f 0760 c23f
00000200: ae28 f592 1ec3 cfbf a10e bafb 7228 cd3f
00000210: fb18 3140 3786 c13f 5c98 d3c9 d785 a23f
00000220: 4043 4316 6428 cdbf e7c7 4638 f2e5 cc3f
00000230: f2d3 5202 87e9 c9bf 43b7 a0a1 0341 c8bf
00000240: 68ab e411 56cd d23f 0f7d 39b3 2dae c2bf
00000250: 0b74 f8ce 56a5 a93f e350 0552 d72d d43f
00000260: 6b26 0ff9 86bd c03f 5510 5364 9734 babf
00000270: 2f91 7891 4bd2 66bf 7cfb ef55 6a25 cabf
00000280: 9c1b df03 c8ff d33f 72d7 7d0e 8099 ca3f
00000290: 1e62 c15e c9ac c33f fa20 e877 637f b7bf
000002a0: 476c 37fd 6885 c13f 5032 ffc5 b733 883f
000002b0: 18ff ab0f c9b0 b53f cb69 99e2 17ec 933f
000002c0: 4cbb 6ffb 6515 ca3f 648e 690d b147 8bbf
000002d0: 41fe ab5f e808 a03f fdf7 979f 26da 933f
000002e0: 70a8 1db3 b237 c53f 61f3 c632 b0e1 8fbf
000002f0: 6bed 0f7f cd5b c2bf cb50 b351 6594 c93f
00000300: ff4c c840 2504 c9bf f8ff 4b0a 1c9a c3bf
00000310: 01cc a885 1b5c b43f 51c0 2cd9 9562 d33f
00000320: 6124 c35e e412 d0bf 2b02 e772 bb8b cb3f
00000330: 23d4 de53 2dc8 c23f 5143 058b 97ef cdbf
00000340: d283 a526 00c7 bc3f 913b 3768 e394 d13f
00000350: 7dfe 0fa4 507c d1bf a2e1 d6c4 aa9d ce3f
00000360: 3f72 6a40 cc3c ccbf b9b4 274e d442 c7bf
00000370: a716 1aac d421 d1bf 232f 7c8e 580d d4bf
00000380: e7f4 89ee 4a72 d2bf d789 e3df 8b17 d1bf
00000390: 525e c02f 3563 bdbf a908 e960 ba5b d83f
000003a0: da4c 3497 5514 d8bf 8aba 2fcc 3352 d23f
000003b0: 9623 b231 5b26 ca3f 335d 75b9 0107 d0bf
000003c0: 03c2 410e 14f8 c33f 8b40 b819 42f8 c93f
000003d0: 437d 2a0a 9bd1 d2bf 2f34 43ce 5936 b23f
000003e0: b619 292a eecf c03f 9bf7 8abf 8631 c83f
000003f0: 9568 88c2 3471 b8bf d29f 109a de68 70bf
00000400: 4621 ac8e 4727 933f cc01 6d61 f849 b13f
00000410: dd2c 303e 28df bcbf 4420 f683 7341 c53f
00000420: 2ad0 e831 3710 d23f 0f9b 3672 1124 c23f
00000430: 7e14 4606 0c26 ce3f 7656 f900 5b04 d23f
00000440: c183 13d2 687e 7abf 968b 4ce4 a915 c1bf
00000450: 9383 a930 8420 d03f fac8 74d8 8375 c53f
00000460: e2ae b526 60a3 bf3f 6f76 b928 08ce 85bf
00000470: ffef 86a4 c242 b3bf 5460 c6f2 0709 c3bf
00000480: 6644 79e1 1dd0 d43f 286c f422 21dd c5bf
00000490: bb53 cbf6 3694 b43f 2f67 42ca b211 d33f
000004a0: eec9 5c12 76d0 9fbf 1933 d2ca 550b b4bf
000004b0: b2ca e39c a9bd 91bf 4ebf f83b dc74 b0bf
000004c0: f094 ffdb 4634 cbbf f1d9 cb50 8e82 d43f
000004d0: 51fc 69d7 eff7 aa3f 6f06 cbc5 400a b33f
000004e0: f168 ac63 12df d1bf 9888 c38f c241 d23f
000004f0: b368 3118 db93 9cbf ecbe 806a 0c97 cfbf
00000500: f140 1ed1 df7e 8bbf 14ad 2953 3c33 b7bf
00000510: 04b4 41a1 3ffa b7bf 7a0c 3300 75fe d03f
00000520: d585 31f9 b21d c23f 7475 d7ae ca7d d03f
00000530: c9e0 de2b 22a9 b3bf 9eb7 7fe1 faed d2bf
00000540: 1925 1b77 92cd b4bf 4bee d97d 6af4 c6bf
00000550: 3842 1c1b 6cb1 c83f 4591 7929 357d cfbf
00000560: cc5c af71 172f c5bf 0f2d 956f 9d7d c53f
00000570: ddac 438e 8f60 a9bf 08cb 4653 536b d6bf
00000580: 227e 16b2 4286 d1bf 5c21 80f6 bf28 bb3f
00000590: 7dbd 65d3 b1bb d63f 51d8 b861 6056 c4bf
000005a0: 1fff f819 cec5 c4bf 7dba 17bc ff9f c0bf
000005b0: 9f3a d5df 3dc2 d23f 27f7 7d6f b4a4 d3bf
000005c0: 1214 0d23 e8cb c73f ebb0 a18d 6642 983f
000005d0: b280 e811 97eb c4bf 7aff f2d7 e252 bd3f
000005e0: 1b20 b510 a926 c6bf 4387 e486 77a5 c6bf
000005f0: 220c abcc 6652 d53f cf9f a167 3cd9 b83f
00000600: 9de8 a217 df69 9fbf 469b 37ad 5643 d23f
00000610: 6fe7 b0d6 96d6 a73f d4be dee3 1f82 e23f
00000620: 399d f388 5d5c bfbf 27ae 5ae3 836a b5bf
00000630: de93 99c1 bf06 d43f 0be5 4ca5 5eed c63f
00000640: 248e ce11 fe9a 82bf 07c8 f50f 002f cabf
00000650: 6cea cb78 426c c2bf 6a19 199f e526 c0bf
00000660: 9df4 3401 a6f8 a8bf 8733 2189 d709 c0bf
00000670: 27bd 9cb6 54f1 b93f 7176 6eac 090b 703f
00000680: d375 3333 ade7 9f3f e807 e5b8 1170 d1bf
00000690: fe0b 03d7 f11d c7bf a563 1e5c cc98 d53f
000006a0: aa06 69fc bfdd cebf 5c3f 9689 ae3a c63f
000006b0: baff 8fcd d96a d83f 9756 2e87 4fdd d3bf
000006c0: 0651 286e 7d7d c9bf ae16 21b6 18a2 b4bf
000006d0: 8cb1 3c6e d400 cbbf 4433 8d22 6765 cfbf
000006e0: a62f 224b 6d45 c53f 4b48 4d57 c356 d8bf
000006f0: 6716 b044 8ebe d23f 3d9d e461 58ad b0bf
00000700: 9e2c 09a7 3db3 b13f bf92 5b9c 5a80 a5bf
00000710: 4878 8a73 c625 c0bf 4e48 5f2f 1a29 c03f
00000720: 8869 6db0 b2f0 b1bf 72e3 8d29 cf03 c4bf
00000730: 4998 0e36 84e3 c0bf 0fc7 8b30 451c 8dbf
00000740: b462 6f2d 7294 be3f 0490 a475 4cda c73f
00000750: 1c25 4017 418d 703f e54e 2a37 6150 c7bf
00000760: 9df6 0337 6c1f d0bf e3be 7185 b77f cbbf
00000770: 89a6 01b1 c636 c73f ea30 cf05 7dce c33f
00000780: ac6b b4b4 0e95 b9bf c394 497b febe cbbf
00000790: 927a ed86 756e c7bf 3b41 8003 e19a c73f
000007a0: 5c64 787b c1fa c43f 0ea2 22e1 b741 bd3f
000007b0: 8df3 7ac6 7313 c43f 1a1a e745 7486 d3bf
000007c0: beba d7ca a177 c93f bceb 64a6 1a28 c53f
000007d0: 8629 187f 63c0 ca3f b06f 20fd 5a48 d3bf
000007e0: 6796 6beb 045d 7f3f edfb 1266 e193 d1bf
000007f0: 4007 3260 d5e8 cc3f 5695 45b5 670e d4bf

transformer.encoder.layers.0.self_attn.in_proj_bias f8 [48]
-0.011039838969092655 -0.035085410160278024 -0.006405014033362244 -0.08900569119512865 0.02013890596394548 0.010184431140554073 -0.004106295247985077 -0.020096275495822415
-0.004206395540132931 0.003651791290276136 -0.10307580879697648 -0.09932017322187327 -0.11349246770189875 -0.06962457493229969 -0.014562948220335131 -0.08908358468929348
2.270686189227181e-13 -9.033270048547231e-14 2.8051217131890844e-14 -4.6168308175859375e-14 1.4348206531103436e-14 3.2560485805862035e-14 -2.144043936396041e-14 -5.963218899920547e-14
1.599020639175135e-14 -5.952843247994084e-15 3.4424871753558404e-13 1.3265172813096513e-13 -6.64239560174428e-15 -6.055648480222741e-13 1.4841872632999534e-13 1.4798414383087042e-13
0.00046944875930642874 0.018394651867560008 0.013062847267348932 0.006885629786255307 -0.022855321485727137 -0.008423940487157989 0.019536581767401313 0.0006487494425148519
-0.012488549239458465 0.04199140306558336 -0.021856153210899378 -0.03501957246138478 -0.008068502833123523 0.023221686105653064 -0.04192356810824901 0.04246390580273203
00000000: fb55 9a1a 0e9c 86bf 2408 6902 b7f6 a1bf
00000010: 0001 dcdc 243c 7abf ad48 d7b4 13c9 b6bf
00000020: 952e f819 4b9f 943f e695 6a35 93db 843f
00000030: d5da c33c c3d1 70bf 2a96 1a38 1e94 94bf
00000040: 966b 76b4 b93a 71bf dcd4 3b85 5cea 6d3f
00000050: fcb0 ca1b 2d63 babf 192d d2ff 0b6d b9bf
00000060: d43a 1fa5 d70d bdbf 6106 5588 ead2 b1bf
00000070: 90aa b7d2 2dd3 8dbf a2d8 d98a 2ece b6bf
00000080: 56f4 a759 02f5 4f3d 0567 1435 286d 39bd
00000090: af6f 597e 3695 1f3d 7371 33ee 8dfd 29bd
000000a0: f074 72c6 9627 103d f5cd abe5 7554 223d
000000b0: f7e4 eb30 c923 18bd 6947 a1ba f3c8 30bd
000000c0: 01d2 dffa dc00 123d 07e6 e936 29cf fabc
000000d0: 6b7f 5dff 6e39 583d 1203 693d 48ab 423d
000000e0: 68b1 b025 29ea fdbc 5b24 b078 714e 65bd
000000f0: 1153 5321 59e3 443d 235a 69d0 b0d3 443d
00000100: 969f 8011 0bc4 3e3f 5018 c530 0cd6 923f
00000110: 2d7f 72ae b1c0 8a3f 97c6 e82b 1b34 7c3f
00000120: 6876 48a9 6267 97bf fa95 2a27 9240 81bf
00000130: 7204 11cf 6501 943f a275 c7d1 1a42 453f
00000140: 9eb3 76b4 9893 89bf b179 c2ad e57f a53f
00000150: ba59 079d 7561 96bf d312 e2dc 15ee a1bf
00000160: 721a 5e1e 3886 80bf 71eb 86f9 6cc7 973f
00000170: fbc1 e983 0177 a5bf fac6 5d3d d4bd a53f

transformer.encoder.layers.0.self_attn.out_proj.weight f8 [16, 16]
-0.02189694510865488 0.41229011149373185 -0.32893483868872214 0.1180113531302776 0.22684511542599717 0.25866512853002405 -0.2533564355676528 0.15932997207914518
-0.14447263067559143 0.4161121253127593 0.0006037624494377416 0.00013756146950185083 -0.4398670190077069 0.26650107714853977 -0.21771658629038065 -0.13650876689443084
-0.34337305601831764 -0.10191771803309545 0.19603665990353505 0.07705082026631756 -0.19321673626823235 -0.07404138355122072 -0.15014953859477895 -0.40189804434582443
0.1069039884599154 -0.3740038394909891 -0.16762409080119756 -0.39070851382397825 -0.44714137528911146 0.36633003819662263 0.24562696680757562 -0.25767447480868755
0.037155816310610934 -0.5424299373978976 -0.2332139973341067 0.14095253379917083 0.12386335361390095 -0.2935403279295578 -0.44499888960578604 -0.32248090022242215
-0.04798872342150053 0.3376435707362937 -0.05734934052174043 0.14495836477147248 0.8636773439235096 0.30682748608456023 0.43813504414603205 -0.3487289935687871
0.39300561273164647 -0.21377803877062554 0.07447711064985388 0.01959104736624758 -0.2851807034779297 -0.22268412778047963 0.20040481830882736 0.09683000002218367
0.34392788279977193 -0.22644168715233426 -0.1826240112548387 0.07806550992123568 -0.09420751771747081 0.1716536927743624 -0.4055195696775563 -0.19293001764552764
-0.3141898874290987 0.05144577556765453 0.2881009553519365 -0.4034983611355389 -0.37597026313943166 -0.22854760329987794 -0.2254489191955395 -0.3842542023483458
0.061448220851246106 0.2642108801064776 -0.36305993480315707 -0.3194513998032459 0.2620772181588199 -0.14382970698305114 0.15044864728490231 0.35453027272540993
0.14085953316532226 -0.08718089049211006 -0.20844750186671385 -0.281193016270106 -0.2538329311998978 0.3097917535948106 -0.2006505134014266 -0.31028072770068493
0.16638709030527538 -0.15277029430011724 0.27743868527678606 0.040352039052084274 0.39820372481149685 0.3550292587000018 0.23632147969882142 -0.15424747170414174
-0.24576306497002043 0.30044047975907734 -0.2622129009765876 -0.4697437785775589 -0.044992676724113556 -0.12569470196691096 0.3999585138488097 -0.35220511454440656
0.1340439737269183 -0.0468377235169562 0.011627451616657061 -0.21953253363433062 -0.3089334046454731 -0.23989435489176753 -0.11264421119641113 -0.2083388454281485
0.3650054196910724 0.25894335808877 0.34934169957655764 0.1286575947837631 0.30203195985951614 -0.32091657112226424 0.1959558120076367 0.2512740697641372
-0.24968487195852482 0.15163325693273405 0.13771211934829192 -0.13547185784248975 -0.061057238231496135 0.021790414408565304 -0.05437237072596842 0.33700928384731405
0.3408341548971636 0.08887172565990085 -0.03397343314901235 -0.41446879179928287 0.41707742806382747 0.24427395847264574 0.4204097635168184 -0.22830588322539974
0.04754106432341444 0.16697521724845343 -0.3297994329245623 -0.0974514152287968 -0.2483292955962534 0.24085417346636273 0.07416746587589643 0.13822218541056233
-0.0029126292546566034 0.2027915467318024 -0.3414980725451086 -0.15903534710601536 0.40641393833072853 0.14636120663087002 -0.2593317113406783 0.341847318540351
-0.3431014153074145 -0.3002849619919549 0.17189656167012252 -0.3450748279761506 0.019800871269922082 -0.10551710895614463 0.4575898060498929 0.16145070831055713
-0.25190411710252075 -0.10636518091448229 0.20966149776997106 -0.13637835051087174 0.13392716434741853 -0.11036998386702941 0.3427674549904974 0.2804803324723127
0.11289771780858929 0.24597640502138496 0.10518665163930442 0.13625272065356017 0.6453868508860504 0.36539589924177435 0.25830259381430737 -0.1555091596485054
0.170788144418702 0.16043709552244365 0.019976016088919083 -0.39732728565496034 0.02238500866337406 -0.29923547916048754 0.46127557025949895 0.012257590434881421
-0.2613411579839032 -0.2100686036482235 -0.14140430902107703 0.14731273607249476 -0.38622220701518567 -0.23134219252717172 -0.03383634315445297 -0.2835051082228787
0.22374770809343109 0.36015777440045604 0.2692483291113454 -0.2273556084469836 0.36429790091962533 0.10320776598184421 -0.2031355253949879 -0.35940898219211365
-0.06189669114835609 -0.22247244123732976 0.2522655685339219 0.08992326984989969 0.4400497750710835 -0.12012723796327596 0.06980103231998545 0.09374823737222444
-0.06726076743773528 0.4642486397477109 -0.03173230471900366 0.21284057466065062 -0.07684720088638461 -0.3407088786050204 0.02995138281412076 0.23564326113515635
-0.31072221231390795 -0.04865513051618811 -0.30661066153778654 0.11379749811231721 -0.2636495911612819 0.39402165018389357 -0.11680296282999551 0.43729320318226766
0.20376621062936678 0.19264817199190454 -0.1543456350269771 0.10228434855368221 -0.3346166202742544 -0.31162336074189473 -0.36732230993167075 0.2268935537794091
-0.29211316970353207 -0.024496888529469706 0.21301800259779155 0.11720919936354911 0.035508935444248914 0.13079187268808876 0.06330914026838436 0.4092337427277826
-0.20581536729753877 0.4262147283928934 0.0560426123239455 -0.2582180822273657 -0.30964411128194147 0.24884111240998336 -0.18336845386008005 0.30399091669650646
0.2299752812631751 0.3172842364422967 -0.344231267142967 0.36877149705569606 0.20670388076349597 0.3607711442214535 0.22896974068276515 -0.3260987560041818
00000000: 95f4 7e1c 276c 96bf fc1a 5510 f662 da3f
00000010: ddb7 abb5 440d d5bf e351 40f6 fd35 be3f
00000020: 5089 01c0 4209 cd3f d7bb e92e f88d d03f
00000030: f9a0 3fe9 fd36 d0bf 6e1f adad ec64 c43f
00000040: a799 f543 147e c2bf a0fd 6bc0 94a1 da3f
00000050: e320 c9fc b9c8 433f 58a2 8006 cc07 223f
00000060: ff88 4eff c726 dcbf 7ee9 ac88 5a0e d13f
00000070: 36fc f418 23de cbbf 25e5 b688 1e79 c1bf
00000080: af47 7bfb d2f9 d5bf bfc8 d591 4717 babf
00000090: 2927 8db1 ba17 c93f ad7e 2c41 9ab9 b33f
000000a0: d5ec a775 53bb c8bf 9a30 e748 60f4 b2bf
000000b0: 9314 e39e 1938 c3bf c8aa 3293 b2b8 d9bf
000000c0: ed4e 3f4e 0f5e bb3f 854d cccc adef d7bf
000000d0: fca5 01ca b474 c5bf d322 4948 5e01 d9bf
000000e0: 5688 e3db f69d dcbf 0534 668b f371 d73f
000000f0: b623 ba56 b470 cf3f 764e 9414 bd7d d0bf
00000100: 400d d24f 1606 a33f 7ad9 2f07 965b e1bf
00000110: 567c c2cd f4d9 cdbf c856 7a8d bb0a c23f
00000120: 85d0 f13c 82b5 bf3f a7ee 205f 5dc9 d2bf
00000130: 1a3e 679f dc7a dcbf 6a8e 02ee 86a3 d4bf
00000140: f321 585b fa91 a8bf 4017 81c7 f39b d53f
00000150: bce0 f98b e45c adbf 7fd0 fce5 fe8d c23f
00000160: e352 4eab 3ea3 eb3f 2ed0 8fc0 0fa3 d33f
00000170: a7ad 7591 670a dc3f 37e0 a269 9351 d6bf
00000180: 52eb 7403 0127 d93f c5b9 8f2a 145d cbbf
00000190: 92ac 8a92 ee10 b33f 96ff edee ac0f 943f
000001a0: b0d4 b890 6640 d2bf a0e5 13db e980 ccbf
000001b0: 3772 4c76 dda6 c93f f8f0 5dd3 d9c9 b83f
000001c0: c2ae 3318 ea02 d63f 789a 628c 0afc ccbf
000001d0: 27e5 e63d 3960 c7bf 4ca9 0eec 19fc b33f
000001e0: cf45 a2df fb1d b8bf e10c 5a8a bff8 c53f
000001f0: 5acc 695a 08f4 d9bf ac24 1a4a eeb1 c8bf
00000200: 4c7b cfe6 af1b d4bf 632e 29c7 1957 aa3f
00000210: 05b5 4bfd 3e70 d23f 6b45 44ca ead2 d9bf
00000220: aff3 1c94 e50f d8bf b246 e040 0c41 cdbf
00000230: 8683 6e9b 82db ccbf 15f3 1bf0 9e97 d8bf
00000240: 7d2f e825 2476 af3f 2d80 53c0 d4e8 d03f
00000250: bbea 9dbc 5f3c d7bf 463f b448 e471 d4bf
00000260: d633 4186 dfc5 d03f 66bd d707 0369 c2bf
00000270: ca75 e8b9 e641 c33f d20b b3bd 9fb0 d63f
00000280: 7b2f 2368 af07 c23f eef0 7fa1 7c51 b6bf
00000290: daa7 b961 68ae cabf cd98 2ffe 10ff d1bf
000002a0: 32b0 897a cc3e d0bf 26a7 90ca a0d3 d33f
000002b0: dc0b 7e80 eaae c9bf ec6c 83b2 a3db d3bf
000002c0: 9a3b ab13 2c4c c53f c8de e81c fa8d c3bf
000002d0: 982d fa2f 8ec1 d13f ce79 1cc0 05a9 a43f
000002e0: 237d cd79 2b7c d93f 1e56 cfa3 ccb8 d63f
000002f0: c30a 5341 c83f ce3f 6fe0 3a93 61be c3bf
00000300: f833 4e03 2a75 cfbf 276d bdb4 6a3a d33f
00000310: a328 929e 18c8 d0bf 7c5d 9f35 4810 debf
00000320: e0db 2db6 4709 a7bf 8e3a 1d95 c316 c0bf
00000330: 9331 2f98 eb98 d93f 31f0 1c52 878a d6bf
00000340: 0e06 b159 5a28 c13f c8e6 7235 1dfb a7bf
00000350: 9b56 6f23 22d0 873f 4209 2f5e a419 ccbf
00000360: 0d08 669d 90c5 d3bf 0ea9 60b4 dbb4 cebf
00000370: 0a1c 2c43 40d6 bcbf 88d6 cce7 d8aa cabf
00000380: f5e5 1bb1 3f5c d73f e67d a029 8792 d03f
00000390: 23dd b349 9d5b d63f 5e38 fd20 da77 c03f
000003a0: c660 7cdb 7d54 d33f babb 6da8 e589 d4bf
000003b0: 9d57 047e 1415 c93f 1111 fed5 df14 d03f
000003c0: 7314 af83 acf5 cfbf 1e8b c1f3 b768 c33f
000003d0: c68f 6efc 8ca0 c13f 0d1e 7b4f 2457 c1bf
000003e0: b3d6 c6f2 e442 afbf d919 01f5 3950 963f
000003f0: 3be6 2504 b2d6 abbf 65a5 2463 8f91 d53f
00000400: d028 290f 3ad0 d53f 6794 3f23 4cc0 b63f
00000410: 8f9e 9d40 f764 a1bf 3865 7f1c a886 dabf
00000420: 89c5 5b86 65b1 da3f dbc5 737b 5e44 cf3f
00000430: 3753 4e5a fee7 da3f 92ff f78e 2039 cdbf
00000440: c2e1 f868 4d57 a83f 948c a9a4 715f c53f
00000450: 2f9f a914 6f1b d5bf 0c4a 5b71 93f2 b8bf
00000460: 85c0 9c1d 41c9 cfbf 6052 123f 4fd4 ce3f
00000470: 523a 5d98 a3fc b23f 01c3 f5ba 43b1 c13f
00000480: c5a7 9cec 39dc 67bf ff25 8fca 12f5 c93f
00000490: 179c 4ebb 1adb d5bf 623a 5d2f 455b c4bf
000004a0: f337 719b af02 da3f d3fb f0c9 f6bb c23f
000004b0: ff87 c108 e498 d0bf 60ca 5693 d3e0 d53f
000004c0: e739 7da3 5ff5 d5bf 6f1b cf6a de37 d3bf
000004d0: ca81 55df b400 c63f 2725 35bb b415 d6bf
000004e0: 1080 25fa ad46 943f 9096 2254 2b03 bbbf
000004f0: cde7 fdc0 2649 dd3f 7e10 0eb4 6aaa c43f
00000500: 99b7 2b72 321f d0bf 9df8 759d bf3a bbbf
00000510: ee81 131e 30d6 ca3f a7ce a985 d874 c1bf
00000520: ea86 757b 8624 c13f 953f 2b0f 3541 bcbf
00000530: 454f 54e8 e6ef d53f 51f2 c8c7 63f3 d13f
00000540: e2ea c765 dde6 bc3f 9cc6 93a3 277c cf3f
00000550: 193d c42c 83ed ba3f 2f5a 99a9 ba70 c13f
00000560: 555e 3a53 02a7 e43f e97f 557b a562 d73f
00000570: 0de2 399a 0788 d03f 5f9a 7561 b9e7 c3bf
00000580: 2653 69cb 62dc c53f 8fc4 2ae7 3389 c43f
00000590: c1a0 39bf 9774 943f 8893 6c6c cf6d d9bf
000005a0: 2ffc 8480 18ec 963f 0e05 3391 ac26 d3bf
000005b0: c254 2df8 8985 dd3f 1058 5df0 811a 893f
000005c0: c2ef a843 d0b9 d0bf def1 4a2b 87e3 cabf
000005d0: 0827 6151 8919 c2bf 3d9a dbcb 24db c23f
000005e0: 63a0 0759 ddb7 d8bf e168 8bf7 9e9c cdbf
000005f0: d47a 8746 ff52 a1bf b33c 049c f224 d2bf
00000600: 967a 68d0 c3a3 cc3f 84ce 9c31 d30c d73f
00000610: bf4b 0258 5d3b d13f dec5 6b13 fd19 cdbf
00000620: 1ae1 9c24 a850 d73f 6fd2 95fb d26b ba3f
00000630: 8b16 1d4b 5800 cabf 71d7 1988 8e00 d7bf
00000640: 65f4 6c50 ecb0 afbf 1714 b019 fa79 ccbf
00000650: 84a4 b07b 1e25 d03f 8d9a 271f 3605 b73f
00000660: a9b7 2288 c629 dc3f 883c 699e a8c0 bebf
00000670: a797 0aff 7ade b13f ed43 926d e2ff b73f
00000680: 63ed 726c 0038 b1bf 2a73 3bed 3fb6 dd3f
00000690: fd59 fd75 373f a0bf a3f4 b625 5c3e cb3f
000006a0: 369e 9816 42ac b3bf 762f c49c 2cce d5bf
000006b0: 5562 a046 93ab 9e3f 9594 0cf2 8e29 ce3f
000006c0: 30db 016b dfe2 d3bf f403 b344 53e9 a8bf
000006d0: d338 fa52 829f d3bf 684f c234 d521 bd3f
000006e0: f30d e988 a2df d0bf 6c2b 5d95 a637 d93f
000006f0: 9b44 6e89 cce6 bdbf 3d94 9ba1 9cfc db3f
00000700: d26b 57dd 0215 ca3f e471 2bff b1a8 c83f
00000710: e550 5c07 99c1 c3bf 5244 ee9b 4e2f ba3f
00000720: 8ba9 31d4 5b6a d5bf 4b96 c31b a3f1 d3bf
00000730: 59da 0f6f 3582 d7bf 93f0 9314 d90a cd3f
00000740: 66e2 a66f fbb1 d2bf 16f0 595c b615 99bf
00000750: ebf1 4e85 2c44 cb3f 9f89 0e0e 6c01 be3f
00000760: 4dcc e528 3a2e a23f 6f93 e3bf c9bd c03f
00000770: 2497 fd1e 0735 b03f 4ddf 5bb9 e230 da3f
00000780: eb50 c76f 2858 cabf 1058 e123 1a47 db3f
00000790: c43d 3a06 9eb1 ac3f 81c0 9922 a586 d0bf
000007a0: 10b7 d688 35d1 d3bf e6be d98b 06da cf3f
000007b0: 843b 3914 9e78 c7bf 0886 5f51 9674 d33f
000007c0: 63f5 f47b d46f cd3f 6f95 c38a 624e d43f
000007d0: 8ff0 a894 e207 d6bf 7346 e3c3 f399 d73f
000007e0: 9ff1 ead3 4575 ca3f 9662 71da df16 d73f
000007f0: 22c7 0066 e14e cd3f be78 1351 cdde d4bf

transformer.encoder.layers.0.self_attn.out_proj.bias f8 [16]
0.013402332540293839 0.0033607135333927236 -0.03329049968136166 0.015430023289861188 0.06007676729229094 -0.020587186408185267 0.014901950273598275 -0.015430007713438651
0.030157112326318864 -0.047871235149472405 -0.004694151788212389 -0.017928281837886792 -0.025959092272374612 0.012691274053960174 0.02469323257787018 -0.020204593077103237
00000000: 67fd 9a9f ae72 8b3f e8dc f256 ed87 6b3f
00000010: c042 ccce 730b a1bf 7674 40ab c699 8f3f
00000020: 2f22 8acd 61c2 ae3f 87f7 5bb1 ce14 95bf
00000030: 6de3 92e8 e984 8e3f 18cb 0c94 c499 8fbf
00000040: f5bc bb8c 81e1 9e3f 2ab0 c51a 9482 a8bf
00000050: ddf5 9ac6 2c3a 73bf 0c35 aba0 ca5b 92bf
00000060: a8f1 5f31 0595 9abf f1f7 0cf8 e1fd 893f
00000070: 49fb 6ac9 2e49 993f a907 fb49 83b0 94bf

transformer.encoder.layers.0.linear1.weight f8 [128, 16]
0.0995613019373404 0.13485619771445093 -0.18801409895808613 0.03648257015747211 -0.17736873257689567 0.12368707539328647 -0.24476583824402104 -0.16086362109979613
0.06031424938687483 0.003424051606323596 0.080444951012346 -0.0740757517022749 0.11880455875132541 -0.19007550157783693 -0.030565844112956764 -0.022222064559837412
-0.07124213407625357 -0.16197794334176782 -0.21373396856058724 -0.14570138393642693 -0.19716307746801182 0.11320520651153358 -0.1582822945381982 0.07662539548905442
-0.11231993435337623 0.11662887752540244 0.17729217705798847 -0.17617348521332857 -0.05036234369109267 -0.29628181521787605 0.08369793400827895 0.08319275876391648
0.07444923718651361 0.08756097944124393 0.09535795249782354 0.0055463561489065855 0.1913295435289908 -0.05015161966625383 -0.10720937798360099 0.03766947244672055
0.06451108355571895 0.09467496509691117 0.24171941547730744 0.06156154731945985 -0.018956793823532967 -0.17055599518058434 0.038459655354218664 -0.055311317288795514
0.055096775491742474 0.19168378249089968 0.029379413888867802 0.1654127742603781 -0.16858563220852588 -0.10344385288883909 0.06504968261720534 -0.02405993642958838
-0.09632391663661294 -0.09564611238332897 0.22193481131167067 -0.15294960998066692 -0.003082133891163276 0.03910542149151772 -0.015557206492777446 0.14658869586687195
-0.19517270883443 0.09462982025151202 0.20592368877644918 0.24044497085259034 0.04028907446963064 -0.08471017623023681 -0.027614132941419272 -0.32536777071771456
0.18167326169526396 0.13997848727185597 -0.14884485152381288 0.04064032274342778 -0.03397377359236697 0.061880511054364436 -0.0277151194511589 -0.06571008514954718
0.14807142076784352 0.08155698674011319 0.05355828883595484 0.03695594727301464 0.0026306277611466097 -0.05565281462730739 -0.09285077316342473 0.1447484672332185
-0.009951978052836055 -0.03985947387490798 -0.21241904479845639 0.06258904616799331 -0.030641134021858866 -0.15534223990283752 -0.047294932696607166 -0.03194374508257366
-0.2049511695510001 0.05098978075849633 -0.09308494743882112 0.055208097574246745 -0.13963200543397228 -0.10454382066649918 0.18800891202290676 0.06265367433553448
-0.17421028876783393 -0.025567027120791577 -0.12165289921894495 -0.16320473948618028 0.13117270742430862 0.01042781347265832 -0.008044896638292038 -0.174868278457943
0.2509592699616062 0.0008797884082471941 0.052014463209684586 0.03778673961915461 -0.08051493050261703 -0.16279359632960927 -0.06927211725642975 0.05354819235202682
-0.10586572419521863 0.04222572408710617 -0.22657079350524384 0.12949099402316339 0.058153804012265206 0.07685443141876694 -0.14431032902545463 0.0018690995801663056
-0.082920320730487 -0.04245556566220186 0.17545931386373786 0.028400998589732857 -0.1722588045193334 0.1988565485205612 -0.07863668848525324 0.022463805684611562
0.1679454165875493 0.20299546763365406 0.12526331123295983 -0.0828114378730849 0.021804744529042127 -0.145983366304539 0.038741261104024295 0.019756740587933225
0.043796670202161374 -0.0488606355883877 0.1512042018227203 -0.04584372512573067 -0.09446256208499287 -0.16535687364638782 0.19291923838983938 -0.1100348873605197
-0.18758414082449354 0.09295969837549084 -0.05708445449304968 -0.017878838736757528 -0.065354824585579 -0.10660804643042711 -0.06303592862708127 -0.11110600834205243
0.05156028070971195 -0.02705939499178769 -0.13231969079098085 0.08149388326098815 0.004180182224680652 0.17130080402497108 -0.003700185049082104 0.00011500278321861199
-0.2285292210468776 0.13541091544140454 0.16546824563615442 0.07751723439252774 -0.04747117129929094 -0.2813264848018954 0.08552734350013452 -0.01472842318317443
-0.16373402963125702 0.008091441840144981 0.033544606230051253 -0.1809441712746157 -0.13564918044865984 -0.10160037755871318 -0.13704186617519323 -0.11308661676074684
0.16760970818272777 -0.10797987259885626 -0.0037753186114348595 -0.12185548415915066 0.09462259499375938 -0.18631724226717297 -0.09838021702372393 -0.15890524744672274
-0.026033734359305363 0.09851297445256653 0.06624165989189068 -0.012301920301846361 0.08701033375212917 -0.10349835761965136 -0.2829019568120686 -0.2526172096281275
0.1631558640609742 0.15111368108871925 0.12636711293430322 -0.09949907856032723 0.08207432582443523 -0.0076436872691670035 0.07415483149656726 0.14897316882747952
0.17565353087871838 -0.12217422361961001 -0.12014518950621828 0.06037762582940689 -0.13012754872946555 -0.15590230253331483 -0.14955509372154002 0.04051150849551451
0.13001346828615634 -0.20489914698434045 -0.3200125512275276 -0.005369685925566404 -0.03524023015141997 0.13082633301308952 -0.025037764816079906 -0.06732515748495438
-0.16855017075849746 -0.18761511208343146 0.08674322441862435 -0.005640612129126874 -0.11044130424131021 0.04511573992568799 -0.04801333726698657 0.1746738928244521
-0.23452066107022174 -0.07296214205794724 0.37964566251412624 -0.1911148191486819 0.17782639883813023 -0.49098137302711675 0.062156979846396516 -0.09239605180850807
-0.18217750761982165 -0.2258102368774424 -0.1766196920634731 -0.0662904693723895 -0.07467411728218473 -0.10240930043452474 -0.042015143710777324 0.08067513966469297
0.11924329257100215 -0.15319154078739441 -0.22817709592789606 0.16516335548998407 0.011602584162383139 0.22534539506983176 0.009926164229790157 -0.1254344510959489
00000000: 7b9f c477 d97c b93f 5959 6cc7 f742 c13f
00000010: 221f 1b93 d810 c8bf ac96 66eb d7ad a23f
00000020: 2418 e0c4 04b4 c6bf 7686 c0c7 f4a9 bf3f
00000030: 02d2 37ab 7c54 cfbf 74b0 dedb 2d97 c4bf
00000040: 95e6 3261 82e1 ae3f 9740 68b5 c10c 6c3f
00000050: f4f1 b951 0a98 b43f 2ae6 fce2 a0f6 b2bf
00000060: 15e1 73be f969 be3f f417 86df 6454 c8bf
00000070: 30f0 5b13 a74c 9fbf b8eb 2282 61c1 96bf
00000080: e86a f4ab ec3c b2bf 07c2 a978 b1bb c4bf
00000090: b089 817a a25b cbbf 0f94 7ecb 57a6 c2bf
000000a0: f216 dac4 a33c c9bf eb36 b433 04fb bc3f
000000b0: 44e8 491f 9842 c4bf 6626 abcf b89d b33f
000000c0: fc92 bccc ffc0 bcbf 9aa4 bdde 63db bd3f
000000d0: 677d 2693 82b1 c63f 61f0 b44e da8c c6bf
000000e0: bad0 34d6 17c9 a9bf a3a8 b000 48f6 d2bf
000000f0: 57ee 4e51 3a6d b53f 9db0 27e2 1e4c b53f
00000100: 06a0 edee 1a0f b33f 5d1a 1b77 656a b63f
00000110: b944 64f7 6069 b83f c227 58a4 c6b7 763f
00000120: 9099 1b8a 7c7d c83f f3b0 9d1c 79ad a9bf
00000130: 019a 43e4 1272 bbbf bbb6 6ec0 6949 a33f
00000140: 2df1 1962 cc83 b03f 3e57 d756 9e3c b83f
00000150: 3f42 246c a9f0 ce3f d141 dbc0 fe84 af3f
00000160: 994e 09e6 6869 93bf defa b762 c7d4 c5bf
00000170: 1c71 ece3 fbb0 a33f d846 b5d5 c351 acbf
00000180: e944 b401 a535 ac3f 386a 7c1c 1889 c83f
00000190: 2737 5017 a315 9e3f 76fc e4eb 3e2c c53f
000001a0: 059f 74c8 3694 c5bf 823a 21dd 4b7b babf
000001b0: 70c1 7493 18a7 b03f 0389 6f00 2ba3 98bf
000001c0: cce1 c627 afa8 b8bf 4f0a ad7c 437c b8bf
000001d0: 2bba 3622 5c68 cc3f 12c6 6652 da93 c3bf
000001e0: d049 7608 b43f 69bf ac02 ce34 a005 a43f
000001f0: 2f2b d4e8 74dc 8fbf 9c12 5b1b 6bc3 c23f
00000200: 6aff c158 6bfb c8bf e9e3 34ef a839 b83f
00000210: b41d 621a b55b ca3f 9d57 269b e6c6 ce3f
00000220: 5762 7702 c5a0 a43f 7919 8cec 90af b5bf
00000230: cb2b 9017 e146 9cbf b1eb 9957 d3d2 d4bf
00000240: abf7 c4c6 1141 c73f 42f3 7ca8 d0ea c13f
00000250: 2483 bc1c 590d c3bf c1ef 29f2 cece a43f
00000260: 2f79 00ad 0265 a1bf 71fd 7966 cdae af3f
00000270: 0000 972e 5a61 9cbf 0414 bc4a 60d2 b0bf
00000280: 40c7 d51a 01f4 c23f a420 cf2e ebe0 b43f
00000290: f4d5 f5f5 fd6b ab3f 0e50 dcd1 e3eb a23f
000002a0: b564 7786 d38c 653f 9b5f 8295 867e acbf
000002b0: 612d 257a 11c5 b7bf aad6 7426 1e87 c23f
000002c0: e8b7 23e2 b361 84bf 73fd 7401 7668 a4bf
000002d0: a77c 3a19 8c30 cbbf 171e 61f2 d505 b03f
000002e0: 411b 25b2 6360 9fbf 2af8 0828 41e2 c3bf
000002f0: 179b 659a 0a37 a8bf 1b01 e238 ee5a a0bf
00000300: bbce 3f05 d73b cabf 6b6e 9321 551b aa3f
00000310: d0e6 ff44 6ad4 b7bf 748d 1c5b 3c44 ac3f
00000320: c52a 6828 76df c1bf dbf1 c242 62c3 babf
00000330: ba59 3f10 ad10 c83f 98cf 3e3a 120a b03f
00000340: 5b39 71d2 854c c6bf 14e6 5b25 3e2e 9abf
00000350: 50e4 9bf7 a424 bfbf a39a 5295 e4e3 c4bf
00000360: 7bf1 416c 44ca c03f 86bc ab6e 2d5b 853f
00000370: 1777 b0bf d779 80bf 02d7 8a70 1562 c6bf
00000380: 963d 4778 b70f d03f 90d7 6c38 33d4 4c3f
00000390: 7c26 cfc4 a3a1 aa3f 5502 c695 c858 a33f
000003a0: 3734 5961 a09c b4bf 5af0 1daa 6bd6 c4bf
000003b0: 651b 2446 d1bb b1bf f4e0 d22d ab6a ab3f
000003c0: e591 2f1f 041a bbbf 9711 0230 9c9e a53f
000003d0: aeb9 2a92 4500 cdbf ce5e 3a30 2993 c03f
000003e0: cec8 bddc 55c6 ad3f 220c 7f65 bbac b33f
000003f0: 79d5 d1c7 c278 c2bf 4c4d 7764 929f 5e3f
00000400: f415 b621 443a b5bf fecb 1a64 bcbc a5bf
00000410: a663 6967 7375 c63f b871 77c0 2615 9d3f
00000420: 68e6 ed95 930c c6bf 33e1 3ea2 2174 c93f
00000430: c455 4fb5 8821 b4bf f752 097b c000 973f
00000440: eed8 e043 3c7f c53f c083 5c67 c1fb c93f
00000450: 832e 91d0 a008 c03f 824e 6661 2133 b5bf
00000460: bf77 99a2 fb53 963f a4dc 043c 95af c2bf
00000470: 5d29 e502 e5d5 a33f e88b cd6a 1c3b 943f
00000480: 4f4b 6264 846c a63f 8eea d3df 4204 a9bf
00000490: c355 ecc6 a85a c33f 839d 4828 d478 a7bf
000004a0: 44f6 d9ce b22e b8bf f371 3dfe 692a c5bf
000004b0: c4a8 d3dd 93b1 c83f f0e9 a112 3f2b bcbf
000004c0: 5e73 0bd3 c102 c8bf e466 5ef0 34cc b73f
000004d0: 52b7 5072 2c3a adbf 99c9 a88e d44e 92bf
000004e0: db1a 3b02 18bb b0bf 01bd e838 aa4a bbbf
000004f0: 4622 ed63 1f23 b0bf 29dd 3780 7171 bcbf
00000500: 1d72 d7ee 1b66 aa3f 8737 2842 75b5 9bbf
00000510: 4534 4804 daef c0bf 8f13 6e7b c8dc b43f
00000520: 8e24 241f 3d1f 713f b16a 884b 2fed c53f
00000530: 1770 ccb8 d94f 6ebf 4c7a 80c5 b425 1e3f
00000540: 1dd1 490d 7240 cdbf face ab16 2555 c13f
00000550: d652 c43f 102e c53f 359f 9762 2bd8 b33f
00000560: f56e 7730 244e a8bf 0f42 eecc 4001 d2bf
00000570: a430 3fb7 1ee5 b53f aba5 257f ef29 8ebf
00000580: f717 4197 3cf5 c4bf 7db3 a5f0 3e92 803f
00000590: 9b37 6e35 c22c a13f b45d 03b9 2d29 c7bf
000005a0: 0dcb e0cc f35c c1bf a63c e07a 7b02 babf
000005b0: addf b37e 968a c1bf 194a 9a98 3ef3 bcbf
000005c0: 9386 9123 3c74 c53f ab36 70a5 91a4 bbbf
000005d0: dd9d fabe 6aed 6ebf a542 4dc7 eb31 bfbf
000005e0: 42fa f5b6 2f39 b83f 15f5 1b4f 3ed9 c7bf
000005f0: fab5 b026 722f b9bf a825 79d4 0157 c4bf
00000600: 87f3 a956 96a8 9abf 9d65 8173 2538 b93f
00000610: 2051 dea2 36f5 b03f 68d4 feca bf31 89bf
00000620: f722 e129 4f46 b63f 8386 2a4d de7e babf
00000630: 01dd 1ecf 101b d2bf 069d 705f e12a d0bf
00000640: d670 2596 4ae2 c43f 608a 206f b157 c33f
00000650: ebdf ab2c cc2c c03f d713 6688 c578 b9bf
00000660: b3d7 41b1 d202 b53f 1f85 78ad fc4e 7fbf
00000670: e43e 1ea0 cffb b23f b639 0c84 8d11 c33f
00000680: e087 469d d07b c63f 3544 dc56 cf46 bfbf
00000690: 2470 b3cb d5c1 bebf 03e2 b1f0 d0e9 ae3f
000006a0: 8904 0dff 04a8 c0bf 3837 604d 9bf4 c3bf
000006b0: 3afb 3d0e 9f24 c3bf fb20 33a8 ecbd a43f
000006c0: bc0e 2a05 48a4 c03f 4155 a39f 223a cabf
000006d0: 7c3b 75ec 157b d4bf 74a5 0a17 86fe 75bf
000006e0: 30fa 01e8 010b a2bf f397 dfd2 eabe c03f
000006f0: e533 33f4 7fa3 99bf c88e 98b5 383c b1bf
00000700: 954c 924f 0d93 c5bf 7e1d 51a1 c503 c8bf
00000710: 7f0f 07d0 cd34 b63f 4afd fb49 9c1a 77bf
00000720: 4411 d89d e145 bcbf 1506 0807 6919 a73f
00000730: d5c3 aa42 3495 a8bf 23b1 92d0 b65b c63f
00000740: 2836 c4e4 c504 cebf 4628 fc9d a5ad b2bf
00000750: 5040 2452 1d4c d83f 3c24 034d 7376 c8bf
00000760: 4407 b0f3 03c3 c63f 662f 0623 3d6c dfbf
00000770: 591a 5127 0ad3 af3f 600c cc84 44a7 b7bf
00000780: 549f a5b2 9751 c7bf e8cc 3e8f 59e7 ccbf
00000790: aa00 9f5c 799b c6bf caab fd85 69f8 b0bf
000007a0: beab 95cb d71d b3bf 6d2a 2cf4 7e37 babf
000007b0: d35b 5948 0283 a5bf 60c8 753e 20a7 b43f
000007c0: c51c dc79 ba86 be3f ad54 dac8 c79b c3bf
000007d0: d570 5a36 e834 cdbf 88de 29a5 1224 c53f
000007e0: c351 367c 18c3 873f 3c87 102f 1ed8 cc3f
000007f0: a6f2 ee35 2b54 843f 11d9 9f70 3c0e c0bf

transformer.encoder.layers.0.linear1.bias f8 [128]
0.19046341540517112 -0.12908489623688713 0.07519565666610478 -0.08651837889108036 0.09501872839575487 -0.005693993117504848 0.09358777683502349 -0.2464219196153836
-0.05254557259676137 0.17306310512745074 0.202583010907397 -0.16499927033716824 -0.1442210361553233 0.1524108489258674 0.18209125157407 0.09205535623911112
0.14243242245754745 0.14014473262430105 -0.1591202319977143 0.07350299095923404 -0.17723517829389246 -0.04544201481505301 0.20888217655618677 0.1925714167977121
0.23641089217723926 -0.13162205843063587 -0.1230064864214305 -0.2136252524513706 -0.270233597433801 -0.2426620968894265 -0.22723431330638744 0.16644746306364805
-0.19090419082150895 -0.10146896411652541 0.10794327859957044 0.18467527331013378 0.019745019514978007 -0.02168069761448753 0.17840928869778297 -0.20638631298379517
0.17490471056852075 0.23764044754392674 -0.2772884551905322 0.22425796015230787 0.07127604778140739 0.04332717597512441 0.037707781710902284 0.08903289514145343
0.15837791527726613 -0.05565776992362896 0.1088826423998161 -0.00027107090487377497 -0.1967309032580199 0.03832589892436049 -0.16963494210685096 -0.003205171044464071
-0.14433850465466264 -0.03570037988096619 0.1263394433942138 0.017858054451893802 0.1384344136301172 0.18672510164899278 0.18125377606155874 -0.19953354107444335
-0.221527868652278 0.22271441502685685 -0.2084320859321072 0.14949521866746815 -0.2290983965484168 -0.015502705756063951 0.041424943708815075 -0.1302834999533671
0.030898373396204975 -0.2428815849418915 0.031251189347050706 0.12648189942604918 0.08454565055008645 0.021364005654551526 0.12665351096792074 0.007778905975360583
-0.13171670127575894 -0.16360077792190783 -0.17625447236582936 -0.20663111595297204 0.06619122392004001 0.2893310975723116 -0.18301134754758483 0.19232716086070725
-0.1550508462951455 0.1296160867654421 -0.20379115619775307 -0.25752039067435795 0.10677961935463436 -0.22231605706847662 -0.08767347348009587 -0.14674968310868064
-0.17578166599570197 0.09080201795002617 0.08815055524009588 -0.1474143611378222 0.1898475913436188 0.15888801764074706 0.022200069280471815 0.10293756446902974
0.26028745812759735 -0.025802770100193977 0.2084849799874072 0.015413651236753763 -0.11687457474733587 -0.1600850609002969 -0.10371381790192702 0.014062939293325742
-0.034429175443723425 0.1521207932190964 0.1334888396810325 0.03629378616255377 0.16007678617198895 0.06951717623612216 -0.14975448319147786 -0.06777164737966392
0.13828209785594994 0.11596635110698063 0.19132858789618581 -0.101066451751236 -0.19313272189349992 0.06311087100279035 0.11162106541948094 -0.11970353389709018
00000000: 45f5 1fee 1a61 c83f a05b df97 da85 c0bf
00000010: 54a2 2ec6 0540 b33f 8e12 d787 1126 b6bf
00000020: 409f f7ba 2553 b83f 01c5 92a3 9552 77bf
00000030: 4fd0 cf58 5ef5 b73f 9fff e1e2 c08a cfbf
00000040: fb92 b4d7 40e7 aabf 8153 558c ee26 c63f
00000050: 1247 4977 3dee c93f d522 fb32 b21e c5bf
00000060: 2757 d7bc d575 c2bf eb99 d8dd 3282 c33f
00000070: c7fc 3221 c44e c73f f2f6 7798 f090 b73f
00000080: 3e30 2cc2 393b c23f 20fd a939 43f0 c13f
00000090: 68f3 4740 0d5e c4bf f6fd 538e 17d1 b23f
000000a0: 2c8b 3c6f a4af c6bf a970 fdfe 2c44 a7bf
000000b0: e757 83b2 a6bc ca3f 0631 a520 2ea6 c83f
000000c0: eae2 284d b642 ce3f eb25 32da fdd8 c0bf
000000d0: c63b 6064 5a7d bfbf c66e 7080 1258 cbbf
000000e0: fb8c d0db 814b d1bf 2337 0f35 8d0f cfbf
000000f0: a808 1794 0316 cdbf 0e26 2e85 264e c53f
00000100: 6eb5 1f6c 8c6f c8bf 6181 70ba def9 b9bf
00000110: f17d 68b3 2ba2 bb3f f899 9f79 70a3 c73f
00000120: 8887 4dd4 0938 943f 9cb2 d5fc 7633 96bf
00000130: 953a 2196 1dd6 c63f f4bf 4de0 dd6a cabf
00000140: 3471 e70d 4763 c63f 5338 348f 006b ce3f
00000150: 3582 a613 18bf d1bf 0a65 5c1e 7cb4 cc3f
00000160: 4093 35a6 253f b23f 46b1 aec7 fa2e a63f
00000170: 718d 8132 6f4e a33f e296 e61c dcca b63f
00000180: 5e23 433f ba45 c43f 0639 2edb 2c7f acbf
00000190: ec92 359c bbdf bb3f 4248 dcab d0c3 31bf
000001a0: bc88 cd6d 7a2e c9bf a69a f0c4 739f a33f
000001b0: adcb 4d08 99b6 c5bf 30c6 0c1a bb41 6abf
000001c0: 0acd 8522 af79 c2bf 1049 16f8 5147 a2bf
000001d0: c957 c910 e42b c03f bd41 5dbf 6149 923f
000001e0: 4755 9707 38b8 c13f 8f5c 76ae 9be6 c73f
000001f0: dafe 3ae0 5233 c73f d555 afa8 508a c9bf
00000200: 9bce 8173 065b ccbf f4ad 71ec e781 cc3f
00000210: a9fa 4110 e7ad cabf 03e6 8ac9 a822 c33f
00000220: 20e9 5ea4 1853 cdbf 0742 c6f1 e1bf 8fbf
00000230: eb9d ef74 a635 a53f 610a c135 21ad c0bf
00000240: cbf7 f1bc d2a3 9f3f 1023 1068 be16 cfbf
00000250: ccd2 69e8 2700 a03f 5d11 c912 8f30 c03f
00000260: d8b4 21a4 c8a4 b53f db34 6426 72e0 953f
00000270: 27f1 c3a7 2e36 c03f 0c90 342c c6dc 7f3f
00000280: 577f 28c6 17dc c0bf 1b2b 63cb def0 c4bf
00000290: 64e0 4aad 818f c6bf d54f ad6e e372 cabf
000002a0: 14cf 0476 e8f1 b03f bd7c 7294 6684 d23f
000002b0: 1bc3 4174 ea6c c7bf 15bf 0329 2d9e c83f
000002c0: cb02 07c5 b4d8 c3bf 97b6 d88a 4297 c03f
000002d0: 1aac 8a1f d415 cabf fcf7 ffcd 367b d0bf
000002e0: 6bea 01bd e855 bb3f 2a0d 3e41 da74 ccbf
000002f0: 4de0 52cd c471 b6bf 0438 d390 b1c8 c2bf
00000300: 430e 587d 0380 c6bf 2f94 8111 cd3e b73f
00000310: 6265 e1e7 0891 b63f 5e1a 064a 79de c2bf
00000320: 9fc9 0506 ed4c c83f ca23 bf4b 7156 c43f
00000330: 043f 1d6e 9dbb 963f cca3 ecc0 1d5a ba3f
00000340: 54e3 0dba 8ca8 d03f 0bfa e796 0a6c 9abf
00000350: 8366 60c5 a2af ca3f 845b ca3f 3191 8f3f
00000360: 3012 46fc 7deb bdbf 828d 92d2 aa7d c4bf
00000370: 2036 0820 fd8c babf dcc1 cdc2 07cd 8c3f
00000380: 483a 1e6d b3a0 a1bf d773 f5b3 b178 c33f
00000390: 8fcf 678c 2916 c13f b47c 3b61 1995 a23f
000003a0: a08e ba68 657d c43f 0ec5 71ae e0cb b13f
000003b0: c74e dea7 272b c3bf b179 1791 7b59 b1bf
000003c0: 15f0 f44f 3ab3 c13f 21e1 7085 f8af bd3f
000003d0: cde8 e685 747d c83f cb8b feb0 7ddf b9bf
000003e0: 3ff7 28b2 92b8 c8bf a1a3 fab6 0828 b03f
000003f0: 0277 85b9 3293 bc3f aeba 4d0b e4a4 bebf
