Code/800-200/darts_logs/D-ltc_transformer/checkpoints/best-epoch=69-val_loss=0.00.ckpt (torch, 653413 bytes, 205 tensors)

encoder.weight f8 [16, 1]
0	0xbfd509d294163c1b	-0.32872452222449206
1	0xbfe5410ccecf85ba	-0.6641906775732231
2	0xbfea50844ba7b96a	-0.8223287084236237
3	0xbfea23b988ccf62c	-0.8168609306227999
4	0x3fd77d21789d1278	0.36701237467449443
5	0x3fea7f72905120af	0.8280575579347181
6	0x3fa52627b4c7288e	0.04130672532808531
7	0x3ff16472f2c5a3b0	1.0870236857683544
8	0xbfe6e552eb95a7ec	-0.715493641019973
9	0x3fedf88d498bff9a	0.9365908085310253
10	0x3ff1f798058f58d7	1.122947713583519
11	0xbfe08d0d6ec4218a	-0.517218319263564
12	0xbfd27a50e6deea91	-0.28871557756398497
13	0xbfe1273dea7375fc	-0.5360402659532038
14	0x3fa827fe8959206f	0.04718013216603444
15	0x3fdf08c3e05da27f	0.48490998182982276

encoder.bias f8 [16]
0	0x3fdef5af9edc8835	0.4837454844838505
1	0xbfa530c174de8d0b	-0.04138760139110261
2	0xbfe7e10a06f22b8a	-0.7462206016219721
3	0x3fbbd625479bf558	0.1087363529040507
4	0xbfe003cb3acdcedd	-0.5004631184114846
5	0xbfee387477d1bb99	-0.9443914737911313
6	0xbfedf510c595e848	-0.9361652239888452
7	0xbfc499e3e41be4bc	-0.1609463561833645
8	0xbfd99b90c9ed6ed2	-0.40011996955375395
9	0xbfec136c4835dec5	-0.8773709688529939
10	0xbfbff0ac4fca5deb	-0.12476612995157381
11	0xbfdd88f4d8dc56d4	-0.46148415735056614
12	0xbf7c23982d5c9b4e	-0.006869883005299849
13	0xbfcbd399549c246a	-0.2173949874052455
14	0xbfe921c1bcadc597	-0.7853707013256778
15	0x3fc925934798c69a	0.1964592074960379

transformer.encoder.layers.0.self_attn.in_proj_weight f8 [48, 16]
0	0x3fcb6b2193afdabf	0.21420688353801684
1	0x3fb24db7888c443d	0.07149836620034562
2	0xbfd3484a5c29ef62	-0.30128726005908935
3	0xbfa0a32450dc5afd	-0.0324946736056315
4	0x3fd333ca81e97666	0.30003607451167225
5	0x3fc04604537e1907	0.12713674618516554
6	0x3fbef04b1f5818c1	0.12085408702123158
7	0x3fd25b185e1fb8fb	0.2868100089243765
8	0x3fc7bd8761e55bb4	0.1854714611060594
9	0xbf9330eb196fd9f7	-0.018741296222254147
10	0xbfc7341523b4c934	-0.18127693408457335
11	0xbfd0d76fc7e91f66	-0.2631492092373179
12	0xbfadf8168259f9dd	-0.05853338566975073
13	0xbfc2a3ba3b07a2f2	-0.14562156565013812
14	0xbfcf1f1f1ba92ed4	-0.24313725329044777
15	0xbfc5782d1b14cbbf	-0.16772998640371203
16	0x3fb4b21123917997	0.08084208601346742
17	0xbfb30d873c0742f1	-0.07442517486130008
18	0xbfd7854279731b1c	-0.36750852451625504
19	0xbfad9dd5b70a55e9	-0.057844809144778804
20	0xbfcb44e7a7c8c1e1	-0.21304031078899668
21	0x3fb41e9bacad6185	0.07859204259637494
22	0xbf82604823990fc3	-0.00897270544658813
23	0xbfc0088f5f988524	-0.12526123206866047
24	0xbf81a3cdc9bd0d50	-0.008613212317533453
25	0x3fdcf6b39a321562	0.4525574689690385
26	0x3fd8d751fcf6f0a6	0.38814210609030864
27	0xbfc8229039e73e98	-0.18855479075727
28	0x3fbaa94825d67fe4	0.10414553569580637
29	0x3fc2ae38763c087e	0.14594178937119645
30	0xbfc646aa2049b592	-0.1740315110832112
31	0x3fd4d8783c61d518	0.32571226021475885
32	0xbfb2a2b005427b18	-0.07279491547022265
33	0x3fca37c9d64e72c6	0.20482752765828688
34	0xbfd1adfc9e9544b3	-0.2762443112051855
35	0x3f40f9da9de9ff6c	0.0005180661645027679
36	0x3fba3fc2c1a89302	0.10253541210165554
37	0x3fd259d1645cbbc6	0.28673205185890216
38	0xbfc145f6e0693a14	-0.1349476428753894
39	0x3fb5b23da9e34442	0.08475098989153287
40	0xbfa6fb610a880558	-0.04488662007862371
41	0xbf9129ba6de780f2	-0.016760743101145566
42	0xbfc8e1a9d12daa10	-0.19438669885433102
43	0xbf8ad619910b0e4f	-0.013103675593249124
44	0xbfc5c906a5f0e139	-0.17019732573113247
45	0x3fa9873b28e3cbe6	0.04985985635894234
46	0x3fc749098e53c50b	0.18191642236300995
47	0x3fb2650cc164770a	0.07185439797873641
48	0xbfc694dac1e29d14	-0.17641767947245823
49	0x3fd56790a8630fc1	0.33444611019171694
50	0x3fc9c13f243714f0	0.20120991962736623
51	0x3fcbcb91b4afb135	0.21714993784497386
52	0x3fd4c8c765a417f8	0.3247545712077904
53	0x3fb9c4bfd572937e	0.10065840684053559
54	0xbfc5a47f82801729	-0.1690825831612355
55	0xbfbd0e1f7f0529ee	-0.11349675036505122
56	0xbfd170acaa2725ec	-0.27250210396286323
57	0xbfd0d6cd52cebb22	-0.2631104763667499
58	0x3fd2cda50753657c	0.2938015529194542
59	0x3fbf70544768d7db	0.12280775779149115
60	0xbfc0b86de8ad3ff5	-0.1306283365361193
61	0xbfc93991c0b998f1	-0.19706937704467678
62	0x3f925416f12307a7	0.01789890143186992
63	0x3fcb2245689294e9	0.2119833717926334
64	0xbfcf8c6e09761010	-0.24647307836505705
65	0x3fd03b845f39f39e	0.2536326341576628
66	0x3fc3579afb3508f0	0.15111100450491888
67	0x3f9fecf49ae2a96e	0.031177350953535514
68	0xbfcd4abaa2c2d36c	-0.22884304950062118
69	0x3fceb274b17eeca7	0.23982103983675992
70	0xbfb558f3cc933009	-0.0833885549974981
71	0xbfd1857b9408f54b	-0.2737721391348102
72	0x3fd68ded781d2c9b	0.3524125740993413
73	0xbfc3e325e23c6d9c	-0.1553695063274575
74	0x3fbf911fce8f79cf	0.12330817025165362
75	0x3fd2d3653714f59a	0.29415254954423065
76	0x3fc27c2f90024b37	0.14441484958350667
77	0xbfbab7d539281f38	-0.10436756749561205
78	0x3f8baf14dd660b48	0.013517535215901724
79	0xbfcb308fd1f74adf	-0.21241948845143718
80	0x3fdce5bcb0ae3c82	0.4515220380207624
81	0x3f8a78c8ecb636a3	0.01292569134127614
82	0xbf80bcd3d37c6b17	-0.008172659770527653
83	0xbfd62c077d0702f9	-0.34643733224588363
84	0x3fda6eafe9a5188a	0.4130058080376179
85	0xbfc075b7e463a8f3	-0.1285924782926667
86	0xbfcd36a8afe04598	-0.22823055827806793
87	0x3fe35826fd99e215	0.6045107796808816
88	0xbfd7682ac6dc4e86	-0.36573285503366326
89	0x3fddcfe21808db7a	0.4658131823265915
90	0x3fd8fb32949822f3	0.39033188353691556
91	0x3f8b2c7e81b474a6	0.013268459637908524
92	0xbfd01a56e636a8a4	-0.2516076324633423
93	0x3f3f5d048fe04fdb	0.0004785667550788444
94	0xbfc90926ec6bfec6	-0.19559179824863387
95	0x3fd2f898460e2796	0.2964230236180979
96	0xbfbf802b0fb821e5	-0.12304944165965244
97	0xbfafc816ca5da57a	-0.06207343311582299
98	0x3fb5988c15f40d35	0.0843589356991757
99	0x3fc78f1fbc8a13ce	0.18405529695533435
100	0x3fa390adee10e268	0.0382131913287978
101	0x3fcf4d9d4c3cb805	0.2445561048747892
102	0x3f99687fc4aa5504	0.02481269491052719
103	0xbfbbd5173e42db5b	-0.1087202574734482
104	0xbf8e2396e8d863fd	-0.014716319065927403
105	0x3fd82b4683cd7f45	0.37764132377013865
106	0xbfd1cb90750c11b6	-0.2780495780027893
107	0x3fcd318a8f6b6e1b	0.2280743789950613
108	0xbfd790b0a57c55fb	-0.3682061782904779
109	0xbfcbd9e4fd990d38	-0.21758711226184757
110	0xbfca4f77e8e66f99	-0.2055501830299107
111	0xbfd653702254a6e1	-0.3488426528225386
112	0xbfb5d53b81a85709	-0.0852849189326116
113	0xbfd0d9c5b143b971	-0.2632917624568086
114	0xbfce6f6a0d862371	-0.23777509365416052
115	0x3fdde4e02e7e38e8	0.4670944646867512
116	0xbfde26ccfbf32589	-0.4711182079741652
117	0x3fc2c9b2b0fbef3c	0.1467803348713178
118	0x3fc42c1316c74f64	0.15759504902109278
119	0xbfd3e7dfee40ef91	-0.3110275103278975
120	0x3fd1e04e473726bc	0.279315537973712
121	0x3faab0cb81f3bdb9	0.05213008843736184
122	0xbfd215e03cbded64	-0.28258520061327475
123	0x3fc36a52816992a1	0.15168219870533498
124	0x3fd5fa66b22f43c5	0.3434082737049347
125	0x3fd26f0802e4a411	0.28802681238681865
126	0xbfcc4720282f4c98	-0.22092058145662885
127	0x3fc1be77eb9c008e	0.13862513546337535
128	0x3fa55d8dc0727efd	0.04172938322267148
129	0x3fb598b1bb87e4ce	0.08436117962255027
130	0xbfb3b8a956d4ae48	-0.07703646058933444
131	0x3fc9cd1ebb99cecb	0.20157226715274698
132	0x3fd2f59c816f2e1b	0.2962409271246728
133	0x3fc295c31712616d	0.14519537569573107
134	0x3fcd53e004d5b1f3	0.22912216411658867
135	0x3fccb6a2be65ae34	0.22432359978425753
136	0x3fb4b0800b25959f	0.0808181788648512
137	0xbfc7e78cedd37c3e	-0.18675386059382676
138	0x3fd27f52665de8b6	0.289021110503778
139	0x3fc82e2c0dba16b9	0.18890906019458045
140	0x3fc3a4070f65007c	0.15344322444616754
141	0x3f57039fdb396b31	0.0014046727273099963
142	0xbfb2028860f684b7	-0.07035114638576344
143	0xbfc514f18083638a	-0.1647016408449214
144	0x3fd6b76c972ed8cb	0.3549453236004296
145	0xbfc252dba8d7a530	-0.14315362686401434
146	0x3fb8a1a0de54e104	0.09621625354782642
147	0x3fd7c95d70546262	0.3716653439492231
148	0xbfb05c9d8282a3dd	-0.06391319690977988
149	0xbfb915fb01ac4fff	-0.09799164572569906
150	0xbfb3d503001a586d	-0.07746905090820784
151	0xbfb4b4c81469e14e	-0.08088350771311534
152	0xbfc5f02c46dc1a14	-0.1713919969553933
153	0x3fd46bbdf9ec3596	0.3190760555888458
154	0x3fc3994f6f705276	0.15311615887971514
155	0x3fc17a222b2fc720	0.13653971775743745
156	0xbfd28139da0e01fa	-0.28913732809453985
157	0x3fd5be878a39f2a5	0.339753994929007
158	0xbfb30bcfc5f26eef	-0.07439898092928464
159	0xbfcb09afb3979bf5	-0.21123310345794236
160	0xbfd1f4b8bdcc3879	-0.2805616239064715
161	0x3fc0de4766027046	0.13178341370519514
162	0x3fc0560a43801fad	0.12762573524400747
163	0x3fa3a31dd329ccd0	0.03835385515858436
164	0x3fd09440ad939021	0.259048623569699
165	0x3fe23f4139bea60d	0.5702215316607081
166	0x3fbf41068fd28fc2	0.12208596240321781
167	0xbfe176ac23b78e08	-0.5457363793943282
168	0x3fb8065a7dd39e16	0.09384694644870026
169	0xbfd5c187361aec96	-0.3399370220537973
170	0x3faf9ba7210cbe0a	0.06173441198768266
171	0xbfd88176b492d169	-0.3829018367207682
172	0x3f5883d8af065243	0.0014962783862745444
173	0x3f7e8111cec956d8	0.0074473090758908275
174	0x3fc025d01bef2e9c	0.12615395893077597
175	0xbfe179044e21fcae	-0.5460225606947426
176	0xbfde865a817566e4	-0.47695028917733695
177	0x3fc9cd2adbbabaf1	0.20157371262526838
178	0x3fdefe26f8faf2e7	0.4842622214744509
179	0xbfcf9faaea834efa	-0.24706016970468864
180	0x3fb182f442fd831c	0.06840445170884063
181	0x3fb455a0219eef6e	0.07943154164143859
182	0x3fe08b25b04534f5	0.516985744741446
183	0xbfdedfc7e2e53918	-0.48240849645380157
184	0x3fd59c326c6723e5	0.33765850626201505
185	0xbfc2cc9c61b8ba56	-0.14686922809183284
186	0xbfd734289b672fa1	-0.3625585095985518
187	0xbfbd85a735ee92c2	-0.11532063547799523
188	0x3fb343a768f7c44d	0.07525106728259452
189	0xbfd7da32ba3951eb	-0.3726927584259829
190	0x3fe0ced50551e74a	0.5252480605988492
191	0xbfb43d2a7585b220	-0.079058316890674
192	0x3fd37ad699fe0c4c	0.304372454055003
193	0x3fc56d34a5c1b4da	0.16739519208514403
194	0xbfccf741efb85941	-0.2262957020290717
195	0x3fd3dac76ba46358	0.310228209609297
196	0xbfd4d7aa16638ff8	-0.32566311060349973
197	0xbfda32204c355bcb	-0.40930945818166425
198	0xbfb9d2460e025eff	-0.10086477129004477
199	0x3fe0c08a5dc936ba	0.5235034782178538
200	0xbfd347533ab6f141	-0.3012283395180653
201	0x3fb21722bff47322	0.07066552339933854
202	0x3fbe5f55bb271885	0.11864219493063118
203	0x3fc5c838c7312c8b	0.170172784101258
204	0xbfcae427c331f92c	-0.21008774786964446
205	0x3fc6366db01d9c2f	0.17353602504155805
206	0xbfca122c498ecb0f	-0.20367959586800352
207	0x3fd35ac490f9f92b	0.30241502912385226
208	0x3f9c1ce813c0b60f	0.027454019742597476
209	0xbfd0323642f402e7	-0.2530646947707695
210	0xbfc13dd94842933c	-0.13469997433016967
211	0x3fcb0fb8fe282f18	0.21141731653221352
212	0xbfd1d51137054410	-0.27862959263899345
213	0x3fc3412be4cc2ab0	0.15042637511972634
214	0x3fd311c53c6dbd7f	0.2979596223949201
215	0xbfd653e0cc7d14bb	-0.3488695141753159
216	0xbfc27391d2c75792	-0.1441519049828313
217	0xbfbda1c8611ed958	-0.11574985858064701
218	0xbfcba08b52ee3d96	-0.2158369212088302
219	0xbfc581a8c49a5b16	-0.16801938628915342
220	0x3fd108dacdc3af0f	0.26616544813326554
221	0xbfd4ccb175f36be9	-0.32499348181380455
222	0x3fd0c7364e7160f1	0.26215894375265153
223	0xbfb0005a27a4fe56	-0.0625053736484856
224	0x3fc8424b03547415	0.1895231024035701
225	0xbfc54d4147db9320	-0.16642013558080127
226	0xbfd24657a48c6e0d	-0.285543356601665
227	0x3fcc50056adaf37c	0.22119205205481396
228	0xbfba21599f14e0df	-0.10207138189150865
229	0xbfd32df1d65a369d	-0.29967924054003864
230	0xbfcaab273dc6af13	-0.20834818378840989
231	0x3fc2f438c40b163a	0.14807805607249397
232	0xbfa5ebb063b7eddb	-0.04281378953234213
233	0x3fd621dcd8919b96	0.3458168139390464
234	0x3fc386a880a4c5b6	0.1525469425337584
235	0xbfbe384bee3c82ff	-0.11804651800458642
236	0xbfd6f6722aede84e	-0.35879186813656794
237	0xbfc1b4bd7a4c1074	-0.13832825156726225
238	0x3fb552c9e0e113c7	0.0832945035954956
239	0x3fd2a35097bff7ea	0.2912179452831639
240	0xbfce8ad1b557e0f5	-0.2386114249673096
241	0x3f815237d400207e	0.008457599789849942
242	0x3fa38225fefdfd7e	0.03810232865998396
243	0xbfd45e77a91e25f2	-0.3182658340016068
244	0x3fd5d57019396315	0.3411522146539466
245	0x3fd61ea7ab449c3a	0.3456210300959729
246	0x3fcb9ead1a5ca129	0.2157799128265279
247	0xbfdc71e1621c2835	-0.44445070820859495
248	0x3fd48b72e1e46dca	0.32101127681536623
249	0x3fa01abb4186c4ee	0.03145394492038088
250	0x3fb8b8eaa93f945e	0.09657160408058149
251	0xbfda0b808fdcd299	-0.4069520382793513
252	0x3fc9696cffe7c7a0	0.19852983947162972
253	0xbfd9de7fdfd46bd4	-0.4042052923047639
254	0x3fd89c42ec696b54	0.3845374401768613
255	0xbfe0128bcc4476ee	-0.502263926467746

transformer.encoder.layers.0.self_attn.in_proj_bias f8 [48]
0	0x3f8f14abfb8a090e	0.015176147092692573
1	0x3fa6ffba9f53cd4f	0.04491980738557776
2	0x3f869c117cc1016d	0.011039864177406067
3	0xbf9e0e2a40ee6ce4	-0.02935091038999084
4	0x3f6d2f55c2daa18e	0.0035626101515228775
5	0x3fb31539af00c909	0.07454262278114156
6	0xbfaecdf1ac6ec4cd	-0.060164978312408836
7	0x3fb9e716acd7e644	0.1011823818188527
8	0xbf900a5290ed2015	-0.015664377303693373
9	0x3fa507d8c78a8a56	0.041075491293004404
10	0xbfd21d3f0de6e858	-0.2830350528489638
11	0xbfd281c4024c02d8	-0.28917026733692586
12	0x3fc8746af48eebb9	0.1910527891285179
13	0xbfa66ece5c12b5b8	-0.04381413339556722
14	0x3fb7d85487843b6e	0.09314468678006246
15	0xbfd047a9d3386dae	-0.25437398554796686
16	0xbd36e01627579a5b	-8.126952635598589e-14
17	0x3d5902fa7cc8ccf3	3.5543670598761574e-13
18	0xbd0937e80f2c5aea	-1.1199212532213301e-14
19	0x3cee779381ec1718	3.3825269847254534e-15
20	0x3d1361145ddc91be	1.721220234817667e-14
21	0x3d39c33c732174df	9.152728757892562e-14
22	0x3d359216b4ac1470	7.663437515596489e-14
23	0xbd1242c380dec5f3	-1.621884461855863e-14
24	0xbcf3bc43d32e366f	-4.382141300098164e-15
25	0x3d310865e7f603a6	6.051267918269301e-14
26	0xbd5d7404154c1889	-4.185549656848939e-13
27	0xbd623a586f26fd48	-5.180684155058939e-13
28	0xbd49762e3337e45c	-1.8091585088446845e-13
29	0xbd46dcc3ac2febdb	-1.624468433691365e-13
30	0x3d27f48ca8464b8c	4.255310994312809e-14
31	0x3d615f0514536f1e	4.937183818885902e-13
32	0x3f5d5f952d016f8c	0.0017928082270577154
33	0xbf6131bc1e5bb33a	-0.0020989107314250107
34	0x3fa137ca023e5b61	0.033628762029528365
35	0x3f6c11cd5152aaed	0.003426457415647169
36	0xbf1dd3f760f0dda2	-0.00011378476504907709
37	0xbf8ec82a0d657dde	-0.015030220540835634
38	0x3f8423a6eaccc9a1	0.00983362583210551
39	0x3f918bac9c7d292e	0.017134377528500604
40	0xbf5f11d52ba18479	-0.0018963414900315097
41	0x3fba6ae8438b9973	0.10319377564483094
42	0xbf6816911c4e0a41	-0.002940448206971952
43	0xbf86598541f4470c	-0.010912934375059823
44	0x3f819e323499b9bf	0.008602516393889979
45	0x3f85d6cd2f13a59c	0.010663607596557871
46	0xbf843bb18d41b986	-0.00987948143321372
47	0x3f9515346d84d14b	0.02058870237779446

transformer.encoder.layers.0.self_attn.out_proj.weight f8 [16, 16]
0	0xbfa4ef56253ec24e	-0.04088849262860049
1	0x3fd825583e52e635	0.37727933965979626
2	0xbfd4662744fda148	-0.3187349485147206
3	0x3fc52289c7fb2b7a	0.1651165224523899
4	0x3fcea0fef60f94cb	0.23928820624056465
5	0x3fd01f0a61c962c8	0.25189456510046826
6	0xbfd08d19fd7b576a	-0.25861215356905254
7	0x3fc40a5f030dd6c4	0.15656650208591405
8	0xbfc4b5ddf15e50e5	-0.16180013928954576
9	0x3fdadf5e1cfbcf59	0.4198832781832969
10	0xbf83c538bfb57af8	-0.009653514242641034
11	0xbf7d9ebbec629b08	-0.007231458736135073
12	0xbfd825f0c4d1f640	-0.377315704543296
13	0x3fd1a4ed746bd42c	0.2756913792539446
14	0xbfcb5f9f3742a3f9	-0.21385564993150277
15	0xbfc33bc59e6d9c1f	-0.15026159511327905
16	0xbfd7093905806c8e	-0.3599379113890756
17	0xbfc25d8dd3dcfc3c	-0.14348004193195318
18	0x3fca1799a7e21f43	0.20384522149492498
19	0x3fba53568aab6f9d	0.10283413777818713
20	0xbfcb1eab4ce05951	-0.21187344793060928
21	0xbfb1febb775d71ca	-0.07029315628228186
22	0xbfc2fe30da39d8ac	-0.148382288509031
23	0xbfd99627e3aac4a6	-0.39978978379356034
24	0x3fb81d2d57a7704c	0.09419520750037796
25	0xbfd79a2aa9e7898d	-0.3687845858786652
26	0xbfc7573db51f4046	-0.18234988540507596
27	0xbfd9d12695cace02	-0.40339054706711874
28	0xbfdb06f74e52e195	-0.4223001732712189
29	0x3fd7f144d92a3b52	0.3741008873702657
30	0x3fcd46ca3c3a304e	0.2287228387907611
31	0xbfca257acddec464	-0.20426878978972518
32	0x3fab0c6a2661e054	0.052829091248839305
33	0xbfdf4eddd95cd939	-0.4891886351282611
34	0xbfcfea54b39f5a11	-0.24933871050480197
35	0x3f934b096bb3cb0a	0.01884093017447256
36	0x3fbadc1096c54ef4	0.10492042237211391
37	0xbfd1ca59afb2f952	-0.2779754844485939
38	0xbfd9ebec3745de82	-0.40502457998034214
39	0xbfd40ef4a24ca500	-0.31341281747388905
40	0xbf95c87ce7f83fe1	-0.021272613199528115
41	0x3fd59ccadadc2a26	0.3376948487572541
42	0xbfa3eb50e3a23276	-0.03890469340067153
43	0x3fc3032cf86d94ad	0.14853441362644074
44	0x3fde5aa5f69f3a32	0.47428273281267075
45	0x3fd083c322614973	0.25804212911057006
46	0x3fdb4115d3e228fa	0.4258474892782399
47	0xbfda2aa94e8f14af	-0.4088538424660539
48	0x3fd789447d690f1a	0.3677531456671531
49	0xbfd0f23f8580da19	-0.26478565251764646
50	0x3fb5a754cd34f008	0.08458452234202707
51	0x3fb41809da3fe5be	0.07849179819449767
52	0xbfd1a6fda587d8d3	-0.2758173100004459
53	0xbfcee8882d7ed7b4	-0.24147131177386216
54	0x3fc8618274ee413b	0.1904757567358589
55	0x3fb53c9fbbac2589	0.08295629817816609
56	0x3fd4bb2ad49df59b	0.323923785814111
57	0xbfcd3e6e3f3ce4a0	-0.22846773231302553
58	0xbfc90957f20fa5f4	-0.19559764212981146
59	0x3fb1bffe10735fd8	0.06933582212093314
60	0x3f6234fa7e3adcb6	0.0022225277369574926
61	0x3fca2c00068a7773	0.204467776483337
62	0xbfd946e5c225dba9	-0.3949522396064205
63	0xbfc19a4cf40e5092	-0.1375213805846483
64	0xbfd897336871d85c	-0.3842285652129982
65	0x3fc309bb61d04b5e	0.14873449588830118
66	0x3fd494ee2a5fa40c	0.32158998621031354
67	0xbfd8a75f0326475b	-0.3852155237919896
68	0xbfdf69df0d859feb	-0.49083687134270687
69	0xbfc71d58922a6319	-0.1805830682467551
70	0xbfcc453b004513e1	-0.22086274636436
71	0xbfd582520095c839	-0.3360791211808905
72	0x3f97046063dfe4de	0.022477632614003144
73	0x3fd2ec26be41c92b	0.2956635339716224
74	0xbfda80b2cfb69298	-0.4141051319550484
75	0xbfd8b673d8d06fb5	-0.38613601849805984
76	0x3fcbc1200bdfc0f5	0.21683121280467046
77	0xbfc733a1af309b3f	-0.18126317075913254
78	0x3f7a56d725769900	0.0064304737237874665
79	0x3fd9fa79185af97b	0.4059126603932765
80	0x3fc4b0635a1bba00	0.1616329374296157
81	0xbfa6582b1204b7e4	-0.04364142031623411
82	0xbfcbea31fff5a738	-0.21808457372690682
83	0xbfd63dc86ad153a2	-0.3475209277287893
84	0xbfd4f71cc89cdd72	-0.3275825461491514
85	0x3fd5e15a03da4b03	0.3418793714164822
86	0xbfc79a2410d12c87	-0.1843915063967396
87	0xbfd32ce157a01a46	-0.2996142726628118
88	0x3fc79332021c670f	0.1841795454318391
89	0xbfc3ff57331ae910	-0.1562298774277413
90	0x3fd1a64dd30219c7	0.27577539068479634
91	0x3fa458a084ede6e0	0.03973867056533975
92	0x3fd1ce73225bd096	0.2782256923230845
93	0x3fd5fe87c14980be	0.3436602962083376
94	0x3fcb87bd18c169f5	0.21507991513028882
95	0xbfc49aa079bb75a1	-0.1609688372035807
96	0xbfd0ac46da76c467	-0.2605149396359309
97	0x3fd1cc58a494fa28	0.27809730598883897
98	0xbfd039ba63dc9008	-0.2535234427652999
99	0xbfdaeac62703dc90	-0.42057946977679084
100	0xbf902483c4b4374e	-0.015764292603356815
101	0xbfc1eac1c7824ff0	-0.1399767135777661
102	0x3fd899d224365729	0.3843884805331635
103	0xbfd7182ef0c735a2	-0.36085103524677653
104	0x3fbec78166627d72	0.12023171186091533
105	0xbfa7294f711bd416	-0.04523704772683616
106	0x3f78e844585aa03b	0.0060808820468665715
107	0xbfcc2a5e5c7d82a2	-0.22004298702360808
108	0xbfcb4c15df3ff686	-0.21325944329139562
109	0xbfcbea94798c4c56	-0.2180963128563202
110	0xbfb524da8ef037ce	-0.08259359349923942
111	0xbfc67508752f5479	-0.17544656488340474
112	0x3fdc7dc41cf281ab	0.44517615153201956
113	0x3fd601ce52d9ee11	0.34386022654482057
114	0x3fd3e1f565630d8d	0.3106664171320624
115	0x3fab7af831f599d8	0.0536725579248018
116	0x3fd41c5f4b5f9d6b	0.3142317043370528
117	0xbfd529661a708b30	-0.3306517847251369
118	0x3fc610c6efb27e02	0.17238699630705417
119	0x3fcebe38235b66a7	0.24018003202836732
120	0xbfc90b55e8f3af6f	-0.19565843462566643
121	0x3fc0bbc917e7cdb2	0.13073075930843242
122	0x3fc6c7cf81c07877	0.17797273479022
123	0xbfb749da49e6b6e3	-0.09097065262059405
124	0xbfb94509f1c7c645	-0.09870969918099444
125	0xbf8bc9eb47984a8d	-0.013568723795321059
126	0xbfa70437dccacf38	-0.044954057409454184
127	0x3fd9aa8ca3ff75ce	0.4010345078985126
128	0x3fd3ed238f9c2f51	0.3113488104288438
129	0x3fb46f9815d59f9e	0.07982779057567632
130	0xbf975c50a78191ee	-0.022813091491473196
131	0xbfd6cc1a02198797	-0.3562073727135781
132	0x3fdd23b8ca000f4d	0.4553052876146822
133	0x3fcc97aa5077f629	0.22337845734721043
134	0x3fda5d7443d2228a	0.41195398924950466
135	0xbfce49b4ac0ee5ab	-0.2366243209960833
136	0x3f9b09deb0169808	0.02640483808286123
137	0x3fc5fdc5f5f546dc	0.17180704602883778
138	0xbfd57d02dd7214f8	-0.33575507760572476
139	0xbfbac6f0f4d86489	-0.10459810235660617
140	0xbfc3d5da58e8ea47	-0.15496377316761054
141	0x3fd032cd223e82b6	0.25310066551359556
142	0x3fb3e58757e28319	0.07772107978463473
143	0x3fc6ab19d2381094	0.1770965839824653
144	0x3f9d7f7c3f580dae	0.028806630483826083
145	0x3fd0358879c6ff54	0.2532674016219876
146	0xbfd6819addcf6f3a	-0.35166045819436287
147	0xbfcf628592a1bf8c	-0.24519414577252652
148	0x3fd8511fd33c339f	0.3799514353602777
149	0x3fc5b7d9e38c6b6d	0.16967319117324156
150	0xbfcf51b5c1ea6a41	-0.24468109100856064
151	0x3fd6c677d89915bc	0.3558635344710088
152	0xbfd428c454814b93	-0.3149882149929734
153	0xbfd36c215178a5b0	-0.3034747405641509
154	0x3fc7988048495188	0.18434146432504073
155	0xbfd55405bb2cedf1	-0.3332533195386694
156	0xbfc07617ccc593a6	-0.1286039113867023
157	0xbfc1d34304a25b99	-0.13925969816474718
158	0x3fdf60fa08507647	0.4902939873880751
159	0x3fc176c4e1670d4a	0.13643704420074193
160	0xbfce56146c9c2d1d	-0.23700194648004294
161	0x3fa61ca61cb35ca8	0.043187323573584735
162	0x3fc9c83d1b9d1e56	0.20142330025031424
163	0xbfcf702f643912f6	-0.24561111825655474
164	0x3f677afc279cd282	0.002866260995597892
165	0xbfab02496a0ebb4e	-0.0527518217053201
166	0x3fd9aa6df3f02357	0.4010271913726248
167	0x3fd44125b26287a1	0.31647627277754437
168	0x3fc1dc7ff8fcb959	0.1395416227109745
169	0x3fd046d31bf82de3	0.2543227933062708
170	0x3fbc7c213dedd065	0.11126907121598746
171	0x3fc03677a6c10205	0.12666221277505954
172	0x3fd561e97810710c	0.33410107350370377
173	0x3fd392d2ec9be3a5	0.3058364210733607
174	0x3fc6635909a57d0b	0.17490685435311834
175	0xbfb4d55604f8341e	-0.0813802492268256
176	0x3fc73ac2c4da8ba1	0.18148073780056698
177	0x3fb8e94d7130bc7c	0.09730991376339831
178	0x3f894b7bbdcd4b31	0.012351004342837509
179	0xbfd6d811b2da878a	-0.3569378134362685
180	0x3fc1877a37e3985c	0.13694694260556417
181	0xbfd5f3627c5272ca	-0.3429800237734467
182	0x3fdc58b1ac8a2fdb	0.44291345452870495
183	0xbf90846609406a5c	-0.016130060496019602
184	0xbfd0f09e518696cc	-0.2646861835622587
185	0xbfcd340dc479a947	-0.22815105527417698
186	0xbfc0d06ea1a0da55	-0.1313608445359075
187	0x3fc60cdbcc5aa596	0.17226741293169984
188	0xbfd2fec6d7605424	-0.2968003371509573
189	0xbfca4ab0dc026b65	-0.2054043840660952
190	0x3fa9b5a44b5e140f	0.05021394176495885
191	0xbfd5f398bce07233	-0.3429929584979476
192	0x3fce4624a19fb783	0.23651559726516433
193	0x3fd42ac116e121ce	0.31510951265638887
194	0x3fd0f2a5df7be810	0.2648100550137551
195	0xbfcf1bb5916c2775	-0.24303311920840157
196	0x3fdbe86766bd7adf	0.43605980904787417
197	0x3fb636e457b0d6dd	0.0867750848854842
198	0xbfca0be517be5b03	-0.2034880033431464
199	0xbfd7aebbab46b386	-0.37003986097516195
200	0xbfac5914af67dad3	-0.05536713257963801
201	0xbfcd855653f442bd	-0.23063162898372083
202	0x3fd0ae44a5590d0d	0.2606364836430693
203	0x3fba748d80e22d63	0.10334095379419277
204	0x3fda9686bd5be1b0	0.4154373978813295
205	0xbfbc3c08184c6223	-0.1102910098383139
206	0x3fbc7944ac1ad724	0.11122540666368913
207	0x3f6bfa6af2d0529c	0.0034153069341392294
208	0xbfafb10c6879f662	-0.061897647622555466
209	0x3fdacc6b7df78895	0.4187267999788074
210	0xbf999e2a4994a301	-0.02501741479969422
211	0x3fd0c8e690561e34	0.2622620019469395
212	0xbfa526039737141f	-0.041305649002915105
213	0xbfd703f22c9b8210	-0.3596158443088209
214	0x3f959561c99b94ad	0.021077659540328742
215	0x3fcce7cc6f20b656	0.2258239309898495
216	0xbfd4cb42057154d0	-0.32490587741388044
217	0xbfa820bba2552e80	-0.04712473255730476
218	0xbfd40497cef83c39	-0.31278033458596927
219	0x3fbdf8075468b8ee	0.11706586657303195
220	0xbfc9f822a877b268	-0.20288499093966839
221	0x3fda171da9f5c062	0.4076608810200978
222	0xbfb2fbd92f8e0c2e	-0.07415540133483553
223	0x3fd7a84df14e201f	0.3696474892135501
224	0x3fc68bb8261d1a14	0.17613889561671725
225	0x3fcc79e895173864	0.22247035293407003
226	0xbfc29d5555d2fcfc	-0.14542643252023157
227	0x3fbd84542c0f5222	0.11530042720489367
228	0xbfd757450515c43d	-0.36470151421150715
229	0xbfd3254caab7fc2d	-0.29915157958743316
230	0xbfd74434a3a05240	-0.3635379407799384
231	0x3fce1c6dc8f24271	0.23524257957298603
232	0xbfd3a16e8c52747e	-0.30672801688508133
233	0xbf92874a666d0bd8	-0.018094217778763383
234	0x3fc9a4e860fe0e9f	0.20034508453328656
235	0x3fb9abf489c894e5	0.1002800785432388
236	0x3fa2c61512401f52	0.0366674980905929
237	0x3fc0d39be1a01860	0.13145779148925651
238	0x3fa4aee5745c6934	0.04039685292646525
239	0x3fda3ee5735c8f8e	0.4100888849809444
240	0xbfc66fa5a18aefda	-0.17528219592884292
241	0x3fdd7a6d8c825828	0.46059740754697254
242	0x3fa6cca1e8bfa211	0.044529971753778715
243	0xbfd25581ba802bf0	-0.28646891797023866
244	0xbfd22457bb010e68	-0.283468182202546
245	0x3fcff695852ef500	0.24971264842125862
246	0xbfc75012510c279a	-0.18213108975788544
247	0x3fd31e8140551c7c	0.29873687059848186
248	0x3fcf5ff754f92868	0.24511615418515764
249	0x3fd3b4c065a3a1ba	0.30790719915105635
250	0xbfd4e259fc128bbb	-0.32631539932679815
251	0x3fd8edcc21856b2f	0.38951400064040603
252	0x3fc85f2cd558cbc0	0.19040451447798823
253	0x3fd6e6708f780b0f	0.35781492243420215
254	0x3fcf79563ab971eb	0.2458904062977035
255	0xbfd1a622608a8497	-0.2757650320800819

transformer.encoder.layers.0.self_attn.out_proj.bias f8 [16]
0	0xbf61c637061e8f2e	-0.0021697115598317196
1	0xbf7daae830ad4766	-0.007243067734480002
2	0xbf857a4ad9cbacdb	-0.010487160464853698
3	0xbeeae5962c9c38d0	-1.28254045139966e-05
4	0x3f91fb1bff58710c	0.01755946870808693
5	0xbf7cd5a3df6fef21	-0.007039680603152993
6	0x3f665ba560f01112	0.002729247098161144
7	0x3fa0c6ea8e10bc91	0.03276761039921284
8	0x3f8a5c8032fcf74c	0.012871743732485584
9	0xbf9d34bdb4232f99	-0.028521503562657455
10	0x3f89034e0e04a3ee	0.01221333484916617
11	0xbf9407c2b3210b6c	-0.01956085413281576
12	0xbf8eab8751cee37f	-0.014975602325522306
13	0xbf28e74e060cd62c	-0.00018999888836794662
14	0x3f89534278416c3e	0.012365836424740203
15	0xbf81b72fd9bd99e3	-0.008650182564179104

transformer.encoder.layers.0.linear1.weight f8 [128, 16]
0	0x3f9734f6dbfab949	0.02266298024795191
1	0x3f7e4e422344507c	0.007398851729039643
2	0xbfc37223b106e800	-0.15192075866599453
3	0xbfb5b7d7ad5ebe10	-0.0848364637629333
4	0xbfc732f5c90fcbd1	-0.18124267880884173
5	0x3fc2c7ab949a3713	0.1467184520337744
6	0xbfc9369ab328a1f3	-0.19697889087662154
7	0xbfba5631eb34cf9e	-0.10287773125020158
8	0x3fa8ddac8b4d527b	0.04856623840774873
9	0x3f963e910c6495fd	0.021723047620204373
10	0x3fb72adbfe2351ac	0.09049773172893677
11	0xbfb57d9b15d26b2a	-0.08394784243357081
12	0x3fbe41e927d73fc8	0.11819321844745823
13	0xbfccd4b05af65ad4	-0.22524074975509356
14	0xbf977e05ba31633b	-0.022941674699129094
15	0xbf9d4ee52efcdcda	-0.028621273987678865
16	0x3f8b06446ac67574	0.013195547588845648
17	0xbfc7fbd725cda077	-0.18737305971012905
18	0xbfcc1aa1b89fbb67	-0.21956273569909543
19	0xbfb6cbeb8f00d02b	-0.08904907456673132
20	0xbfcb955937ed3ddc	-0.21549525481030585
21	0x3fc34b1b959ad9cd	0.15072960667539662
22	0xbfc371df9e6959b8	-0.1519126437658096
23	0x3fa8b77a8c6ffa3e	0.04827483143161658
24	0xbfbe4e28cf2fd9be	-0.11838011797212908
25	0x3fbd06789a601d43	0.11337999123508262
26	0x3facb3e2470f8cbe	0.05605990521851244
27	0xbfc4096dd16dbe48	-0.15653774953851696
28	0xbfb1bed4e40e5391	-0.06931810920498395
29	0xbfc3ca367f950b31	-0.15460854749297817
30	0x3fb0517af5211bde	0.06374329075434512
31	0x3fb8ca939819fdf0	0.09684107268730435
32	0x3f8c3bcdde49d69a	0.01378594240780311
33	0x3fbc7d01969766e0	0.11128244329975301
34	0x3faf39ef705f952a	0.06098888632531392
35	0x3fa911c1df6b24b4	0.04896360256459201
36	0x3fd0313ba8ca75ec	0.253004946551157
37	0xbfb5a55da6d9adcb	-0.08455453227514124
38	0xbfa5ca3711d44abd	-0.042558403898643495
39	0x3fbddf1e40326049	0.11668576304725876
40	0x3f8e6c4729557fe0	0.01485496134654335
41	0x3fbce431245eb2c9	0.11285693300187484
42	0x3fcebe02a9a565bf	0.24017365725994286
43	0x3fa43a13c49df3ff	0.0395055940161697
44	0xbfab5e7f34a85f65	-0.05345532911104448
45	0xbfc1cf5c224d23e9	-0.13914062189931478
46	0x3f9ad4132608b265	0.026199626156243733
47	0xbfa3836235e65617	-0.03811175258594462
48	0x3fa4e4aa03bafd4c	0.04080706878220983
49	0x3fba9b4c1c83e1e5	0.1039321488968948
50	0x3fac06b198f78994	0.05473856918594602
51	0x3fc30ce61ba292ad	0.14883114194266991
52	0xbfbdaba2f692ff46	-0.11590021629217259
53	0xbfc00bfbd29654b2	-0.1253657129533728
54	0x3fb19c373c47b328	0.06878991338426188
55	0xbfb425f104bb0afd	-0.07870394101614049
56	0xbf9015f60fb00a8e	-0.015708775241373867
57	0xbfc0646089ce8f2d	-0.12806326607562238
58	0x3fc344eb83f1fc49	0.1505407709373421
59	0xbfc560143f05e593	-0.16699460103317829
60	0xbf8c7fb2e5c31fc5	-0.013915441166673656
61	0x3f92b43f8ed41252	0.018265717594675053
62	0x3f83dca3b93ef6f2	0.009698180285222933
63	0x3fbe3c7e1073f382	0.118110541359739
64	0xbfba28e090d60764	-0.1021862367252005
65	0x3fb22ae1c04b31d3	0.07096682495757216
66	0x3fcf64caa75f5d83	0.24526341602789267
67	0x3fc9e76d32543947	0.2023750777957025
68	0x3fb0bd8eae4fac6f	0.06539241557736529
69	0xbfbf287d1660c43a	-0.12171155735337971
70	0xbfbc870a15880ed7	-0.11143553758307277
71	0xbfd63eb5e75eabba	-0.3475775489302425
72	0x3fcaa15bd0dd8695	0.2080492753839748
73	0x3fc3bdb70f3e5107	0.15422714466388518
74	0xbfc27f135db95895	-0.14450304104201864
75	0xbf70ef6dfbf843b1	-0.004134587884906547
76	0xbf988fd51d36b51c	-0.023986177356779867
77	0xbfbb7c6027175e1b	-0.10736657099129625
78	0xbf736b0639946ff5	-0.004740738216494113
79	0xbfb3a6c5306629eb	-0.07676346236818403
80	0x3fb65e6227f8e5c3	0.08737767673382905
81	0x3fb3ebbc45b4a299	0.0778157873325064
82	0x3faf57fee03f7660	0.06121822821999667
83	0x3fb095cfe4b9a21f	0.06478595098600025
84	0xbf4abf544020f07e	-0.0008162652377517036
85	0xbf43d120897cacf1	-0.0006047638771397285
86	0xbfc799cf4d974a01	-0.18438140190717436
87	0x3fc1f15e37a2689b	0.14017846790813313
88	0xbf8689a1a86d08c9	-0.0110046987080107
89	0xbfa60ae6a540a74e	-0.043051917717390795
90	0xbfc98f8d218504b7	-0.19969333779048323
91	0x3fb087e1b498ad4d	0.0645733896168867
92	0xbfa094083a2e7caf	-0.03237939558243263
93	0xbfc368f21a7e2b69	-0.15164018910976587
94	0xbfa9a0462c5c17ba	-0.0500509194517202
95	0xbf9bf9181baa89c2	-0.027317406357392
96	0xbfc6e99925382643	-0.17900385205602917
97	0x3fad5e1ad07768e7	0.0573585872150078
98	0xbfb6d68b5fbcf498	-0.0892111881957639
99	0x3f9cff200e28695f	0.028316975463988366
100	0xbfc0cc39cdbbdf31	-0.13123247666930518
101	0xbfb4e028c245e1ba	-0.08154539816849296
102	0x3fc647a6f68e496c	0.1740616516004353
103	0x3fb4936cf7d63fda	0.08037453699785094
104	0xbfc70cc54ab390f0	-0.1800772299531057
105	0xbf99d82efea8280c	-0.025238737385770135
106	0xbfb872b023d24cd3	-0.09550000071094482
107	0xbfc536f0c4749a65	-0.1657391509299543
108	0x3fbf758a6f5e074c	0.12288727969101138
109	0xbfa5aa2c46c195dd	-0.042313941609602536
110	0xbf73a6f725358a53	-0.004797902499691436
111	0xbfc7baae3222b62c	-0.18538453529383625
112	0x3fc414d0623ac6a1	0.15688519283644545
113	0xbfa8525b7f3827dd	-0.047503337173182315
114	0x3fb20ab2cb73d6a1	0.07047574488737009
115	0xbfa6ad4a5c5856e8	-0.04429085137614469
116	0xbfb3d01154c91180	-0.07739361114460586
117	0xbfbab52c06c819a6	-0.10432696500365654
118	0xbfb1ee1b65ad922c	-0.07003947479604083
119	0x3fc62f48d00bcd1d	0.17331800611973672
120	0xbfc129e1e618510d	-0.13409064993960165
121	0x3fb0296398387c2f	0.06313154665302599
122	0xbfc04058146ba5f7	-0.12696362492651733
123	0x3fbf4efebdb671b8	0.12229911929757165
124	0x3fae4641981d046e	0.05912976247646716
125	0x3fa78a7634c1a5cd	0.04597825426101174
126	0xbfc1dbbb86541cc6	-0.13951820429813305
127	0xbf68e7d06dfaed53	-0.0030402251139471175
128	0xbfbe58d298e1926e	-0.1185428260083172
129	0xbfa1e0065763d0fc	-0.034912298362458544
130	0x3fc37c23a5ab8291	0.1522259291587216
131	0x3fa30b97afd1bbc5	0.037197818958581354
132	0xbfc4bde1781f1a0d	-0.16204470029170218
133	0x3fc4d01bc7cbd56d	0.16260096793818538
134	0xbfa200bbdf622429	-0.03516184903953274
135	0xbf8d6100db537b5f	-0.014345175450612478
136	0x3fd29aeef677f191	0.29070638722603187
137	0x3fc31fda28ee6103	0.14940955160705735
138	0x3fa3e28592061a42	0.03883759887235218
139	0xbfb76c1824d68b5e	-0.09149313830725478
140	0x3fb0374bc9b9b5af	0.06334375071465702
141	0xbfb8ba0409cccb78	-0.09658837546593968
142	0x3fa691323900a635	0.04407650895911922
143	0x3f99a9f745176df7	0.02506243094636137
144	0x3fb088b07bf33aed	0.0645857145893662
145	0xbfa50e610a2b48b4	-0.04112532853254561
146	0x3fc2425e00e64265	0.1426503662483071
147	0xbfa006773029ad62	-0.031299328450439715
148	0xbfba31f9d1b93614	-0.10232507105066474
149	0xbfaf61f1223073b9	-0.061294112609381064
150	0x3fc850359be68985	0.18994779693919042
151	0xbfc0ca6f57fe0b3d	-0.1311778239870253
152	0xbfc9971cba1ce72f	-0.19992407882255622
153	0x3fb83fdc0a4e0220	0.09472441913204266
154	0x3fa6289739bb646c	0.043278432652820026
155	0xbf91fdffe5b66cc5	-0.01757049407534052
156	0xbfb0f4e43125a07a	-0.06623674583318176
157	0xbfc0f4f725f3b274	-0.13247575142976908
158	0xbfb0d371e5bde6e7	-0.06572639330797934
159	0xbfbb9e4224306409	-0.10788358100434449
160	0x3fbb4edc8eb50d13	0.10667208179534197
161	0xbfb1e4bbe8b7f74d	-0.06989645415884845
162	0xbfc12ad341905c84	-0.13411942197192073
163	0x3fbd2d85db388905	0.11397587396689708
164	0xbf9795dbfe547596	-0.023032605550829276
165	0x3fce2aeb8db3074b	0.23568481844818687
166	0x3fa77551d6b3f357	0.04581695314298056
167	0xbfb4b4242eccca7f	-0.08087373869492785
168	0xbfcb1c5da3ed4f1f	-0.21180315498588073
169	0x3fbd33a0c5674e49	0.11406903094694444
170	0x3fc3fdf04aeaa82b	0.15618709238089087
171	0x3fb88659e46142f6	0.09580003572160564
172	0xbfb220fae8a91e8d	-0.07081573658171632
173	0xbfc2c28e4487c499	-0.14656236978729423
174	0x3fb3efa89ada4c4d	0.07787565022071981
175	0xbf8d7a1e73fcc3e3	-0.01439307967629761
176	0xbfc828a2fbc07492	-0.1887401322609646
177	0x3f93cabf96126285	0.01932811120477364
178	0x3fb89b2d728a08a0	0.09611782118193668
179	0xbfbedf7b2091d952	-0.12059754891547428
180	0xbfc3df9db51c33bc	-0.15526172011632677
181	0xbfc6fa43dafdee31	-0.1795124835297073
182	0xbfc1640f8c5075e0	-0.1358661112907802
183	0xbfc05f9831305ab5	-0.1279173126392458
184	0x3fc16296dfd35e55	0.13582120827662672
185	0xbfb959bb371260c9	-0.09902544111753565
186	0x3f8fcbb6fb761958	0.015525273846617324
187	0xbfbc8ea389f1078e	-0.11155149572098663
188	0x3fbe779d71f18992	0.11901268035720694
189	0xbfc9a333ed523511	-0.20029305541940137
190	0xbfbc80a3a8441d2a	-0.11133787973459577
191	0xbfc161a5aa201097	-0.13579245383164526
192	0xbfb6ce38b8a86442	-0.08908419140097215
193	0x3fc6aa249651461a	0.17706734981270317
194	0x3fcb0eaebc391869	0.2113855761583097
195	0xbfa38e5670d6b7f7	-0.03819532515932161
196	0x3fa2b0fef3340e75	0.03650662153998222
197	0xbfad40df814e44bc	-0.05713556722106136
198	0xbfc1d913ca8202b8	-0.13943717372969444
199	0xbfd3df6b31abedf5	-0.31051139689199597
200	0x3fcb2121cb561cd6	0.21194860867055948
201	0x3fbbcbb82e818a9d	0.10857726226235305
202	0x3fd48081d4bdfbc9	0.320343454128246
203	0xbfbc5c0bbfaaf970	-0.11077950887099575
204	0x3fcac94aca7a669c	0.20926794897677758
205	0xbfba443194b7ca0c	-0.1026030529099346
206	0x3fa1ee124d725482	0.03501946635621157
207	0x3fc5eb03a0d7b124	0.171234563385391
208	0x3fc2edf349b3ba13	0.14788666819318105
209	0xbfb27acae31fa690	-0.07218616528521182
210	0xbfc06430c3aff809	-0.128057570982435
211	0x3fb26e2f703a6c78	0.07199379434534758
212	0xbfba3804169672f9	-0.10241723586518593
213	0xbfc0904720a4f1c9	-0.12940301031075155
214	0xbfc2dd9407c0d8dc	-0.14738703135089437
215	0x3fb2ede6675b9b26	0.07394256614098235
216	0x3fba70af208c8379	0.10328192276621263
217	0xbfc51d4f7936c7fd	-0.1649569837441617
218	0xbfcc81fb2641781c	-0.2227167069240189
219	0xbfa758982d802d97	-0.04559779696873106
220	0xbfa6cc73a75f1588	-0.044528593236047576
221	0xbfaa5876df196e70	-0.051456179364973376
222	0xbf7a866eb0515333	-0.006475860956091139
223	0xbfb7946e47d19427	-0.09210862401376173
224	0xbfc2b631ad7f830c	-0.1461851212652835
225	0xbfca8e6357ea6b27	-0.2074703387523524
226	0x3fbad309cd8a8685	0.1047826887902606
227	0x3fa069ed8ffd5315	0.03205816633877682
228	0xbfc40ab453d4840d	-0.15657667248982002
229	0x3fb559d82a57494c	0.08340216668810746
230	0x3f848dfe52385439	0.010036455997616144
231	0x3fb180e03274542f	0.06837273818776234
232	0xbfccd1dd8fbdc7c9	-0.22515458601588836
233	0xbfb3d08d7aa5a15e	-0.07740101093589177
234	0x3fd6cb3a60be1493	0.3561540550948134
235	0xbfc3d06ce13cc45f	-0.1547981357375958
236	0x3fc57602523113b6	0.1676638509108252
237	0xbfd01cc09e4e905e	-0.2517549081769682
238	0x3fa7409138042584	0.04541448410788987
239	0xbfb49b89bdf6dbbe	-0.08049832237052976
240	0xbfc7231ef0f6a643	-0.18075930372042323
241	0xbfc7c4da89dc4373	-0.18569499713387536
242	0xbfc6d95f3043279a	-0.1785086618095278
243	0xbfae82caa242c589	-0.05959161024783117
244	0xbfb0200df243a7bc	-0.0629891125169299
245	0xbfbb28da5c482a4c	-0.10609211686111414
246	0xbf2921420c463d42	-0.00019172602891302277
247	0x3faa670e84df29a3	0.05156751033753728
248	0x3fbf48da1bc64c2b	0.12220538309183897
249	0xbfc38e2360a424b4	-0.1527752134209429
250	0xbfcbed1ceefc5dc0	-0.21817361516217026
251	0x3fc1056ed605cb17	0.13297830057452906
252	0xbf727be9c5249cb5	-0.004512704052365969
253	0x3fb50b89af3bdae8	0.08220730331582227
254	0x3f97c38356754482	0.023206760551435675
255	0xbfc2199f020ad8eb	-0.14140689468121734

transformer.encoder.layers.0.linear1.bias f8 [128]
0	0x3fc846b7797d0e35	0.18965810234122818
1	0xbfbe26ee2be4afa2	-0.11778153010953799
2	0x3fb8b846d7080da8	0.09656183957854714
3	0xbfba8ca169aaba3d	-0.10370835141905217
4	0x3fb3f4741b64a541	0.0779488150480079
5	0xbf7233266fb71422	-0.004443311826837467
6	0x3fb6e423d4d5873b	0.0894186396231164
7	0xbfcf7fcb4989b2f2	-0.2460874661514008
8	0xbfab329d6007a5c7	-0.053120534870525975
9	0x3fc6579ba41ffdf0	0.1745485831633995
10	0x3fca426f78c0b5a3	0.20515244861728119
11	0xbfc2e96d33533540	-0.14774861341576617
12	0xbfbc48fe1cc6d07d	-0.11048877909235162
13	0x3fc184dce340ac3e	0.13686715217895257
14	0x3fca01df2a4370af	0.20318212093014185
15	0x3fb48c94b6adf6fb	0.08027009448957394
16	0x3fc5a4093eb352b7	0.1690684848932926
17	0x3fc49a862b054a79	0.16096570110910927
18	0xbfc0d067cb38362d	-0.1313600294383134
19	0x3fb0949fb02349ef	0.06476781893005755
20	0xbfc4eb467791fae9	-0.16343003118887303
21	0xbfb68cc3c1cd2f43	-0.08808539849740975
22	0x3fca356dc9c10ce7	0.20475551940226142
23	0x3fc76e7c8f035993	0.1830592821413118
24	0x3fd01b94c1cc70ab	0.2516834156574627
25	0xbfbf50f5bdd1dc46	-0.12232910045882858
26	0xbfbb6c1d8ad5cc63	-0.10711846007852581
27	0xbfcaaeaa094f2711	-0.20845532850790296
28	0xbfc9f0fc2f272ae5	-0.20266678144829267
29	0xbfcd6dd4458af93c	-0.22991422076843004
30	0xbfcd762fa32fb82a	-0.23016925304494978
31	0x3fc49197911f8c89	0.16069311700912106
32	0xbfc6ee2e7684fb0b	-0.1791437224109916
33	0xbfbb61f6a052e8c8	-0.1069635526099858
34	0x3fb6c25d87dc8904	0.08890327994280162
35	0x3fc7d46afa7f999b	0.1861699793946173
36	0x3f98b198301458a8	0.02411496919111103
37	0x3f9caaae0eb45ba2	0.02799484219311988
38	0x3fc4a2c2566d034a	0.16121701450358678
39	0xbfc8d47922dfa7a3	-0.19398416712584518
40	0x3fc6b38b2d3b98bc	0.1773542376387861
41	0x3fd02f92966ace45	0.25290360154324204
42	0xbfd060fbe1cdeb97	-0.25591942836006737
43	0x3fcb9a043a9e29aa	0.21563771116445923
44	0x3fb4d643301396bb	0.08139438556426175
45	0x3fa4ef162f8f3e2c	0.040886586480720716
46	0x3f8ac6e515b58260	0.013074674344069226
47	0x3fb96d6859d4ffa3	0.0993256778065175
48	0x3fc598aecf2157ea	0.16872201074391963
49	0xbfa071f177cd41ab	-0.03211931788848984
50	0x3fbe6e6acffa912c	0.11887233331305386
51	0x3f80cdb805be79e1	0.008204877543730173
52	0xbfc9385e0786a099	-0.19703269355273248
53	0x3f9a5b6da34d1db0	0.025739396183124874
54	0xbfc2ebd6a71b0af7	-0.14782221946196447
55	0xbf41e24f8c5decf4	-0.0005457771701310719
56	0xbfc49484061ad8f6	-0.16078234003152375
57	0xbfb1a750777db4d4	-0.0689592639661954
58	0x3fbc15f6fb774408	0.10971015586189037
59	0x3f72a7b0e041d422	0.004554453775303309
60	0x3fc2f9474472f20e	0.14823237268673534
61	0x3fc8046b734fb872	0.1876348794025407
62	0x3fc8237ae4a3d3e3	0.18858276523647452
63	0xbfcaa38d698d94ec	-0.2081162228961725
64	0xbfce6b85cfbdbdd2	-0.23765633243190948
65	0x3fccf3495c6cde5d	0.22617451680138148
66	0xbfc766a3119efb8c	-0.18281973228837634
67	0x3fc7ad7237026a16	0.18498065649039636
68	0xbfcdc964ac9d9579	-0.2327085345124649
69	0xbf961dd0a835bd9c	-0.02159811045333769
70	0x3fabd7a18d0882af	0.054379509416553666
71	0xbfb518c60729b3d7	-0.08240926432490824
72	0x3fa6d3341e29cebc	0.04458010547832944
73	0xbfcf695226366f57	-0.24540163865901363
74	0x3fa80d07b7b4bb41	0.04697441213135401
75	0x3fc0341baa9388f6	0.12659021214410132
76	0x3fb7e49f0109ac22	0.09333223128639692
77	0x3f9b743bef88d5c9	0.026810585494066595
78	0x3fbeb8c58764d942	0.12000689082637897
79	0x3f896065b75c3e0d	0.012390894563878008
80	0xbfc0ed71ab540433	-0.13224621644624932
81	0xbfc63ef9dc5431b0	-0.1737968755554795
82	0xbfc5aa1e7d665a07	-0.16925412295377404
83	0xbfcc40f7896d7176	-0.22073263368919144
84	0x3faf72749ca412fd	0.06142010128136197
85	0x3fce449da6d32eff	0.23646898885487386
86	0xbfca753df41ae432	-0.20670294207755685
87	0x3fc85d332ecd6a4c	0.19034423623345942
88	0xbfc5ca2139df23e5	-0.17023101163638824
89	0x3fc04f874489cf01	0.1274270138416043
90	0xbfc92a789c37e473	-0.19660861614082456
91	0xbfc9d9716e9df82d	-0.20194833661293057
92	0x3fbaf1598fec5a57	0.10524520648719125
93	0xbfcf5133bffefb17	-0.24466559290700537
94	0xbfb5161a916e0ddd	-0.08236852694067616
95	0xbfc220d0478ebd4f	-0.14162639135381958
96	0xbfc3105ac32ad0b9	-0.14893660096789121
97	0x3fb2dced1ed935f4	0.07368356707703311
98	0x3fb8b82f40359649	0.09656043355570278
99	0xbfc70ad15c485898	-0.18001763349520128
100	0x3fca0048b244257c	0.20313366608051442
101	0x3fc3684f7c00536d	0.1516208034014669
102	0x3fa64b74a3dfb977	0.04354443073667629
103	0x3fbc087f1f1a66f6	0.10950464734414908
104	0x3fce249eecfe1935	0.23549257823851524
105	0xbfa418b92e2e4399	-0.03925112427453498
106	0x3fc50f903a68e8b1	0.16453745700875325
107	0x3f92ac31db08ae96	0.01823499583603779
108	0xbfbf32fcff4d008f	-0.1218717692654556
109	0xbfc0687324e49b2c	-0.12818755437293683
110	0xbfbc501e40d5cd84	-0.11059750635995697
111	0x3f851cb51d68f1f3	0.010308661422748755
112	0xbf9bfd872d96c76b	-0.027334320218592206
113	0x3fc7ef5c1437146f	0.18699217783992902
114	0x3fc03e45b5a2ba9c	0.12690039986542423
115	0x3f9d54d6f4b730d0	0.028643950163129983
116	0x3fc2ac2ab5a4fd8e	0.14587911481247
117	0x3fb077fb76abe5cf	0.06433078429463211
118	0xbfc3cf8d58be6473	-0.15477148850621666
119	0xbfb75612aaaae57c	-0.09115711847961977
120	0x3fc11348ef97ce72	0.1334010286224046
121	0x3fbeb5393d2bf5a0	0.11995275252771487
122	0x3fc95854db2ae2f9	0.19800816251315448
123	0xbfb1b0f779e51125	-0.0691065476031026
124	0xbfc6a5f7a14b333a	-0.1769399201933995
125	0x3faeecd159db01f4	0.06040052625531081
126	0x3fc04dd39625e722	0.12737507659385822
127	0xbfbe8cfb11a47233	-0.11933869534227241
