Code/800-200/darts_logs/D-R032_transformer/checkpoints/best-epoch=39-val_loss=0.04.ckpt (torch, 653413 bytes, 205 tensors)

encoder.weight f8 [16, 1]
-0.2707272071067104 -0.5822571014314658 -0.7154299555759785 -0.5834508760680718 0.3218673431474088 0.6695801043260978 0.04600347708293372 0.950906815779348
-0.5753259894923483 0.8464159658365548 1.0184997909760463 -0.36567884731962164 -0.13740487216205824 -0.39921774684302785 0.041868286765491536 0.48192004810561273
00000000: 9049 2a35 9853 d1bf 7d61 10a5 d9a1 e2bf
00000010: c7e1 b85c cde4 e6bf 0b1e f12b a1ab e2bf
00000020: 67fc 1d7c 7999 d43f 6040 4441 336d e53f
00000030: ef9f 258b c48d a73f 011b 6a21 d46d ee3f
00000040: 3b12 ad0c 1269 e2bf 7591 82ef d615 eb3f
00000050: 6a99 d36f c64b f03f 82e9 8440 4867 d7bf
00000060: 01a1 1f9c 7b96 c1bf 751c ab97 c88c d9bf
00000070: 986f cb94 c26f a53f 649f 792f c7d7 de3f

encoder.bias f8 [16]
0.4882851050367006 -0.031093417109985737 -0.8231472868409573 0.17779228632147712 -0.5075164640975163 -0.9654184760908526 -0.9356880871733347 -0.17298628047890313
-0.39238302648706247 -0.8474644419856632 -0.07511729068411585 -0.42022797115260774 -0.035255670475271166 -0.19585471199257215 -0.7886051223063385 0.21801552276466585
00000000: 616b 502b 1040 df3f cbdf 6ee6 f3d6 9fbf
00000010: c4bc 98fa 3857 eabf 07ac 9dcb e5c1 c63f
00000020: 5c5f ef2a 933d e0bf b875 b849 b5e4 eebf
00000030: 1552 b524 28f1 edbf 2223 a818 6a24 c6bf
00000040: a81d 91b2 cd1c d9bf f43d dbbf 6d1e ebbf
00000050: 1637 da02 e33a b3bf 9fc0 3ddc 03e5 dabf
00000060: 0733 61ff 070d a2bf be46 6367 c411 c9bf
00000070: 1571 38cf 403c e9bf e8b4 25c2 eee7 cb3f

transformer.encoder.layers.0.self_attn.in_proj_weight f8 [48, 16]
0.17704340189480797 0.1945072077108923 -0.2502863757249221 -0.017227563902865662 0.30302508015722546 0.13913447939604479 0.14256608960962244 0.19583880086861533
0.2929815306764969 -0.13072242795147188 -0.2908890533033657 -0.27656891346506707 0.032330324652580913 -0.16704754218000528 -0.220298948386064 -0.19769564200282125
-0.007161294227398442 0.06879707195621451 -0.26978142232319224 -0.022168284161668515 -0.1908131205904274 0.12695131164161516 0.056783611579219684 -0.31908817708582304
0.21069693852922863 0.20659301290414583 0.14603499021330946 -0.23622752938403777 0.29224237257888563 0.08869633223929771 -0.10925226587133564 0.24934918781297996
-0.06369715843915988 0.21736114455330877 -0.2664199281088994 -0.06331557663438489 0.13134423607298334 0.29033828496674435 -0.12566332836349114 0.08093439920268794
-0.030074287807603933 -0.033421186841238196 -0.19630583993506506 -0.025639162286151356 -0.15914096506866182 0.03811695705026232 0.19624040268809784 0.05446198749165979
-0.21096313445288803 0.24728199416023555 0.17596554890951638 0.21959068565786835 0.28626161285885615 0.09925678917243637 -0.2015028349408071 -0.09541524571993026
-0.29285466252184256 -0.25278561776553754 0.2883778777306931 0.14430013309642054 -0.1367862070560221 -0.177752667140946 -0.0075156286526880485 0.2391418578927174
-0.2727880649961023 0.23624942702771956 0.1296923657582081 0.0595163792263699 -0.22899545779460492 0.22645241658034454 -0.16096067944211762 -0.1928211660466472
0.2654146864909195 -0.126958311586653 0.05555381208682555 0.2938317626147247 0.12510213885144772 -0.1032872620690683 0.001875944904492812 -0.2007734888090483
0.30190623553076773 0.1335555806356029 0.11801831284095576 -0.22841858339703716 0.21349516978658692 0.027977068669443803 0.09835540274214007 0.09046061621925058
0.09409833171363925 0.07892948771974183 0.08942074676116982 -0.033518332153123796 0.11994183657885318 -0.03841686823011301 -0.13003116027473818 0.23183707078491533
-0.09810299778287818 -0.14299737939854726 0.03642076703877151 0.27829154867660816 -0.04400885284928332 0.19173346873285665 0.027714571369408234 -0.16796807021286725
0.07502878760647824 0.29276366539304716 -0.24635693755973304 0.27774544668470474 -0.257958247600351 -0.1629665573160659 -0.27889900432553083 -0.27154862672336016
-0.1472217288063474 -0.26156813408270024 -0.19510245239934118 0.26351533673665467 -0.290819604986539 0.1977992757243141 0.10895634440527074 -0.1124510958200385
0.008040782947930513 0.33179109837757964 -0.196176469737979 0.08276224349636419 0.05893804331904259 0.2131192575916208 -0.14029451147427288 0.06056832263892677
0.00938375372046205 0.0878874732488799 -0.09781206576424856 0.1970417125348319 0.2879292881889237 0.12846386801344456 0.1821969531214791 0.2665650374016105
0.024654873963318977 -0.16670777977249834 0.2305981822448417 0.20060167326205633 0.13654831430445297 0.008322500767508558 -0.08747010602284165 -0.14958537955847742
0.3196125952573667 -0.14817000667355834 0.10337072514304849 0.3066218386277117 -0.035682308459541276 -0.09390281099888054 -0.077857310301558 -0.08513517964816851
-0.1668646062180521 0.2747041817713869 0.028223210271694582 0.11315561260514137 -0.2649442478206952 0.3085709395701948 -0.0420233417338337 -0.2475822079315283
-0.01268937230435749 -0.1498331228864207 -0.10665302618274972 0.2562176297706742 0.05144881399907751 0.26252594328235124 -0.16242354012980229 -0.3048366206681981
-0.0621054336746525 -0.1948972388360849 0.21945230671070237 -0.16426300051174736 -0.07350981780317299 0.2277290195117555 -0.10111727927030277 -0.3249494080342059
-0.20393055404860275 -0.016446207491365453 0.23926768029082648 -0.20381929276628974 -0.1989638938566126 -0.1789365798767984 0.3156635061093196 -0.23836664673402078
0.08618671799865102 0.12131895535801998 -0.1109560682569124 0.1294422416304951 -0.18031033704325014 -0.13769947343067013 0.2859385229331408 0.17206516296831265
0.23205734858938357 0.21136382773480497 -0.13011988145047093 0.2503749512098567 -0.26361629572682566 -0.3402633678968997 0.010707566672229154 0.41641293247171773
-0.19473204884828768 -0.0018091724837208671 0.06865662228434145 0.10333273037220249 -0.12903879191828016 0.10260652643641846 -0.11938456529466593 0.2155704115418613
0.08306215212895629 -0.30793714479090417 -0.20250969352001133 0.22534241735560767 -0.31043569862653575 0.08204576380280194 0.213464581909087 -0.2593784974084994
-0.2140580407760436 -0.05790498169540521 -0.1615465364110119 -0.12090225000196864 0.2376689857962184 -0.27803427201115993 0.2040441252050211 -0.0009608575515792695
0.16031468274450292 -0.07126847196589159 -0.23440231361152977 0.1580527560914824 -0.07939722228998644 -0.2525207475547787 -0.1390152402769971 0.074890619440952
0.021243918102631577 0.28749285613129766 0.07894019094307943 -0.1608093473555746 -0.3056072845117853 -0.17453367542038417 0.13550478680740355 0.23074965333381875
-0.10662016614549646 -0.14794290754882478 -0.11027363665529168 -0.016379033466612472 0.13913828534074776 0.10733399840200397 -0.015297938557906548 -0.33047672942903
0.2521070667287662 0.08991187146709294 0.15137578447887268 -0.1996574860139574 0.17677879011572348 -0.20561780795037904 0.18407121909099305 -0.30661542230582584
00000000: 312e 8eb2 5ba9 c63f 122f fab7 9ce5 c83f
00000010: bddd 9725 b104 d0bf cdd1 353e 1aa4 91bf
00000020: ed27 494e c364 d33f 7a41 609b 28cf c13f
00000030: e32a 320a 9b3f c23f 2660 82ee 3e11 c93f
00000040: d49a 259b 35c0 d23f 7ae0 7334 83bb c0bf
00000050: 68f3 ac1e ed9d d2bf cc0d 9b19 4eb3 d1bf
00000060: 5292 1aae 998d a03f a828 4559 d061 c5bf
00000070: b0a6 5485 c132 ccbf 265f 7b3e 174e c9bf
00000080: 1c32 0f48 2955 7dbf cecc 1c56 af9c b13f
00000090: 0c93 7c4c 1944 d1bf 6663 ee5d 48b3 96bf
000000a0: 13b3 4a78 906c c8bf 6eaf d7c9 f03f c03f
000000b0: 98ef 5cd5 bd12 ad3f 6eed 47d1 f06b d4bf
000000c0: 93d8 2c06 1ef8 ca3f 5ab1 00cd a371 ca3f
000000d0: 14d8 8449 46b1 c23f eb45 8f24 b43c cebf
000000e0: 2cd5 2e5a 19b4 d23f ee30 3e86 cdb4 b63f
000000f0: 9968 eedc f4f7 bbbf c36f 7897 acea cf3f
00000100: 7e25 58fc 744e b0bf 0f88 a36f 7dd2 cb3f
00000110: c7be 8e2b 060d d1bf 3ed9 f81a 7335 b0bf
00000120: f2cc 394f e3cf c03f 8b5e ad07 e794 d23f
00000130: 9858 d066 bc15 c0bf 866b b2e5 1db8 b43f
00000140: 882b 564a cbcb 9ebf 0208 f4f0 941c a1bf
00000150: 1a78 44bd 8c20 c9bf bb3c 100e 2741 9abf
00000160: 743e 362c bb5e c4bf 5367 e8d7 1084 a33f
00000170: 0c81 d9cf 671e c93f f5bd 4d0e 71e2 ab3f
00000180: d382 9109 d700 cbbf 7068 e7b6 efa6 cf3f
00000190: f6ff e402 0a86 c63f bd10 b42e 8c1b cc3f
000001a0: 570e 553a 1c52 d23f 05ce 6697 e468 b93f
000001b0: 6b9f 0f4b d8ca c9bf e42a e82f 226d b8bf
000001c0: aacb 807b 21be d2bf deef 4cba a32d d0bf
000001d0: d090 6f7c c874 d23f c491 3a40 6d78 c23f
000001e0: 65bc ecde 3582 c1bf 62d5 1272 99c0 c6bf
000001f0: ebd4 5a34 b5c8 7ebf d27f 604d 339c ce3f
00000200: b46e 7912 5c75 d1bf 9832 64d5 6b3d ce3f
00000210: c176 bc6a c299 c03f 140a b54c ee78 ae3f
00000220: 3787 1421 b94f cdbf 2008 a88d 64fc cc3f
00000230: b6aa 120b 5c9a c4bf c7ce 122d 5dae c8bf
00000240: 68d2 96e1 8dfc d03f ae2a 1c82 2b40 c0bf
00000250: c37e 299c 8c71 ac3f a933 bdbc 23ce d23f
00000260: 4068 83cd 5803 c03f 6c16 aeb4 0871 babf
00000270: a3a5 e380 48bc 5e3f 035a 2b18 f2b2 c9bf
00000280: 2b0a 0488 6e52 d33f 3c9c 8369 5918 c13f
00000290: f022 fbb9 7236 be3f 0995 bef4 d13c cdbf
000002a0: 8d2e 0b4a cf53 cb3f 7990 e44b 05a6 9c3f
000002b0: 1193 29d6 d12d b93f 26d9 3c4c 6d28 b73f
000002c0: 3178 5109 d416 b83f 5742 7210 b934 b43f
000002d0: be51 ec2e 47e4 b63f 1b09 d498 5029 a1bf
000002e0: 0242 8719 82b4 be3f cd7e 5331 60ab a3bf
000002f0: c1a3 6b6e dca4 c0bf 60c5 824e d6ac cd3f
00000300: 2cf5 1d2f 471d b9bf 7719 f7f5 bc4d c2bf
00000310: e04c a726 bea5 a23f 2b6e 145b 87cf d13f
00000320: 6bbd 710f 5488 a6bf 0fcd e0e8 b88a c83f
00000330: fcf7 9d66 3561 9c3f 5212 2b4c fa7f c5bf
00000340: 3842 072d 1635 b33f 8f7e 14d0 a3bc d23f
00000350: 321b fbc6 9f88 cfbf 01eb 87d6 94c6 d13f
00000360: 9c53 4b4f 6382 d0bf b8d1 0191 16dc c4bf
00000370: 7cc4 9d35 7bd9 d1bf 1b3c c37d 0d61 d1bf
00000380: 93ee 3d5f 29d8 c2bf 73e6 6345 88bd d0bf
00000390: 3758 36fe 1df9 c8bf a3d0 516e 6fdd d03f
000003a0: 10fb 1cd5 c99c d2bf f846 3496 7c51 c93f
000003b0: cc8f e91f 90e4 bb3f 1549 f252 98c9 bcbf
000003c0: 7361 5d9e af77 803f 0dae 28bb 103c d53f
000003d0: 2d7a e280 4f1c c9bf c014 2909 e82f b53f
000003e0: 4c4e 1791 202d ae3f e17c c0e8 7d47 cb3f
000003f0: e98e 4ba9 2bf5 c1bf d3c6 d0a9 cf02 af3f
00000400: b2ac be1a ca37 833f dffe 541f cb7f b63f
00000410: 0495 9c27 360a b9bf cb78 a4af a938 c93f
00000420: 443f 15f7 6e6d d23f 8cee ea07 8171 c03f
00000430: 6836 8bd1 3a52 c73f 5e67 79cd 660f d13f
00000440: 7915 7095 203f 993f 924a 0e37 ae56 c5bf
00000450: 361b a1c1 3d84 cd3f f779 17cd 50ad c93f
00000460: 9e7a 2148 6a7a c13f 1b67 f024 630b 813f
00000470: f7e9 bedc 7064 b6bf 89ea 941c 9d25 c3bf
00000480: e748 0163 8874 d43f ca9c 741a 3cf7 c2bf
00000490: 326b dafb 8076 ba3f 6b4e 4934 b19f d33f
000004a0: a64f c297 f344 a2bf 081f 3ebe 030a b8bf
000004b0: 5bed 7fe9 74ee b3bf bff5 534c 6bcb b5bf
000004c0: 8081 48c5 d15b c5bf 3c15 32d9 c094 d13f
000004d0: b894 6b94 8be6 9c3f 2e78 7f27 c4f7 bc3f
000004e0: 1dce e9b7 d8f4 d0bf 75cc 7c53 a0bf d33f
000004f0: 8fb5 d45c 1584 a5bf dc95 1117 c6b0 cfbf
00000500: f18e 6eb8 e2fc 89bf 10ce 5355 bb2d c3bf
00000510: 766e 79db 9c4d bbbf 0084 21a1 de65 d03f
00000520: 6e8a 16bb 7f57 aa3f b4f3 2f9d 39cd d03f
00000530: 33a1 7a68 4bca c4bf 0928 1975 7182 d3bf
00000540: 02b4 128d 48cc afbf 14db 7089 64f2 c8bf
00000550: 5857 2d60 0317 cc3f 4805 92eb 9106 c5bf
00000560: af48 6617 8ad1 b2bf f499 9379 3926 cd3f
00000570: 5fc5 866f d2e2 b9bf 6422 179a f8cb d4bf
00000580: d19e 257a 651a cabf d44a 464d 46d7 90bf
00000590: 8960 ebc6 52a0 ce3f e4ce 5c26 c016 cabf
000005a0: bb77 991c a677 c9bf 2281 50d3 64e7 c6bf
000005b0: 30ef d1b4 d433 d43f d503 175c cc82 cebf
000005c0: 2c5e 272f 5510 b63f cac7 a551 c20e bf3f
000005d0: 60c8 74ec 9d67 bcbf 5b0f 4339 9091 c03f
000005e0: afa1 5dbc 6814 c7bf bcd3 87e7 22a0 c1bf
000005f0: 4c85 2a17 d14c d23f 846a dd33 3b06 c63f
00000600: a972 7e21 0eb4 cd3f abd4 d64b f80d cb3f
00000610: 50d0 b1ad c4a7 c0bf 83c5 cba8 2406 d03f
00000620: 6ab8 35e2 16df d0bf 4e37 4901 e0c6 d5bf
00000630: fb6b 6a45 d9ed 853f 2e3d a66d 82a6 da3f
00000640: 0dab a4d2 faec c8bf 0239 a029 38a4 5dbf
00000650: 5175 5dfb 7a93 b13f 3114 8e89 0374 ba3f
00000660: 8c28 9ad7 5784 c0bf 328c 66db 6b44 ba3f
00000670: e277 96a3 fc8f bebf f85d c7ad cf97 cb3f
00000680: f0e2 edaa 8f43 b53f 6a6f 86ff 3db5 d3bf
00000690: a34d 656f d6eb c9bf 4cd2 7834 05d8 cc3f
000006a0: 1829 47b1 2dde d3bf a9f1 4e80 f300 b53f
000006b0: 17b1 13b3 ce52 cb3f 94ed e944 a899 d0bf
000006c0: c31a 4afe 4066 cbbf 4982 50c5 b8a5 adbf
000006d0: 5c6c 5591 8ead c4bf 0872 c529 73f3 bebf
000006e0: e755 a2f4 ef6b ce3f 5c20 5d42 50cb d1bf
000006f0: bf26 592e 1e1e ca3f 3484 4ce1 417c 4fbf
00000700: 9566 ba07 3185 c43f 6053 548c a63e b2bf
00000710: 9dbc 881f e500 cebf 8050 3a9d 123b c43f
00000720: b6f4 2059 6053 b4bf b2ca 13c8 4c29 d0bf
00000730: 0151 515b 40cb c1bf 91ac 4619 082c b33f
00000740: 3a75 f535 f7c0 953f 3fb9 ba6f 4866 d23f
00000750: 05c6 70a2 6c35 b43f 1343 e493 6695 c4bf
00000760: 6670 19db 118f d3bf ea98 fd95 1e57 c6bf
00000770: 2906 e589 3858 c13f 4ae8 5063 3489 cd3f
00000780: e461 b08e 754b bbbf 1876 cc0e cbef c2bf
00000790: 91a3 0b9f e43a bcbf 3417 5154 aac5 90bf
000007a0: cb7b 9488 48cf c13f a8b1 e2ac 3d7a bb3f
000007b0: 565e 6b8e 8654 8fbf 7f26 3fde 8726 d5bf
000007c0: d131 acad 8522 d03f 7b2b 79e3 7604 b73f
000007d0: fc1d df1d 4860 c33f 656f 6a62 608e c9bf
000007e0: 9b34 16f9 afa0 c63f 8aa0 4f30 af51 cabf
000007f0: aab9 104d a58f c73f 122d d04a 969f d3bf

transformer.encoder.layers.0.self_attn.in_proj_bias f8 [48]
-0.009638050725461395 -0.01885530416622359 -0.006515401258979804 -0.002242076603482364 0.021613156075983474 0.014008751867325227 0.009936494546899082 0.024276918298024263
0.00537181207951649 0.013632671837227845 -0.056292096002145686 -0.04472153127799979 0.10472246971788576 0.01595167178543821 0.03842252884718316 -0.05279610782378625
-5.899097198957863e-14 -2.5109766471190845e-13 -5.95125664297955e-14 -3.750723907043607e-14 -2.180432340372352e-13 9.790183134911986e-15 -8.047559603894457e-14 -4.131167320966716e-14
8.7133311998565e-15 -1.4182895753379313e-14 -1.8716805978279317e-14 8.523004325369336e-15 1.1567733994101036e-13 -9.197503915098142e-14 1.22200732980308e-14 5.095982621588629e-15
0.006669845400363513 0.00028123822958681945 0.006401295716473348 -0.004852742785600132 -0.013517763020624969 0.016989927718233766 0.004907638397188029 0.006959858278861183
0.00798066972241624 0.029598585808130486 0.0045886258798561895 0.008623268285699332 0.009725940177635239 -0.0026945477554234363 -0.006978139613598371 0.004251252273175899
00000000: f0ea 4d45 1dbd 83bf 7b10 000b ce4e 93bf
00000010: b5fe 3db5 e4af 7abf 9096 fcb5 f95d 62bf
00000020: e3ec 095a c221 963f d105 06d9 9eb0 8c3f
00000030: d62f edb8 9559 843f 83fb 8c68 0cdc 983f
00000040: cb7e 3ad3 c000 763f ca7d 953d 72eb 8b3f
00000050: f07b b44e 51d2 acbf bb37 8894 bde5 a6bf
00000060: 463c 987e 17cf ba3f ff38 8a92 a255 903f
00000070: c712 a821 1eac a33f 0923 eb68 1708 abbf
00000080: 6f5d ea5c bf9a 30bd 73ca f096 5fab 51bd
00000090: b682 0415 55c0 30bd e46a 4de1 5c1d 25bd
000000a0: caf1 1dde d5af 4ebd 0668 9405 a80b 063d
000000b0: 5c5b 6cb9 e0a6 36bd 144c d5b9 a341 27bd
000000c0: c5e1 b2b9 e49e 033d ae4d 49fc e1ef 0fbd
000000d0: f06f df84 c012 15bd 5d02 ad6f 2d31 033d
000000e0: 5583 7b24 b747 403d 15b0 2502 80e3 39bd
000000f0: f394 7c84 6484 0b3d 2cbc 7898 44f3 f63c
00000100: efaf d2fd d651 7b3f 9c18 9bff 646e 323f
00000110: b985 11bc 3e38 7a3f 9ef9 f538 78e0 73bf
00000120: a494 b570 33af 8bbf 5016 a5bf ce65 913f
00000130: 250d aa26 081a 743f af7e 14bb f081 7c3f
00000140: 64e4 a95b 2b58 803f 870f 3778 174f 9e3f
00000150: f3a6 66e1 85cb 723f aa77 2c7a 13a9 813f
00000160: e6e8 e297 31eb 833f fdf1 954f e012 66bf
00000170: ec54 d616 1c95 7cbf f474 afd7 c269 713f

transformer.encoder.layers.0.self_attn.out_proj.weight f8 [16, 16]
-0.028591182333218057 0.36718443948320245 -0.31762653543997044 0.16813323443752246 0.22635734876098018 0.25851890974510217 -0.25707459176057507 0.15732882458266248
-0.16154528013947508 0.42139487717807755 -0.015459066713777708 -0.006724018570326385 -0.3726366995330143 0.2803731763447924 -0.2047348820078847 -0.137393229596571
-0.35498411924889767 -0.1284901307938178 0.20698716325724284 0.10468400328062374 -0.19986903103653167 -0.0659846945181196 -0.14588466228052632 -0.39399620451920203
0.09124824435039953 -0.36640640074555925 -0.18518286126722366 -0.40042312601962804 -0.4228742476181917 0.37667605665153325 0.24380284341386269 -0.26022594445817954
0.030488457869577115 -0.4220539346746902 -0.24218156722496742 0.01320270840716074 0.12764664663121525 -0.26990012920201617 -0.4126164188848241 -0.29457959298279407
-0.02921985797942445 0.3436991639738177 -0.04725952949073672 0.13404029501844172 0.44368737908425265 0.25541610881077337 0.4049656811130333 -0.436580610231421
0.3958919387271534 -0.2386076257125825 0.07400531695227865 0.062453057789563005 -0.29878877953781513 -0.23149143772772282 0.20389435175316173 0.08463755018085946
0.3403269727415221 -0.23047787875732728 -0.18378900269980206 0.08261055728824397 -0.011016406325276621 0.1941393872551977 -0.3974692236628889 -0.06966023961595662
-0.36845206962978216 0.16722447625498427 0.3341630676974914 -0.37367617880000326 -0.41551020368173003 -0.15729246488504917 -0.19447905860012937 -0.3200856139562045
0.011514985940191928 0.3038162438582299 -0.4262863197652053 -0.37637530245848094 0.23100262553987574 -0.16673664060358587 0.08357642941521534 0.42767113915067756
0.1487118549268645 -0.018503488579791977 -0.2270471129263256 -0.35963107731199867 -0.2486550296013909 0.30776850925572524 -0.1998965632533306 -0.30932656074968534
0.19051538611583468 -0.162215457112387 0.2966690205574022 0.04828495864889725 0.26173961248033917 0.3285183594466815 0.2172191219873869 -0.1864406052779223
-0.24485678903551733 0.24808098724410904 -0.2583468645783689 -0.4211568011398084 -0.02722180933189845 -0.14428036484498555 0.3834979933825682 -0.3686810502110969
0.12574141158892266 -0.0497710478569159 0.008759964187676885 -0.21630809200167903 -0.2063320618042118 -0.21954701770287585 -0.08214761873254299 -0.19744715682932182
0.3787133205418014 0.2713504952589436 0.3362582980027957 0.09051387310396482 0.32621399674080476 -0.33122906650619666 0.17249707021031177 0.2449294061428374
-0.23145442547435288 0.1425680353515983 0.1548254591870173 -0.12371277480201681 -0.06167198585638335 0.014852196182946033 -0.06846720298230818 0.3402412614606216
0.3328703083238936 0.07193163198753663 -0.01953550010505398 -0.3527263671812906 0.39557895860662606 0.252019525128975 0.4309125268989897 -0.22667908035055379
0.027410046420745224 0.1760363370015934 -0.3480244259954426 -0.1063846890605612 -0.1489504974591485 0.2601038282104816 0.07641016210893373 0.2441696216670856
0.014200554924137925 0.21825260025582832 -0.36155173271240915 -0.2497502161668615 0.4998472771371482 0.11541890848173804 -0.2918783679505484 0.33094647016741413
-0.31090755469662873 -0.31621507395571224 0.20038948435099313 -0.3279905936780149 -0.1230775151008396 -0.14941894580099882 0.4922145284168954 -0.01597557192485292
-0.26478633821366615 0.034485721881335134 0.20893531277994032 -0.236353949029986 0.09734180247116817 -0.07623528336055947 0.38597536449729236 0.31395833008247104
0.12543111842412458 0.25625910093411164 0.11370564807136811 0.12402362179984991 0.34255690400419625 0.31220831205109356 0.19073946942814185 -0.18497168299046798
0.1944080820554959 0.0639187681612627 0.002763812448447216 -0.3628498058472945 0.057851550548387726 -0.34518897347624466 0.42443446229427706 -0.028045085938585214
-0.2527901618726732 -0.23295650468555795 -0.12924511214204498 0.17201903506701632 -0.29547693250857676 -0.20994600938347174 0.02882605073194499 -0.3019667015480004
0.24283104335332398 0.3628185126359709 0.2539225607304588 -0.2634947382810609 0.37533049557219855 0.09298139369725986 -0.2165524409633474 -0.3709937212578267
-0.04018913492943057 -0.23264679898798446 0.26961425056783367 0.10166202713478206 0.3876648954486967 -0.12918911690857096 0.06053013822378688 0.06699709649125082
-0.0699523668796087 0.41716455557667886 -0.020857086707444714 0.2665361996356424 -0.0716012299116837 -0.34549860890004375 0.024492855815560034 0.23086561240173298
-0.32932899414349825 -0.045175139546621265 -0.3220541143260286 0.10841097307679329 -0.2012457693046923 0.4112111893086973 -0.08871303862175153 0.3981940434988051
0.19207614892914748 0.25080968289342465 -0.14679827588081987 0.10964426165457057 -0.34710394498145686 -0.2975372269190431 -0.35674054475719824 0.240043510347276
-0.3032446968356174 -0.017085921180450978 0.20167579069350916 0.10735892520968776 0.028602222686830932 0.1301353572906366 0.051566091738121246 0.44954506020057544
-0.16401904880878654 0.42229300501920386 0.029725765156528024 -0.2965013131791723 -0.3061222188558985 0.22712715192253516 -0.19488939438457334 0.2781865281217481
0.26163915723722536 0.29816240642004277 -0.3072823315162029 0.3982484804932012 0.19285302993498507 0.34694321541101175 0.23806904954245017 -0.30229553172871326
00000000: b0f2 4cc4 0147 9dbf 6c8c cb29 f37f d73f
00000010: 029d 833f fe53 d4bf 73d2 a3cb 6385 c53f
00000020: 5e9f 1111 47f9 cc3f b42d b0e5 928b d03f
00000030: 51a1 0ffd e873 d0bf e77b 26d6 5923 c43f
00000040: 93d7 8207 84ad c4bf 48a2 0b38 22f8 da3f
00000050: 76e8 b2cf 00a9 8fbf 344a b7fd a48a 7bbf
00000060: bb27 7299 47d9 d7bf c6e5 c455 a2f1 d13f
00000070: 2082 49ab c034 cabf 5190 e7f1 1996 c1bf
00000080: 0d7f b14f 0fb8 d6bf 8121 cf56 5d72 c0bf
00000090: 97da 702c 8e7e ca3f ce2f 8122 92cc ba3f
000000a0: 917e e4f3 4e95 c9bf 77eb fd78 5fe4 b0bf
000000b0: 88ce bd3e 59ac c2bf 501e 4adb 3b37 d9bf
000000c0: f568 4d81 0b5c b73f e5d2 0fd5 3373 d7bf
000000d0: 3612 766e 12b4 c7bf b83f b451 88a0 d9bf
000000e0: acce f525 5f10 dbbf 044b 20e4 751b d83f
000000f0: 5b32 917b ee34 cf3f a330 41b8 8aa7 d0bf
00000100: 243c d2c5 5d38 9f3f cadb a481 ee02 dbbf
00000110: f06e 763b ceff cebf 3679 9e86 050a 8b3f
00000120: 53d1 5cae b956 c03f 23f7 0631 0b46 d1bf
00000130: 09ca 39b2 4e68 dabf 9f86 7b5d 64da d2bf
00000140: b15c a979 cfeb 9dbf 9286 3bc7 2aff d53f
00000150: 5b93 2cab 6632 a8bf aca6 b97d 3b28 c13f
00000160: 0126 b4bf 5f65 dc3f b4af 8dce bc58 d03f
00000170: 8080 182d f5ea d93f 4dbf c0cc eff0 dbbf
00000180: 7d52 6524 4b56 d93f 0b81 81d6 b18a cebf
00000190: 5947 0a30 03f2 b23f 0095 7be1 d8f9 af3f
000001a0: f6b4 21f9 5a1f d3bf 871b 2ced 82a1 cdbf
000001b0: c039 4fca 3519 ca3f 6554 0a76 ceaa b53f
000001c0: 00c7 77c8 eac7 d53f 0c6a db93 4c80 cdbf
000001d0: bde4 fae5 6586 c7bf c97a db29 f725 b53f
000001e0: e292 1707 c58f 86bf e632 9037 8fd9 c83f
000001f0: 8b1c 33c1 2270 d9bf 1b68 fbe2 40d5 b1bf
00000200: fc04 4dfd b794 d7bf ac8d 4d94 9c67 c53f
00000210: 30ac d27d ed62 d53f 7660 cf7d 4fea d7bf
00000220: b9e8 fd1b b897 dabf 7254 4bd4 2822 c4bf
00000230: dce2 3896 b0e4 c8bf ac2a f75e 487c d4bf
00000240: 6f58 3740 2b95 873f 9056 d7af b971 d33f
00000250: 9beb 876a 4648 dbbf c233 c56f 8816 d8bf
00000260: 75f0 fd78 7e91 cd3f adf9 3751 a057 c5bf
00000270: 8607 0ecf 4365 b53f 2c18 06c5 f65e db3f
00000280: d21c b874 fd08 c33f 589b 3f19 94f2 92bf
00000290: 97bb 553a e10f cdbf bd89 eb10 3204 d7bf
000002a0: 7edb 0f92 edd3 cfbf 257d 7fb0 7ab2 d33f
000002b0: b4bf e0e8 3596 c9bf 400f 8da1 01cc d3bf
000002c0: 1a4c 60e4 ce62 c83f c608 9ae1 79c3 c4bf
000002d0: faf1 410f a0fc d23f af4a 925c ceb8 a83f
000002e0: e6ed ea80 57c0 d03f 6661 7dde 7106 d53f
000002f0: 7036 8010 d6cd cb3f e555 2827 49dd c7bf
00000300: 2039 8e9e 7757 cfbf 1286 7c27 1ec1 cf3f
00000310: d9d8 9849 c188 d0bf 7d8a d8a7 3bf4 dabf
00000320: 2318 46b3 08e0 9bbf a169 3b6c c777 c2bf
00000330: 6c39 ea2a 3b8b d83f 2cf1 5367 7898 d7bf
00000340: 827e 4369 4b18 c03f b28c aa3d 977b a9bf
00000350: 4104 9a7d bef0 813f 85f1 80ca fbaf cbbf
00000360: 135d c8c8 1669 cabf 7bed 7bde 1d1a ccbf
00000370: 638a e657 a007 b5bf 4d93 a2cc f245 c9bf
00000380: b057 92cb d63c d83f 08ff b877 ce5d d13f
00000390: 708f 3b86 4185 d53f c5d9 d0cc ea2b b73f
000003a0: 02f3 dfab b0e0 d43f 023d 0866 db32 d5bf
000003b0: f3c3 9a4d 6214 c63f fb28 9bc6 d859 cf3f
000003c0: dfa1 f671 4ca0 cdbf 8e21 a55c ab3f c23f
000003d0: 28f1 e515 52d1 c33f 5040 dff1 a3ab bfbf
000003e0: d242 aa74 7893 afbf a146 0907 d46a 8e3f
000003f0: f458 a80d 1187 b1bf 2c48 ae48 83c6 d53f
00000400: 35e0 0344 bf4d d53f 5a33 ef86 1c6a b23f
00000410: 59b4 3f38 1d01 94bf 04c1 de9c 1193 d6bf
00000420: 68e0 8c68 2a51 d93f 3579 9880 1621 d03f
00000430: c3f1 9d22 1294 db3f 8680 65f2 d103 cdbf
00000440: 0cf5 d513 6111 9c3f 592c 2ad3 5b88 c63f
00000450: a803 f73d 0846 d6bf d86b 4fe8 063c bbbf
00000460: 3aad a755 cf10 c3bf 729e ee86 8aa5 d03f
00000470: 9205 57cb 9d8f b33f 4e50 de3d f340 cf3f
00000480: e9b0 df37 2e15 8d3f b2d0 2e82 b3ef cb3f
00000490: acf6 f3e0 a923 d7bf 5284 4da9 d0f7 cfbf
000004a0: e71d 136f 7ffd df3f 8de2 44f5 178c bd3f
000004b0: 397a 309b 22ae d2bf ad1f 861a 3a2e d53f
000004c0: 2516 e0cc e8e5 d3bf 9e16 4926 de3c d4bf
000004d0: 14fa dfd4 5ca6 c93f 5f88 4f42 ccfd d4bf
000004e0: 3d26 3b0e 0282 bfbf 751d cff6 2820 c3bf
000004f0: 0aaa 8a5d 7180 df3f 8bfd ce7b e65b 90bf
00000500: e489 c365 42f2 d0bf ef8d 51cf 1ca8 a13f
00000510: aa47 af6f 64be ca3f 719f aea0 d840 cebf
00000520: 56b9 2572 64eb b83f bdbb d5d0 2784 b3bf
00000530: 95f6 e403 d2b3 d83f ffb3 00ae e417 d43f
00000540: 0023 c47b 200e c03f ae1e 7492 8c66 d03f
00000550: 6346 d637 d01b bd3f f6d3 8f17 03c0 bf3f
00000560: e4e3 edca 73ec d53f b21f 7392 38fb d33f
00000570: 8e08 a0a3 266a c83f 69a8 90f0 26ad c7bf
00000580: 01d3 4031 5de2 c83f 3d6d dafa fa5c b03f
00000590: a4e9 8182 22a4 663f 5157 5e64 ee38 d7bf
000005a0: 8ca5 41eb b79e ad3f 4e4c 017e 9317 d6bf
000005b0: 5c5a b629 ef29 db3f 7ace addb d9b7 9cbf
000005c0: 6a98 7fc9 b62d d0bf a0e9 81cc 84d1 cdbf
000005d0: 1eb2 e894 1a8b c0bf f87e f340 b804 c63f
000005e0: ee30 7614 18e9 d2bf f025 1dc6 82df cabf
000005f0: 9e89 aa84 9384 9d3f 424c e824 6c53 d3bf
00000600: 95fa d36e 1615 cf3f 31e9 8923 6b38 d73f
00000610: 0273 8369 4440 d03f 8174 e508 19dd d0bf
00000620: e423 eb32 6a05 d83f 8ef4 10ed a0cd b73f
00000630: f53c e789 fdb7 cbbf 98b7 f472 5cbe d7bf
00000640: c355 5a98 ab93 a4bf cc13 96cc 5ec7 cdbf
00000650: 7d5c 2e21 5c41 d13f dcf8 c9c9 8506 ba3f
00000660: 339a f06b 80cf d83f 1d8b 0fdc 4489 c0bf
00000670: 67e2 2f68 cefd ae3f 665c 5bc2 b826 b13f
00000680: 1f95 06f8 65e8 b1bf 3624 d0f6 d2b2 da3f
00000690: 8978 3165 8f5b 95bf 4da7 28d9 ed0e d13f
000006a0: 7ff5 d24c 7554 b2bf f781 8232 a61c d6bf
000006b0: dd98 daba a714 993f 90aa 841f 018d cd3f
000006c0: 3c23 deea b913 d5bf b6d3 e325 3221 a7bf
000006d0: 76a4 24dc 889c d4bf f271 e44f d2c0 bb3f
000006e0: 289e cfde 6bc2 c9bf af20 75bc 4851 da3f
000006f0: 0af5 9bcf e5b5 b6bf 0785 92de 027c d93f
00000700: 2404 ff84 f395 c83f 6e08 630e 440d d03f
00000710: 1d37 0231 49ca c2bf 531d 0076 a511 bc3f
00000720: 1982 0077 f336 d6bf b56d bd94 d90a d3bf
00000730: c7eb 384b d6d4 d6bf d07f 47e9 beb9 ce3f
00000740: d60a e671 5c68 d3bf 2cae c4c2 f87e 91bf
00000750: 5037 b626 83d0 c93f ec95 b5e0 df7b bb3f
00000760: efa2 21ac e649 9d3f 6beb ce7f 46a8 c03f
00000770: 750e 32eb de66 aa3f dbf2 e8a4 58c5 dc3f
00000780: 9202 4781 93fe c4bf 56c5 783d d906 db3f
00000790: 9f90 c854 6e70 9e3f 9cd6 d4a4 e0f9 d2bf
000007a0: 9829 a4a5 8197 d3bf 9b3c c5a4 8012 cd3f
000007b0: d107 9cbb 22f2 c8bf d31f 1ede cecd d13f
000007c0: ebf5 eb29 b2be d03f ac20 1ec6 1715 d33f
000007d0: d20b 2083 83aa d3bf 7d99 d931 e77c d93f
000007e0: afac 4078 68af c83f a999 f050 5134 d63f
000007f0: 96c0 fcee 0b79 ce3f bc1c a05b cf58 d3bf

transformer.encoder.layers.0.self_attn.out_proj.bias f8 [16]
-0.0038575067612916128 -0.011622111805197977 -0.019432747598641945 0.010511369602253386 0.0013240721566631572 0.0051006987777824225 0.007816016525651536 0.007378648106356803
0.006826340620632331 -0.014891968668300682 0.005955405792151724 -0.007578417937914478 -0.0007305116833312513 -0.005882168474876814 0.01297170917153298 0.010530969890774084
00000000: 2778 482c c799 6fbf ed05 e970 55cd 87bf
00000010: 315f a19d 2de6 93bf f43a 6c25 fc86 853f
00000020: 60ff 10a7 8fb1 553f 1046 ff66 78e4 743f
00000030: f3be e6fa d701 803f 844e e3c4 1239 7e3f
00000040: d9b7 78db eff5 7b3f 072e 3a33 ae7f 8ebf
00000050: 9986 c911 b264 783f 8721 2e13 8c0a 7fbf
00000060: 5643 06e5 f9ef 47bf b3a1 aa93 e617 78bf
00000070: 30d5 5155 e990 8a3f 0a52 35da 4291 853f

transformer.encoder.layers.0.linear1.weight f8 [128, 16]
0.06768545688511819 0.030027913116904125 -0.16149558221147975 -0.09285875772112244 -0.18420242896923306 0.1339916295335995 -0.20603209229759784 -0.10216818938103224
0.047409046882948475 0.023348466066457938 0.09326787300356412 -0.0824395019992758 0.1196149217934135 -0.20837926826826236 -0.025937156637570385 -0.027253526111025248
0.009152250762613421 -0.19825239410577092 -0.2094782177814375 -0.09937839721196547 -0.20284503326955106 0.13264471567217903 -0.17997691199390523 0.04924356007887408
-0.10052457778838668 0.10304995289630377 0.05112652462327853 -0.1597217952266926 -0.053068733072217336 -0.17485773613818476 0.0718438541450357 0.08634604268685807
0.06645674853871462 0.12550968557858394 0.058036713922039775 -0.042260629206954704 0.18722572484798497 -0.11350890415116362 -0.058169565913516956 0.10605243521748378
0.033337827302646776 0.1175110435156451 0.17475928625233905 0.08370788070738223 0.019016770961773368 -0.07700723589854344 0.007608214443697452 -0.035000349946557596
0.08724864956067475 0.10876014713334754 0.033571570125766476 0.15838446111356166 -0.13654869153460236 -0.11333251323855856 0.05930260750995015 -0.034536981018013245
-0.09331860844611295 -0.09533544228685979 0.13609407217828223 -0.15480004398876293 -0.034231286317645375 0.050304159670408376 -0.011606391431265097 0.13930013642615174
-0.12762793344511633 0.12166199707300893 0.16867952597603328 0.20291120331826704 0.053898335323503535 -0.11850560449788887 -0.11262043846387328 -0.2693460484541805
0.15486532398538636 0.2131304070547562 -0.22164484451862315 0.022425955165467554 -0.05823527439307308 -0.044034401634443755 -0.011103338613700713 -0.07822241731714415
0.09075917841324996 0.08271890532741505 0.05512414022884538 0.0760296790174541 -0.006362916611242729 -0.0012378159284924875 -0.14386178117170575 0.1367849298707937
-0.014356126238862451 -0.04243462463774271 -0.19718811270199696 0.06888294665843958 -0.027270270223744522 -0.16638832842815396 -0.0558691251898102 -0.020704792819657
-0.19192828146354213 0.030886707566889462 -0.09408165526346199 0.035872234335547086 -0.1381317967420121 -0.04941162710445207 0.18097000574452632 0.06741324686983426
-0.17662378133508116 -0.02410512647745003 -0.09918397618154086 -0.16366772450318628 0.12932952234990291 -0.03961289714617001 -0.006872714280761945 -0.17903220332265565
0.19252265358814746 -0.04028748213471643 0.06631782232917487 -0.019091209060039183 -0.07817303018706134 -0.13548988245016477 -0.06286437284837049 0.11022788666815023
-0.12701161055638943 0.05862963802297356 -0.1253909944467821 0.12291584269218228 0.057615639610675604 0.05467745852384394 -0.14269714237279577 -7.653954676910695e-05
-0.06244404448021574 -0.029392418724745545 0.11359010909324925 0.027726206371867207 -0.17428288344687626 0.17333948382682085 -0.04685016167971752 0.024200279860792165
0.20953456431244674 0.20557805704236318 -0.035784458477429885 -0.06741588377086549 0.024608649922769635 -0.004106719681684407 0.04517858333273553 0.017720505741316207
0.036542238424203836 -0.058177740687529726 0.14279370813210535 -0.024127937693907378 -0.10583706674976237 -0.055399707119380234 0.1997639151078091 -0.15009563673523807
-0.19180289126482428 0.0909146613765692 0.043338743791874274 -0.01711432856471793 -0.05788865641190318 -0.14109262265196218 -0.06519756570471813 -0.10187141296206452
0.07693596629799798 -0.07720998617415599 -0.13059417196705422 0.11469974822156531 -0.021318089535840724 0.2240139515362007 0.03756118138043229 -0.06605708093561775
-0.20827161094243446 0.10655372177183732 0.12481258970743923 0.1002669103727512 -0.036200470792957046 -0.17028220667195546 0.06913487141539663 -0.006556897475234945
-0.16658825749412876 0.033107742631211634 0.036180892882481955 -0.13643463210619347 -0.14143287440913002 -0.12526930542931103 -0.13313209921905375 -0.13671275827999302
0.14812202439684707 -0.10739123151521365 -0.01681226431777162 -0.11605185297749775 0.10191149181900015 -0.17610061232075136 -0.10957553271885145 -0.14471857878957112
-0.0791171853216736 0.11615606837023312 0.08378391211712971 -0.069476160124779 0.06746470560884146 -0.09200915298208803 -0.20516871487548094 -0.1817721334181645
0.17541971604831127 0.14769099096759275 0.16324168668269134 -0.10075869422371259 0.09348810450701098 -0.050846367182354975 0.08959782672317854 0.15142827934720518
0.16077300481053478 -0.06320741224523889 -0.13096315448165335 0.06098362104082516 -0.11935807004006171 -0.14749153939119386 -0.12653190296674133 0.016350701813725513
0.11426853398515527 -0.16176305208964945 -0.2119937647299122 -0.039256968711864584 -0.04115025281401657 -0.025787084378406187 -0.008301769675001158 -0.08313908157579376
-0.19623474470872998 -0.23005372547657402 0.13942085475805596 0.06571151511012822 -0.15663743052923557 0.11249330282294008 -0.05002235025265992 0.015483919750008747
-0.22659609014633697 -0.06790846859290414 0.26183660445556084 -0.14328145770300274 0.21162766482351494 -0.2189720976061575 0.029658598362143813 -0.07691878379210268
-0.13920834715762861 -0.19158335749178804 -0.19018312182961777 -0.06604344648938279 -0.08260721999312513 -0.1273522136395751 -0.015549811477058076 0.06475478640863849
0.11886621758386387 -0.13716780708247905 -0.20137490576480455 0.14923513482390965 0.017571779920319764 0.11388694205444486 0.012246244559396748 -0.1268586971682847
00000000: c184 bc87 d553 b13f c388 3723 a3bf 9e3f
00000010: 0cfd 0522 e3ab c4bf 6335 8f6f 97c5 b7bf
00000020: 9220 22f8 f193 c7bf 626c 6441 a326 c13f
00000030: 0a1d 2c75 425f cabf f143 15c8 b127 babf
00000040: a428 cba3 ff45 a83f 2937 ab08 a9e8 973f
00000050: a25a 5140 67e0 b73f 3c44 fc54 c11a b5bf
00000060: 0160 3761 159f be3f 5834 30ff 2bac cabf
00000070: 0bd3 091e 458f 9abf 59e0 632d 59e8 9bbf
00000080: 9285 ae4d 6abe 823f d5dc 849e 5560 c9bf
00000090: ec3d 4ca7 2ed0 cabf 4d4c f4d5 dc70 b9bf
000000a0: 903d 0678 d3f6 c9bf 174d e685 80fa c03f
000000b0: 2142 86c3 7b09 c7bf be9d 27b0 7336 a93f
000000c0: ab9a 0b8e fabb b9bf 4d41 8b51 7b61 ba3f
000000d0: 3624 6e7e 412d aa3f bc80 7a87 c371 c4bf
000000e0: ca7c f831 d32b abbf cb42 1501 bd61 c6bf
000000f0: b1b5 f8db 5b64 b23f afa4 7a35 c61a b63f
00000100: 9f80 9239 4f03 b13f d614 728d b310 c03f
00000110: 4d62 86f8 fcb6 ad3f 7d5a b468 2fa3 a5bf
00000120: 2193 9836 03f7 c73f dd50 2267 eb0e bdbf
00000130: 4f30 71be 66c8 adbf 9a95 eb9c 4026 bb3f
00000140: bf18 f8db a711 a13f 178b d128 3415 be3f
00000150: 0024 9025 835e c63f c940 0e32 e16d b53f
00000160: 27e4 6ce5 2179 933f 8256 bd07 bfb6 b3bf
00000170: ac56 7783 ca29 7f3f 38f0 bcdc 90eb a1bf
00000180: 1db7 7b70 ed55 b63f 85be 0b7b b4d7 bb3f
00000190: 8cf4 87f7 4a30 a13f c9b2 5628 f145 c43f
000001a0: 60f2 3972 6d7a c1bf 62df ee0d 5c03 bdbf
000001b0: c940 a54f e95c ae3f 4b2b f3c7 d4ae a1bf
000001c0: 7860 6273 bae3 b7bf f391 c54e e767 b8bf
000001d0: 2ab4 97d2 876b c13f c9f0 2ce3 7cd0 c3bf
000001e0: 0ff6 775e c386 a1bf a33a 4681 77c1 a93f
000001f0: ce90 f97c 17c5 87bf 22ab 233d 96d4 c13f
00000200: a3f6 19b4 1c56 c0bf 1639 989a 3d25 bf3f
00000210: 3b32 c96b 4a97 c53f 333a 1f8b fef8 c93f
00000220: 92ec 0b07 9098 ab3f 7b0d b61f 6256 bebf
00000230: 9942 106c b1d4 bcbf ebb8 5a35 f73c d1bf
00000240: 699d e67e a0d2 c33f 11ab 0a70 db47 cb3f
00000250: 366a 44b7 db5e ccbf c8a8 1160 d4f6 963f
00000260: d0d1 fb8d 03d1 adbf 7575 d655 ad8b a6bf
00000270: 7c2f c7e1 58bd 86bf 5df2 3064 6206 b4bf
00000280: cec3 1857 fe3b b73f 1c65 24f1 102d b53f
00000290: 618a 0137 3b39 ac3f 8bc4 e758 ae76 b33f
000002a0: 4b16 0a6c 0010 7abf 2020 9bbb c647 54bf
000002b0: af6d a316 106a c2bf 2fbb 3028 2b82 c13f
000002c0: 5e98 8ba5 be66 8dbf 1e04 13ba fdb9 a5bf
000002d0: 6786 9bc7 753d c9bf a46d 2613 50a2 b13f
000002e0: 2467 0edb bcec 9bbf cf7b 8476 364c c5bf
000002f0: 1abd 17c3 e09a acbf a69f 1f20 a333 95bf
00000300: 601d 081e 1b91 c8bf 370c 86db c3a0 9f3f
00000310: ee96 8240 bc15 b8bf 9f7a 9c72 d85d a23f
00000320: 76b7 c57e 4dae c1bf 885a e914 7b4c a9bf
00000330: ea65 1d70 062a c73f 4d84 9f9a fe41 b13f
00000340: fcd7 43aa 9b9b c6bf a8de 8ba7 03af 98bf
00000350: 79a9 fcfd 1e64 b9bf 3672 1362 10f3 c4bf
00000360: 9837 73aa de8d c03f a137 7c43 2448 a4bf
00000370: 6247 2131 9026 7cbf f7ce 19f9 86ea c6bf
00000380: c03a 7312 95a4 c83f 8ee0 6994 8fa0 a4bf
00000390: ebb5 0b6e 34fa b03f 2d43 375a a58c 93bf
000003a0: 8028 15d0 2503 b4bf d3fa 0783 bb57 c1bf
000003b0: 14a1 7729 e117 b0bf 6ace 5810 e537 bc3f
000003c0: 50a7 c69c ea41 c0bf 591d c533 b404 ae3f
000003d0: fe50 2ee6 cf0c c0bf aaf0 85a4 6977 bf3f
000003e0: ee60 bb0f cc7f ad3f aa69 6010 affe ab3f
000003f0: eda5 dc63 e643 c2bf 3b1d a166 7b10 14bf
00000400: c9b7 be71 aaf8 afbf 6846 b1d4 0b19 9ebf
00000410: 355f b4cb 3d14 bd3f a8f0 6f36 4264 9c3f
00000420: bc15 54ca e64e c6bf c423 12fb fc2f c63f
00000430: ea11 7490 befc a7bf 547f 394a f5c7 983f
00000440: b341 8d52 07d2 ca3f 8bd6 e2bb 6150 ca3f
00000450: 0734 bb2d 5752 a2bf a8dc 06d8 2a42 b1bf
00000460: 14d1 778a 0233 993f fa74 a02b 35d2 70bf
00000470: 5494 c9b3 a521 a73f 1a98 8202 5325 923f
00000480: 07c0 e80d aab5 a23f 075a 370b 79c9 adbf
00000490: 4840 4071 1047 c23f f4d2 427d feb4 98bf
000004a0: 8211 6554 2318 bbbf 6e49 92b4 595d acbf
000004b0: 048c 272d dd91 c93f 1c6b 8675 5536 c3bf
000004c0: 735d a144 ff8c c8bf feda 56e9 2e46 b73f
000004d0: ccbd 78ee 7e30 a63f faf1 e925 6b86 91bf
000004e0: 3b6f 32fc 94a3 adbf 379f ffb3 520f c2bf
000004f0: 0007 7ba4 c9b0 b0bf bbc2 11b3 3e14 babf
00000500: ccd4 2253 13b2 b33f a1e8 8a9d 08c4 b3bf
00000510: ffc6 d250 4fb7 c0bf 3497 7873 f65c bd3f
00000520: ca81 7ac5 68d4 95bf 0f0d d939 7dac cc3f
00000530: cf93 411b 383b a33f eda6 49ea 1de9 b0bf
00000540: 466c d7e6 a4a8 cabf a1f1 46ce 1a47 bb3f
00000550: 1f2a ecc6 b7f3 bf3f 9403 ec9c 17ab b93f
00000560: bca4 4f3c de88 a2bf e395 5fae cecb c5bf
00000570: f706 beab d2b2 b13f a57e 82c3 67db 7abf
00000580: 54de ea96 c352 c5bf 60dd b07f 7ff3 a03f
00000590: b236 574f 4d86 a23f dd0c 78a5 b076 c1bf
000005a0: 814f 15f1 781a c2bf b079 0119 d308 c0bf
000005b0: f3c9 18fe 780a c1bf 4a17 e1bc cd7f c1bf
000005c0: e006 4d99 a9f5 c23f 6e29 3ce3 fd7d bbbf
000005d0: a388 aaf5 3b37 91bf a7b5 2d01 93b5 bdbf
000005e0: 47fd 721c df16 ba3f e091 5c01 778a c6bf
000005f0: 7020 7861 240d bcbf e22c 836d 2386 c2bf
00000600: bb16 821b 0641 b4bf bcd0 e172 67bc bd3f
00000610: bc58 79ca dc72 b53f fa6b 968b 30c9 b1bf
00000620: ea67 39f0 5d45 b13f 6aa0 fd6e e98d b7bf
00000630: 9cb9 46ec f742 cabf 0e76 2d2c 4f44 c7bf
00000640: 2724 c03b 2774 c63f 7050 0fd4 89e7 c23f
00000650: 60b1 d284 1ae5 c43f 9c7f 7a60 52cb b9bf
00000660: 4a32 6c1f d6ee b73f a955 56f8 8808 aabf
00000670: 1298 9117 e2ef b63f a52e be79 0062 c33f
00000680: bbd5 deb6 3594 c43f 7345 7568 5c2e b0bf
00000690: b666 bd90 66c3 c0bf 778b ecc3 3e39 af3f
000006a0: 38f3 551f 408e bebf 8c99 0fb5 00e1 c2bf
000006b0: 4047 9288 3232 c0bf 14f5 3906 3dbe 903f
000006c0: 6298 6de0 b340 bd3f 5b8d 36d5 a6b4 c4bf
000006d0: 2946 3c97 9c22 cbbf 12de 8349 7d19 a4bf
000006e0: d7dd 1d5c a511 a5bf 69fe 41f0 ed67 9abf
000006f0: 7341 06aa 8400 81bf e133 6354 9a48 b5bf
00000700: a673 6e59 381e c9bf 2957 9f85 6672 cdbf
00000710: c779 c8e5 8ad8 c13f 435d 5e48 78d2 b03f
00000720: caec b900 b20c c4bf d5bf a470 5ccc bc3f
00000730: 75f7 ce8c 879c a9bf 077b 8587 08b6 8f3f
00000740: f43c 4ac6 1901 cdbf 025c ba0b 7362 b1bf
00000750: 8f11 4251 eec1 d03f c592 7afb 0b57 c2bf
00000760: b144 ac85 9d16 cb3f 563c fa16 4707 ccbf
00000770: 85dc 0ad8 d25e 9e3f 16ce d50c f3b0 b3bf
00000780: 37a5 2f41 94d1 c1bf 294b 71af cd85 c8bf
00000790: c233 41a8 eb57 c8bf 7a7a c92a 39e8 b0bf
000007a0: efb0 482c bf25 b5bf f2dc 53cc 134d c0bf
000007b0: 1b00 065e 94d8 8fbf 0673 e209 c593 b03f
000007c0: da35 1f35 046e be3f 46dc bdf6 b68e c1bf
000007d0: 7459 3f25 a7c6 c9bf cacd bd0b 231a c33f
000007e0: 1d73 5c30 56fe 913f b2b6 90d3 b127 bd3f
000007f0: 9429 0d1f 8f14 893f 8d85 c6e1 e73c c0bf

transformer.encoder.layers.0.linear1.bias f8 [128]
0.1906760247574017 -0.12416281238889 0.11344155359094127 -0.08856984865740672 0.08589151903353522 0.0015589153665395684 0.09318955191544144 -0.24431285724076657
-0.050022383936489605 0.17695270897951287 0.21257929814228796 -0.15481005959206012 -0.1437365058971062 0.14025068786472972 0.20122469675822546 0.09374311138263428
0.1537196156861693 0.16223839601866435 -0.15391005242226713 0.0873354152984312 -0.2032897340439046 -0.06826387457846575 0.21678440252968317 0.1998129650170415
0.25113781037809774 -0.12432544042085843 -0.11011670731972245 -0.21931059416073728 -0.22676768152471663 -0.23571209571286972 -0.23167080671514315 0.17994284859752455
-0.17382430179035865 -0.10193402375939743 0.10634227988585992 0.17908416480461511 0.024725831309330277 0.03684362533716159 0.1759524224007834 -0.1892173650908669
0.1817512068797759 0.2453721887838066 -0.2540286561007955 0.21601121194057926 0.08443757775319335 0.04038771379016777 0.017555803866011566 0.10366151485213021
0.1552673951590068 -0.06173462120906737 0.11343344390030906 0.005693620660778612 -0.19400625752207004 0.03605591944825879 -0.1572690031716431 0.00442529245926023
-0.15944388444399266 -0.0677619181178481 0.115461243208373 0.014935281939752482 0.14051376568272772 0.17738705742027344 0.19392367069576058 -0.23274684121150385
-0.22025799469755714 0.22708393589108858 -0.1799497487147429 0.19477101200089705 -0.22895943520361384 -0.01070985011087693 0.051541744825111147 -0.12145089037741584
0.04046729185284744 -0.2441987146741509 0.0680618074818041 0.13170620533697688 0.09861932532431215 0.001980609606205473 0.1327078256245375 0.005438222990917344
-0.12888380619884357 -0.17554157447968405 -0.17981208035077909 -0.2366398396115203 0.06733947966156115 0.23355319522974763 -0.18961774222904393 0.19745570446410426
-0.18907963860410407 0.13253264912271656 -0.19664573800101948 -0.22008790317170634 0.11175453074511511 -0.24980508672046076 -0.08065304063595861 -0.13553480738521878
-0.14836867879300106 0.08093201071674104 0.10114587245839253 -0.18265860041974813 0.2108505755759274 0.16964606851082548 0.053810293416482934 0.10675225825123756
0.22853412974724324 -0.03885235326182426 0.19241786683647136 0.019828364374308797 -0.14769585688232184 -0.22490357763547383 -0.1035191471624964 0.0060753944220960495
-0.039522916038183954 0.19037875413359098 0.140127922149691 0.03804025092602909 0.1523705777014736 0.06648619934443625 -0.14901344962367163 -0.09530342423145934
0.149529145947974 0.11796899715258506 0.1987103104717734 -0.08293005508909387 -0.18563452965853258 0.06520714264659473 0.1178190238844474 -0.1277939305392127
00000000: 0e6f 3b6d 1268 c83f 5df4 9652 22c9 bfbf
00000010: d436 ae72 810a bd3f e22d 657b 83ac b6bf
00000020: 31b7 4091 fcfc b53f f6a6 0ea1 908a 593f
00000030: 5943 ce3d 45db b73f 4cb3 ebc9 a445 cfbf
00000040: cf7d 26ae 889c a9bf f0b7 00e9 62a6 c63f
00000050: 0df4 a966 cc35 cb3f 3215 85e7 d0d0 c3bf
00000060: 85e1 0834 f565 c2bf 246d cf0a bcf3 c13f
00000070: 2aaf dc19 bbc1 c93f 6a1b 9d6d 8cff b73f
00000080: bf19 1099 15ad c33f de1f 874e 3ac4 c43f
00000090: bef2 d618 53b3 c3bf 6445 7d20 9d5b b63f
000000a0: c061 aae3 6505 cabf ca10 d0c4 bd79 b1bf
000000b0: 06ee 925f 97bf cb3f 7051 08a3 7893 c93f
000000c0: 0d3b 9752 a412 d03f 2d1b abc4 cad3 bfbf
000000d0: 0071 aec8 9b30 bcbf d418 cb9a 5e12 ccbf
000000e0: 891d f82f b906 cdbf f6df 2d5f d02b cebf
000000f0: e7c5 2395 63a7 cdbf a90e f004 5e08 c73f
00000100: 9f45 b8ed df3f c6bf d973 6522 5918 babf
00000110: 7cb6 4a66 3f39 bb3f 299d 88db 3aec c63f
00000120: 6525 5c73 ba51 993f 6343 c7eb 2add a23f
00000130: 0282 eee5 9b85 c63f ba45 734d 4638 c8bf
00000140: 4551 c7a0 9f43 c73f 5352 161b 5b68 cf3f
00000150: aac8 8c68 0142 d0bf 9053 6d61 41a6 cb3f
00000160: 4ee0 007b b39d b53f 3a28 c7cb b2ad a43f
00000170: cd89 d60d 26fa 913f acca 24a0 8f89 ba3f
00000180: d5e8 2b50 cddf c33f d16e 3f26 ae9b afbf
00000190: ff10 d363 f909 bd3f 84bf 8aa8 3152 773f
000001a0: 1969 a371 32d5 c8bf dd07 b7e5 eb75 a23f
000001b0: 2afb a504 6421 c4bf d641 3466 4120 723f
000001c0: aef8 9d3e a868 c4bf acfa 3a56 d858 b1bf
000001d0: 2e14 8937 de8e bd3f 4af7 e69b 6396 8e3f
000001e0: 2e60 1fe6 5afc c13f a247 2d7d 9eb4 c63f
000001f0: 117f c7a7 7dd2 c83f 6617 a003 a6ca cdbf
00000200: 584b f4f9 6931 ccbf 21b2 0c1f 1611 cd3f
00000210: 549d d3e6 9708 c7bf b357 60ab 41ee c83f
00000220: 14b3 27f3 8a4e cdbf 9b2d c5bf 0bef 85bf
00000230: 7825 cef8 ad63 aa3f 8fb7 3dd2 6717 bfbf
00000240: 1b9f 21fe 20b8 a43f 6117 a04a e741 cfbf
00000250: f6b1 3da5 7f6c b13f 3921 4dba bfdb c03f
00000260: 5f81 05b9 1d3f b93f c972 83af a339 603f
00000270: 3f86 7ded 91fc c03f 043d 4fde 6346 763f
00000280: 19d4 4dba 437f c0bf 7a42 bd74 2578 c6bf
00000290: 1323 440e 1504 c7bf 06f5 07da 364a cebf
000002a0: 9e45 e0fe 283d b13f 41ac b133 12e5 cd3f
000002b0: a8bb cee8 6445 c8bf f67d 8a80 3a46 c93f
000002c0: b972 12f8 c233 c8bf 1831 d170 d4f6 c03f
000002d0: 5c5b ce02 b02b c9bf 9410 2f25 d72b ccbf
000002e0: 91e7 bae6 f19b bc3f 8c5e ebf2 9cf9 cfbf
000002f0: 0bba da7b ada5 b4bf da36 985e 3459 c1bf
00000300: 6355 95af befd c2bf 3f59 3ad3 f5b7 b43f
00000310: 058d 5526 b2e4 b93f d066 9165 5b61 c7bf
00000320: 4a7f 38d3 26fd ca3f 7a11 135e f6b6 c53f
00000330: 33ec d2d4 058d ab3f 0795 f6b1 1d54 bb3f
00000340: aa61 a43a 9b40 cd3f 54ac 43a5 74e4 a3bf
00000350: f146 9d0e 26a1 c83f e153 1502 e34d 943f
00000360: f639 88a5 b2e7 c2bf 1b50 59f3 a3c9 ccbf
00000370: a59e 9217 3b80 babf 8fb8 a645 83e2 783f
00000380: 1532 a7ff 583c a4bf 1db2 6dbd 545e c83f
00000390: 72d6 7135 b6ef c13f 195f 5103 037a a33f
000003a0: bedb 0c0c e180 c33f 3ad7 d153 3d05 b13f
000003b0: be1e 666a df12 c3bf c95b 4522 ce65 b8bf
000003c0: 229b d263 c523 c33f 5357 b658 3733 be3f
000003d0: d258 6de6 566f c93f 1e90 7672 e73a b5bf
000003e0: 8524 f24c dfc2 c7bf adfa 2151 6ab1 b03f
000003f0: 0e2b 6e36 6329 be3f 0b88 2530 8d5b c0bf
