Code/900-100/darts_logs/D-ADA_USDT_transformer/checkpoints/best-epoch=89-val_loss=0.02.ckpt (torch, 653413 bytes, 205 tensors)

encoder.weight f8 [16, 1]
0	0xbfd58240d1c1b9f2	-0.33607502445275295
1	0xbfe63fd990f86e6b	-0.6952941733793073
2	0xbfed863d4016f6f9	-0.9226366283180304
3	0xbfed344d2a03e1fa	-0.9126344509705284
4	0x3fd92b0252fe03e8	0.39325006584846145
5	0x3fecc3d31a08f060	0.8989043720716943
6	0x3f9d859cb658708e	0.028830002431377504
7	0x3ff2d81efd5feea6	1.1777639291239352
8	0xbfea4fe1ab7a19f2	-0.8222511624488205
9	0x3ff11f8b5afcfdb3	1.070201259062611
10	0x3ff31398605d47ad	1.1922839893563648
11	0xbfe35171b6373741	-0.6036919173145422
12	0xbfe04f0285c8de3a	-0.5096447575551288
13	0xbfe237a101463a43	-0.5692906403435888
14	0x3fa693401f0ac090	0.04409218195849107
15	0x3fe04fe67504da75	0.5097534451986819

encoder.bias f8 [16]
0	0x3fded76ce5b9c7ae	0.48189852174902625
1	0xbfa68428ea0ea001	-0.0439770494188565
2	0xbfe6eb6e4f95be95	-0.7162391237634035
3	0x3fba123afff4efe7	0.10184067486710512
4	0xbfdee4350db5d90e	-0.48267866457844455
5	0xbfee4a464e530f35	-0.9465667276167326
6	0xbfee1af5d94d12d6	-0.9407910579835412
7	0xbfc2c4ad1a2c2a5d	-0.1466270807071223
8	0xbfda5d925718ba71	-0.4119611597588238
9	0xbfecbd10ab16cae2	-0.8980792371351891
10	0xbfc387eb60d55e99	-0.15258543232151991
11	0xbfde71a009083514	-0.47568512804066754
12	0x3f922ec8d611d89c	0.017756593766954695
13	0xbfcc1114bf0bb266	-0.21927127197649837
14	0xbfe8f13e9f47a37b	-0.7794488058981267
15	0x3fc8e609880d71d6	0.19452017920674675

transformer.encoder.layers.0.self_attn.in_proj_weight f8 [48, 16]
0	0x3fcb9602d69ff1f6	0.21551547507978314
1	0x3fa58a7859b72a19	0.04207206816825621
2	0xbfd4a16a1c092898	-0.32235195863598554
3	0xbfac94d3677d81e3	-0.055822950728501096
4	0x3fd29ad00f2fc9c5	0.29069901927064407
5	0x3fc06382fbd39296	0.12803685470784804
6	0x3fb9f103aca8309f	0.10133383717783538
7	0x3fd6c685a942239b	0.3558668282426482
8	0x3fbc50447f5a8520	0.11059978589266395
9	0x3fb002ef36982a20	0.06254477579947393
10	0xbfbf8ca30994924b	-0.12323969825644913
11	0xbfd0abe9fff6ca83	-0.26049280163275784
12	0xbfccc68b68c91b30	-0.2248090993545815
13	0xbfc2f996fe06af39	-0.14824187663668356
14	0xbfcf9b605b5d7415	-0.24692921124633985
15	0xbfc52434fbf3bbcb	-0.16516744901988853
16	0x3fb0f848895627f8	0.06628850319808055
17	0xbfa4a0adb930b9a9	-0.04028838048576528
18	0xbfd896859c364e3b	-0.3841871285924047
19	0xbfad24a7871e9591	-0.056920275920940296
20	0xbfce575df259f599	-0.23704122861446988
21	0x3fbaf11a1e38dd85	0.10524142492146467
22	0xbf84fe12e4fcf92a	-0.010250232327618198
23	0xbfc03b4b06f9d3bf	-0.12680948105449194
24	0xbf992ceef71af054	-0.02458547003946905
25	0x3fe06c11d79b46c6	0.5131921015801815
26	0x3fdaa7498dbc2af2	0.41646040765105774
27	0xbfc5cfe7271e2412	-0.1704071942333774
28	0xbfb430738650fba7	-0.07886430768210904
29	0x3fc2ea197aec81cd	0.1477691507543696
30	0xbfc678fea45f9167	-0.17556746507683416
31	0x3fd4d4e30d582587	0.32549358657032496
32	0xbfb52f090c9d5f95	-0.08274895246483845
33	0x3fcc88227282d35e	0.22290449706420196
34	0xbfd12a44a9e4a1e4	-0.2682048472511538
35	0xbf8347037e0694c9	-0.00941279152250231
36	0x3fbcd56f1c8a8b30	0.11263174483114535
37	0x3fd2839dfeadde8d	0.28928327437413587
38	0xbfc265b42987304f	-0.14372875240076374
39	0x3fb5b4071892e558	0.0847782549852999
40	0xbfa3c0de8627c8b9	-0.038580850483314895
41	0xbfa2cadccf335c3f	-0.03670396832756539
42	0xbfcd306bdaa4ad22	-0.228040200957687
43	0xbf9293b23074426f	-0.018141540725141455
44	0xbfc2928c347f54f3	-0.1450972801527893
45	0x3fa7247cc6078bd6	0.045200251744766426
46	0x3fc7d42c511722b7	0.18616250953188793
47	0x3fb03afe688004c7	0.06340017367621718
48	0xbfcb734bb69d3185	-0.2144560472173788
49	0x3fd15bbe2b397162	0.27122453900462606
50	0x3fc7dd8d4f1ee5d0	0.18644873011889596
51	0x3fcdb0c2114c7fe9	0.2319567284075668
52	0x3fd26714f77c620f	0.28754161995451083
53	0x3fbb296cd3959a79	0.10610084691652756
54	0xbfc8ac25fc48bc45	-0.19275355166016275
55	0xbfbbada2a5006dfd	-0.10811821487771307
56	0xbfd21c9ca34ad2fa	-0.2829963297511281
57	0xbfd11079bec9316a	-0.2666305888312964
58	0x3fd075d04a77ce7e	0.25719077369942756
59	0x3fc15990b4055337	0.13554581441953825
60	0xbfbdc7b1239e34b7	-0.11632830733852272
61	0xbfc74f5bc288d496	-0.18210932730440693
62	0x3f6f06865edfb6f7	0.003787290995197586
63	0x3fcd2ca441720f0d	0.22792485423644174
64	0xbfcc6ab8567977ed	-0.2220068380583479
65	0x3fd115e14d8048e1	0.26696045464008306
66	0x3fc2053487b0da83	0.14078384995965018
67	0x3fbb193cf10aa8d8	0.10585385212712894
68	0xbfd131bc5458a6bc	-0.26866062390272893
69	0x3fcdb0ee7b5c5d36	0.23196202300526075
70	0xbfa4f52798f1f5f7	-0.04093288175588932
71	0xbfd58662b55fe298	-0.33632724487646604
72	0x3fda65e8ddb6de7e	0.4124700703791645
73	0xbfc68ea725bf3cf5	-0.1762284216224327
74	0x3fc1abfe1bfb6ece	0.1380612980491293
75	0x3fd44b103c694a24	0.3170815076784115
76	0x3fc4badfca8853cc	0.16195294751437783
77	0xbfba5a485fec3b82	-0.10294010488381214
78	0x3f849e38dce7605f	0.01006740974564496
79	0xbfc9cba2f1d158cd	-0.20152699286945222
80	0x3fd968fe591cd136	0.3970332975616374
81	0x3fac2503c7b35413	0.05496990025282158
82	0xbfacf13061ffe3c9	-0.05652762600215728
83	0xbfd6a0afe224c3ef	-0.35355755886399626
84	0x3fcbe0a737c10a82	0.2177933714138654
85	0xbfb16aca8f3b9bdc	-0.06803575512786558
86	0xbfb09d175d58b259	-0.06489702252356135
87	0x3fdfca9629916b46	0.49673990306262217
88	0xbfd067781fe09e6b	-0.2563152610114005
89	0x3fdd47087802f3a6	0.4574605152118302
90	0x3fd9e515fdbc420b	0.40460729388090105
91	0x3fa3f1d86202ec6d	0.038954507793698
92	0xbfd527e0afcec502	-0.3305589405891426
93	0xbf97ba8b98357b4e	-0.023172551312536975
94	0xbfc682265b64b581	-0.17584685766761868
95	0x3fd1c60c35f4bec1	0.2777128722109233
96	0xbfc27bf5d94610cd	-0.14440796956126292
97	0xbfb59dde84c4f156	-0.08444014302671596
98	0x3fbb3d4f38f850d9	0.10640425816410772
99	0x3fbe1babb06f224a	0.1176097207782131
100	0x3fb8e5d31a0dcb7b	0.09725684534150318
101	0x3fd437eb91bd8d7d	0.31591309769120085
102	0x3faa8d3bc9ff7f27	0.051858776481593254
103	0xbfb24f6f7c3b0fe8	-0.07152458937622408
104	0xbfbd82e47bd5cf3f	-0.11527851126976162
105	0x3fdf8333fe46f78b	0.49238300163039445
106	0xbfcd2e410d68bb18	-0.22797406344167181
107	0x3fcb389882b0dbcd	0.21266466504468298
108	0xbfe6f7907aa296c2	-0.7177202601639794
109	0xbfd01f5cc41599e8	-0.25191420697083666
110	0xbfc7127050d6dd18	-0.18025020549041737
111	0xbfd8082bbad55f28	-0.375498707251142
112	0xbf9d12b2e864ccbb	-0.02839164298457029
113	0xbfd2b8c639f1c9d4	-0.2925277295936699
114	0xbfd2575d2cd48f94	-0.2865822732730916
115	0x3fe06426722f3c71	0.5122253637472466
116	0xbfdfcf07cb670f78	-0.497011135707218
117	0x3fadc5a444234aee	0.058148511235818975
118	0x3fbc1971bcb8c7a2	0.10976324899163939
119	0xbfd448df28770edc	-0.3169477362791733
120	0x3fd612b3e2bab871	0.34489152089634617
121	0x3faa2b3cc97d7e3f	0.051111125560734376
122	0xbfca9341a7ce1b2f	-0.20761891072853575
123	0x3fc73f9814757c2e	0.18162823676081657
124	0x3fe4bbc220f2849c	0.6479197162153869
125	0x3fd56862121671ed	0.3344960381162128
126	0xbfd08e3b5e2f4481	-0.2586811465999475
127	0x3fc7ca68b965ec06	0.1858645348800964
128	0x3faa8c66e92892c4	0.05185243221447913
129	0x3fbcca0ffa1d098f	0.11245822769436685
130	0xbfb4b8292c05317b	-0.08093507122720738
131	0x3fc9ff79c8ec3f24	0.20310900030789825
132	0x3fd51d75b5b29566	0.3299230837240742
133	0x3fc198e97b80f760	0.13747900515039202
134	0x3fcb5d371f0c3fd6	0.21378220573433165
135	0x3fcd3aaa8dfd9798	0.2283528512299966
136	0x3fb6abee27d8b67a	0.08856094811263829
137	0xbfc747e7a60788b0	-0.18188186270623907
138	0x3fd3ca726f50a92a	0.30923138495076563
139	0x3fc94fbd32846481	0.1977459427514852
140	0x3fc5d062122e8c3e	0.17042184722694914
141	0x3f7923012ce5dcf9	0.006136898604714996
142	0xbfb26c0ae522100b	-0.07196109861439497
143	0xbfc4b30c8f897b2c	-0.16171414383549043
144	0x3fd592a416d749c0	0.3370752547317828
145	0xbfc1acc232ba3d66	-0.1380846736615055
146	0x3fba29b529a80646	0.10219890849114063
147	0x3fd6851ce0630a68	0.35187456047802934
148	0xbfb22fd32524099f	-0.07104224831349491
149	0xbfb61b4372f085e1	-0.08635350757733519
150	0xbfa4dfa3a779a8f5	-0.04076873225570125
151	0xbfbdee09186fb6a7	-0.11691338392821625
152	0xbfbb6a4ba564b622	-0.1070906904976359
153	0x3fd39df16a837570	0.3065150776072505
154	0x3fcbaaf7881fc7f2	0.21615499636351349
155	0x3fc0b9631b4af4df	0.13065756638199041
156	0xbfd0bc2dbb6877cc	-0.26148551274843324
157	0x3fd54437899ec20f	0.3322886318156017
158	0xbfaa1bb831089c7d	-0.05099273298792981
159	0xbfccf07a596441fa	-0.2260888039095475
160	0xbfd87da447c1d0a5	-0.3826685620072204
161	0x3fc83feef3b78972	0.18945109272233257
162	0x3fcae67ded050d8d	0.21015905450086017
163	0xbf990f5a11eb3376	-0.024472625106500577
164	0x3fd50060d37af801	0.32814808514001476
165	0x3fe574d5e74bc6ce	0.6705121533870739
166	0x3fcbe1985d5ea043	0.21782211836876017
167	0xbfe7be5ec59f2a78	-0.7419885501670498
168	0x3fc9c567f13a5a2b	0.20133685377796104
169	0xbfd962ff467481b6	-0.39666730766659997
170	0x3f9c4057c173c14b	0.027589198286422072
171	0xbfdcd4cd721cf13e	-0.450488435209781
172	0x3f95bc8f7d88d8ab	0.021227113759061094
173	0xbfa9c5bed609a710	-0.05033680308117827
174	0x3fc84252290345e7	0.1895239544160596
175	0xbfe3486a6741cb32	-0.6025897995699323
176	0xbfe0d83c0ed72953	-0.5263958253720297
177	0x3fb9426997cdba66	0.09866962391036224
178	0x3fe1624b200475ce	0.543248713048962
179	0xbfd6011d4971ca1a	-0.34381801769555553
180	0x3fc3ec49f307d31f	0.15564846388556305
181	0x3fbb4c02598e9a97	0.1066285580296643
182	0x3fe09b09388ded7a	0.5189252953127117
183	0xbfdcb03ba5083eb9	-0.448256407894387
184	0x3fd636dac7fb75a5	0.347098059935741
185	0xbfcc7b950215d7c2	-0.22252142526457247
186	0xbfd9c6ad926662f3	-0.40275134369726046
187	0xbfc8706aaaa37bb4	-0.19093068439448546
188	0x3fc8f402cb135fe1	0.19494662204556248
189	0xbfda9a03eab5dd1e	-0.4156503479093362
190	0x3fe2565d6c07ded7	0.5730425939536542
191	0xbfbce12a8de512f4	-0.11281076397160544
192	0x3fd596c849c858c0	0.33732802586872523
193	0x3fbb0b80121686f3	0.10564423028565866
194	0xbfcf2012b264e626	-0.2431662913384553
195	0x3fbdd069e5d4231c	0.11646139012385642
196	0xbfd35a266d4e2de4	-0.302377325767081
197	0xbfdda9fb08af18b9	-0.4634997925571827
198	0xbfc083fed3a82fd5	-0.1290281804543826
199	0x3fe56f28f78f74eb	0.6698193392909649
200	0xbfdb068ce84214ec	-0.42227480584581545
201	0x3fc7bd90ca30f880	0.18547258255597754
202	0x3fc8ff3bf48caa08	0.19528912964717926
203	0x3fc32f8915e7a6db	0.14988816804480262
204	0xbfd9c7c57b7bac2e	-0.4028180795564279
205	0x3fc3e0c20fde4322	0.15529657149138482
206	0xbfc903eba993048e	-0.1954321458816008
207	0x3fd2db41f1dd4ae7	0.2946324216801898
208	0x3f840bac35b5df52	0.009787888898003114
209	0xbfd15ac232318865	-0.2711644640131737
210	0xbfc1bdfdc38f2068	-0.13861057328017812
211	0x3fc82f92ea8a2ccb	0.18895183994422945
212	0xbfd0b64a761cc082	-0.2611261514130164
213	0x3fc333863e0c221d	0.15000989942224488
214	0x3fd226b697b80f9a	0.28361286941821506
215	0xbfd62d769cfd9df7	-0.3465248616325591
216	0xbfc2d1601289f683	-0.14701462655277817
217	0xbfbe81867e626a21	-0.11916390023763103
218	0xbfcce7a1f9c7c1e4	-0.22581886955550978
219	0xbfc60daeb5d10a0d	-0.17229255559694004
220	0x3fd2a4aff8850f69	0.29130172032841145
221	0xbfd538f464a4d360	-0.3316012366151906
222	0x3fd0ee4531d38b47	0.26454286447385694
223	0xbfb02ba0c22ef773	-0.0631657098847123
224	0x3fc4b90538c5b847	0.16189637443625512
225	0xbfb39aadd18a2a7e	-0.0765789639064369
226	0xbfd11b14df69541e	-0.2672779256584493
227	0x3fcd65450953e504	0.22965300517515896
228	0xbfc047cd870c3ea6	-0.1271912488377797
229	0xbfd2c54b406e8121	-0.2932918671813401
230	0xbfcac9c9f20ad167	-0.20928310698003402
231	0x3fbfc6dd39c0c115	0.124128176307526
232	0x3f59c1b0e7640db2	0.001572058446584684
233	0x3fd2e7ac836aaa5a	0.29539025148065934
234	0x3fbdedb77c4d349f	0.11690851959902425
235	0xbfbdad9235d7f3c3	-0.1159297353223812
236	0xbfd19e5c68e5bfd5	-0.27529058689014835
237	0xbfc167607ff9a153	-0.13596731423173
238	0x3fb533725ae88e53	0.08281626433795823
239	0x3fd24892a2e086fb	0.28567949205363136
240	0xbfcdfe6a2789fe85	-0.2343266194402426
241	0x3fc014252e67292d	0.12561478391428108
242	0x3fb2a78b52f26745	0.07286902213163866
243	0xbfd13683d1cf7279	-0.26895232667246877
244	0x3fd74b0a309360eb	0.36395506614418477
245	0x3fd6de53a50e2130	0.35731974714919357
246	0x3fcc97e2383c1c88	0.22338512178268766
247	0xbfdfae7cd050a907	-0.49502487509984444
248	0x3fd4c4cdf8887bd3	0.3245119978982391
249	0xbf4246d4a21534c0	-0.0005577600715384254
250	0x3f9325a2321b1a75	0.018698248203487162
251	0xbfd99aae36731ccf	-0.40006594960545966
252	0x3fc0069ee05c60d2	0.12520204501266236
253	0xbfd9c2b442685c7b	-0.40250879750369223
254	0x3fd934b45925671d	0.39384182649301797
255	0xbfe082fa37b904e3	-0.515988453706225

transformer.encoder.layers.0.self_attn.in_proj_bias f8 [48]
0	0x3f8e4aa2e8075b5d	0.014790795045809874
1	0x3fa6a170281e11c5	0.04420042504992553
2	0x3f74ede9239c8d2e	0.005109701823843777
3	0xbf8339321c2245c6	-0.00938643596990375
4	0x3f860ed3d8241064	0.01077046874389271
5	0x3fa65423d6115ed1	0.04361068714268657
6	0xbfb7ad4f74467337	-0.09248825634717837
7	0x3fc315f2cd953d9e	0.14910731352072742
8	0xbf7fc4b1137952b8	-0.007755939200781263
9	0x3f976bc07f8f5493	0.022871978555333582
10	0xbfd6257f7c50fa79	-0.3460386957193929
11	0xbfd5747125706ce9	-0.33523205429237507
12	0x3fc7555386c6a28a	0.18229145127158503
13	0xbfa6c66acf2c01d3	-0.04448255328134434
14	0x3fb7c39f9df87af5	0.09282872778610936
15	0xbfd0f1e40b2c06d6	-0.2647638424970017
16	0xbd39e24a81729b70	-9.195826097423017e-14
17	0xbd280f32749e01ad	-4.273801515420794e-14
18	0xbccef8425148de5e	-8.59583568907929e-16
19	0x3cea48be9b485b25	2.9181277866872654e-15
20	0x3d3c5ac980ca17df	1.0073590741317273e-13
21	0xbd1d5479cc6b1e13	-2.6050258392875072e-14
22	0x3d4a5f9430d52f3e	1.8739395785473855e-13
23	0x3d2024307f511ab8	2.867282413374367e-14
24	0xbd113c440e0d4478	-1.5308122267763433e-14
25	0xbd238a02403a5d6c	-3.470840831785533e-14
26	0xbd451507c09b69d8	-1.497976821113429e-13
27	0x3d5a580758729599	3.743687967046715e-13
28	0xbd43b92c7dcbcacc	-1.401427250495744e-13
29	0xbd4c85511651d348	-2.0265224906003488e-13
30	0x3d31a05861414b14	6.262136967297607e-14
31	0x3d12e7dee2816b87	1.6791674452636e-14
32	0x3f27ae8c2f52bf20	0.0001806779979793777
33	0xbf5ef670682e1a1c	-0.001889810345092286
34	0x3f9f8b2d5704a087	0.03080435603729417
35	0x3f76f4cf8f73a68a	0.0056045635057927565
36	0xbf780132e19d5021	-0.005860518221954465
37	0xbf7d8bac0c5be5b8	-0.007213279784758546
38	0x3f88792c4fc7bc15	0.01194986933202639
39	0x3f93db71e38f06a2	0.019391803278046134
40	0xbf6a2af70f81ce42	-0.0031943154718250552
41	0x3fbb4af9c64cabbb	0.10661278811737322
42	0xbf7cea1957b2ab30	-0.007059191698469289
43	0xbf911d728a1a13f3	-0.016713895491665864
44	0x3f739d7bf907f5b8	0.004788860577261848
45	0x3f806ef925359c27	0.008024164627114484
46	0xbf7fed1a3c289787	-0.0077944779209583375
47	0x3f9cd18f90a7b652	0.028143161014602854

transformer.encoder.layers.0.self_attn.out_proj.weight f8 [16, 16]
0	0xbfa50c3861aa5401	-0.0411088580341712
1	0x3fd7d392388c5c58	0.3722882797459923
2	0xbfd4465c49b63c1b	-0.3167944640962916
3	0x3fc5813d9b29b26a	0.1680066115981334
4	0x3fcc84e8e0ad0af6	0.2228060814905672
5	0x3fd08898ec943332	0.25833724120529944
6	0xbfd04ddf7247067c	-0.2547529808035518
7	0x3fc45b9651e0a8dd	0.15904501913002536
8	0xbfc516a574d61737	-0.1647536106576639
9	0x3fdad0560d3a1e95	0.41896582881643357
10	0xbf8c28bb48ee3ba8	-0.013749564326443878
11	0xbf8740585e5f0991	-0.01135319746015709
12	0xbfd7d11963e04583	-0.3721374011375575
13	0x3fd18b103cdde972	0.2741127581026809
14	0xbfcbef9546068a41	-0.21824899596420447
15	0xbfc523c81c6e23c0	-0.16515447033114405
16	0xbfd6695bbc7c4346	-0.35018056303765766
17	0xbfc032af0b3e0f6c	-0.12654674576708247
18	0x3fc9c0aefe7b2735	0.2011927359183631
19	0x3fb9013b56b629fb	0.09767504565221678
20	0xbfcbb15e5351a999	-0.21635035579977283
21	0xbfb1d6d7148b7d5c	-0.06968445064147971
22	0xbfc233b9f1a6b549	-0.14220356273055249
23	0xbfd9b078da1e019c	-0.4013960008669757
24	0x3fb8f16aa4b544a5	0.09743372460549667
25	0xbfd78b6dc096a8aa	-0.3678850537059001
26	0xbfc75a0789066f7b	-0.18243498030357927
27	0xbfd9f9babd8ff4a4	-0.405867276305637
28	0xbfdb7caaf14fdc72	-0.4294841152727208
29	0x3fd7cd8024572c39	0.3719177584541203
30	0x3fcb2c72d29a534e	0.2122939613660954
31	0xbfcb0414f3b89e4e	-0.2110620679898027
32	0x3fa31895c1bcaf68	0.037296943568746965
33	0xbfddb5e2d5191eae	-0.4642264443432208
34	0xbfcf2766e0bf6f80	-0.24338994955075677
35	0x3f959ca296d5e2c3	0.021105328041332038
36	0x3fc1fb54b7bdf840	0.14048251125126576
37	0xbfd0f8a61bc6eb7b	-0.26517632210350656
38	0xbfdabd634defe45b	-0.41780932055514136
39	0xbfd395bf6fa9dae2	-0.3060148802245931
40	0xbf9c413d348d4394	-0.027592617352016527
41	0x3fd5b0411e944d17	0.3388827131868352
42	0xbfa547e0bef5074a	-0.04156400996227079
43	0x3fc4a1199c75a844	0.16116638316754195
44	0x3fddc0d4d632a565	0.46489449422604984
45	0x3fd2bbb0381bfefd	0.2927055881445851
46	0x3fdf4185a6127d56	0.48837414949408264
47	0xbfd9b11caff29a46	-0.40143506224049863
48	0x3fd7a2f40642b039	0.3693208752763471
49	0xbfd027ab065f965b	-0.2524211466064565
50	0x3fb576ad04b898ff	0.0838420998121343
51	0x3fb3ce8cbe27b15a	0.07737044947106622
52	0xbfd262a996046cfb	-0.287271877766855
53	0xbfceed6b03334815	-0.24162042289987143
54	0x3fc928163efd9d51	0.19653585506169205
55	0x3fb689d5c01719f2	0.0880406946153938
56	0x3fd4c3a3835d9575	0.32444084004085677
57	0xbfcd6d90b2b917a3	-0.22990616537771044
58	0xbfc87fb5c088bcaf	-0.1913973989589741
59	0x3fb0ce1332e3bbe4	0.06564445488378073
60	0x3f66b9cd237d8c36	0.002774143849749967
61	0x3fc86099e57eeeed	0.1904480333886264
62	0xbfd938089afa34c6	-0.39404502043255396
63	0xbfc799c89edc1b3c	-0.18438060528588973
64	0xbfd7c96179e0f709	-0.3716663065168722
65	0x3fc4405207107a7d	0.15821290345134634
66	0x3fd4640bac085688	0.31860629844718646
67	0xbfd8acf77da7e31f	-0.38555705329012996
68	0xbfdd7f2fb309a517	-0.4608878372587965
69	0xbfc9237b25c73ead	-0.1963952955688816
70	0xbfcddc27a0531fe3	-0.23328109100680114
71	0xbfd604d2043a084a	-0.3440442124630222
72	0x3f982de70c83d355	0.023612604273654487
73	0x3fd2e7d54c0da3c3	0.2953999750812352
74	0xbfdb07600cb3beb7	-0.4223251461071231
75	0xbfd971ada0446b79	-0.39756336833095635
76	0x3fcc1c04782b5c60	0.2196050249828856
77	0xbfc6c40640ee0416	-0.1778571908035082
78	0x3f9ee1d441c6075e	0.03015834475946321
79	0x3fd9d62b61da4a4b	0.40369686656882625
80	0x3fc440359dd0a3bb	0.15820951658068147
81	0xbfa4d2767a7106b0	-0.04066820377967184
82	0xbfcb070ef1fb7e7c	-0.21115290465876402
83	0xbfd5e50c6df577eb	-0.3421050142113688
84	0xbfd279c118b6ea90	-0.28868129170920387
85	0x3fd695d296f2bb1c	0.3528944467642974
86	0xbfc7658e83b16e3b	-0.1827867644341142
87	0xbfd2cd916f7f7210	-0.29379688156566974
88	0x3fc6eaf9d64cbfde	0.17904589618547012
89	0xbfc4334376c0540a	-0.1578144388046499
90	0x3fd10b98fa8f94f4	0.2663328596957648
91	0x3fa63564027237b9	0.043376088427165845
92	0x3fd19a8dfa303ae5	0.2750582640882569
93	0x3fd7b0b2c8b1305f	0.37015981291620464
94	0x3fc9b2bb4b480dd7	0.20076695609905812
95	0xbfc0888b2cbfe103	-0.12916698155436998
96	0xbfd056f84d4d29cd	-0.2553082232376738
97	0x3fd2f4e30e06f3ab	0.2961967122062627
98	0xbfd0259e42bf43c6	-0.25229603307985504
99	0xbfdb1056946dbe75	-0.42287220473279
100	0xbfa211b890516508	-0.03529145013517093
101	0xbfc0ed1c9f98acc1	-0.13223607819359098
102	0x3fd97f875d98e2a9	0.39840873852112196
103	0xbfd68186efd06c85	-0.3516557065901867
104	0x3fbe2954e5daa3d6	0.11781817065879294
105	0xbfa80657bccbbc36	-0.046923391147963775
106	0x3f84dd3f1f6e4dbd	0.010187619349187988
107	0xbfcd22b699c5cee9	-0.2276218653529363
108	0xbfcb52460c2235ba	-0.2134482917066814
109	0xbfcf45522b39e263	-0.2443030081810945
110	0xbfb60ecf0718a4ae	-0.08616346286057094
111	0xbfca921bbc3f7346	-0.20758387271680528
112	0x3fdd17b6113c3888	0.45457221682671234
113	0x3fd35c82c8d719c3	0.30252141583732967
114	0x3fd407e88cf9964b	0.3129826904972545
115	0x3fae26b553bf9a08	0.05888907096214174
116	0x3fd68204fc2d22db	0.3516857588443096
117	0xbfd51b574f479236	-0.3297937654699895
118	0x3fc75b7a2f4aa99d	0.1824791651645911
119	0x3fcd6d6b38f73d15	0.22990169793636342
120	0xbfc962587dc56040	-0.1983137716404162
121	0x3fc111e95c83a1b9	0.13335911767286548
122	0x3fc4607aec87370a	0.15919434117534365
123	0xbfbbe1d7fed89a26	-0.1089148518736712
124	0xbfb7df62c5152146	-0.09325234710297989
125	0xbf9592d48c17e51b	-0.021067925501459955
126	0xbfba29fd501a882b	-0.1022032089772728
127	0x3fdafa41be865353	0.42152446371010405
128	0x3fd3b696e2b2c69d	0.3080193723536498
129	0x3fb7a8b7655dc52c	0.09241815781367241
130	0xbf9ab7c12d6af6a5	-0.026091593167385203
131	0xbfd6f8a075892d71	-0.35892497518644634
132	0x3fda57e2a1daa934	0.41161409193104537
133	0x3fcc029dca405944	0.2188298451953391
134	0x3fd9de655a6fa9f1	0.40419896918925163
135	0xbfce162d3952023b	-0.23505177782864614
136	0x3f9c776bd6b36358	0.027799305896084675
137	0x3fc5cb8efd6accac	0.17027461408506406
138	0xbfd4edc9eef2b887	-0.32701347670343534
139	0xbfbba45dd191a81e	-0.10797678343229264
140	0xbfc3acce2cdd6567	-0.15371110144296127
141	0x3fcd6878ffefb783	0.22975075241941675
142	0x3fbac41e1f8a406e	0.10455501813908238
143	0x3fc59e5500e562d1	0.16889441055061252
144	0x3fa40a261f84772e	0.039139930102676565
145	0x3fcbc0f48da778e0	0.216826028029522
146	0xbfd6b5e7b51998a4	-0.3548526066355271
147	0xbfcf8aeb283bffdf	-0.24642695869988437
148	0x3fdcf366eaa6068a	0.4523560801972982
149	0x3fc4f055ecce2f96	0.16358446181072556
150	0xbfd0e57242e1208d	-0.2640042927855653
151	0x3fd5e3a1b697492b	0.3420185359110685
152	0xbfd3bf0c624b0761	-0.3085356674092648
153	0xbfd36178754139e0	-0.3028241295877745
154	0x3fc6e41d57c13bbf	0.17883650574591844
155	0xbfd534e6d1965305	-0.33135385959148805
156	0xbfc12781cb989214	-0.1340181583519927
157	0xbfc11809c1d22ef5	-0.13354608501355583
158	0x3fde8b2cb0310ddc	0.4772445412274615
159	0x3fba3e7e5cbe059e	0.10251607670035986
160	0xbfcdb2b7cf7b6772	-0.23201654082259499
161	0x3f9dbd6d2a565d63	0.029042916974132093
162	0x3fc9dfd08e70071f	0.20214278178178177
163	0xbfcf488efbdba8d0	-0.2444018106246575
164	0x3f9d1d9d328fb933	0.02843328114607253
165	0xbfa87620271b3225	-0.04777622678156871
166	0x3fd8eb72c6494786	0.3893706261052262
167	0x3fd40b89de40fcfc	0.31320425705412425
168	0x3fc2004c10957cbf	0.14063406762850225
169	0x3fd04ee3c50e849d	0.2548150467283195
170	0x3fbae1e9dae8b508	0.1050096663900214
171	0x3fc15404008fd0d8	0.1353764536612576
172	0x3fd5371577f4f773	0.3314870521024808
173	0x3fd5c72e8e8a7377	0.3402820960998762
174	0x3fc3bb018596b592	0.1541444685257543
175	0xbfb0ca0525792a0a	-0.0655825821387809
176	0x3fc8629e4b5b78ad	0.19050959281498106
177	0x3fb15fb357fb85de	0.06786652467737705
178	0x3f87fdcdd415b0b5	0.011714561495601886
179	0xbfd6a124f5d5d496	-0.35358547217703895
180	0x3fbbd6aa4dfcd630	0.10874428180689999
181	0xbfd5b167800f9f84	-0.33895289903602355
182	0x3fdc326ded146d67	0.44057796623538653
183	0xbf94b4fc33676598	-0.020221653592533778
184	0xbfd0f97c7f5bbf98	-0.26522743642180435
185	0xbfcda958d69d276c	-0.2317305610579824
186	0xbfc09823459487d0	-0.12964287660093854
187	0x3fc5d2babd27f5a9	0.17049345241677585
188	0xbfd24a083d5b342c	-0.28576856605360734
189	0xbfcbc53ef0746205	-0.21695696583698534
190	0x3faac13ffd10a1a3	0.05225563015148118
191	0xbfd926b7857b15f0	-0.39298809085116115
192	0x3fc9c2de04b6f233	0.20125937681395242
193	0x3fd713a46abf5cd4	0.3605738680320887
194	0x3fd18fd0c21b2f76	0.2744027991836825
195	0xbfcf2b1064737165	-0.24350170998412604
196	0x3fdb5f0235dc6510	0.4276738668427962
197	0x3fbe029b430364ab	0.11722727190080444
198	0xbfc6e90864265f66	-0.17898659601336958
199	0xbfd5c1569d2a5402	-0.3399254355256859
200	0xbfb27ee0162eba30	-0.07224846402707708
201	0xbfcdc2f54d539935	-0.23251215244017379
202	0x3fd16effc960bece	0.27239985147296586
203	0x3fbae414bc3bc93c	0.10504273982568163
204	0x3fda1cfe60c6a2fe	0.408019632823695
205	0xbfbf411db805a4d5	-0.1220873426697325
206	0x3fbffbcb75234650	0.12493583307084433
207	0xbfa5c245d6a5ca00	-0.04249780888757826
208	0xbfb11265bf3aaaf0	-0.06668697279625824
209	0x3fda802bec6b51ad	0.4140729721814534
210	0xbf99be6e24b10e38	-0.025140496243933635
211	0x3fd0c96328a28764	0.2622917076897606
212	0xbfaf5ff894647e00	-0.061279075731587085
213	0xbfd6d009bddcbb83	-0.35644763509019856
214	0x3f979c621c7da190	0.02305749224561421
215	0x3fccf93e178999ed	0.226356278889582
216	0xbfd4bf58eb5978d8	-0.3241789148650134
217	0xbfa78fdfe5a91d93	-0.04601955107187474
218	0xbfd3ef96cc8bee8d	-0.3114983556294895
219	0x3fbdf2e0b7fd49c2	0.11698727123192668
220	0xbfc9ce7477449f62	-0.20161300490985484
221	0x3fda3b2b8365125a	0.4098614485886053
222	0xbfb3374a57145dc6	-0.07506241441693992
223	0x3fd9bb3079747716	0.40205013142427626
224	0x3fc75984d8254537	0.18241940072997817
225	0x3fcf8c9f563d294e	0.24647895537266112
226	0xbfc31ae5094d6581	-0.14925826029029213
227	0x3fbb5a778c947d36	0.10684916669969344
228	0xbfd6e4de52656e87	-0.3577190212870182
229	0xbfd3219b9c128e99	-0.29892626038984244
230	0xbfd7722d3ef82e16	-0.36634379529343286
231	0x3fce5f4d62fcd7fb	0.23728339513189653
232	0xbfd3497795b23d59	-0.30135907763265873
233	0xbf92b809f8882141	-0.018280177873778006
234	0x3fca50e84f64a43b	0.20559409977548335
235	0x3fbb090882483304	0.10560658627236924
236	0x3f9cf0ffd233066c	0.028263089375064984
237	0x3fc0e670d588b575	0.13203249384370577
238	0x3fa0806c44ea66ce	0.03222978917365325
239	0x3fdd818acd071633	0.46103162786707513
240	0xbfc598f4aca987ef	-0.16873033934376688
241	0x3fdb03f722f92752	0.4221170274291711
242	0x3fa57f51f8ce087b	0.041987001058274985
243	0xbfd22c5a0009e06e	-0.2839570045830503
244	0xbfd2a89a91acc9b0	-0.29154075838155347
245	0x3fcf57c8fe399314	0.24486648953747958
246	0xbfc7c26ddaffaac8	-0.18562100594802744
247	0x3fd2b3aec9613b1e	0.2922169653510752
248	0x3fcfe327ae29b712	0.24911972049761083
249	0x3fd3808d05c8b865	0.30472112240648236
250	0xbfd4add75242bb7e	-0.323110418636979
251	0x3fd91e589e40c93c	0.3924771829071181
252	0x3fc930275e3d4f90	0.19678203679597717
253	0x3fd6b3fc0e553b7b	0.3547353877992731
254	0x3fce409be1e3079d	0.2363467076266347
255	0xbfd3beee315191a4	-0.3085284692408783

transformer.encoder.layers.0.self_attn.out_proj.bias f8 [16]
0	0xbf76130b442f9db3	-0.005389255532441894
1	0xbf72efc0ffebe25f	-0.00462317839150525
2	0xbf928805f383215c	-0.018097012508208152
3	0x3f3d6f0fe7a25a9f	0.0004491247015122965
4	0x3f95204ab7e55a6f	0.020630996202579185
5	0xbf8c49d4a2c43520	-0.013812695710408607
6	0x3f339cf34d285dc4	0.00029927196479337067
7	0x3f9ee78f2ee4691a	0.030180203663897044
8	0x3f8fb82557e888b5	0.015487949128388892
9	0xbf9818c8a972d698	-0.02353204282981966
10	0x3f89ab1b98af8350	0.012533393475622795
11	0xbf941c6b14e687a8	-0.019639657164254892
12	0xbf9eb8de9a71ea93	-0.030002096344541384
13	0xbf0cf67bf659fd5e	-5.524221232366498e-05
14	0x3f908db5c925ebe1	0.016165581132991384
15	0xbf72c11863486fda	-0.004578681244790739

transformer.encoder.layers.0.linear1.weight f8 [128, 16]
0	0x3faabc36dc6b2b78	0.05221721115738992
1	0x3f640d6f39859a4a	0.002447812305195006
2	0xbfc2b00b501e2745	-0.14599744235993675
3	0xbfb7a5c08b9c6120	-0.09237292679279507
4	0xbfc72134fdd46404	-0.18070089715982374
5	0x3fc129400c728f01	0.1340713558939726
6	0xbfcb4b8b8e7ba528	-0.21324295479943456
7	0xbfbb09bdef58f39b	-0.10561740010684988
8	0x3faaa77868fb6499	0.052058947386919026
9	0x3f93498a0661c3f6	0.018835217132110636
10	0x3fb3aa858575e7cc	0.07682070263209012
11	0xbfb44dce84b9e065	-0.07931223621733492
12	0x3fbfeb2109a7fe7c	0.1246815346312306
13	0xbfcc9439700f32f0	-0.22327344867371535
14	0xbf9975b934f2c28c	-0.024863141876894576
15	0xbfa0565b3bf2b691	-0.03190884691990193
16	0x3f97bb03e7972462	0.023174344072490867
17	0xbfc62aff33f48dc4	-0.17318716084365182
18	0xbfcd2453b9f62e1b	-0.22767111377866986
19	0xbfb31947a4fe8921	-0.07460449007206595
20	0xbfccc227baeac769	-0.22467514635860233
21	0x3fc2645500c018b2	0.14368689095153325
22	0xbfc27104da08bc21	-0.1440740646953325
23	0x3f99d3f2f92816d6	0.025222584206878583
24	0xbfbf803ca842c6cb	-0.12305049045496756
25	0x3fbc973503cac18c	0.11168223707750807
26	0x3f931d93df3881af	0.018667517184555112
27	0xbfc2af32488a1533	-0.1459715704151364
28	0xbfb3316bfeb9d122	-0.07497286766903646
29	0xbfc1acb3081a46df	-0.13808286567341718
30	0x3fab8f681aafe908	0.05382848096629017
31	0x3fbba64aa32000d8	0.10800615770859012
32	0x3fa6a0d5e373ee50	0.04419582749866591
33	0x3fc4056f711e698a	0.15641587279681018
34	0x3fab95d39bf19b30	0.05387746122942472
35	0x3fa16034918e8923	0.03393711354080355
36	0x3fca29100579a436	0.20437813060132876
37	0xbfbc8b7ff1f49a19	-0.11150359780422327
38	0xbf97553753af03bd	-0.022786011202473356
39	0x3fb784eea3c3a953	0.09187213419105449
40	0x3faa984a3e4afcd6	0.051943130592457074
41	0x3fb9d53fc5a1c629	0.1009101731777028
42	0x3fc876398d9328c4	0.191107935074177
43	0x3fae8f8a43f2a639	0.059688874048628944
44	0xbf9cee7bba3571bd	-0.028253491630822348
45	0xbfb43fa97196dca0	-0.0790964033429753
46	0x3f91a02755bbac0d	0.017212500198109427
47	0xbfa02f2bdd77ef93	-0.03160988882515805
48	0x3fb4e4fa6f31b303	0.08161893095684651
49	0x3fbbb6b9a6255879	0.10825691515251092
50	0x3fa3b81a993266f0	0.03851397628859654
51	0x3fc314780f852039	0.14906216390431995
52	0xbfbcbfa845b57354	-0.11229945852160245
53	0xbfc0087909ad1f2e	-0.12525856945489394
54	0x3facb5eeceddc8c3	0.05607553744529661
55	0xbfb325c3f0aef2a0	-0.07479500413951223
56	0xbf823ac87aa4ff20	-0.008901182406247765
57	0xbfc060be641d8fd7	-0.12795238388491612
58	0x3fc5b73dfc9ee7dd	0.1696546061992298
59	0xbfc581a04c086c3c	-0.16801837647003193
60	0x3f97ac93267af487	0.023119258140230883
61	0x3f7f97782a4cf5c3	0.007712811847168269
62	0x3f80718d1b25b08f	0.008029081717460222
63	0x3fbda4610b7dacf3	0.11578947573223157
64	0xbfaae28d69d4bd5d	-0.05250970761187077
65	0xbfa45adccd55fd34	-0.03975572592298207
66	0x3fcb2fbabf59c626	0.2123940882043353
67	0x3fca56dc78fd0f29	0.2057757941021177
68	0x3fb260e2b2860bde	0.07179085596548826
69	0xbfc221591fecf472	-0.1416427045714133
70	0xbfb8e689e5135d13	-0.09726774065653769
71	0xbfd58bcb824f7149	-0.3366574070512525
72	0x3fd06594ed022737	0.25620005746224045
73	0x3fc2db9b0abb2e8d	0.14732683204635003
74	0xbfc85d13a9a1dea2	-0.19034047873332322
75	0xbf84c8f853be2bdf	-0.010148944907788447
76	0x3f97a029f5191c78	0.0230719142766955
77	0xbfc0bfc1e6e14e05	-0.13085197232668136
78	0x3f7c1bf510f106d0	0.006862599649197512
79	0xbfb62bfdd9a9e682	-0.08660875858358888
80	0x3fb6aa73a1c11648	0.08853838633611943
81	0x3fa0273e9261c04f	0.031549411171795876
82	0x3fb0d1d0418f1936	0.06570149994431493
83	0x3facf62e20d44c0d	0.056565705783349164
84	0xbf3c4afea3b6e095	-0.00043171612534421397
85	0xbf45e0b4a5bb8c8e	-0.0006676561419819581
86	0xbfc742ecad4868ef	-0.18172987423969952
87	0x3fbf49a99e2e8d81	0.12221775161611072
88	0xbf82921e3ed6695c	-0.009067760746621793
89	0xbfa4028b7b9e92c9	-0.0390819157030698
90	0xbfc81494f9e948dd	-0.1881281109113563
91	0x3fb01d30cd57dcec	0.06294541371595458
92	0xbf9d9561725335a8	-0.028890154459806944
93	0xbfc517c4d45cf017	-0.16478786820687283
94	0xbfa793cb657d4382	-0.046049457682449293
95	0xbf9fbf36ead22b13	-0.031002863008818226
96	0xbfc493ac281b40a6	-0.1607566066582013
97	0x3f824c220178c826	0.00893427435866918
98	0xbfb690ef1cc7c1f6	-0.08814901783603787
99	0x3f96c9f5373cb441	0.022254783150106986
100	0xbfc099f9ba9ab946	-0.1296989594606634
101	0xbfb40ad39869e70b	-0.07829019995724822
102	0x3fc5d82a573232bb	0.17065934426900306
103	0x3fb6f835dffd848f	0.08972489088547973
104	0xbfc6d045a8695d6f	-0.17823096011373304
105	0xbf97494d82e1904c	-0.02274056540808571
106	0xbfb97c3d696865e4	-0.09955200026924832
107	0xbfc4e4d99df63093	-0.16323394978497116
108	0x3fc06e565df8a946	0.12836722935146322
109	0xbfa7458a268c17f5	-0.04545242043063517
110	0xbf456ee214f77e85	-0.0006540874400648577
111	0xbfc8825fac461a1d	-0.19147869026001355
112	0x3fc5f127095f3405	0.17142188985454268
113	0xbfa8b97f23038fcb	-0.04829022695938042
114	0x3fb29bc453d6b13c	0.07268931433526843
115	0xbf9883c52e4bb08e	-0.023940163565314303
116	0xbfb38b50f6fdcb36	-0.07634454755843198
117	0xbfba3dbcccf34d61	-0.1025045395247637
118	0xbfb2890ecb230ef6	-0.07240383586309548
119	0x3fc18aea058011a7	0.1370518233162674
120	0xbfc0edfd0360c951	-0.13226282753891863
121	0x3faf16725f2d1e7c	0.06071813022441305
122	0xbfc0c320a43f3934	-0.13095481891509453
123	0x3fbec33801af1569	0.1201663021193632
124	0x3fab5bf42bd40022	0.05343592677127186
125	0x3fa68e84a7b60349	0.044056077454121274
126	0xbfc1b8a90d560ab3	-0.13844788695503993
127	0xbf74c10c15e2f503	-0.005066916665041224
128	0xbfbb14d1b900ba40	-0.10578642622633883
129	0xbfb38ea6e9f8f5a3	-0.07639544689387505
130	0x3fc3b5fafd808d02	0.15399110200915095
131	0x3fa43771ef5a1d2f	0.03948551222588958
132	0xbfc6b981b22ddff8	-0.1775362129226321
133	0x3fc5bc1d529e9f8c	0.1698033002296565
134	0xbf95bd73ad560364	-0.021230514006222903
135	0xbfa008621272d282	-0.03131395793153492
136	0x3fd486e378b83ddc	0.3207329443839322
137	0x3fc3080608f2074f	0.14868236004627497
138	0x3fa70c7201febcfa	0.045016825431384036
139	0xbfb7ffc7c7b55f1e	-0.09374664903350236
140	0x3fb8bd363d9dedcd	0.09663714412993514
141	0xbfb0af1ee9cc114c	-0.0651721306604191
142	0x3fa6fc3f3954a996	0.04489324164235879
143	0x3fa5ced9b00ab3a3	0.042593767871358844
144	0x3fb0de94485c3468	0.0658962895069678
145	0xbf9cc29506602131	-0.02808602191365245
146	0x3fc22b59ff87fc0d	0.14194798447712778
147	0xbf9a76e67989dfbb	-0.02584419361889421
148	0xbfbb1421552d98de	-0.10577591256660265
149	0xbfaf4c5ee381a86f	-0.061129536887919105
150	0x3fc7bed8731a21e4	0.18551164264887554
151	0xbfc0427a8b67502a	-0.12702876860441964
152	0xbfca9f5911532258	-0.20798791261610705
153	0x3fb89d6be333ef22	0.09615206047959338
154	0x3fa29e327b6c8eb3	0.03636319882050767
155	0xbf8c246c8554058f	-0.013741348093847331
156	0xbfb1b50b746fef13	-0.06916877358156297
157	0xbfc10ac6db597efe	-0.13314138136319537
158	0xbfb208159fbc0c02	-0.07043585920114029
159	0xbfba7078bef88940	-0.10327868139623764
160	0x3fc1c3aecc49b7df	0.13878426527975216
161	0xbfb184959f15b809	-0.06842932828814709
162	0xbfc22cb04fffebce	-0.14198879152522043
163	0x3fbbb3918e4c9006	0.1082087490472646
164	0xbf959a0a50ef734a	-0.021095429601575767
165	0x3fc97ccd33ff985e	0.1991211418055085
166	0x3fa25c517fe11bb3	0.03586058317210163
167	0xbfb0a8adf5556a07	-0.06507384528723757
168	0xbfcb01c05edc2a34	-0.2109909499343573
169	0x3fbd9296cb8c8b91	0.11551802129228707
170	0x3fc210f48f278390	0.14114243497808987
171	0x3fbb87e992531476	0.10754260847450489
172	0xbfb37fcce24bd2a6	-0.07616882824715762
173	0xbfc248f03e1db798	-0.1428509047795472
174	0x3fb27c41615d7d77	0.07220848681526158
175	0xbf8a0a69972e2168	-0.01271517269721363
176	0xbfc6b41975ab307b	-0.17737119908850105
177	0x3fa5d4267d7c031d	0.04263420373718516
178	0x3fa64c38c81a045e	0.043550276209324265
179	0xbfbfb36cdcb4d579	-0.1238315619310323
180	0xbfc3492cacd9451c	-0.1506706089008184
181	0xbfbbb475216c0923	-0.10822231355635785
182	0xbfbf7dec6b7bc58b	-0.12301519035442803
183	0xbfc2ec0128aa986b	-0.14782728658355224
184	0x3fc1df3de3b4c101	0.13962529772243928
185	0xbfbc4def80f4c907	-0.1105642022928671
186	0xbf7d8b4bcecdf723	-0.007212921261155167
187	0xbfbcae5d0720307c	-0.1120355741879297
188	0x3fb9c8e2f4f6a9bb	0.10072153549723499
189	0xbfcc7d7f87f044c7	-0.22257990014671789
190	0xbfc01ba8d3114417	-0.12584410005595778
191	0xbfbb1dec0d543371	-0.10592532468235817
192	0xbf4ec3932caf9a9c	-0.0009388416887049114
193	0x3fc004f768dce7bf	0.12515156383761725
194	0x3fc35b92d0d8c31c	0.15123210141748522
195	0xbfb6751276ac517a	-0.08772387883465696
196	0x3f9758f858df10f1	0.02280033152034461
197	0xbfa2285ce4b0f673	-0.03546419421807636
198	0xbfbc265b7e3ad21c	-0.10996028739720781
199	0xbfd4d25ad8f920d4	-0.3253390425566185
200	0x3fd0b9958f333b3d	0.26132716164004305
201	0x3fb2818334f10a0c	0.07228870432394546
202	0x3fd694f8a3ef6343	0.3528424836090844
203	0xbfb5f467090b481e	-0.08576053591539831
204	0x3fc1f83439f3db2e	0.1403870852443218
205	0xbf8ef3378be397b4	-0.015112337071012984
206	0x3f901ad5217d27c4	0.015727358025550378
207	0x3fc76e5d94f3ad3a	0.18305558941879402
208	0x3fc1440e54fc2eee	0.13488940381682063
209	0xbfb10b1fe8e9d43e	-0.06657599865305117
210	0xbfbed8f7bdee05fe	-0.1204981650062322
211	0x3fb5579e306c4d0f	0.0833681934566821
212	0xbfbc0443b5a9a442	-0.10944007096408462
213	0xbfc0a425a891d36c	-0.13000937205256535
214	0xbfbdb8622a63ec0d	-0.11609471831245362
215	0x3f820379cd8dfd30	0.008795692048578191
216	0x3fbeb219cfd9a1c5	0.11990510296312269
217	0xbfc573931f3f97cf	-0.16758955980111387
218	0xbfccd9cae58e9971	-0.2253965016254358
219	0xbfa7de1f2564be6d	-0.046616528811111425
220	0xbfa464fa62d5fa0d	-0.03983290153972883
221	0xbfa6172d6f39f8dc	-0.04314558012718958
222	0xbf809aaf7b501c91	-0.008107539129936366
223	0xbfb7ccdf00b4cba4	-0.09296983496896744
224	0xbf65b6332c3691e8	-0.0026503562418886857
225	0xbfcd06252ec0d621	-0.22675003798365004
226	0x3fb9f0b5efc98784	0.10132920364551806
227	0x3f77d943e18e0308	0.005822434578363518
228	0xbfc5a3ff165bab40	-0.1690672740145036
229	0x3fb30a63111f48fe	0.07437724273703236
230	0xbfb1faee815a196d	-0.07023516328817943
231	0x3fc03f4232a5e376	0.12693049881979918
232	0xbfd04d89b3d1751e	-0.2547325378453297
233	0xbfa91b277796adfe	-0.04903529486486134
234	0x3fd6a42bff182c70	0.3537702551991009
235	0xbfc14b5d4c30bfe8	-0.13511244030223613
236	0x3fc9235ea195dda0	0.1963918961516642
237	0xbfca349c3a36bb50	-0.20473053781958095
238	0x3fa04f936908feee	0.03185711533705936
239	0xbfb0fcf084015716	-0.06635955069335994
240	0xbfc8f6a374128214	-0.19502680938332217
241	0xbfc6ce7f7aba196f	-0.17817681782271275
242	0xbfc73a66f2082f49	-0.1814697915837036
243	0xbfb20fdfef7a5f07	-0.0705547294295422
244	0xbfb21d13b70e9c90	-0.07075617999236017
245	0xbfbd27eb29805491	-0.11389035952773187
246	0x3f824094be8be6f5	0.008912241044061167
247	0x3fa50c6df820855d	0.04111045507330389
248	0x3fbfae76345186ce	0.12375582482629996
249	0xbfc24bd2786b388e	-0.14293890838456885
250	0xbfcbc9221beb32db	-0.21707559931964834
251	0x3fc1a7f9ad8667c2	0.13793869946385767
252	0x3f55a26b945d9875	0.001320462282330873
253	0x3fb5bfd547bdff85	0.08495839120405264
254	0x3f96b3b1ec0ab503	0.02216985705552067
255	0xbfc19f810f12c2c5	-0.1376801799392721

transformer.encoder.layers.0.linear1.bias f8 [128]
0	0x3fc7d328a3c962df	0.18613155362506625
1	0xbfbbf361f7701341	-0.1091824750038315
2	0x3fba7ec647b865fe	0.1034969258402256
3	0xbfba8faa3d3ca5a0	-0.10375465388337668
4	0x3fb2d1c042ccddbe	0.07351304655900656
5	0xbf7bec15e1b5f170	-0.006816945529291338
6	0x3fb64bb1cb02479e	0.08709250646850683
7	0xbfcfd6f9d88ea22a	-0.24874804567413494
8	0xbfa56d80b8bce5d5	-0.04185106520749186
9	0x3fc6c31f050bb5f9	0.1778296255719594
10	0x3fca4ddbc9122030	0.20550105398092589
11	0xbfc226a2cd1d759b	-0.14180407538780745
12	0xbfba5449f95592ad	-0.10284864747297702
13	0x3fc17ebf928b62d0	0.13668055205814378
14	0x3fcb02698f26b967	0.21101111879165588
15	0x3fb5d18b24a75e81	0.08522863049381081
16	0x3fc504c73348f229	0.16420831684253415
17	0x3fc4ad8508099894	0.1615453995938806
18	0xbfc2190f85bfd2fb	-0.14138978987434556
19	0x3fb01dbe59c807a5	0.06295385066917321
20	0xbfcd6a7b5a2b6e4c	-0.22981206801238085
21	0xbfb7ddf982b47682	-0.09323081437147532
22	0x3fca849a9eba64f6	0.20717175245662361
23	0x3fc70f5d6149c95a	0.180156395439165
24	0x3fcff0a848330bc4	0.24953177953110928
25	0xbfbf120b99e63561	-0.12136909968667943
26	0xbfb9c9379a7d9f74	-0.1007265808271976
27	0xbfcab71010286268	-0.2087116316695472
28	0xbfc8997c2f431834	-0.19218399341315406
29	0xbfcd3b68899066e6	-0.22837549893375025
30	0xbfcde852661b3737	-0.2336524008336995
31	0x3fc2ded047d65779	0.14742473132781322
32	0xbfc6b1f728611fed	-0.17730607482576435
33	0xbfbbca92fbdd581e	-0.10855978631056515
34	0x3fb661b418aef111	0.08742833712216604
35	0x3fc8c04f2a500610	0.1933688122372108
36	0x3f9a95b083157170	0.025961645127027422
37	0x3f9d9930ee131b8b	0.02890469029514579
38	0x3fc30af71e970562	0.1487721347203133
39	0xbfc7d856c380fc59	-0.18628963991247607
40	0x3fc6ec56ebafda7f	0.17908751018667954
41	0x3fcfeae34655a863	0.2493557065420787
42	0xbfcfd2bbde7479cb	-0.24861858713206994
43	0x3fcb899c46c6da64	0.2151370378102967
44	0x3fb596b9964d4ccc	0.08433113021355892
45	0x3fa41d554c8a8732	0.03928629454936895
46	0x3f886e7424eb7ae5	0.011929423691467498
47	0x3fb9e09901028320	0.10108333849576612
48	0x3fc4e0844d05d5e1	0.16310170899275447
49	0xbf91c8b5cef50fc8	-0.0173672111097998
50	0x3fbd32ec3336a6c2	0.11405826807335998
51	0x3f7724ab0d51c8bc	0.005650203868855449
52	0xbfc97e483eeb7919	-0.19916632721192043
53	0x3f9b90d0e4a0603a	0.026919616655590263
54	0xbfc337c3081d7c72	-0.15013921638726263
55	0xbf61460f6e83eae8	-0.0021086026573561185
56	0xbfc313eb305bad0d	-0.14904537068591886
57	0xbfb8907fcfe7b71a	-0.0959548838215735
58	0x3fbb8bd5d83d7173	0.10760246781632592
59	0x3f7c847e8c8c4890	0.006962293941585554
60	0x3fc1f4cb686ee399	0.1402830371787587
61	0x3fc75c4fdcc23b58	0.18250463752016333
62	0x3fc7d6ed72e0e261	0.18624656781482243
63	0xbfcd612306fee1a2	-0.22952688066085353
64	0xbfcba6d96ce53233	-0.2160293370929068
65	0x3fccebea3cb60736	0.22594955410391443
66	0xbfc895509f2ed31d	-0.1920567300091073
67	0x3fc4fbeb0fd1a116	0.1639379336586521
68	0xbfcde3958c5de5bd	-0.2335078177818967
69	0xbf9918bb34283571	-0.02450840478745903
70	0x3faee14e20d96427	0.06031269217482587
71	0xbfc55fe35781fa17	-0.16698877117956165
72	0x3fa410556ddcf5c5	0.039187116299654025
73	0xbfd04bc5a781cce4	-0.2546247611819139
74	0x3fb139f18bc5b372	0.06729039823922081
75	0x3fc0110d3c5dc12e	0.12552037665910504
76	0x3fb7c45e91235999	0.09284010928545285
77	0x3f8a957db2111f49	0.012980443951292069
78	0x3fbe3416bf5fca8c	0.11798231289120958
79	0xbf87c6d67b6144cc	-0.011609721794373938
80	0xbfc19377c3ba5583	-0.1373128610327222
81	0xbfc7f5e4c5c1e331	-0.18719157844659542
82	0xbfc65326f986a701	-0.17441260513196968
83	0xbfcc506971620edb	-0.2212039760234948
84	0x3fafbb705b29fc2b	0.06197692025033804
85	0x3fcdcc42a8c3a61e	0.2327960323375899
86	0xbfc9ec28868c0252	-0.20251947946236953
87	0x3fc85d724e526b95	0.19035176109613575
88	0xbfc6f52a1c42ba77	-0.1793568265906804
89	0x3fc07c5a559563ea	0.12879494837650834
90	0xbfc913136a07f2a0	-0.1958946483354298
91	0xbfcb6c01b23e7678	-0.2142336006481178
92	0x3fbaee5ba62eae7f	0.1051995545118931
93	0xbfcece1936c6a35a	-0.24066462683301887
94	0xbfb3e869a1ddbabd	-0.0777650852375968
95	0xbfc21035612f2091	-0.14111964459721496
96	0xbfc117a4d6e4159f	-0.13353405468676002
97	0x3fb16af76009a121	0.06803842634838421
98	0x3fb64fa50b5950f9	0.08715278174469522
99	0xbfc45c5cba178183	-0.1590686710978951
100	0x3fca53886b4f9b56	0.20567422141831554
101	0x3fc34a6d01268ef2	0.1507087951296096
102	0x3fa2dd739a69d278	0.036845791434562736
103	0x3fba5774776adebd	0.1028969565912758
104	0x3fcd6ab4033494b3	0.22981882244599702
105	0xbfa9317adacaf12f	-0.0492056266861901
106	0x3fc41b9d48523765	0.1570927241449979
107	0x3f963aae27f1a091	0.021708222568492423
108	0xbfb84831736e544c	-0.09485158031596191
109	0xbfcc8154d2f5e952	-0.22269687939462784
110	0xbfbf53b5325bc14f	-0.12237102965787482
111	0x3f8cd5cb37a862f0	0.014079654346504239
112	0xbfa55a8c415e7b64	-0.04170645044290813
113	0x3fc88eb572f60911	0.19185512650808126
114	0x3fc013e0fb20706c	0.12560665380522396
115	0x3fa3aa9fd6a58fde	0.03841113562773989
116	0x3fc2d412928431c4	0.14709694055672007
117	0x3fb0d17dece74b34	0.06569659265305178
118	0xbfbf901681cbf8ed	-0.12329235714784988
119	0xbfb45fc4c90439dd	-0.0795863142741164
120	0x3fbeb322df5079e0	0.11992090179453596
121	0x3fbebc8a2381459e	0.12006438605137368
122	0x3fc9547486ea11cf	0.19788986766447045
123	0xbfb3cea7753576ed	-0.07737204181236353
124	0xbfc73a2ddb1707fe	-0.18146298597099525
125	0x3fb0af75531deec7	0.0651772811815433
126	0x3fc12da2f9596fce	0.13420521903287724
127	0xbfbacc5b353e85e8	-0.10468072938831308
