Code/990-10/darts_logs/D-dep_08_transformer/_model.pth.tar (torch, 177811 bytes, 68 tensors)

weight f4 [16, 1]
-0.25716138 -0.55878663 -0.7425804 -0.47246468 0.3459748 0.65276635 0.02664113 0.8673296
-0.5665059 0.7218462 0.90422726 -0.31408477 -0.18602884 -0.37528825 0.036749363 0.46885717
00000000: a8aa 83be a40c 0fbf c019 3ebf e4e6 f1be
00000010: 9c23 b13e b21b 273f 803e da3c 5009 5e3f
00000020: 8806 11bf eaca 383f 707b 673f b8cf a0be
00000030: 587e 3ebe c825 c0be 8086 163d 0c0e f03e

bias f4 [16]
0.49330044 -0.016185045 -0.81816125 0.20530641 -0.49065173 -0.96427476 -0.94546986 -0.18776989
-0.40313184 -0.8527187 -0.075276494 -0.39764905 -0.051656127 -0.18833113 -0.7937833 0.21475983
00000000: e091 fc3e 8096 84bc 0473 51bf d83b 523e
00000010: b436 fbbe b6da 76bf 500a 72bf c046 40be
00000020: 4c67 cebe c64b 5abf 902a 9abd a898 cbbe
00000030: 6095 53bd e0d9 40be 6235 4bbf 00ea 5b3e

in_proj_weight f4 [48, 16]
0.184196 0.21413633 -0.25262573 -0.007216609 0.28938767 0.12770322 0.13385008 0.19363952
0.29841664 -0.13828789 -0.3045743 -0.2638448 0.037235904 -0.15539661 -0.23075359 -0.19052532
0.0097096125 0.073004246 -0.2851447 -0.008472035 -0.21115825 0.10823808 0.038290616 -0.30400336
0.19757512 0.22034232 0.15738373 -0.2166027 0.2823468 0.10878777 -0.12845564 0.26702884
-0.057429373 0.21010435 -0.27472454 -0.058137916 0.12627216 0.28370398 -0.13257782 0.09060981
-0.040146798 -0.02277283 -0.18438733 -0.019841276 -0.16940573 0.044325273 0.18985598 0.061409105
-0.21051304 0.2457235 0.17464921 0.237122 0.28045294 0.09729581 -0.20270398 -0.09768012
-0.28937143 -0.25509107 0.28513837 0.14688997 -0.13105656 -0.17537647 -0.0093488805 0.24096617
-0.2984399 0.2355603 0.14638546 0.044897817 -0.20146134 0.25174844 -0.14147654 -0.21057522
0.280368 -0.14146122 0.04453723 0.27123588 0.13734801 -0.12646258 0.023371799 -0.220697
0.27560166 0.15323123 0.13542108 -0.23123287 0.221251 0.043702543 0.1214804 0.06455473
0.12375447 0.056118906 0.07223179 -0.046891645 0.13087568 -0.049846265 -0.117377155 0.21751797
-0.106922604 -0.16381527 0.04134627 0.28237304 -0.046869744 0.20059092 0.045494303 -0.18322472
0.08917028 0.28309023 -0.2502106 0.26710504 -0.2457065 -0.17288978 -0.2688938 -0.28159288
-0.17071861 -0.25319803 -0.17021169 0.25690594 -0.26462504 0.2227036 0.12661861 -0.13795811
0.029908152 0.30178887 -0.22996634 0.06054394 0.072624825 0.18936469 -0.11772704 0.035159443
0.003983892 0.092691384 -0.0934407 0.18930154 0.2954102 0.13294834 0.18802136 0.26329294
0.027805118 -0.1687146 0.23014301 0.19459243 0.14074355 0.002544578 -0.082059 -0.15458167
0.30126464 -0.14199291 0.115797095 0.2978741 -0.019440176 -0.076867975 -0.06576847 -0.09680952
-0.15746176 0.26491725 0.01973382 0.09868257 -0.25557482 0.29378155 -0.028103033 -0.26067775
0.049500424 -0.17372236 -0.16071531 0.30092075 0.0006624064 0.19893457 -0.21172732 -0.25340492
-0.1079252 -0.14631046 0.26394233 -0.10880835 -0.10560564 0.28343496 -0.15767838 -0.27107573
-0.16080163 -0.059399802 0.19678201 -0.17968935 -0.24898165 -0.21982549 0.2787115 -0.18362541
0.026110595 0.1965146 -0.017146902 0.16831721 -0.23037395 -0.096656404 0.24217057 0.21933043
0.07835697 0.23133059 -0.045423128 0.19316655 -0.16663657 -0.1987681 0.10636996 0.2929966
-0.08960477 -0.11924104 -0.0463552 0.0038242398 -0.070789084 -0.005243187 -0.014185674 0.11164143
0.06246699 -0.2897845 -0.18189867 0.22091809 -0.2968587 0.09653887 0.22835732 -0.2857054
-0.1859541 -0.09011461 -0.20008498 -0.1342149 0.264275 -0.29258654 0.21996145 -0.018064372
0.1318295 -0.06480896 -0.2041033 0.11776986 -0.026684305 -0.19984263 -0.11187992 0.04625643
0.044039074 0.25793788 0.052084386 -0.19867676 -0.2949842 -0.21286763 0.17331086 0.19338624
-0.06682968 -0.224233 -0.1671805 0.017826354 0.08124684 0.041471176 -0.062459033 -0.27607593
0.20499355 0.1456613 0.20650446 -0.1506135 0.1491796 -0.15342906 0.13327053 -0.25277436
00000000: e09d 3c3e 8e46 5b3e 2958 81be 4e79 ecbb
00000010: 9f2a 943e a2c4 023e ff0f 093e 7049 463e
00000020: 11ca 983e 579b 0dbe 2af1 9bbe aa16 87be
00000030: ad84 183d 4a20 1fbe ab4a 6cbe 1219 43be
00000040: 1115 1f3c 4083 953d 7cfe 91be 4ace 0abc
00000050: de39 58be edab dd3d 9fd6 1c3d 54a6 9bbe
00000060: 2251 4a3e 6ba1 613e 3329 213e 19cd 5dbe
00000070: c38f 903e 1fcc de3d e089 03be 01b8 883e
00000080: 103b 6bbd 9825 573e b2a8 8cbe 0622 6ebd
00000090: 7d4d 013e a641 913e 7bc2 07be a391 b93d
000000a0: f870 24bd 168e babc 08d0 3cbe 2c8a a2bc
000000b0: b278 2dbe 6b8e 353d 9b69 423e 1d88 7b3d
000000c0: bb90 57be f19e 7b3e 3ed7 323e 1cd0 723e
000000d0: 8797 8f3e 0743 c73d a291 4fbe 840c c8bd
000000e0: 7e28 94be 4c9b 82be a8fd 913e 536a 163e
000000f0: b133 06be e495 33be 0c2c 19bc d6bf 763e
00000100: 1dcd 98be b836 713e 12e6 153e c6e6 373d
00000110: e24b 4ebe 2ce5 803e 3adf 10be 08a1 57be
00000120: 658c 8f3e 36db 10be ac6c 363d 6edf 8a3e
00000130: f5a4 0c3e 687f 01be 3776 bf3c 65fe 61be
00000140: a91b 8d3e a6e8 1c3e d3ab 0a3e 4fc8 6cbe
00000150: 9f8f 623e 7001 333d b7ca f83d 4535 843d
00000160: fc72 fd3d f0dc 653d 43ee 933d 7411 40bd
00000170: 4604 063e 992b 4cbd 6f63 f0bd 08bd 5e3e
00000180: 3dfa dabd 31bf 27be b55a 293d 3393 903e
00000190: 7dfa 3fbd b567 4d3e 3c58 3a3d 439f 3bbe
000001a0: e89e b63d 34f1 903e 9b1b 80be fec1 883e
000001b0: 7c9a 7bbe 050a 31be 73ac 89be f12c 90be
000001c0: dcd0 2ebe 2ca3 81be f94b 2ebe 2d89 833e
000001d0: ef7c 87be 6a0c 643e 4fa8 013e e444 0dbe
000001e0: f101 f53c 1284 9a3e 4c7c 6bbe ecfc 773d
000001f0: 53bc 943d d1e8 413e e01a f1bd 5903 103d
00000200: 4f8b 823b fbd4 bd3d d65d bfbd 43d8 413e
00000210: 0140 973e 9c23 083e ac88 403e 55ce 863e
00000220: 8fc7 e33c 85c3 2cbe 9caa 6b3e 3d43 473e
00000230: 141f 103e efc2 263b 8d0e a8bd a84a 1ebe
00000240: 5c3f 9a3e 9766 11be 0727 ed3d f482 983e
00000250: 0141 9fbc f56c 9dbd 9fb1 86bd 1244 c6bd
00000260: a83d 21be 3ca3 873e d2a8 a13c 161a ca3d
00000270: b4da 82be 896a 963e 5538 e6bc 8e77 85be
00000280: f5c0 4a3d 46e4 31be 8e92 24be 4912 9a3e
00000290: 57a5 2d3a 81b5 4b3e 0ccf 58be 4abe 81be
000002a0: e307 ddbd 69d2 15be 7323 873e ead6 debd
000002b0: c547 d8bd 631e 913e 7176 21be 70ca 8abe
000002c0: 2fa9 24be 354d 73bd 3981 493e 7c00 38be
000002d0: 0cf5 7ebe ef19 61be 46b3 8e3e 4d08 3cbe
000002e0: e3e5 d53c 203b 493e a977 8cbc 595b 2c3e
000002f0: 26e7 6bbe cbf3 c5bd 90fb 773e 2898 603e
00000300: 9e79 a03d ede1 6c3e 9a0d 3abd 74cd 453e
00000310: c7a2 2abe dd89 4bbe 7ed8 d93d a603 963e
00000320: b582 b7bd a534 f4bd f3de 3dbd 19a0 7a3b
00000330: def9 90bd 0acf abbb 076b 68bc 43a4 e43d
00000340: 63dd 7f3d a25e 94be a543 3abe 5a38 623e
00000350: ddfd 97be 2cb6 c53d 80d6 693e fa47 92be
00000360: c06a 3ebe 028e b8bd 14e3 4cbe a16f 09be
00000370: 0e4f 873e e7cd 95be 933d 613e bcfb 93bc
00000380: 50fe 063e 8fba 84bd 7500 51be 5331 f13d
00000390: 0b99 dabc 8ca3 4cbe 4d21 e5bd 6277 3d3d
000003a0: 5162 343d 6f10 843e 7056 553d ec71 4bbe
000003b0: 2b08 97be f9f9 59be 6778 313e 0b07 463e
000003c0: 00de 88bd 569d 65be 5d31 2bbe 9308 923c
000003d0: be64 a63d aedd 293d 0bd5 7fbd d359 8dbe
000003e0: d4e9 513e 3c28 153e e875 533e 6d3a 1abe
000003f0: 89c2 183e 821c 1dbe 1278 083e a46b 81be

in_proj_bias f4 [48]
0.0 0.0 0.0 0.0 0.0 0.0 0.0 0.0
0.0 0.0 0.0 0.0 0.0 0.0 0.0 0.0
0.0 0.0 0.0 0.0 0.0 0.0 0.0 0.0
0.0 0.0 0.0 0.0 0.0 0.0 0.0 0.0
0.0 0.0 0.0 0.0 0.0 0.0 0.0 0.0
0.0 0.0 0.0 0.0 0.0 0.0 0.0 0.0
00000000: 0000 0000 0000 0000 0000 0000 0000 0000
00000010: 0000 0000 0000 0000 0000 0000 0000 0000
00000020: 0000 0000 0000 0000 0000 0000 0000 0000
00000030: 0000 0000 0000 0000 0000 0000 0000 0000
00000040: 0000 0000 0000 0000 0000 0000 0000 0000
00000050: 0000 0000 0000 0000 0000 0000 0000 0000
00000060: 0000 0000 0000 0000 0000 0000 0000 0000
00000070: 0000 0000 0000 0000 0000 0000 0000 0000
00000080: 0000 0000 0000 0000 0000 0000 0000 0000
00000090: 0000 0000 0000 0000 0000 0000 0000 0000
000000a0: 0000 0000 0000 0000 0000 0000 0000 0000
000000b0: 0000 0000 0000 0000 0000 0000 0000 0000

weight f4 [16, 16]
-0.024242515 0.36600167 -0.32148084 0.16687661 0.24174273 0.2490043 -0.2667202 0.15048216
-0.15864393 0.41612658 -0.011752697 -0.0015648857 -0.37228552 0.2782531 -0.18805672 -0.16183291
-0.34155542 -0.121876396 0.19548419 0.09460466 -0.18194021 -0.0810216 -0.16068542 -0.40712994
0.102314755 -0.37917328 -0.17367661 -0.38765982 -0.4318225 0.3658318 0.262974 -0.28093126
0.034291264 -0.3560672 -0.26322368 -0.022783602 0.049320433 -0.25202486 -0.3958961 -0.29131353
-0.005733647 0.33124742 -0.028204644 0.14153503 0.38915554 0.22796842 0.32797086 -0.2446235
0.39495003 -0.27303416 0.085371956 0.08153408 -0.27704924 -0.23645085 0.20235677 0.084462225
0.32784045 -0.22342987 -0.1943991 0.07838686 0.015672034 0.20881525 -0.3626009 -0.21724673
-0.37486348 0.15844427 0.33535615 -0.37077513 -0.3942459 -0.16686474 -0.20002858 -0.32387054
0.008824859 0.30178684 -0.42852262 -0.37897155 0.2312992 -0.16233547 0.09701228 0.3783935
0.13847572 -0.0057014367 -0.22260784 -0.36171067 -0.28629825 0.32833073 -0.18214689 -0.2948908
0.18762079 -0.15356883 0.2919287 0.03869866 0.2539501 0.3294092 0.17211564 -0.091127284
-0.24848084 0.2376003 -0.25044593 -0.41232368 -0.034093354 -0.13628128 0.3899606 -0.3612238
0.11790301 -0.041497603 0.0015885272 -0.22217005 -0.19404 -0.21179223 -0.08486919 -0.23027879
0.37375718 0.2678808 0.34385931 0.09614492 0.30938533 -0.3169566 0.18540525 0.25647002
-0.23786046 0.15157247 0.14786017 -0.1314457 -0.057593483 0.020235218 -0.08894829 0.3676719
0.33507612 0.04510929 -0.012001862 -0.339124 0.42070985 0.24410215 0.42801544 -0.2297928
0.018966988 0.17946652 -0.35463884 -0.1081823 -0.12714908 0.27058405 0.11097407 0.108072974
0.013607991 0.27910334 -0.37851083 -0.28363818 0.3995962 0.15157546 -0.26091176 0.3443147
-0.2912909 -0.32169276 0.21649669 -0.3258904 -0.17727669 -0.17345506 0.39358947 0.20454454
-0.2810714 0.051583055 0.21407942 -0.24007322 0.054998126 -0.051789068 0.40737 0.33194938
0.12204632 0.26657975 0.10753071 0.11131125 0.3274952 0.31253833 0.13018408 -0.056943752
0.20844886 0.0687491 -0.0044347546 -0.3699385 0.061091505 -0.35075852 0.420599 -0.0356968
-0.24485171 -0.2401205 -0.12092242 0.18171577 -0.29884407 -0.21851645 0.04124622 -0.33555472
0.23839286 0.3724522 0.25316486 -0.26564842 0.37207228 0.09542112 -0.21743648 -0.37000933
-0.03922027 -0.23188679 0.26989928 0.10017354 0.383191 -0.12985264 0.050372068 0.12778069
-0.06674122 0.4240113 -0.026805973 0.2608798 -0.06299728 -0.35261884 0.016159164 0.22496238
-0.32378817 -0.05131711 -0.3165321 0.1138013 -0.20766549 0.4056306 -0.08377724 0.41127288
0.18010329 0.2341791 -0.13372561 0.12423069 -0.35374367 -0.28782144 -0.34676245 0.25104377
-0.31664664 -0.0050726123 0.18835972 0.09518517 0.043603044 0.14444454 0.046028215 0.4171993
-0.17493735 0.40814748 0.040460575 -0.28464535 -0.31406614 0.23594911 -0.18504314 0.2864404
0.2509584 0.30895373 -0.3180731 0.3882482 0.20505299 0.35841468 0.23376702 -0.32444373
00000000: 3d98 c6bc 9264 bb3e 2399 a4be b4e1 2a3e
00000010: 688b 773e fcfa 7e3e 8d8f 88be ff17 1a3e
00000020: 8e73 22be 8b0e d53e 628e 40bc da1c cdba
00000030: 359c bebe 3177 8e3e f191 40be 87b7 25be
00000040: 5ae0 aebe 559a f9bd 022d 483e 17c0 c13d
00000050: 894e 3abe a7ee a5bd b88a 24be 5673 d0be
00000060: 668a d13d 0023 c2be 48d8 31be 597b c6be
00000070: d717 ddbe 4e4e bb3e 87a4 863e 39d6 8fbe
00000080: ff74 0c3d 714e b6be 41c5 86be ada4 babc
00000090: 3904 4a3d 6709 81be e5b2 cabe 0c27 95be
000000a0: 51e1 bbbb 4399 a93e 6d0d e7bc 8fee 103e
000000b0: 653f c73e 8e70 693e cceb a73e 957e 7abe
000000c0: e436 ca3e 22cb 8bbe 7ed7 ae3d 57fb a63d
000000d0: 66d9 8dbe 2c20 72be 9d36 4f3e 88fa ac3d
000000e0: b4da a73e cdca 64be 8f10 47be 4a89 a03d
000000f0: a362 803c aad3 553e d3a6 b9be ed75 5ebe
00000100: 1bee bfbe 373f 223e cdb3 ab3e 3dd6 bdbe
00000110: 99da c9be 97de 2abe 4bd4 4cbe 5cd2 a5be
00000120: 2496 103c ce83 9a3e 5167 dbbe 8f08 c2be
00000130: b3d9 6c3e 453b 26be 60ae c63d cbbc c13e
00000140: 94cc 0d3e 1ed3 babb 4ff3 63be 2432 b9be
00000150: af95 92be f71a a83e b784 3abe edfb 96be
00000160: aa1f 403e 2641 1dbe ae77 953e 7c82 1e3d
00000170: bf05 823e 53a8 a83e 153f 303e f1a0 babd
00000180: c371 7ebe 7e4d 733e 733a 80be 171c d3be
00000190: 79a5 0bbd 528d 0bbe eaa8 c73e 53f2 b8be
000001a0: 2277 f13d 64f9 29bd 2136 d03a 8c80 63be
000001b0: 6cb2 46be 10e0 58be e6cf adbd 34ce 6bbe
000001c0: 1a5d bf3e ac27 893e 540e b03e a1e7 c43d
000001d0: c167 9e3e 2348 a2be e0da 3d3e 0a50 833e
000001e0: b191 73be d035 1b3e a868 173e b499 06be
000001f0: 25e7 6bbd 54c4 a53c 852a b6bd 7e3f bc3e
00000200: 198f ab3e 85c4 383d 75a3 44bc a9a1 adbe
00000210: 4867 d73e eaf5 793e d724 db3e ce4e 6bbe
00000220: a860 9b3c 12c6 373e 3993 b5be af8e ddbd
00000230: 5e33 02be fe89 8a3e 6046 e33d 5d55 dd3d
00000240: 0df4 5e3c a2e6 8e3e 2ccc c1be 0639 91be
00000250: e097 cc3e 9936 1b3e 3a96 85be 044a b03e
00000260: 1524 95be eab4 a4be 4fb1 5d3e 1bdb a6be
00000270: 0588 35be 349e 31be 8f84 c93e 2074 513e
00000280: 97e8 8fbe c148 533d a337 5b3e c1d5 75be
00000290: b745 613d c620 54bd cd92 d03e 45f5 a93e
000002a0: 6cf3 f93d 247d 883e 1039 dc3d 27f7 e33d
000002b0: 73ad a73e 0605 a03e fa4e 053e da3d 69bd
000002c0: 9e73 553e 54cc 8c3d 6b51 91bb 9468 bdbe
000002d0: 163b 7a3d 9f96 b3be c158 d73e cf36 12bd
000002e0: 68ba 7abe 26e2 75be 2ca6 f7bd b313 3a3e
000002f0: 1702 99be c7c2 5fbe ccf1 283d d4cd abbe
00000300: 421d 743e 0eb2 be3e d39e 813e 1203 88be
00000310: 4280 be3e 266c c33d aba7 5ebe dd71 bdbe
00000320: 6fa5 20bd bb73 6dbe 3d30 8a3e c927 cd3d
00000330: 9c31 c43e 17f8 04be f152 4e3d f1d8 023e
00000340: 9faf 88bd 0218 d93e 3398 dbbc 0a92 853e
00000350: b804 81bd 758a b4be 3960 843c 8a5c 663e
00000360: 90c7 a5be e431 52bd 7f10 a2be a810 e93d
00000370: 43a6 54be d0ae cf3e 6793 abbd 5c92 d23e
00000380: ff6c 383e a5cc 6f3e 5eef 08be a96c fe3d
00000390: e41d b5be 555d 93be d98a b1be cf88 803e
000003a0: 821f a2be 2838 a6bb 5fe1 403e 71f0 c23d
000003b0: 1b99 323d 45e9 133e 1588 3c3d 269b d53e
000003c0: c722 33be b5f8 d03e fdb9 253d 09bd 91be
000003d0: 47cd a0be a59c 713e f37b 3dbe 51a8 923e
000003e0: 9f7d 803e 2f2f 9e3e 7ada a2be 78c8 c63e
000003f0: 69f9 513e 2182 b73e 9f60 6f3e 7d1d a6be

bias f4 [16]
0.0 0.0 0.0 0.0 0.0 0.0 0.0 0.0
0.0 0.0 0.0 0.0 0.0 0.0 0.0 0.0
00000000: 0000 0000 0000 0000 0000 0000 0000 0000
00000010: 0000 0000 0000 0000 0000 0000 0000 0000
00000020: 0000 0000 0000 0000 0000 0000 0000 0000
00000030: 0000 0000 0000 0000 0000 0000 0000 0000

weight f4 [128, 16]
0.07070243 0.056147568 -0.16990478 -0.092734486 -0.19231133 0.12305461 -0.20338461 -0.0984615
0.033717074 0.034987308 0.0847677 -0.072593115 0.13045639 -0.20082 -0.03596678 -0.01812427
0.01721714 -0.19485323 -0.20353986 -0.101117715 -0.19308461 0.10803661 -0.18735781 0.050357
-0.08705809 0.092654794 0.038201034 -0.16455208 -0.06627692 -0.17587185 0.07934481 0.07894786
0.07119934 0.14299752 0.051786713 -0.045433506 0.17909053 -0.121352404 -0.05119181 0.11268722
0.025903858 0.12544562 0.1642457 0.092580795 0.027674923 -0.06964069 -0.0008674404 -0.027710984
0.07412749 0.117248535 0.03492686 0.15707164 -0.13367708 -0.111556955 0.048791844 -0.022122141
-0.104759224 -0.0896938 0.14156006 -0.15608975 -0.032363962 0.047985725 -0.0136398 0.13918112
-0.12223328 0.0922511 0.19492541 0.18270275 0.08086918 -0.10050641 -0.20242125 -0.20279294
0.14874703 0.20223616 -0.2004322 0.0008744485 -0.065072976 -0.0854377 0.00634912 -0.09318991
0.09123978 0.059827622 0.053319067 0.07676305 -0.0066777193 0.003134057 -0.10201652 0.13564101
-0.012092433 -0.04447046 -0.193918 0.06749511 -0.032095686 -0.1714772 -0.05430956 -0.020221159
-0.19964397 0.022224316 -0.092659906 0.031526454 -0.13737673 -0.035882976 0.1776533 0.0763433
-0.17998987 -0.023529662 -0.09134928 -0.16451319 0.13097224 -0.04611195 -0.0063059037 -0.17860538
0.20154807 -0.04686663 0.05310727 -0.0066800797 -0.09108409 -0.14856865 -0.052284967 0.10914704
-0.14249025 0.07248359 -0.13961583 0.13674518 0.07078049 0.067342 -0.15651236 0.013174349
-0.06905899 -0.019929789 0.14318597 0.007279073 -0.15096252 0.16250877 -0.08746125 0.077578075
0.19606645 0.20016971 0.001556638 -0.09159935 0.008675183 -0.035994545 0.058075756 -0.0007901329
0.029057479 -0.06177817 0.14414155 -0.026817068 -0.105002634 -0.046546035 0.19823292 -0.14853363
-0.19068581 0.08880587 0.048446506 -0.01874066 -0.057736304 -0.14652792 -0.06349976 -0.102067575
0.11416424 -0.079540186 -0.12689441 0.119940214 -0.018747376 0.1956274 0.048371483 -0.07653699
-0.19152711 0.09560343 0.111275665 0.098082945 -0.048816033 -0.16556008 0.0742476 -0.011224896
-0.17125343 0.041770536 0.019654432 -0.12518734 -0.15033059 -0.109645516 -0.122306325 -0.14883375
0.15120661 -0.10034253 -0.02661245 -0.10714593 0.10967831 -0.16618587 -0.11825971 -0.13775031
-0.09278651 0.12588748 0.07451062 -0.0682948 0.054730117 -0.10247219 -0.19171025 -0.19265278
0.16808982 0.15805715 0.15768228 -0.08989185 0.10493379 -0.04261783 0.078006275 0.16189493
0.15186417 -0.06233295 -0.116664775 0.044178724 -0.10476762 -0.13889493 -0.15651487 0.072407335
0.11567871 -0.16960308 -0.19501454 -0.05173593 -0.046041165 -0.0451654 0.0030230475 -0.09595734
-0.055053268 -0.20142119 0.19824818 0.07117012 -0.09551763 0.07499844 -0.066719204 -0.009160855
-0.13846287 -0.16294418 0.074446745 -0.17997172 0.10394262 -0.13124971 0.08037317 -0.14916646
-0.19651423 -0.18572314 -0.1761411 -0.094618775 -0.07147178 -0.12625232 -0.046841394 0.13424568
0.104107626 -0.13469306 -0.18287972 0.14366983 0.021499641 0.09245183 0.015410913 -0.1340424
00000000: 70cc 903d fefa 653d 85fb 2dbe 94eb bdbd
00000010: 43ed 44be 0e04 fc3d 0e44 50be 2fa6 c9bd
00000020: ea1a 0a3d da4e 0f3d b09a ad3d b3ab 94bd
00000030: 5c96 053e c2a3 4dbe e751 13bd 5979 94bc
00000040: f60a 8d3c 9b87 47be c16c 50be ce16 cfbd
00000050: f9b7 45be 4c42 dd3d bada 3fbe 2443 4e3d
00000060: 834b b2bd ccc1 bd3d b078 1c3d 5780 28be
00000070: 32bc 87bd c017 34be 887f a23d 6aaf a13d
00000080: f6d0 913d f16d 123e 4e1e 543d 7c18 3abd
00000090: 8263 373e 9c87 f8bd 81ae 51bd 8fc8 e63d
000000a0: 5434 d43c d174 003e 0630 283e 009b bd3d
000000b0: 85b6 e23c c79f 8ebd f164 63ba 2502 e3bc
000000c0: 27d0 973d 0020 f03d 780f 0f3d 63d7 203e
000000d0: a5e2 08be f977 e4bd f5d9 473d 7e39 b5bc
000000e0: 018c d6bd 62b1 b7bd 1ff5 103e fed5 1fbe
000000f0: 1390 04bd ae8c 443d 7879 5fbc 7f85 0e3e
00000100: 7155 fabd 25ee bc3d 879a 473e 6e16 3b3e
00000110: be9e a53d 4ed6 cdbd 8447 4fbe f4a8 4fbe
00000120: 2451 183e ff16 4f3e 193e 4dbe 3f3b 653a
00000130: fb44 85bd f6f9 aebd 470c d03b 5ada bebd
00000140: ecdb ba3d cf0d 753d 1865 5a3d f235 9d3d
00000150: c5d0 dabb c064 4d3b 0aee d0bd 7ae5 0a3e
00000160: 571f 46bc a826 36bd 7192 46be e03a 8a3d
00000170: c476 03bd b897 2fbe b473 5ebd d8a6 a5bc
00000180: 786f 4cbe c50f b63c 7ac4 bdbd e221 013d
00000190: 7cac 0cbe 07fa 12bd bfea 353e e059 9c3d
000001a0: 444f 38be 47c1 c0bc 5515 bbbd 2576 28be
000001b0: 961d 063e e2df 3cbd c1a1 cebb 54e4 36be
000001c0: 9e62 4e3e 39f7 3fbd 0287 593d 92e4 dabb
000001d0: 4c8a babd 6122 18be c328 56bd 7c88 df3d
000001e0: f7e8 11be 4772 943d 74f7 0ebe ee06 0c3e
000001f0: 5df5 903d 9aea 893d c744 20be 3ad9 573c
00000200: cd6e 8dbd cc43 a3bc 589f 123e 4a85 ee3b
00000210: eb95 1abe b368 263e e21e b3bd 41e1 9e3d
00000220: a5c5 483e 4af9 4c3e 1b08 cc3a 7198 bbbd
00000230: 5b22 0e3c 046f 13bd d8e0 6d3d ec20 4fba
00000240: f309 ee3c 1b0b 7dbd d899 133e 78af dbbc
00000250: 9f0b d7bd 0ea7 3ebd 92fd 4a3e 3319 18be
00000260: 2443 43be dadf b53d d86f 463d 0386 99bc
00000270: e77c 6cbd 6a0b 16be 2a0c 82bd ce08 d1bd
00000280: f1ce e93d f7e5 a2bd 9cf0 01be 37a3 f53d
00000290: 1994 99bc 8d52 483e 2d21 463d 6dbf 9cbd
000002a0: af1f 44be bbcb c33d 7fe4 e33d b6df c83d
000002b0: 52f3 47bd 9588 29be 200f 983d a0e8 37bc
000002c0: 0f5d 2fbe 9517 2b3d 5502 a13c 1c31 00be
000002d0: 43f0 19be d48d e0bd bd7b fabd e067 18be
000002e0: e8d5 1a3e 6280 cdbd 5a02 dabc 536f dbbd
000002f0: 069f e03d a12c 2abe 2632 f2bd 6b0e 0dbe
00000300: db06 bebd a6e8 003e 0699 983d 25de 8bbd
00000310: b02c 603d f1dc d1bd b14f 44be c546 45be
00000320: bd1f 2c3e bcd9 213e 7777 213e 3819 b8bd
00000330: 87e7 d63d 0990 2ebd c1c1 9f3d c9c7 253e
00000340: 4882 1b3e d650 7fbd f1ed eebd c0f4 343d
00000350: 6890 d6bd 793a 0ebe 6f45 20be 4c4a 943d
00000360: f6e8 ec3d 6eac 2dbe e4b1 47be 0ee9 53bd
00000370: a995 3cbd 5bff 38bd 521e 463b 4885 c4bd
00000380: 897f 61bd 5b41 4ebe 9201 4b3e a4c1 913d
00000390: bf9e c3bd c898 993d 14a4 88bd 6917 16bc
000003a0: 36c9 0dbe d7da 26be 8977 983d 824a 38be
000003b0: dedf d43d 5366 06be b09a a43d 18bf 18be
000003c0: 073b 49be 352e 3ebe 555e 34be 7dc7 c1bd
000003d0: cc5f 92bd 4a48 01be c3dc 3fbd b377 093e
000003e0: 6136 d53d faec 09be d244 3bbe 2f1e 133e
000003f0: 0420 b03c 6357 bd3d 0e7e 7c3c 6942 09be

bias f4 [128]
0.1997723 -0.13145322 0.12142688 -0.08890301 0.06596014 0.0007535517 0.092570394 -0.23088983
-0.07014823 0.17568073 0.20876569 -0.14598677 -0.13273168 0.12740481 0.14750919 0.0869295
0.14860016 0.16708967 -0.20565256 0.07771817 -0.21074188 -0.063670844 0.22526443 0.20206177
0.24922088 -0.12080309 -0.104868114 -0.21576244 -0.22990796 -0.23247576 -0.22546792 0.19571835
-0.18124723 -0.09637284 0.10731897 0.180614 0.03537324 0.008510321 0.16533 -0.18970925
0.1864632 0.24616665 -0.24865311 0.22466949 0.080287755 0.045571774 0.01688537 0.103613555
0.16080815 -0.048557162 0.123179436 0.01239875 -0.19925714 0.020655394 -0.20230442 -0.0014315546
-0.1821332 -0.06945264 0.13332671 0.01140511 0.15265775 0.17156014 0.1909137 -0.246779
-0.22466373 0.23652315 -0.17016974 0.19966137 -0.2348856 -0.017535329 0.05805269 -0.11557412
0.039753318 -0.2415356 0.05981782 0.12599409 0.10864234 0.014483392 0.13906133 0.016546309
-0.12914613 -0.18857297 -0.17417589 -0.22519931 0.072074264 0.22976634 -0.19776487 0.2025336
-0.20657125 0.12392229 -0.19189066 -0.22264779 0.10476047 -0.23577055 -0.10268864 -0.13620323
-0.15798956 0.09569359 0.111138165 -0.19080478 0.20535779 0.16120845 0.0517596 0.10128671
0.21706605 -0.043258727 0.19494942 0.027083695 -0.13559994 -0.22474483 -0.11264902 0.0060476363
-0.047617912 0.19314295 0.13096234 0.052702874 0.17847839 0.071970284 -0.1516302 -0.097465485
0.15943769 0.11095506 0.20396796 -0.07926428 -0.19424462 0.052648246 0.13357419 -0.13139391
00000000: 1c91 4c3e ac9b 06be a8ae f83d c812 b6bd
00000010: 1c16 873d 008a 453a 8c95 bd3d 626e 6cbe
00000020: e0a9 8fbd a6e5 333e acc6 553e 8e7d 15be
00000030: d0ea 07be 6876 023e a60c 173e 1808 b23d
00000040: a42a 183e 8e19 2b3e 9696 52be b42a 9f3d
00000050: b8cc 57be dc65 82bd b8ab 663e 48e9 4e3e
00000060: c233 7f3e 9c67 f7bd 18c5 d6bd d4f0 5cbe
00000070: fe6c 6bbe 200e 6ebe 10e1 66be 646a 483e
00000080: e098 39be 205f c5bd 0cca db3d e0f2 383e
00000090: 88e3 103d e06e 0b3c 444c 293e 2443 42be
000000a0: 36f0 3e3e 1c13 7c3e ec9e 7ebe c20f 663e
000000b0: e86d a43d 78a9 3a3d 3053 8a3c 5833 d43d
000000c0: e4aa 243e e0e3 46bd 8045 fc3d 2024 4b3c
000000d0: 100a 4cbe 8035 a93c e428 4fbe 00a3 bbba
000000e0: 2081 3abe 303d 8ebd cc86 083e 80dc 3a3c
000000f0: 5052 1c3e 76ad 2f3e e27e 433e a2b3 7cbe
00000100: 400e 66be 2033 723e fa40 2ebe 0874 4c3e
00000110: da85 70be 40a6 8fbc a8c8 6d3d 20b2 ecbd
00000120: 60d4 223d 1c55 77be 8803 753d 9804 013e
00000130: e07f de3d c04b 6d3c 1866 0e3e 208c 873c
00000140: e23e 04be 4619 41be 2a5b 32be a69a 66be
00000150: ac9b 933d de47 6b3e e082 4abe f864 4f3e
00000160: 6a87 53be f8ca fd3d fc7e 44be c8fd 63be
00000170: a88c d63d d66d 71be 6c4e d2bd dc78 0bbe
00000180: 04c8 21be 00fb c33d 689c e33d 5462 43be
00000190: 5049 523e d413 253e e001 543d 686f cf3d
000001a0: 9046 5e3e 1030 31bd d2a0 473e a0de dd3c
000001b0: b6da 0abe 8223 66be 88b4 e6bd 402b c63b
000001c0: 000b 43bd 44c7 453e fe1a 063e f8de 573d
000001d0: 0ac3 363e 2865 933d f244 1bbe fc9b c7bd
000001e0: a243 233e 683c e33d fadc 503e 5055 a2bd
000001f0: 10e8 46be b0a5 573d acc7 083e 208c 06be

weight f4 [16, 128]
0.07873329 -0.08547342 0.13215579 0.03429558 0.13496262 -0.1540464 0.05861401 0.043436117
-0.05606464 -0.08219337 0.1338889 -0.15732975 0.15741687 0.08851752 0.08715771 0.09819682
0.09455359 0.13776235 0.12840301 -0.033718802 -0.09723891 -0.010055696 -0.051829565 -0.016409658
-0.15623863 -0.019803986 0.010815266 0.026795777 -0.045508966 0.055573348 0.01053414 -0.16305518
0.072431274 0.16005519 -0.19130181 0.05938234 0.01961141 0.11277818 -0.06714806 0.027469475
0.110199735 -0.12917311 0.03225989 -0.048429277 -0.1753073 -0.08923492 -0.2033221 -0.1510109
0.023842275 -0.19025742 -0.12205691 0.1801391 -0.115315706 -0.099361956 -0.01735657 -0.13154072
-0.17803633 0.04169347 -0.057869554 -0.11925021 0.18003161 -0.0751339 0.0412918 0.1392823
0.08944514 0.14744957 0.044307817 -0.027110677 -0.16483155 0.052612644 0.17070149 -0.15451163
-0.1861377 -0.14041016 -0.11913799 0.14688511 -0.11234743 -0.061984565 0.047431797 0.0034315826
-0.14723505 0.0364524 -0.18541291 0.114839375 0.05895709 -0.044743627 -0.07915433 0.20273006
0.054809958 0.0014806446 0.0910361 -0.07570664 0.022969505 -0.091167584 -0.059018727 -0.0065944013
0.18022387 -0.0666655 0.18234372 0.19759879 0.19065471 0.16654287 -0.06495948 0.079285294
0.09351014 0.03493032 -0.03752539 0.2010822 -0.061255656 0.14024815 0.009006216 -0.108947486
-0.053354304 -0.104741536 -0.09558484 0.14773507 0.18630962 0.06265556 0.08130461 0.11853766
0.15070887 0.10686322 0.07428067 -0.14803454 0.053356834 0.007425439 0.07590138 -0.030550169
0.004611051 -0.2006019 0.20394598 -0.15982695 -0.047894254 -0.10725385 -0.13309257 0.19364841
-0.0050245263 0.0106847165 0.016233508 0.090959094 0.19645506 0.00359031 -0.14584735 0.14248444
-0.12977788 -0.14879599 -0.16675773 0.021345196 0.08215124 0.08907047 0.15300788 -0.115833715
0.15781568 0.13237205 -0.047612913 0.16785479 0.07454556 0.060401842 0.10545521 0.16886143
-0.15889451 -0.124132894 0.18160114 0.012621954 -0.0670217 0.0035386498 0.15319571 -0.12245985
0.021094974 -0.033789806 0.060103465 -0.013941049 -0.19414766 0.17921045 -0.1121981 -0.06009933
-0.09555355 0.18588768 -0.08827898 0.045741253 0.07017746 -0.12029173 -0.0510033 -0.09926633
-0.0650783 0.107557915 -0.08460973 0.037826076 -0.08031737 -0.10214415 0.08961306 0.056101434
-0.19134079 0.10835116 -0.13729751 0.030255489 -0.124231815 -0.07783156 -0.051216558 0.1412576
0.014297705 -0.19246306 -0.11713605 0.18727085 0.056311406 -0.10206534 -0.1605043 0.033397015
-0.16668361 -0.08880825 -0.010356652 -0.055975314 0.1043146 0.15343067 0.18286565 0.16644885
0.19274138 -0.14327827 -0.103190325 -0.058646377 -0.18694207 0.06555748 -0.14134188 -0.18543844
-0.08968058 0.16538496 0.15876669 -0.047457736 0.1846862 -0.012862685 -0.20394821 -0.060130525
0.19463733 -0.11526767 -0.04481069 0.10239749 0.08826148 0.02430629 -0.09989316 0.14021015
0.18314819 0.18320158 -0.14013346 0.13712187 0.072021574 -0.023696056 0.12441302 -0.18767162
0.17058147 -0.18578507 -0.122406706 -0.017631102 -0.102484144 -0.119177744 -0.03288711 -0.018521976
00000000: eb3e a13d b00c afbd d953 073e 8679 0c3d
00000010: a433 0a3e 57be 1dbe 3f15 703d 12ea 313d
00000020: 09a4 65bd ff54 a8bd 2c1a 093e 0d1b 21be
00000030: e331 213e ac48 b53d be7f b23d 6a1b c93d
00000040: 50a5 c13d 9311 0d3e 147c 033e ba1c 0abd
00000050: 3225 c7bd a5c0 24bc 3d4b 54bd 8c6d 86bc
00000060: 05fd 1fbe f83b a2bc 8332 313c d182 db3c
00000070: 9c67 3abd e1a0 633d 6397 2c3c f0f7 26be
00000080: d956 943d 82e5 233e 9fe4 43be e63a 733d
00000090: 1ca8 a03c 3ff8 e63d ec84 89bd aa07 e13c
000000a0: 66b0 e13d f545 04be f222 043d c75d 46bd
000000b0: c283 33be ccc0 b6bd ab33 50be 9aa2 1abe
000000c0: e050 c33c d7d2 42be f9f8 f9bd 6276 383e
000000d0: a42a ecbd 487e cbbd 5e2f 8ebc 9cb2 06be
000000e0: 284f 36be c6c6 2a3d a008 6dbd 7439 f4bd
000000f0: 355a 383e cddf 99bd 9721 293d 05a0 0e3e
00000100: 032f b73d 05fd 163e 1d7c 353d 3617 debc
00000110: 9ac9 28be 5b80 573d 5fcc 2e3e 4c38 1ebe
00000120: e29a 3ebe aec7 0fbe 9efe f3bd 0d69 163e
00000130: 6916 e6bd 87e3 7dbd d847 423d 67e4 603b
00000140: c9c4 16be 1d4f 153d e2dc 3dbe e830 eb3d
00000150: fd7c 713d 1845 37bd aa1b a2bd 7898 4f3e
00000160: 6880 603d 3012 c23a 2371 ba3d 150c 9bbd
00000170: 8b2a bc3c 12b6 babd 9fbd 71bd d915 d8bb
00000180: 9b8c 383e ec87 88bd 50b8 3a3e 5657 4a3e
00000190: fd3a 433e 378a 2a3e 7a09 85bd 5460 a23d
000001a0: 3f82 bf3d 1813 0f3d 39b4 19bd 7ee8 4d3e
000001b0: 36e7 7abd 369d 0f3e cf8e 133c dc1f dfbd
000001c0: 0b8a 5abd bb82 d6bd fcc1 c3bd dd47 173e
000001d0: f3c7 3e3e 8f51 803d 0883 a63d dfc3 f23d
000001e0: 6d53 1a3e 1bdb da3d 7720 983d 5e96 17be
000001f0: b28c 5a3d 1951 f33b 2f72 9b3d 5944 fabc
00000200: 4d18 973b 966a 4dbe 37d7 503e ada9 23be
00000210: c42c 44bd e8a7 dbbd 6b49 08be c54b 463e
00000220: c8a4 a4bb f30e 2f3c 22fc 843c c348 ba3d
00000230: 842b 493e 684b 6b3b 0259 15be 71e7 113e
00000240: 7ee4 04be fa5d 18be 8ac2 2abe 1fdc ae3c
00000250: e93e a83d 946a b63d 19ae 1c3e 3a3a edbd
00000260: 6f9a 213e 8a8c 073e c205 43bd 20e2 2b3e
00000270: 58ab 983d ec67 773d e7f8 d73d 03ea 2c3e
00000280: 3eb5 22be 6339 febd a6f5 393e 50cc 4e3c
00000290: ac42 89bd b1e8 673b 56df 1c3e 3bcc fabd
000002a0: 5ecf ac3c 2e67 0abd 0d2f 763d ff68 64bc
000002b0: a5ce 46be f282 373e 1ec8 e5bd b72a 76bd
000002c0: 94b1 c3bd 5759 3e3e 9ccb b4bd 2e5b 3b3d
000002d0: 33b9 8f3d 835b f6bd d6e8 50bd 254c cbbd
000002e0: c647 85bd 5347 dc3d de47 adbd 84ef 1a3d
000002f0: 6f7d a4bd f430 d1bd 0d87 b73d 9eca 653d
00000300: d7ee 43be 37e7 dd3d b897 0cbe 5cda f73c
00000310: 406d febd 2766 9fbd 74c8 51bd d5a5 103e
00000320: ec40 6a3c 0915 45be 06e5 efbd eec3 3f3e
00000330: caa6 663d a207 d1bd 3d5b 24be 4fcb 083d
00000340: 1caf 2abe 1ae1 b5bd f2ae 29bc 5f46 65bd
00000350: e5a2 d53d ee1c 1d3e 2241 3b3e 9171 2a3e
00000360: ff5d 453e 8ab7 12be 7355 d3bd 2f37 70bd
00000370: be6d 3fbe 0043 863d edbb 10be 93e3 3dbe
00000380: 74aa b7bd ad5a 293e bc93 223e 0b63 42bd
00000390: 611e 3d3e 03be 52bc cdd7 50be 6d4b 76bd
000003a0: 024f 473e 7511 ecbd 6a8b 37bd c6b5 d13d
000003b0: 6fc2 b43d fc1d c73c c994 ccbd 4093 0f3e
000003c0: 338b 3b3e 3299 3b3e 257f 0fbe ad69 0c3e
000003d0: 0c80 933d 3b1e c2bc 41cc fe3d fd2c 40be
000003e0: e9ac 2e3e 713e 3ebe 5eb0 fabd 1a6f 90bc
000003f0: 35e3 d1bd 7613 f4bd a2b4 06bd 66bb 97bc

bias f4 [16]
-0.00020859529 0.04467767 -0.024938133 -0.081524216 -0.0345694 -0.029322015 -0.00058537757 -0.054802958
-0.032569766 0.040313143 0.08143478 0.021731947 -0.0160511 -0.046405006 0.08280578 -0.037977155
00000000: 5fba 5ab9 efff 363d 0e4b ccbc 2bf6 a6bd
00000010: a598 0dbd b934 f0bc 0674 19ba 1179 60bd
00000020: e067 05bd 651f 253d 47c7 a63d 3207 b23c
00000030: 997d 83bc 2d13 3ebd 1496 a93d ef8d 1bbd

weight f4 [16]
1.0 1.0 1.0 1.0 1.0 1.0 1.0 1.0
1.0 1.0 1.0 1.0 1.0 1.0 1.0 1.0
00000000: 0000 803f 0000 803f 0000 803f 0000 803f
00000010: 0000 803f 0000 803f 0000 803f 0000 803f
00000020: 0000 803f 0000 803f 0000 803f 0000 803f
00000030: 0000 803f 0000 803f 0000 803f 0000 803f

bias f4 [16]
0.0 0.0 0.0 0.0 0.0 0.0 0.0 0.0
0.0 0.0 0.0 0.0 0.0 0.0 0.0 0.0
00000000: 0000 0000 0000 0000 0000 0000 0000 0000
00000010: 0000 0000 0000 0000 0000 0000 0000 0000
00000020: 0000 0000 0000 0000 0000 0000 0000 0000
00000030: 0000 0000 0000 0000 0000 0000 0000 0000

weight f4 [16]
1.0 1.0 1.0 1.0 1.0 1.0 1.0 1.0
1.0 1.0 1.0 1.0 1.0 1.0 1.0 1.0
00000000: 0000 803f 0000 803f 0000 803f 0000 803f
00000010: 0000 803f 0000 803f 0000 803f 0000 803f
00000020: 0000 803f 0000 803f 0000 803f 0000 803f
00000030: 0000 803f 0000 803f 0000 803f 0000 803f

bias f4 [16]
0.0 0.0 0.0 0.0 0.0 0.0 0.0 0.0
0.0 0.0 0.0 0.0 0.0 0.0 0.0 0.0
00000000: 0000 0000 0000 0000 0000 0000 0000 0000
00000010: 0000 0000 0000 0000 0000 0000 0000 0000
00000020: 0000 0000 0000 0000 0000 0000 0000 0000
00000030: 0000 0000 0000 0000 0000 0000 0000 0000

in_proj_weight f4 [48, 16]
-0.2923754 0.1322555 0.2968318 0.28817618 -0.07182693 0.24763532 0.26688048 0.011167505
0.13597973 -0.028569397 -0.15670373 0.19574806 -0.09748416 -0.27897093 0.10331682 0.0594359
-0.21419065 -0.12149102 0.026651237 -0.07636526 -0.09228966 -0.046862587 0.17782645 0.07091939
0.008774731 -0.22644985 -0.048824914 -0.24378468 0.09529801 0.16363738 -0.08336904 -0.15375125
0.07877606 0.21294786 -0.2751585 0.21098086 0.22935987 0.15950952 -0.2919275 0.28824952
-0.18841583 -0.06944102 -0.11203947 0.2203297 -0.059101082 -0.14442335 -0.046258107 -0.11416108
0.2815251 -0.1287123 0.2912354 -0.16125369 0.27852723 -0.18836173 0.015154171 0.025982551
-0.0129129095 -0.2647699 0.12443783 -0.09169438 0.17071849 0.08403984 -0.04424917 -0.19754392
0.18135533 -0.21245192 -0.21939635 0.033996835 -0.10694301 -0.18060353 -0.1766287 -0.03237327
-0.053145703 0.27347934 0.25946945 -0.026884181 -0.23253162 0.08242485 0.15341052 0.20701781
0.003615203 -0.12073404 0.010752205 0.29839882 0.23745535 0.2814274 -0.10462214 -0.23757987
0.18714708 0.14061551 0.18463717 0.095145404 0.28442883 -0.2984019 0.2938597 0.27947384
0.29863992 0.22167152 -0.077850565 -0.094593845 0.05898191 -0.08586525 0.16596924 -0.1453482
-0.051198088 0.0453302 0.25062275 0.28794664 -0.27452227 -0.13925138 -0.2426508 -0.27898943
0.30319598 -0.1639019 0.28191802 -0.06765072 0.034959897 -0.21447036 -0.13814864 0.20008345
-0.009077428 -0.1305667 0.017434414 -0.2121608 0.099983 -0.09146085 0.09637484 0.06951347
0.104788035 -0.13676225 0.20300081 0.0704462 -0.13231447 -0.22258593 -0.24510081 -0.29267338
0.21968926 0.30037946 -0.2956904 0.2929708 0.28495434 0.1088146 0.019309724 0.28213826
-0.28317672 -0.08690299 0.1704529 -0.123919934 -0.19905612 -0.062389936 -0.039569438 -0.16918476
0.18779725 -0.08844195 0.026485525 0.06572869 0.1852491 -0.16213295 -0.12052683 0.20780924
-0.08714721 0.08848728 -0.2584717 -0.29252368 -0.065892026 -0.21904346 0.15220915 -0.042231876
0.21330184 0.06453225 -0.08964554 -0.18450591 -0.28965726 -0.120430544 -0.19213077 0.30098355
0.1388613 -0.26281214 -0.22088377 0.19949606 -0.19667174 0.24435529 -0.067059666 -0.07006886
0.004893989 0.095455214 0.18364392 0.011479108 -0.13029097 0.036775745 0.08240353 -0.2497443
-0.2858402 0.18217617 0.23311943 0.13881768 -0.081621006 0.049620256 0.09248165 0.2931786
0.15048988 -0.1628508 -0.24555229 0.08755602 0.23585238 0.021772759 0.16585852 0.029476829
0.117652 0.1275336 0.043954577 -0.09015209 0.12635677 0.13944855 0.1669977 -0.019506533
-0.29626945 -0.030442845 0.07402994 0.100476116 -0.2944505 0.039032083 -0.15708062 0.2567369
-0.07569055 0.30417174 0.045405827 -0.14074388 -0.004175518 0.2517188 0.069265015 -0.06282436
0.09761457 -0.25114 0.12832609 0.18938658 0.076995656 -0.2151314 0.2680104 0.275838
-0.20708905 -0.015926953 0.27415824 0.1705495 -0.01945193 -0.050048586 0.10530181 -0.10653414
-0.26815647 -0.122812584 -0.09690734 0.1474474 -0.11757842 -0.059224237 0.111894235 -0.22546737
00000000: 3ab2 95be fc6d 073e 56fa 973e d48b 933e
00000010: ff19 93bd 1d94 7d3e 8fa4 883e e9f7 363c
00000020: 453e 0b3e 5e0a eabc f176 20be 2e72 483e
00000030: c6a5 c7bd 47d5 8ebe c597 d33d 0f73 733d
00000040: cb54 5bbe 49d0 f8bd b253 da3c 6465 9cbd
00000050: 5c02 bdbd fcf2 3fbd 2318 363e 2f3e 913d
00000060: e4c3 0f3c 78e2 67be a2fc 47bd b1a2 79be
00000070: 9a2b c33d 8f90 273e 63bd aabd f870 1dbe
00000080: 5855 a13d 010f 5a3e 93e1 8cbe 5e0b 583e
00000090: 50dd 6a3e 7756 233e 8577 95be 7195 933e
000000a0: 14f0 40be 1837 8ebd f374 e5bd 1c9e 613e
000000b0: fa13 72bd b7e3 13be 2479 3dbd 49cd e9bd
000000c0: 0f24 903e 28cd 03be ce1c 953e b01f 25be
000000d0: 1f9b 8e3e e6e1 40be 3349 783c 5cd9 d43c
000000e0: ab90 53bc ec8f 87be 43d9 fe3d 43ca bbbd
000000f0: d4d0 2e3e 141d ac3d 9e3e 35bd f448 4abe
00000100: 36b5 393e ff8c 59be 70a9 60be 4440 0b3d
00000110: f004 dbbd 22f0 38be 27de 34be d599 04bd
00000120: 4faf 59bd 7c05 8c3e 2ed9 843e 373c dcbc
00000130: c51c 6ebe 5cce a83d a617 1d3e 7afc 533e
00000140: 0bed 6c3b 6943 f7bd 042a 303c bbc7 983e
00000150: 7f27 733e 4117 903e 2244 d6bd 2348 73be
00000160: 7ca3 3f3e 83fd 0f3e 8711 3d3e 98db c23d
00000170: a8a0 913e 22c8 98be c774 963e 3217 8f3e
00000180: 55e7 983e dcfd 623e 1e70 9fbd 6bba c1bd
00000190: 0497 713d 1fda afbd d7f3 293e 29d6 14be
000001a0: 16b5 51bd 29ac 393d a051 803e be6d 933e
000001b0: 2f8e 8cbe ea97 0ebe 7479 78be b4d7 8ebe
000001c0: 813c 9b3e e6d5 27be 8f57 903e 768c 8abd
000001d0: 1c32 0f3d 1e9e 5bbe d676 0dbe ade2 4c3e
000001e0: 7eb9 14bc 47b3 05be 9ed2 8e3c ae40 59be
000001f0: e3c3 cc3d d34f bbbd 2c60 c53d 145d 8e3d
00000200: 1c9b d63d 670b 0cbe 72df 4f3e 1946 903d
00000210: 727d 07be 91ed 63be b5fb 7abe 49d9 95be
00000220: 39f6 603e 56cb 993e bb64 97be 4500 963e
00000230: 89e5 913e 30da de3d 6d2f 9e3c 6d74 903e
00000240: 8afc 90be 32fa b1bd 348b 2e3e bcc9 fdbd
00000250: 5ed5 4bbe 978c 7fbd 9013 22bd c53e 2dbe
00000260: ec4d 403e 0e21 b5bd 2cf8 d83c c39c 863d
00000270: f1b1 3d3e 2e06 26be c5d6 f6bd f2cb 543e
00000280: 3d7a b2bd d238 b53d 6756 84be aac5 95be
00000290: 66f2 86bd ee4c 60be b7dc 1b3e 55fb 2cbd
000002a0: cc6b 5a3e 7c29 843d 1598 b7bd 1eef 3cbe
000002b0: f54d 94be 4aa4 f6bd eebd 44be 841a 9a3e
000002c0: a831 0e3e 508f 86be 5b2f 62be b248 4c3e
000002d0: 5164 49be 4638 7a3e 9456 89bd 4380 8fbd
000002e0: c15d a03b 067e c33d 270d 3c3e de12 3c3c
000002f0: ff6a 05be 2aa2 163d 2fc3 a83d f8bc 7fbe
00000300: a659 92be 648c 3a3e dcb6 6e3e 3926 0e3e
00000310: ea28 a7bd 9c3e 4b3d 0567 bd3d 811b 963e
00000320: 051a 1a3e 5cc2 26be 0f72 7bbe 9250 b33d
00000330: 4983 713e c95c b23c d1d6 293e 6479 f13c
00000340: 88f3 f03d 2b98 023e b709 343d a9a1 b8bd
00000350: ab63 013e 9acb 0e3e 7201 2b3e 2acc 9fbc
00000360: a1b0 97be 4663 f9bc 029d 973d 6cc6 cd3d
00000370: 37c2 96be 1be0 1f3d bed9 20be 0573 833e
00000380: a603 9bbd 66bc 9b3e 76fb 393d 2a1f 10be
00000390: c9d2 88bb 49e1 803e d1da 8d3d 0faa 80bd
000003a0: 26ea c73d 6c95 80be ea67 033e 8eee 413e
000003b0: e6af 9d3d 684b 5cbe a938 893e a33a 8d3e
000003c0: 270f 54be 3e79 82bc 785e 8c3e 87a4 2e3e
000003d0: a759 9fbc bfff 4cbd 7aa8 d73d 922e dabd
000003e0: ce4b 89be 2a85 fbbd 5b77 c6bd 74fc 163e
000003f0: f4cc f0bd 1d95 72bd ce28 e53d ebe0 66be

in_proj_bias f4 [48]
0.0 0.0 0.0 0.0 0.0 0.0 0.0 0.0
0.0 0.0 0.0 0.0 0.0 0.0 0.0 0.0
0.0 0.0 0.0 0.0 0.0 0.0 0.0 0.0
0.0 0.0 0.0 0.0 0.0 0.0 0.0 0.0
0.0 0.0 0.0 0.0 0.0 0.0 0.0 0.0
0.0 0.0 0.0 0.0 0.0 0.0 0.0 0.0
00000000: 0000 0000 0000 0000 0000 0000 0000 0000
00000010: 0000 0000 0000 0000 0000 0000 0000 0000
00000020: 0000 0000 0000 0000 0000 0000 0000 0000
00000030: 0000 0000 0000 0000 0000 0000 0000 0000
00000040: 0000 0000 0000 0000 0000 0000 0000 0000
00000050: 0000 0000 0000 0000 0000 0000 0000 0000
00000060: 0000 0000 0000 0000 0000 0000 0000 0000
00000070: 0000 0000 0000 0000 0000 0000 0000 0000
00000080: 0000 0000 0000 0000 0000 0000 0000 0000
00000090: 0000 0000 0000 0000 0000 0000 0000 0000
000000a0: 0000 0000 0000 0000 0000 0000 0000 0000
000000b0: 0000 0000 0000 0000 0000 0000 0000 0000

weight f4 [16, 16]
0.2194796 -0.23428914 -0.09888492 -0.10636639 0.31510845 0.17704688 -0.20091686 -0.37298056
0.10980552 0.030335637 0.27717784 0.4053119 0.18342988 -0.26702103 -0.20948997 -0.33127704
0.35750747 -0.2572691 0.21466117 0.27197364 0.17841668 -0.12186891 0.14058627 0.36722818
0.3914436 0.2881376 0.24113719 0.28698856 -0.028874403 -0.14480169 -0.42863023 -0.27702415
-0.36128414 0.27908003 0.18913613 0.2956723 0.24611597 0.001034241 -0.06825727 -0.17661063
0.18855515 -0.020903325 -0.27200043 0.23362738 0.4110713 -0.07559731 -0.007056542 -0.35816666
0.07252685 -0.21990944 -0.059656546 0.2450331 0.2394684 0.13749108 -0.28184828 0.20417108
0.24785186 0.33806503 0.2567914 0.38685817 -0.30552733 -0.3429886 -0.055113856 0.39229563
-0.05291297 0.4266972 0.41223377 -0.19540125 0.3661915 -0.22466749 0.1339626 -0.19293024
-0.34897503 0.12014044 0.37279397 0.3201399 -0.38164392 0.27727255 0.19672754 -0.06035867
-0.40583006 -0.23016833 -0.09629968 0.10029484 0.3551273 -0.36884227 -0.23573603 -0.1968141
0.41664076 -0.21341452 -0.026025543 0.1945824 -0.2801273 0.1548557 -0.21880572 -0.10969779
-0.15765387 -0.02653998 -0.28777736 -0.21930678 0.3614586 -0.2881688 -0.17397533 0.29071638
0.43220574 -0.28271636 -0.13542631 0.15690555 0.24045081 0.08487848 -0.24254262 -0.07719652
-0.19604138 -0.32166722 0.36007708 -0.1868446 0.37827107 0.050897554 0.02313647 0.02753499
0.0073697674 -0.3048126 0.061281413 -0.21486573 -0.35587853 0.3714131 -0.14512838 -0.29469055
0.36882636 -0.0146516785 -0.05347278 -0.41627938 0.3678142 -0.3891074 -0.4184325 -0.010914143
0.024295682 0.058861505 -0.2710335 -0.39538074 -0.07055928 -0.12546025 -0.41125828 -0.29582602
-0.15675859 0.04165726 0.14811626 0.39513123 0.32876945 -0.017682754 -0.32607737 -0.38710997
0.15476836 -0.11989334 -0.13738912 -0.3858937 -0.36679253 -0.27061152 -0.052727245 0.3369422
-0.22353749 -0.003222531 -0.36874712 -0.26334327 -0.4151165 0.4089794 -0.112335265 -0.14608948
-0.0154972 0.13571812 0.19854929 -0.29668966 0.03590818 -0.037543114 0.21663839 0.10406196
-0.3042019 0.27712223 0.35818458 0.094321996 0.27040762 -0.14038293 -0.16594923 -0.33902675
0.07586552 0.34798458 0.36920097 0.36142522 0.0077226358 -0.06800119 -0.15589897 0.2435633
0.36592156 0.084072344 0.22193317 -0.03267507 -0.22646384 0.2087448 0.13872637 0.053144842
-0.097654834 0.14899379 -0.37155274 0.218775 0.38990638 0.37372568 0.18956059 -0.005035705
-0.10574035 0.28215328 0.21899377 -0.1654641 0.27030715 -0.25698096 0.1668843 0.19081932
0.24741831 -0.10470126 0.23889914 0.23692517 -0.21231167 -0.22233234 -0.09650032 0.06866697
-0.20171076 -0.33347175 -0.3217189 0.10878423 0.17877766 -0.07976034 -0.013950536 -0.24987833
0.16417255 -0.24885358 0.26299077 0.35078904 -0.110292025 -0.40229762 0.123201974 -0.19179554
0.2406228 -0.095168136 -0.17635988 0.1138873 0.33172104 -0.3669686 0.011456505 0.090517715
-0.1855533 -0.14935564 0.32196343 -0.03578357 0.18115255 -0.1844679 0.19394012 0.25656486
00000000: 43bf 603e 7ee9 6fbe 2d84 cabd 9fd6 d9bd
00000010: e555 a13e c74b 353e 26bd 4dbe 4ff7 bebe
00000020: b7e1 e03d 7182 f83c 41ea 8d3e 0b85 cf3e
00000030: 0bd5 3b3e fbb6 88be 8a84 56be 259d a9be
00000040: 380b b73e c7b8 83be 23d0 5b3e 2140 8b3e
00000050: ddb2 363e 6896 f9bd d9f5 0f3e 5505 bc3e
00000060: 4c6b c83e c686 933e abec 763e 2af0 923e
00000070: 038a ecbc e546 14be 6c75 dbbe 1cd6 8dbe
00000080: 3cfa b8be 94e3 8e3e e7ac 413e 5c62 973e
00000090: d305 7c3e 5f8f 873a 78ca 8bbd 6bd9 34be
000000a0: 9a14 413e 733d abbc a443 8bbe 043c 6f3e
000000b0: f077 d23e c3d2 9abd 913a e7bb 9f61 b7be
000000c0: f588 943d f12f 61be 6c5a 74bd f5e9 7a3e
000000d0: 3437 753e 76ca 0c3e 6b4e 90be 3912 513e
000000e0: e1cc 7d3e dc16 ad3e 2a7a 833e 4612 c63e
000000f0: 146e 9cbe 349c afbe 11bf 61bd f9da c83e
00000100: 45bb 58bd 0e78 da3e 4e10 d33e 4417 48be
00000110: 747d bb3e 3c0f 66be 7e2d 093e 818f 45be
00000120: dbac b2be 310c f63d dade be3e 61e9 a33e
00000130: d566 c3be abf6 8d3e f272 493e a73a 77bd
00000140: f5c8 cfbe 3fb1 6bbe c438 c5bd 6267 cd3d
00000150: 3fd3 b53e e5d8 bcbe c964 71be a389 49be
00000160: f051 d53e 5689 5abe 8533 d5bc 9c40 473e
00000170: d86c 8fbe 7e92 1e3e 9b0e 60be 3ca9 e0bd
00000180: 0470 21be 5f6a d9bc 8e57 93be f591 60be
00000190: 1a11 b93e dc8a 93be 9726 32be c7d8 943e
000001a0: 124a dd3e 33c0 90be 32ad 0abe d9ab 203e
000001b0: bd38 763e c5d4 ad3d 185d 78be 3619 9ebd
000001c0: 12bf 48be 91b1 a4be 065c b83e 3154 3fbe
000001d0: bfac c13e f479 503d b288 bd3c 0f91 e13c
000001e0: 177e f13b 6610 9cbe 3802 7b3d c305 5cbe
000001f0: b635 b6be dc29 be3e 899c 14be aee1 96be
00000200: cfd6 bc3e 980d 70bc 4606 5bbd 9222 d5be
00000210: 2552 bc3e 1639 c7be c93c d6be 3cd1 32bc
00000220: bd07 c73c c318 713d e7c4 8abe 586f cabe
00000230: 6281 90bd a778 00be 7290 d2be 8276 97be
00000240: 5385 20be cea0 2a3d caab 173e a44e ca3e
00000250: 7854 a83e 6cdb 90bc 9df3 a6be 4733 c6be
00000260: 997b 1e3e a48a f5bd bcaf 0cbe dc93 c5be
00000270: 3bcc bbbe 988d 8abe 86f8 57bd b083 ac3e
00000280: 03e7 64be 1931 53bb 6ccc bcbe eed4 86be
00000290: 268a d4be bf65 d13e 0810 e6bd 7b98 15be
000002a0: f8e7 7dbc b1f9 0a3e 8150 4b3e b5e7 97be
000002b0: 7514 133d cfc6 19bd 74d6 5d3e 701e d53d
000002c0: 5ac0 9bbe f7e2 8d3e f863 b73e e42b c13d
000002d0: de72 8a3e 8bc0 0fbe 98ee 29be ea94 adbe
000002e0: 625f 9b3d 092b b23e e907 bd3e ba0c b93e
000002f0: 2a0e fd3b 3544 8bbd fba3 1fbe a868 793e
00000300: 125a bb3e 1f2e ac3d 7342 633e 4bd6 05bd
00000310: 23e6 67be 32c1 553e 490e 0e3e 68ae 593d
00000320: 42ff c7bd d491 183e 293c bebe 8e06 603e
00000330: cfa1 c73e f958 bf3e 2c1c 423e 8e02 a5bb
00000340: 668e d8bd 6576 903e e73f 603e 6c6f 29be
00000350: b365 8a3e 0293 83be b8e3 2a3e 2466 433e
00000360: 3a5b 7d3e 9d6d d6bd faa1 743e 839c 723e
00000370: 3b68 59be 17ab 63be f6a1 c5bd 45a1 8c3d
00000380: 448d 4ebe cfbc aabe 57b8 a4be 44ca de3d
00000390: 7e11 373e 6459 a3bd ca90 64bc 1be0 7fbe
000003a0: d91c 283e 79d3 7ebe baa6 863e 9f9a b33e
000003b0: c9e0 e1bd f4f9 cdbe 5151 fc3d 0d66 44be
000003c0: d365 763e 83e7 c2bd af97 34be bf3d e93d
000003d0: 57d7 a93e 4fe3 bbbe 11b4 3b3c 5a61 b93d
000003e0: af01 3ebe aff0 18be 64d8 a43e cb91 12bd
000003f0: 0e80 393e 27e5 3cbe 3d98 463e 785c 833e

bias f4 [16]
0.0 0.0 0.0 0.0 0.0 0.0 0.0 0.0
0.0 0.0 0.0 0.0 0.0 0.0 0.0 0.0
00000000: 0000 0000 0000 0000 0000 0000 0000 0000
00000010: 0000 0000 0000 0000 0000 0000 0000 0000
00000020: 0000 0000 0000 0000 0000 0000 0000 0000
00000030: 0000 0000 0000 0000 0000 0000 0000 0000
