Code/900-100/darts_logs/D-dep_06_transformer/checkpoints/last-epoch=199.ckpt (torch, 653413 bytes, 205 tensors)

encoder.weight f8 [16, 1]
000000 ce ea a2 05 20 db d4 bf 92 18 c8 fd d5 ec e3 bf
       -0.32587433386258347 -0.6226606327698099
000010 ba a2 c6 e6 aa 50 e2 bf 18 be 25 78 74 94 e5 bf
       -0.5723471171705434 -0.6743719431523827
000020 61 09 c7 2a 52 ab e1 3f 1d 2b 77 d6 79 38 ea 3f
       0.552163203763751 0.8193940342692688
000030 ea 9e fe 82 dc ab a0 3f 60 a5 10 28 ce 70 ef 3f
       0.032561198225548996 0.9825201780815114
000040 57 00 78 12 42 4f e3 bf f2 ad 7b 05 0c 2f ea 3f
       -0.6034250603406787 0.8182430369465108
000050 d1 30 29 21 65 c4 ef 3f 60 30 d1 ca 91 42 e1 bf
       0.9927240035699701 -0.5393761597893096
000060 01 99 e4 c0 4d 76 d4 bf 1d 65 c6 6e a7 58 e1 bf
       -0.31972068631365863 -0.5420720256398998
000070 22 c8 e3 de c9 17 bc 3f ef 1a d5 87 c1 15 da 3f
       0.10973798457760656 0.4075778795708364

encoder.bias f8 [16]
000000 53 76 2a e7 b6 6c de 3f f0 7b dd 81 71 3d 92 3f
       0.4753854043463878 0.01781251292356595
000010 db fd 2c 27 f9 0c e3 bf 01 08 8e d9 52 76 c2 3f
       -0.5953336491729105 0.14423595068734588
000020 ae f1 79 06 69 ac df bf 15 fa 9e c6 19 ed ee bf
       -0.494898086857371 -0.9664429549519037
000030 4c 67 84 e6 59 d8 ec bf 34 dc f7 86 37 1a d0 bf
       -0.9014100553788267 -0.2516001527832856
000040 9e ae f2 09 7a 52 d3 bf da ca 4a 3d 26 9f ef bf
       -0.3019089791439259 -0.9881774136650521
000050 52 5f b5 c9 8a 0d c8 bf fc 22 25 d0 34 2a de bf
       -0.18791327332541613 -0.4713260681788112
000060 d7 a5 52 fe b9 98 b6 3f d9 f6 f9 27 66 06 cf bf
       0.08826792201093468 -0.2423827834317567
000070 8d ba 06 9e 33 de e7 bf 66 63 a8 43 22 7f c1 3f
       -0.7458742224169598 0.13669231704332246

transformer.encoder.layers.0.self_attn.in_proj_weight f8 [48, 16]
000000 10 4b a7 7e ba 08 c9 3f 89 ea 1d f3 8b bc cf 3f
       0.19557887253048323 0.24794148798885754
000010 4d 8b 56 47 e3 35 ca bf 4c 05 4b fa 24 fd ca 3f
       -0.2047695253687273 0.2108503553518325
000020 56 ce d7 7b fb b7 d8 3f 23 62 29 c9 82 2f d2 3f
       0.3862293919948788 0.28414983410542244
000030 25 d3 02 60 25 c4 d2 3f ee 56 6b ea 10 2e bc 3f
       0.2932218015296704 0.11007791255118679
000040 20 ef 9e 83 24 d2 d5 3f 41 ac b5 70 4d 22 c9 bf
       0.34095108846280375 -0.1963593292560706
000050 f3 48 e4 62 2a 1b d5 bf b8 a9 e1 9e 39 68 d9 bf
       -0.3297830548991804 -0.39698639407893266
000060 63 51 f9 ab d2 6c b2 bf 7c 64 6a 67 3d 37 cf bf
       -0.07197300623494622 -0.24387328672017705
000070 56 99 15 bd 40 cf bd bf 7c c1 4d 8c e2 3e d1 bf
       -0.11644367805783892 -0.26946319295441135
000080 76 78 d3 6a 95 63 b0 bf 2f 6f b3 d1 b7 b3 96 3f
       -0.0640195260816386 0.02216994492924512
000090 73 83 db 32 ff 21 d3 bf e1 be 89 b2 f5 93 aa bf
       -0.298950004258635 -0.05191009334964548
0000a0 cb f5 2f 3c 63 d2 cf bf 37 c5 fd 77 2b 36 b9 3f
       -0.24860802115283173 0.09848281554674974
0000b0 ec 7e 7e 3f 90 df 71 3f c6 d0 14 cb 7e 99 d1 bf
       0.004363597363322685 -0.27499360878142587
0000c0 e6 8e b1 d6 18 d1 c7 3f 31 c1 ec 87 a3 02 cf 3f
       0.18606863482556618 0.24226802956537477
0000d0 45 ef dd 22 a6 80 c3 3f 88 f5 36 19 69 35 c9 bf
       0.15236355497824597 -0.19694246035753005
0000e0 e6 1f ff d3 b2 6a d4 3f 05 fe ad c7 a7 fd ba 3f
       0.3190123625067812 0.10543297410003312
0000f0 55 04 68 fc a1 fa c2 bf eb ff 6d a5 a5 a4 d0 3f
       -0.14827370476271776 0.2600492587589531
000100 71 06 b0 d5 ca 52 b6 bf 0d 46 80 ef 5e 66 c2 3f
       -0.08720081059439068 0.14374911016834382
000110 70 f4 6a 14 1e 8c d4 bf 5e a4 ad ce 27 59 9b bf
       -0.32105209344792396 -0.026707288732186966
000120 08 b0 76 25 b0 1f c0 3f 69 c9 6c d6 f6 93 d7 3f
       0.1259670432021951 0.3684060186380039
000130 de f9 4a 20 8f 9e cb bf 90 af a1 a2 56 11 d9 3f
       -0.21577633930969758 0.3916832531165193
000140 4a 3b b0 94 76 32 e0 bf 5d 60 aa d4 0a 3c bb 3f
       -0.5061600593634037 0.10638492290525066
000150 db a0 69 cb 00 60 b9 bf c4 d9 5e 0b 75 92 a9 bf
       -0.09912114111068908 -0.04994550479698348
000160 af 13 0d af 14 7f ee bf 94 53 26 ff 85 b5 b9 3f
       -0.9530127924887121 0.10042607764473949
000170 a9 4c 3a 2d d1 0a c3 3f 92 75 d7 13 ea 82 bf 3f
       0.14876761158357013 0.12309134468474373
000180 7c c5 bd 77 49 24 ce bf 6a 89 d9 d3 90 39 da 3f
       -0.2354823908495226 0.40976353348209804
000190 45 59 a4 16 a4 e1 d4 3f 53 24 09 46 70 e9 c4 3f
       0.3262720318902164 0.1633739797564738
0001a0 a5 d3 6e 52 a9 e3 d3 3f 6e 93 8c ba 2d 6b 7c bf
       0.3107703499802546 -0.006938151004565947
0001b0 c7 84 60 54 60 be aa bf f4 78 b4 90 54 e1 e2 bf
       -0.05223370580666536 -0.5900061441678006
0001c0 a1 8a 74 ac ba 88 d6 3f 5f 54 fe b8 b6 2c e0 bf
       0.3520952877171713 -0.5054582226899916
0001d0 c0 b2 6d 6a 55 cf ba 3f 1d 26 1a e6 39 ee bc 3f
       0.1047261605105616 0.1130100428364575
0001e0 50 2f 7a 8a 6b de ef 3f c0 13 b4 d5 b0 1d d3 bf
       0.9959008888849699 -0.2986871802279971
0001f0 08 92 48 48 14 ae ba 3f 3b 37 3c f7 31 ba b7 3f
       0.10421873821957928 0.09268486295715388
000200 07 10 0c 5e 8a 8a c4 bf ac 8b 3c c0 3f bb cc 3f
       -0.16047792045731077 0.22446438681171565
000210 e0 36 2b a1 bd 1a c7 3f 07 6a c1 9f 49 d8 6f bf
       0.1805035626370488 -0.003887313649142191
000220 8c eb 17 49 0b 5b ce bf d9 9b 2e 51 1d 59 b9 3f
       -0.23715344494834445 0.09901602966293356
000230 c4 5e cf 3f 9b 94 ae bf 81 d0 65 e4 49 b7 d1 bf
       -0.05972752717906141 -0.2768120508619703
000240 24 da 77 09 1a b2 df 3f a6 fd 28 e8 94 13 d2 bf
       0.49524546551347925 -0.28244517013441806
000250 41 70 1b db f1 ff ae bf ac a8 01 aa 14 c7 ce 3f
       -0.060546453472597246 0.24045046139810233
000260 fd 77 55 c5 da a4 df 3f 74 4a f5 38 61 57 ce bf
       0.4944369246567247 -0.23704161912117494
000270 8b f3 93 c1 01 ee bf 3f f9 f9 72 30 e0 aa d6 bf
       0.12472544647239496 -0.35417942744598424
000280 ab b6 1c 62 82 59 cc 3f f1 56 7b 57 fa 9a c4 3f
       0.2214816073478024 0.16097955009052314
000290 39 a2 4c 29 34 03 bd 3f ee 5c 63 06 8b 91 b7 bf
       0.11333013542447014 -0.09206456094704027
0002a0 e9 3f 58 41 bf 23 b5 3f e5 90 7a de 47 d0 b3 3f
       0.08257670731859403 0.07739686185465507
0002b0 91 43 7c a8 c3 0e cb 3f e8 25 60 c4 40 bf 52 bf
       0.21138807036234344 -0.0011442310801633663
0002c0 31 82 45 5d fa 19 bb 3f 1e 76 28 67 37 4c a9 3f
       0.10586514260422387 0.049409610121284184
0002d0 41 84 82 3f 00 e4 b3 3f 28 23 53 9e e0 fe ac bf
       0.07769776869328472 -0.05663206036257967
0002e0 83 2f c7 e4 9a ce a5 bf e6 b4 2b a8 03 0e a3 bf
       -0.0425918964643577 -0.037216295508054206
0002f0 ce 6d ad a1 87 56 c3 bf f8 ba 8e d3 56 3a cb 3f
       -0.151078180259772 0.21271787004430798
000300 c6 83 90 b9 4b f1 c5 bf b2 63 f5 4d bc e7 b6 3f
       -0.17142626343505024 0.08947350409779523
000310 4a 11 3a 44 91 de c1 3f 8f 46 6b 20 1c 3f d9 3f
       0.13960471946132663 0.39447692075655366
000320 81 e8 68 4a 04 c4 76 bf d6 2c 01 e5 1e 30 d8 3f
       -0.0055580298999818875 0.37793705333451777
000330 94 74 fa 30 df 89 c3 3f 1b 44 d1 26 af 74 cd bf
       0.1526450146820123 -0.230123418763953
000340 97 84 db 27 9a ef b4 3f 2e 23 fd 71 5e 4c d2 3f
       0.0817810389812784 0.28591118938179505
000350 72 60 c6 f2 54 1e c3 bf cc b7 36 0d 74 bd c7 3f
       -0.14936315397494898 0.185469156696341
000360 20 8c 6a f8 07 6f dd bf 74 a3 f3 4c 08 e5 c6 bf
       -0.45990180262941927 -0.17886451489837507
000370 c7 93 ac 9a 1a ce ce bf 3c 17 06 49 df 2f d2 bf
       -0.24066479256103276 -0.28417188769559565
000380 07 ad 58 1b d5 93 94 bf 42 ed 18 a8 78 a8 d6 bf
       -0.020095186037150572 -0.35403267303236785
000390 04 19 59 b3 d0 cc cf bf 8e 30 33 f6 84 91 cf 3f
       -0.2484379649851648 0.24662839910013584
0003a0 e9 9d 4e 63 26 e3 d6 bf 83 5b 34 9f 1a 54 a1 3f
       -0.35761413286169713 0.03384478753485267
0003b0 f7 f4 bf 3d 05 e8 b3 bf 42 fa bd fc 0e ff c2 bf
       -0.07775910146297692 -0.1484087690441403
0003c0 1b 15 42 4b 50 64 c2 3f f4 c5 93 bd 5c 6e d5 3f
       0.14368632960046387 0.3348609782543399
0003d0 b9 4c 9c b5 90 41 c4 bf 4c f6 3e 4c 82 23 cb 3f
       -0.1582508932848208 0.21202114794680182
0003e0 35 7d 3d 58 9c d8 e5 3f ef 6e ee 29 6a cd d2 3f
       0.6826917384568448 0.29378751845227574
0003f0 d6 87 6d dd a0 8c cc bf 3d a5 02 6c 0f ae c0 3f
       -0.22304163753420764 0.13031189702932436
000400 3f 77 f9 9c fe a6 bd 3f 55 e6 9f da 22 60 bb 3f
       0.11582938511261619 0.10693567121043064
000410 9a 34 fc 8e 77 36 bd bf cf 88 27 e6 14 3b c8 3f
       -0.11411235085343421 0.18930302846917477
000420 46 33 73 7b 10 5d d4 3f e1 4b 9c 99 e4 3f c6 3f
       0.3181801992002885 0.17382485867037104
000430 39 15 92 d0 9a 15 d2 3f 9b ec 52 89 2d 68 ce 3f
       0.28256864898897366 0.23755425648946446
000440 79 3e 8b db 14 61 bc 3f 70 bd 42 a0 b1 8a c4 bf
       0.11085634574851068 -0.1604826004527058
000450 4d b6 d3 29 89 21 da 3f c5 4d 96 d1 49 5a cb 3f
       0.40829686245601665 0.21369288190599725
000460 bb b4 d3 74 6e d1 cb 3f 01 f5 56 11 a4 96 a2 3f
       0.21732884125177585 0.03630554877916304
000470 ab ff 6c 3a 37 87 b3 bf 4a 48 f0 16 0e a4 c1 bf
       -0.07628197838221122 -0.13781906242417313
000480 c9 41 ae 89 ed ad d6 3f 35 04 a9 3c 55 00 c0 bf
       0.35436571545963297 -0.12501016103672816
000490 7c f3 b5 83 ca 5d b0 3f 78 03 2f c8 5f 79 d8 3f
       0.06393113818735502 0.38240809010681387
0004a0 7d 52 dc 78 f0 0d b0 bf 1c 19 72 87 f7 d8 73 bf
       -0.06271269751261772 -0.004845587645041751
0004b0 a3 35 c7 98 c8 3f a8 3f 1a 67 4e e9 5c 75 b1 bf
       0.04736163010566521 -0.06819706626847868
0004c0 59 76 0b 1d 38 1c cb bf fe 2b 83 d3 0e e9 d4 3f
       -0.21179868143274197 0.32672472625262106
0004d0 bf 4e ab 7f b0 88 c2 3f 8a 6c 30 ad 19 d1 b9 3f
       0.14479643091055114 0.10084686735392459
0004e0 0a 4e 11 c2 2d e4 d8 bf c0 71 70 cb 0b d6 d6 3f
       -0.3889269252005937 0.3568143355094229
0004f0 fc 5d 83 f3 91 9b a8 bf e6 31 9b 37 a3 95 cb bf
       -0.04806190583775202 -0.2155040761484905
000500 d0 4f 47 28 75 71 a8 bf d9 ca d9 17 62 c9 b6 bf
       -0.04774061314279232 -0.0890103634099363
000510 ec 11 ff 36 e0 9b a1 bf 9a df 75 ff be 4f be 3f
       -0.03439236327497838 0.11840432869746423
000520 d8 eb 0f ae 26 fa ca 3f 93 5b 0f 14 ee 7b d3 3f
       0.21075900553827753 0.3044390865228987
000530 23 b0 71 b8 9c 9c c4 bf 5f 27 69 2f 34 a1 d0 bf
       -0.16102942472514412 -0.25983910207707156
000540 a6 fc 6b 9d a2 b6 c0 bf 10 63 bf 7e eb 6f ce bf
       -0.13057358442890638 -0.2377905243763725
000550 3d 6c a9 7c 75 47 c0 3f a4 ea 0d ef d1 bf d5 bf
       0.12718075358393036 -0.33983276696350573
000560 2d ce a7 72 93 34 df bf 74 e4 dc ff 65 04 bb 3f
       -0.48758398243737383 0.10553586479808691
000570 59 90 73 05 26 28 98 3f 1f 42 1f e4 aa 10 db bf
       0.02359065445206485 -0.42289230611371126
000580 9e cd e3 12 f5 a8 c3 bf f7 83 a9 3c 8c a0 b6 3f
       -0.1535936681972147 0.08838726502428061
000590 6a 14 9b 0f dd ee d2 3f 5f e4 4d 08 b2 b5 d0 bf
       0.2958290722274969 -0.2610898095222804
0005a0 8c d7 68 bb a1 14 b3 bf 73 4e b7 0d d8 89 c3 bf
       -0.07453356576374243 -0.15264416379669718
0005b0 16 2c 7f a5 c9 22 d5 3f e0 d4 b2 07 10 0d d2 bf
       0.33024827157777403 -0.282047278898359
0005c0 7f 31 92 b6 a9 be cc 3f 55 f6 60 6a 73 1b a1 3f
       0.22456857122996252 0.03341255830353577
0005d0 13 a7 4f f5 47 aa c3 bf d6 0a b1 1c d3 30 a2 3f
       -0.1536340663727108 0.035528752567662344
0005e0 a2 62 de ad 33 ad b5 3f 65 3d 14 7b 82 46 d0 bf
       0.08467410082665563 -0.2543035699790919
0005f0 8d 1c da bf 20 e7 d8 3f 10 49 7c d8 e7 e5 ae 3f
       0.3891069291643781 0.06034779088635578
000600 96 e9 41 f6 08 7e e5 3f d7 09 ba d8 eb 05 b6 bf
       0.6716351327625485 -0.08602785149745472
000610 5e a0 19 38 6e 99 dd bf 04 80 ad 4e 54 06 c1 3f
       -0.4624896571972438 0.13300565568624745
000620 f2 64 00 d5 9f 67 e2 bf 86 c4 8e 83 d1 13 e7 bf
       -0.5751494560419401 -0.7211692399488505
000630 1d e5 f7 bf 00 b9 c5 bf b9 4c 6d 21 f7 d2 e9 3f
       -0.1697083413453492 0.8070026066656261
000640 ae fb d1 ee 09 ab e2 bf 07 31 ee 9e c3 36 d4 3f
       -0.5833787598092977 0.31584253807592727
000650 64 9b b5 96 45 24 d7 3f 29 23 a0 e6 80 c0 d3 3f
       0.3615888568660266 0.3086244823648934
000660 3f 6b d3 3b 9b ed e3 bf 92 be c8 3b be 56 d7 3f
       -0.6227546852563605 0.3646693786458651
000670 e0 32 e6 2a 09 36 d8 bf e4 38 73 fe 66 13 e0 3f
       -0.37829808415771815 0.5023684472778567
000680 61 21 15 bc 55 cd c3 bf 29 88 f4 5c 2c 60 c6 bf
       -0.15470382388799478 -0.17480997599437956
000690 51 03 c1 d4 ad 30 ad bf 12 32 ea b2 d0 7a b7 3f
       -0.05701201650709343 0.0917177616885925
0006a0 a1 ba de cb b3 c0 c6 bf ed fa c8 c4 c6 2e c6 3f
       -0.17775580839721264 0.17330250366827418
0006b0 3a 59 55 e7 c5 d0 cf 3f ba 07 49 d0 de 00 db bf
       0.24855874820304696 -0.4219281229053383
0006c0 60 cf 5f 5d 76 78 85 bf cc 27 69 74 e8 4a cd bf
       -0.010483669971996512 -0.22884851154441177
0006d0 ef 7b e5 c2 c9 41 d6 bf d0 00 9c 11 69 fe c6 bf
       -0.34776538880208724 -0.17963899001916284
0006e0 88 fc a0 0a 20 d3 e3 3f b1 6b c0 ae 91 31 d9 bf
       0.6195221145243446 -0.39365045610037
0006f0 07 21 c3 8c 8f a6 d3 3f 80 25 65 4b 9d 6d c0 bf
       0.3070410608893472 -0.1283451669826654
000700 1a 9f 18 af e5 50 b4 3f 6b e5 d1 ac 6c 44 b8 bf
       0.07935939335640932 -0.0947940751956559
000710 5a 2f fa d0 10 fc ce bf 91 9d 9b 74 79 b8 c9 3f
       -0.24206743434876438 0.2009422129988079
000720 ea ba 9d 88 be c1 c4 bf 7c ed c4 5f f3 71 d1 bf
       -0.16216260595998416 -0.27257999756303497
000730 2f 0f 4a 83 43 08 c5 bf 7f 15 f3 42 34 fd b1 3f
       -0.16431468878374164 0.07026983866224688
000740 26 a2 79 37 8e a2 a2 3f ad b6 8e ba 58 42 d3 3f
       0.036396450301996716 0.3009244748926488
000750 98 e4 c3 c8 02 fd b8 3f 11 17 0a a9 96 22 b4 bf
       0.09761063958639438 -0.07865277888239698
000760 9c 84 73 83 f7 2e c5 bf 78 c6 c8 40 49 b2 c0 bf
       -0.1654958145000237 -0.13044086135191768
000770 3a 5d 87 d5 13 02 b2 3f ec 9b f9 6d a6 29 d1 3f
       0.07034419978241582 0.268167121312614
000780 a9 60 e7 4d fc 2a b9 bf 71 34 27 56 80 11 b7 bf
       -0.09831215764950464 -0.0901107988676857
000790 0e 71 f6 98 ac 40 99 bf 93 70 9e 89 6b fb b5 bf
       -0.024660775028324138 -0.08586761579357675
0007a0 b3 58 d0 a7 75 75 d4 3f 98 24 6f 8f e3 7f cf 3f
       0.3196691645438349 0.24609035972233495
0007b0 69 af 45 14 f9 ff b6 3f 40 f5 34 c5 5e 1c d7 bf
       0.08984333748747776 -0.36110657938464286
0007c0 60 e7 b9 97 b0 ca cf 3f b7 eb 56 1c e2 bb 9c 3f
       0.24837310226922238 0.028060467700679683
0007d0 11 bf 18 ac 45 77 b1 3f be 60 57 75 7e cb d9 bf
       0.06822619868830439 -0.403045286742337
0007e0 22 c3 4b ec 75 ac c1 bf e1 a6 43 5d 6b df d6 bf
       -0.13807558095825195 -0.3573864374908294
0007f0 d7 22 56 7b b1 ed d5 3f 9a c4 4a 0d bd 70 db bf
       0.34263264698578894 -0.428756010990648

transformer.encoder.layers.0.self_attn.in_proj_bias f8 [48]
000000 26 f5 85 d1 af 66 bb bf 42 2b 77 fe 80 06 94 3f
       -0.10703562608064895 0.019556060344068323
000010 4d 85 77 17 6a 5d a1 3f d4 d9 38 f2 ed c5 bc bf
       0.03391582046948347 -0.11239516414284562
000020 ad fc 71 4a 13 1f ba bf 9b 14 93 bb 64 a3 82 3f
       -0.10203667228232645 0.009100710844345541
000030 2b ec ea f2 cf 1e 9a bf 1f 1c 8a 99 20 de bd 3f
       -0.025508164598005017 0.11667064426920647
000040 b3 cd 74 e6 6d b4 95 3f 8f b8 19 b2 af 85 a3 3f
       0.021196095648702683 0.03812932061269791
000050 f7 ce cc 47 d2 1e c8 bf 98 46 47 12 14 fd c3 bf
       -0.18844059472905147 -0.15616083996296903
000060 30 f5 89 32 31 f2 d7 3f e1 83 9d 40 8a 1c b7 bf
       0.37415723739089213 -0.0902792365791494
000070 e2 ef 7f 77 26 5d b9 3f 39 6f 47 03 78 e9 ca bf
       0.09907761018251862 -0.2102499023447935
000080 88 1e ad 45 3a ed 59 3d fd 21 16 ec db be 2f bd
       3.68440146485136e-13 -5.639141286667034e-14
000090 dd 33 0d 25 5b 69 1a bd 42 ff 6b 93 e1 d9 28 bd
       -2.345816608362351e-14 -4.414441836887107e-14
0000a0 bc 44 09 15 ad b8 51 bd 50 ae cb 62 26 ec 2c bd
       -2.5183611319851227e-13 -5.1376610916987033e-14
0000b0 21 c0 f2 67 a4 93 2b 3d db 9b 77 e0 9c 81 39 bd
       4.8986108302536767e-14 -9.061658090694911e-14
0000c0 86 ee 68 c1 25 5c eb bc db cd bb d7 ac 9d 1c bd
       -3.0375647667527735e-15 -2.541604137857328e-14
0000d0 89 92 48 44 59 d0 47 3d 42 96 a3 32 b1 76 47 bd
       1.6920766727139015e-13 -1.6671919897237583e-13
0000e0 ff d5 ca 46 ea f7 8d 3d 0a 34 b6 61 bd eb 71 bd
       3.4070147337606815e-12 -1.0186828652198223e-12
0000f0 ab 05 b5 92 b9 cd 42 bd 0d 38 56 e6 dd 0c 37 bd
       -1.336077053110941e-13 -8.189097727582437e-14
000100 30 82 9d d5 99 a1 6f 3f 03 15 f5 7e 91 2f 92 3f
       0.0038612370089341694 0.01775958382974797
000110 cb a0 22 3a 06 00 88 3f a5 87 4f 49 d7 e6 64 3f
       0.011718796395442507 0.002551479798499084
000120 16 2b 2a c5 ba db 92 bf d7 4a f1 5e eb 8c 80 3f
       -0.018416326793651093 0.008081282458225853
000130 e9 76 d4 80 45 56 9b 3f dd 3b 47 26 c8 bd 7a bf
       0.026696287143855555 -0.006528646310882427
000140 82 4f ed 26 a7 0d 90 bf 5a c5 c8 65 ac ff ad 3f
       -0.01567708182422179 0.058591258454166975
000150 e2 7e a6 85 a4 33 a0 bf fe 3c 99 14 f5 dc ae bf
       -0.031644002260916584 -0.06027952076385111
000160 a1 aa 97 89 4d a8 87 bf 62 13 6f ad 5b 3d a1 3f
       -0.011551481019485723 0.03367125026810559
000170 b1 34 8c 18 0b fa a3 bf df 72 1c ac f0 29 a2 3f
       -0.039017054316084716 0.03547622776952663

transformer.encoder.layers.0.self_attn.out_proj.weight f8 [16, 16]
000000 1c 53 aa 64 da a1 99 bf a7 96 77 c7 8e 93 da 3f
       -0.025031483072399316 0.41525620917523515
000010 bc b4 96 24 3a cb d4 bf 59 23 b7 9f 3d eb c3 3f
       -0.3249039990722158 0.1556164769993085
000020 e3 54 58 a5 df df ce 3f 7d 9d 5d 63 ac 0e cf 3f
       0.24120708058823145 0.24263529636230521
000030 1a 3b ed 94 f4 c2 d0 bf 5c 97 44 27 21 15 c4 3f
       -0.2618991331445827 0.15689482133273713
000040 8b 9e 1b d7 e9 9b c3 bf a7 fd c6 38 4c b1 da 3f
       -0.15319560054125633 0.4170713953462503
000050 d5 27 0f f4 80 3d 72 3f 2e 76 ce 71 0b 37 69 bf
       0.004453185771987796 -0.0030780051733490165
000060 0e eb 30 5a 4a 37 d9 bf 23 29 ae 1e d7 54 d0 3f
       -0.39399966056559854 0.255178241692777
000070 3a 1a 5a 0f fd a5 cc bf 07 77 0a a6 53 49 c0 bf
       -0.22381556748969605 -0.12723775489296704
000080 11 97 f5 20 e4 bd d4 bf a3 93 b3 99 2f 1a b8 bf
       -0.32409003466305913 -0.09414956572034199
000090 b2 22 33 8c 0f d8 c8 3f ac a9 3b 6e d9 61 bb 3f
       0.19409365029993847 0.10696181241261254
0000a0 35 3d 5c 48 13 77 c5 bf 49 97 55 ed 02 27 b9 bf
       -0.16769639046877108 -0.09825151724143412
0000b0 79 83 eb 2e eb 9f c4 bf 41 6f 54 22 be 64 da bf
       -0.16113033095373533 -0.41239884712716807
0000c0 ba 9a 13 38 bb 3e bc 3f e6 41 a8 b1 33 1c d8 bf
       0.11033220404679414 -0.3767213091787468
0000d0 e4 d8 15 40 e5 c6 c3 bf 35 e7 62 39 1f db d8 bf
       -0.1545073092381194 -0.3883741436398965
0000e0 80 ce bf 3a 4c 33 de bf d5 3f bd 27 64 e9 d6 3f
       -0.47188096749525954 0.35799507027422567
0000f0 1d 51 ff 3b 7d 2f cf 3f ac e8 27 d3 b5 c9 ce bf
       0.24363675527150344 -0.24053070841165913
000100 8f 85 20 f6 45 14 b1 3f 02 9e 60 ad 42 77 e1 bf
       0.06671559580765617 -0.545808161380535
000110 b6 36 ab 3d 5b 57 d0 bf 91 6a 24 f1 11 24 a9 3f
       -0.25533181211799716 0.049103317915258356
000120 f3 d1 ed bc 81 b4 b1 3f b4 69 7b db 9c db d1 bf
       0.06916056501888317 -0.2790290969257072
000130 5a 9d 73 3c cc 4e da bf c0 ab 97 a7 81 cb d4 bf
       -0.41105943587759486 -0.3249210487980996
000140 33 ce 15 a8 a8 a2 95 bf 72 8a a7 e9 9e c3 d4 3f
       -0.02112830663595684 0.3244397432119178
000150 51 0c 7f 40 5c 99 a7 bf a7 f0 02 44 77 39 c4 3f
       -0.04609192168529631 0.158003719528897
000160 2d 9d 70 cf 22 a0 e5 3f c0 5f 5d 14 4c 53 d5 3f
       0.6757978488502993 0.33320905674690593
000170 56 ce ad 1f 79 d4 dd 3f f9 73 f0 9f 3a 9b d5 bf
       0.46609333127637365 -0.33759942645139024
000180 46 b7 9e b6 0b d2 d7 3f aa 63 07 ac 3b ba c6 bf
       0.3721951754949838 -0.177558382986516
000190 c4 36 be 8f a9 6f b4 3f b3 a1 1f d8 65 d4 b2 3f
       0.07982883223868514 0.07355343367056015
0001a0 57 31 f2 c9 eb 8d d0 bf 5d f8 6e 43 ef d1 ce bf
       -0.2586621734742684 -0.24078169624948745
0001b0 5f 6c 4b 77 80 24 c7 3f c1 86 90 bf 6b 55 ba 3f
       0.18080144715244992 0.10286591936940238
0001c0 59 a9 f5 b4 73 22 d5 3f a4 1d 98 fd 00 13 cc bf
       0.3302277819808715 -0.2193299520733777
0001d0 0f 8b 2d 52 1c b7 c5 bf 13 32 b4 41 a5 ae b3 3f
       -0.16965059292405058 0.07688362936114172
0001e0 0a 89 49 63 03 8f ae bf 87 22 5c bb 84 7f c1 3f
       -0.05968485438349276 0.1367040552943488
0001f0 2a 2c 27 85 f3 9d da bf 39 3b 29 2e ae 7e c5 bf
       -0.4158905792543829 -0.16792847875555042
000200 13 5e 30 e9 9c a6 d2 bf 12 e2 25 5b 77 c5 9b 3f
       -0.2914192464099596 0.027120461405020953
000210 2f ac d0 58 1d 57 d5 3f 41 3c ca 1b 6c 5c cf bf
       0.333442055448077 -0.24500800473149023
000220 74 d0 45 8e 1d fc d3 bf 58 dc 31 5d 75 75 cf bf
       -0.3122629060155824 -0.24577204752469828
000230 b8 cf 28 94 b6 7b d0 bf 42 97 64 e6 cc a3 d9 bf
       -0.25755085438435854 -0.40062258242902626
000240 d0 80 38 97 b5 89 aa 3f b5 c7 d7 96 26 fd d0 3f
       0.05183188887554169 0.2654510949206455
000250 93 47 d0 3a 1a c6 d9 bf 4e 4c 82 ad 73 13 d6 bf
       -0.4027162145949827 -0.3449372476981737
000260 17 e3 4e b0 9e 83 ae 3f 2a 52 ee 42 69 59 cd bf
       0.05959792997550133 -0.22929111259567608
000270 56 34 05 0a 45 a8 bb 3f 95 4a 2a 19 49 12 d6 3f
       0.10803634161602935 0.34486606080569376
000280 ba 33 85 a8 35 03 c3 3f 01 46 61 83 5c 79 b8 bf
       0.1485354493001106 -0.09560182769316584
000290 e8 0d b1 d7 f0 ac cb bf 32 18 04 7f 60 b9 d5 bf
       -0.2162152341062289 -0.3394395103827065
0002a0 32 53 49 7f 35 f4 d2 bf 21 c1 e1 be 31 b0 d5 3f
       -0.2961553328544141 0.3388790477829549
0002b0 1b 6a 59 13 2f c0 c5 bf f0 70 f5 a7 fe 62 d3 bf
       -0.16992748684681733 -0.3029171600553715
0002c0 c0 a5 44 3b 44 62 c6 3f db 7e 00 6f 6a c1 c3 bf
       0.1748738564868244 -0.15434008045212164
0002d0 ac 2a d9 ae 44 08 d1 3f eb 88 80 9d ab 4d a6 3f
       0.2661296565535547 0.04356132791169095
0002e0 eb b1 52 fb 0f b9 d3 3f ab ea 1b 34 01 08 d6 3f
       0.3081703142477454 0.34423856819891324
0002f0 0f c3 e5 93 be ae d0 3f 40 93 6c 0c 09 6f c3 bf
       0.26066555445781686 -0.15182602984091353
000300 be 89 8e 43 05 41 d1 bf 71 e5 76 8f ec 00 d5 3f
       -0.26959354016630843 0.3281814003963382
000310 92 59 f0 62 21 83 d0 bf cc fc 23 36 fa 15 dd bf
       -0.25800356542586045 -0.45446639334836614
000320 f2 d5 c1 45 28 64 a1 bf 07 cc f5 d3 c3 f6 c0 bf
       -0.033967264666823996 -0.13253066873184613
000330 3d fd 5a e8 a4 9f d8 3f df e8 55 bc d8 e8 d5 bf
       0.3847439068885768 -0.34233683006426746
000340 58 e5 48 b8 db 46 bf 3f 80 3f 33 4a 18 ef a3 bf
       0.12217496155871765 -0.03893352418674478
000350 cf d4 eb 2c 57 90 95 3f 0a e0 30 ab 38 87 cc bf
       0.02105842792203277 -0.22287662848407336
000360 6f 54 6f 8d 69 43 cb bf bc b8 46 fb 2d 42 d1 bf
       -0.2129947605705271 -0.26966428316780955
000370 12 6a cd e6 c3 bb be bf 0b 30 5a 12 74 02 c8 bf
       -0.12005257019828999 -0.18757487197979147
000380 a4 da c2 f8 d0 2f da 3f 27 99 35 44 e5 4a c5 3f
       0.4091684750850766 0.16634813147101932
000390 c7 25 38 c1 07 e5 d4 3f 18 bd af 1d 95 10 b2 3f
       0.3264788996608243 0.07056552862899357
0003a0 c1 16 2b a4 0b fc d2 3f 8b bc f0 a3 5d fb d4 bf
       0.2966336348730288 -0.3278421498279804
0003b0 69 d8 e0 1d 81 96 c9 3f 3c 81 20 cb 4e 36 cb 3f
       0.1999055286302707 0.2125948421317022
0003c0 8f 67 df 51 f4 26 cb bf e7 a1 2f fa 3e cd bd 3f
       -0.21212629316033513 0.11641305549677093
0003d0 96 ff d9 19 56 3c c1 3f 5b 94 c3 f0 68 e3 bc bf
       0.1346538187244703 -0.11284500005747715
0003e0 b8 16 48 ab 80 8c aa bf 02 14 04 64 ca 1e bd 3f
       -0.05185319987144282 0.11375107709689306
0003f0 c0 16 93 e0 2c 72 85 bf 59 dd b1 80 1d af d2 3f
       -0.01047167835566698 0.2919381863389013
000400 a0 85 ca 81 7b ba d4 3f 2b 3f 2b 23 9b 24 b9 3f
       0.32388198542511226 0.0982148133145954
000410 5f fd f8 73 3d a3 a0 bf fa a9 29 8b 8b 30 d6 bf
       -0.03249542275124883 -0.34671295728790563
000420 41 66 59 9a 08 7b dd 3f b6 9b 1c 90 08 61 cb 3f
       0.46063437531629253 0.21389872585970487
000430 34 05 01 d2 55 3e d8 3f a5 c1 b7 ee 12 6b cd bf
       0.3788046408481762 -0.22983013778822428
000440 c8 e0 19 5d 9a 84 a2 3f d7 f0 02 66 63 2a c6 3f
       0.03616793047416561 0.17316858750371608
000450 53 2e f4 0f ce bb d3 bf 58 f9 1b f5 f6 78 b7 bf
       -0.3083377033042087 -0.09168952449906465
000460 47 7b 55 01 4e f7 ca bf ff 07 07 4f 79 72 c9 3f
       -0.21067214074261129 0.19880596503031708
000470 a9 56 d2 ef 6a fe b2 3f 3a 50 e1 b3 91 41 c5 3f
       0.07419460635204679 0.16606351168832295
000480 b9 26 c0 b1 8c a8 5a 3f 00 4d de d8 d3 82 c2 3f
       0.0016270994156023912 0.14461753930354604
000490 87 5d 68 92 c9 d2 d5 bf 11 db 54 59 20 f6 c8 bf
       -0.3409904412996742 -0.19501118051422187
0004a0 2b 85 53 44 15 c6 d7 3f cf 09 63 2d ce 56 c6 3f
       0.3714650313614409 0.17452408996730503
0004b0 58 e6 f6 2d 1b 03 cf bf b3 e5 71 eb b3 d0 d5 3f
       -0.24228229278905888 0.34086320870082004
0004c0 be c0 c9 e7 c4 00 d5 bf 3b 46 23 3c 05 5b d3 bf
       -0.3281719459109914 -0.3024304473193273
0004d0 55 28 46 09 2f 85 c4 3f 0f 99 ff f6 49 9b d5 bf
       0.1603144450458013 -0.33760308381023746
0004e0 75 9f 8a a3 21 3d 9e 3f f6 31 36 9b f6 70 ba bf
       0.029530072790890444 -0.10328618325565472
0004f0 87 ce 74 73 9d 71 df 3f 2d 7a 53 67 ca 10 bd 3f
       0.4913095119002055 0.11353745482072304
000500 9f 28 6e ae a5 e5 cd bf e3 ed e5 77 65 30 be bf
       -0.23357077614884234 -0.11792596986008834
000510 0b 89 b9 11 f0 5d ca 3f 0e 3c c8 e1 70 b4 c7 bf
       0.20599175324884586 -0.18519412064094393
000520 27 8f fc 44 6a e3 b2 3f 54 e4 d0 d4 b9 ac b5 bf
       0.0737825792717187 -0.08466683812811598
000530 9a 49 c0 46 ea 61 d8 3f 82 73 74 db 15 fc d1 3f
       0.38097626599587786 0.281011070548452
000540 d9 97 a1 55 30 f6 c0 3f 67 a3 71 67 e6 b6 ce 3f
       0.1325130861397941 0.23995666552516612
000550 c5 41 b9 19 2f 9f b9 3f 9f 6e ea 58 18 fc c1 3f
       0.10008520486849821 0.14050583211507203
000560 b2 ea 0e 7e 8a d3 dd 3f a4 5f a2 4f 7d 5d d8 3f
       0.46603643713357734 0.3807061460188328
000570 1d 8a 6a b6 5e 3f d1 3f e2 28 7e 07 8f ea c7 bf
       0.2694927960784826 -0.18684566369876793
000580 35 26 58 3e fd 81 c4 3f 49 03 8f 8a 27 d3 c4 3f
       0.1602169565597237 0.16269392266806396
000590 56 fe 00 6f de b8 94 3f 40 3e fe 70 af 0b d7 bf
       0.02023646881593629 -0.3600882152031524
0005a0 91 39 84 42 17 fd a6 3f 57 36 2f 8a cf 93 d4 bf
       0.044899680013361316 -0.32152164930889654
0005b0 64 fd 94 97 d4 d8 db 3f 95 08 2a e0 50 5b 8c 3f
       0.43510927966050006 0.013846046296070372
0005c0 a4 21 f1 3f 81 ba d1 bf 92 01 94 54 e3 5c ca bf
       -0.27700835460975726 -0.20595971708099775
0005d0 a9 4d 49 cc 58 e7 c0 bf 02 dd 0a 4c 3a f0 c2 3f
       -0.13206014609259611 0.14795616829881203
0005e0 84 ee 3b 29 77 c4 d4 bf 25 fe 64 ab ac b5 d1 bf
       -0.3244913008381689 -0.2767135309004252
0005f0 43 cc e6 39 6d a6 9c bf 1d 82 88 c2 18 79 d2 bf
       -0.027978617342977918 -0.28864115712534205
000600 b0 88 20 b8 e4 ce c5 3f 2a a2 e9 f4 26 7c d3 3f
       0.17037638655262333 0.3044526473736676
000610 2c b7 b8 da 24 89 d1 3f 95 8e 78 9d 84 fb d0 bf
       0.27399560317541005 -0.2653514421274193
000620 07 c8 5b 83 75 d2 d4 3f 86 2a 2e 94 49 b6 c1 3f
       0.3253454001234108 0.1383754704987334
000630 aa 84 db af 16 14 cc bf 63 bf 31 76 eb a0 d4 bf
       -0.2193630560568967 -0.3223217634431334
000640 80 39 7b 98 e3 6f b6 bf 48 6c f7 ef 1d 93 ca bf
       -0.08764479134263148 -0.2076146527968794
000650 3c 3a e3 4c 2a 16 ce 3f 61 2a fe a0 37 b7 b4 3f
       0.23505142931249334 0.08092067413796535
000660 26 72 bf 7a a4 f8 e0 3f 30 e0 0e b5 c0 35 b5 bf
       0.5303518674296057 -0.08285145206798528
000670 46 d4 a9 4a fa 79 ae 3f 5f b4 50 87 ac 04 b0 3f
       0.059524366010841365 0.06257131866068864
000680 54 66 e0 df b9 ef b1 bf 0e 31 2f 25 24 a7 df 3f
       -0.07006417957054484 0.49457648879321503
000690 d9 5d c3 f3 25 bd a1 bf 1a a1 9a 44 eb 41 cd 3f
       -0.03464621163010024 0.22857418870740603
0006a0 6a 8f fb df d1 c2 b1 bf 58 26 6c 79 d2 ae d6 bf
       -0.06937896459890927 -0.35442029817258947
0006b0 06 18 66 a8 0f 7a 9c 3f 2e cb a9 71 64 41 ce 3f
       0.027809376385924643 0.23637061643565843
0006c0 56 10 b2 27 2a 6d d4 bf c6 2b 9e 51 b1 6d a8 bf
       -0.31916288258094505 -0.04771188851653778
0006d0 fe 1d 15 13 cc fe d2 bf e6 94 30 37 c2 cc bc 3f
       -0.2968015848495894 0.11249936911970657
0006e0 fe 60 45 2b 38 0b ca bf 5e b3 e2 4f bb 84 d8 3f
       -0.20346738922922464 0.38310129929850756
0006f0 d3 6e 13 55 a2 c2 bd bf 1e 72 0e 75 43 27 dd 3f
       -0.11625113083885745 0.45552145415584444
000700 9d f8 d2 dd ef 01 c9 3f 24 6f d9 93 64 35 c7 3f
       0.1953716118932264 0.18131692141729971
000710 3c ef 81 d5 b5 c9 c3 bf 4c ed 20 a6 a0 2f c0 3f
       -0.15459320950673738 0.12645347701787057
000720 34 75 23 a6 24 ac d3 bf 9c 76 0e 5a c2 26 d5 bf
       -0.30738178467238986 -0.33049067301349466
000730 9d 1b 3e 91 28 c7 d8 bf 80 2e 48 44 49 5a cc 3f
       -0.3871556681046345 0.22150531610565238
000740 6a 94 08 80 98 97 d2 bf 57 ce 3a 59 43 15 99 bf
       -0.2905026674582759 -0.024495174714230874
000750 0b 8a 64 09 c8 9f cc 3f 36 82 8c 39 cb 85 be 3f
       0.22362614115361654 0.11922903208734045
000760 44 bc d5 26 00 76 76 3f c0 e0 c2 ef 27 a6 b8 3f
       0.005483627884458168 0.09628533938928552
000770 0b 57 e5 14 16 05 ad 3f 4c 94 8d 8f 62 c6 da 3f
       0.05667943005634698 0.41835845965244256
000780 5c 96 6b 8c 32 de c5 bf 57 2b 8a c7 46 db da 3f
       -0.170843428196508 0.41963357435513643
000790 37 90 dc 3b 5d 40 9c 3f 2f 74 d7 4c 2e 3c d9 bf
       0.02758927991739332 -0.39429814819397085
0007a0 a5 be 48 09 8c 89 d6 bf 81 b1 45 da 1d 25 d1 3f
       -0.3521452036538711 0.26789041820190823
0007b0 ca 72 ba cc 29 94 c2 bf 92 9b 4f 56 44 e3 d2 3f
       -0.14514658447742185 0.29512127331548144
0007c0 30 3a b5 17 0c 5f cf 3f 43 5c 84 42 b7 8c d3 3f
       0.24508811147320975 0.30546361442378983
0007d0 2a d5 b9 26 5f f2 d5 bf a8 53 1e f7 66 4c d8 3f
       -0.3429181936438278 0.3796632207170725
0007e0 b0 76 6f ec 4b 0c d3 3f da 3f ab 19 10 ec de 3f
       0.2976255234660625 0.48315813547833175
0007f0 47 77 d1 b2 05 d8 d0 3f 1a 81 fb 59 23 e8 d5 bf
       0.2631849523803464 -0.342293584702945

transformer.encoder.layers.0.self_attn.out_proj.bias f8 [16]
000000 8a f3 9e 9f 8e bb 8e 3f 4f 4e f3 94 6a 5f 92 3f
       0.015006174322360417 0.017942109433376093
000010 45 f2 55 29 58 36 91 bf f1 74 ec ff ef cb 94 3f
       -0.016808869860584847 0.02030920981916479
000020 f5 b6 ee da a8 f2 a4 3f 18 bb c8 ac ef 3d 9a bf
       0.04091384575381866 -0.02562689296808704
000030 0b d4 68 0a 74 51 90 3f de dc b3 26 80 d0 68 bf
       0.015935719619125915 -0.003029108329083748
000040 7a ee bc bf 2d 16 a5 3f 7b 0e 3e b6 c0 c9 aa bf
       0.04118483510543754 -0.05232050156248832
000050 7c 62 be 44 33 e8 6e bf b4 a4 cf ed bc 49 8e bf
       -0.0037728310907819123 -0.01478908158056167
000060 11 96 58 c7 e5 a1 a7 bf e7 73 c0 cb d1 8a 90 3f
       -0.046157055458291414 0.016154554425259617
000070 9a 50 42 4d df 9d a2 3f 76 ad af 37 34 20 98 bf
       0.03636071985343499 -0.023560348414247888

transformer.encoder.layers.0.linear1.weight f8 [128, 16]
000000 1d a5 db 19 64 86 c0 3f fc aa 84 c6 a2 88 b9 bf
       0.12910128843876914 -0.09974114748608182
000010 b1 e0 a3 bf 01 a3 c2 bf 40 e5 a4 44 ce dc b9 bf
       -0.14559957368306223 -0.10102547813302909
000020 e5 52 0a 81 60 9e c3 bf 8a 50 cc 70 b5 4d b9 3f
       -0.15327078152463183 0.09884199146137199
000030 b8 e7 ce dc 56 b1 ce bf 83 29 ee 3b 71 fd 73 3f
       -0.23978696614886785 0.004880373306955457
000040 4b ce d9 00 55 0a ae 3f 11 ae d7 67 16 22 93 3f
       0.05867257724176208 0.01868472107700653
000050 28 78 bb 84 db 64 93 bf 0c 98 04 f5 ef 8d b4 bf
       -0.01893942830690079 -0.08029079181559967
000060 52 3f 4f e1 80 c3 bf 3f 7b 03 63 1b 8e bd cd bf
       0.12407689572068861 -0.23234726273770065
000070 40 a0 a1 17 4c dc 79 3f ac 6b d6 89 58 63 ae bf
       0.0063136074405534814 -0.059351698709370154
000080 e5 bd b1 13 50 1a 93 bf b5 39 ca 3e 30 d7 c6 bf
       -0.018655062868161116 -0.17844203058161914
000090 4f 45 43 cd 0a c1 ca bf c7 25 44 de bd da c1 bf
       -0.20901618025394916 -0.13948796608774058
0000a0 3b 61 11 8a 1b ea c7 bf 49 4a 33 b7 e5 20 b8 3f
       -0.1868318962249392 0.0942519733683095
0000b0 fc 16 a4 ad 75 c4 cd bf 37 24 65 ec e4 b8 c5 3f
       -0.23255797365725772 0.16970502417305663
0000c0 b1 bd 49 e8 fc 7e c0 bf fe 15 88 08 3c ef bc 3f
       -0.12887536375226952 0.11302542885103858
0000d0 84 18 c3 cb c1 e4 bf 3f 04 71 a6 04 bc c7 c5 bf
       0.12458430504475088 -0.17015791155871096
0000e0 da 5d db 98 58 81 ae bf b8 dc 7a e1 36 bc c9 bf
       -0.05958058229378667 -0.2010563469864104
0000f0 22 3a fd f2 d4 77 b3 3f cc 65 64 92 1c 81 b5 3f
       0.07604723865845434 0.08400133680370131
000100 d3 c7 0d 94 cc 15 87 3f dd be 7e 4f cb 8a c4 3f
       0.011272047298664411 0.16048566228481934
000110 57 e1 b7 9b 2a 5f a5 3f 51 8d 66 ed 0b 1c 94 bf
       0.041741687306002966 -0.019638239254743898
000120 55 e8 7f d1 f2 83 ce 3f bf 61 31 cc f0 ac bf bf
       0.2384017489383178 -0.1237326143758599
000130 70 ec 04 f6 8c 67 cb bf bd ef 6f fc cb da c4 3f
       -0.21409761440904473 0.16292714906728448
000140 da db d6 8a fe ba 9b 3f 22 d2 bf 76 fc 17 b8 3f
       0.027080514167859927 0.09411600016739688
000150 56 21 d9 3f f8 c1 94 3f 26 fd 2f 74 2b 9a bb 3f
       0.020271185776694033 0.10782119356735062
000160 28 4f 12 4a c8 1f 92 3f b2 ae a0 a6 26 35 71 bf
       0.017699365159003083 -0.004201079349552538
000170 01 f6 03 28 0d 83 7e bf e2 55 fa e3 d3 d7 81 bf
       -0.007449199096524862 -0.008712439913590001
000180 25 90 fe b0 7f cf c8 3f 3c 37 c2 eb 7c 53 cc 3f
       0.19383236067108203 0.22129785071995822
000190 1d 95 ad 67 76 ba ab 3f 19 f1 2f a1 20 84 bc 3f
       0.054156971126568566 0.11139110503421924
0001a0 62 a2 f4 f6 59 d0 bb bf 52 b1 b6 c2 b7 5d bd bf
       -0.10864794043721696 -0.11471127036810927
0001b0 4f 1d ef 4c eb 69 86 bf 7b b2 3e 14 c7 41 59 bf
       -0.010944212231960874 -0.0015415615207345068
0001c0 5d 1a 9f c8 08 34 9b bf f4 bc b5 ec df 5b c2 bf
       -0.026565682644810063 -0.1434287935075883
0001d0 eb 7a 17 09 eb 2c 71 3f 69 f7 72 8a a9 ea c5 bf
       0.0041932278704439425 -0.17122382412156448
0001e0 64 0a f3 57 99 b1 a4 bf 17 93 c2 f8 86 c0 a1 3f
       -0.04041747282601163 0.034671991220682034
0001f0 1a 56 66 44 79 1e 95 3f 78 23 ab f1 ec ad b5 3f
       0.020624060439862736 0.08468514347181422
000200 df 86 1b c8 95 84 c0 bf c1 29 c7 ab f5 bc 67 bf
       -0.12904617567897156 -0.002897720171153057
000210 ef 01 fe bd 63 2b c6 3f 1f 70 03 2d 72 41 cf 3f
       0.17319914605106088 0.24418475339814535
000220 46 6d e4 9d fe 88 9f 3f 97 3b 30 08 e6 9b ab 3f
       0.030796030413609253 0.05392378663974922
000230 d6 93 3b 37 58 87 c2 bf 66 5f bb ac 8f c2 e0 bf
       -0.14475538918409708 -0.5237501500769042
000240 49 fe 27 a4 1b a7 ce 3f b4 18 18 44 62 7c c2 3f
       0.23947473063889138 0.14442089390667479
000250 e9 2f 70 b2 ba 1a c1 bf b5 7f 3b 93 ad e7 b0 3f
       -0.13362821305088282 0.06603512615720215
000260 43 2b 46 c0 4b 33 a8 3f e0 04 af 9d 68 cc c8 bf
       0.04726635667892378 -0.19373805713079317
000270 54 5e 99 c9 2f 2a a0 bf 37 34 a8 29 25 c9 ae bf
       -0.031571858748688314 -0.0601283658362281
000280 c9 6d 45 7e fe f6 aa 3f a1 45 28 85 61 4d 9e 3f
       0.05266566554447711 0.02959205985286462
000290 13 95 ce df 5f cf ae 3f 68 a7 40 36 6d 7a a6 3f
       0.06017589194315511 0.04390279090178134
0002a0 86 67 6b 28 24 87 63 bf a9 9d 4c 7d ba 48 b4 3f
       -0.002383776303173715 0.0792347484499404
0002b0 98 8d d0 7a 8b 50 bd bf bc ee ab d2 b8 49 bb 3f
       -0.11451026676564025 0.10659365790700809
0002c0 58 66 b3 cf 42 ba 5a bf fe 2b a7 7a 56 a8 a3 bf
       -0.0016313221411138525 -0.03839369055966556
0002d0 dc 57 19 6b df 81 d0 bf bc d8 a5 e1 0a 4f b1 3f
       -0.25792680224310316 0.0676123429201167
0002e0 24 4b 4e 0f 0c b0 9a bf 7b 5c ae 16 30 c6 bc bf
       -0.026062191423601125 -0.11239910653817901
0002f0 4c b0 fc 46 ba ae a6 bf f4 cf b9 95 47 8d 9c bf
       -0.04430181614438364 -0.027882689012088194
000300 6e c9 e9 5b 88 b5 c3 bf e3 00 fb 04 c5 45 b1 3f
       -0.15397743690443683 0.06747084971994215
000310 66 f4 61 e1 08 27 b5 bf be 9a 24 ed 9a ff 86 bf
       -0.08262687208657979 -0.011229715692548378
000320 2b eb 08 81 98 d5 bf bf 44 2e 40 9b 82 8b b4 bf
       -0.12435296201958283 -0.0802537564306301
000330 cc 59 e8 47 6b 8e c5 3f 91 64 40 8f ab 8e ba 3f
       0.16840878497232692 0.10373947379447858
000340 3b cb 70 32 e6 df c5 bf 11 f7 76 27 bc 79 9c bf
       -0.1708953615467069 -0.027808132084593377
000350 7c d6 c6 03 cd 68 b9 bf 1d cc b5 83 13 d9 c5 bf
       -0.09925538389401284 -0.1706871407619425
000360 99 0e b8 f3 be 67 bb 3f 88 59 be 18 60 f8 aa bf
       0.10705178690119012 -0.05267620374722798
000370 a3 2b 83 cf 6d be 71 3f e4 05 99 11 2c 6d ca bf
       0.004331997821462349 -0.20645666941895435
000380 ac 14 80 b6 e6 31 c5 3f 27 86 0f 9f 56 bf a9 bf
       0.1655853644480535 -0.050287920872289775
000390 30 03 72 59 a9 aa b6 3f 53 25 c3 2c ef 2a 9e bf
       0.08854158815121305 -0.029460656268189677
0003a0 4f e6 7f 5c 3d a0 b7 bf 69 77 f7 26 ca d8 b6 bf
       -0.09228881367007456 -0.08924544764837851
0003b0 88 97 32 40 0c da a8 bf 57 0d 28 14 58 2a ba 3f
       -0.04853857310926829 0.10220861904240529
0003c0 4a 1a 88 6c a3 0f c1 bf 67 d6 f2 74 ec 3f ae 3f
       -0.13328974532506016 0.05908144881815929
0003d0 1c 06 5f 2d 28 de c5 bf 25 d9 33 0b 52 fa c0 3f
       -0.17084219184293736 0.1326391749095787
0003e0 b7 d4 e7 fd 48 0f b0 3f a8 41 94 9a 8d 19 b0 3f
       0.06273323248736316 0.06288990997223343
0003f0 e7 b7 25 e2 a9 2e c3 bf 99 ed d0 fc 6c a2 70 3f
       -0.14986156027174433 0.004061151249568872
000400 5b 40 f1 09 5e 4d a0 bf e0 69 48 0a 8b 10 a6 bf
       -0.03184026595465702 -0.04309496403239499
000410 44 be 33 b8 be d6 be 3f 61 4a c1 a6 d9 16 9c 3f
       0.12046424862978095 0.027430916598243708
000420 19 7b f4 7d be f6 c4 bf 20 af 11 3b e6 e8 c8 3f
       -0.16378003263613364 0.1946075237677798
000430 90 f4 da b8 10 ad bd bf 79 3a a4 a7 9b d3 c6 bf
       -0.11592201722210604 -0.1783327644884201
000440 c4 09 c3 2d ea 58 d0 3f 44 fe fb 12 84 2c c7 3f
       0.25542692631657027 0.18104601790399688
000450 2d f6 07 90 fe 60 bb 3f 13 43 db 8c 0c 9b ae bf
       0.10694876686462669 -0.059776680178066276
000460 93 59 65 27 03 68 a9 3f 2f ac 73 40 b0 d3 b4 bf
       0.04962167602450331 -0.08135510991603277
000470 85 70 31 54 e0 cc ab 3f 5e 4a ed a5 d6 20 8d 3f
       0.05429745700595937 0.014222790659606573
000480 de 6f 25 40 43 8d b5 3f 72 48 c9 77 27 e8 aa bf
       0.08418674770422238 -0.052552445766779324
000490 a6 ec 60 87 aa 99 c5 3f 76 73 c7 1f c4 53 ab bf
       0.1687520180729269 -0.05337345970085654
0004a0 c4 ac 99 89 1b 6d b9 bf e1 af d7 34 68 33 c1 bf
       -0.09932109937078609 -0.13438131885720764
0004b0 a6 bd 1e f2 a7 11 c8 3f aa 68 a0 03 ff 38 c1 bf
       0.18803881952542872 -0.1345518844326013
0004c0 cb ba 7d b6 83 70 c9 bf 42 41 d8 65 88 27 b9 3f
       -0.19874617014598636 0.09825947271770466
0004d0 8c 3a 03 74 e0 6e 5f 3f e4 71 3c 9e 13 07 9b bf
       0.00191852492575931 -0.026394182713476058
0004e0 6d 33 5f 27 1f 15 b2 bf b7 45 95 80 af 2d c1 bf
       -0.07063479148128034 -0.13420671251746594
0004f0 2a dd 9e 44 04 f7 ad bf d6 17 04 c1 2f 12 be bf
       -0.05852521264699313 -0.11746500456146633
000500 c9 81 e4 67 b7 da b2 3f 10 07 4a 92 69 e2 a3 bf
       0.07364984785500107 -0.038836764438214044
000510 63 50 ba 3b 88 6f c1 bf f3 fd 49 f2 70 89 b3 3f
       -0.13621619144817307 0.07631593623408843
000520 75 8c ca 18 6a 8d 73 bf 37 7c 8b 51 52 3c c8 3f
       -0.004773535195144442 0.18934086782152956
000530 63 5f 86 1b ce e1 9e 3f 92 16 e0 33 27 b6 b2 3f
       0.030158253126131195 0.07309193626869107
000540 89 20 28 cd 6f 7b ce bf 55 ba 1d e3 84 97 bb 3f
       -0.2381419898740698 0.10778074784114129
000550 81 01 0e 38 48 a6 bb 3f 4c 99 e6 e4 71 81 b7 3f
       0.10800601357005314 0.09181892240903727
000560 af 13 37 ec 82 b4 ab bf 82 76 d1 ba c4 ae c8 bf
       -0.05411156781659742 -0.19283351060851223
000570 bb b7 59 80 52 69 b2 3f a8 8d 3d 8b 42 9d 57 bf
       0.07191959031635424 -0.0014413022845126498
000580 d2 cf 69 6f d3 5f cc bf c0 d4 50 9c 8b 82 71 3f
       -0.22167437496284365 0.004274888376177788
000590 fd a0 a9 1f ad 3e ca 3f ed 91 52 ab e2 00 ca bf
       0.2050377277948953 -0.2031520210777126
0005a0 ba 47 f8 e2 f8 7a c7 bf 2e bf 73 09 77 26 ae bf
       -0.18344031412612855 -0.05888721456892508
0005b0 55 fb cc a3 f5 4e c4 bf cb 51 e3 3d fe 5a c2 bf
       -0.15865965364533943 -0.1434018900096262
0005c0 fd fd 0e e7 9d 8d c8 3f 71 5e 64 09 93 48 b3 bf
       0.1918218019691124 -0.07532614688204277
0005d0 b6 fd ac b7 e6 5f ad bf 72 9e 2c 10 f1 dd a5 bf
       -0.05737229339728904 -0.04270890543403717
0005e0 b4 71 ff f4 56 d9 c8 3f 58 a5 2d 99 ab 74 c0 bf
       0.19413268053803068 -0.1285604951802195
0005f0 8c a4 3a 2c 20 99 bd bf 37 49 5d c9 ea 40 ba bf
       -0.11561776237307891 -0.10255305687067993
000600 3e 08 98 5a 07 b1 af bf ad 00 2d 35 87 c9 b3 3f
       -0.06189749699480317 0.07729382560956095
000610 7d 51 1d 08 3a 5f a1 3f 2f 39 47 99 6a 4a ab bf
       0.033929646959822236 -0.053302127085418476
000620 eb 1e bd 94 91 68 b8 3f 0f e5 38 68 50 d2 bd bf
       0.09534559136693203 -0.11649038834083945
000630 d6 c9 30 71 6e 11 c6 bf 52 3c 9c ec 28 78 be bf
       -0.17240696455844667 -0.11902099396341839
000640 87 7c be c7 e9 d1 ca 3f 0f 97 db bb a4 85 c4 3f
       0.2095310426056793 0.16032847569220407
000650 83 90 18 59 bf 78 b7 3f 07 e1 2c a0 a4 cc b9 bf
       0.09168620991892067 -0.10077885542421337
000660 13 6a f1 e6 1d 09 b1 3f 48 18 e8 e6 d3 b3 b8 bf
       0.0665453614068741 -0.09649395358437218
000670 ef a8 dd 9a 56 e1 bf 3f 85 c3 1e 39 8c 10 bd 3f
       0.12453213959603081 0.11353374857459471
000680 47 73 25 62 97 b8 c7 3f 2e 70 47 eb 3c d3 b1 bf
       0.18532078068065003 -0.06962948555104795
000690 e1 f8 4d 26 06 c2 be bf e3 06 44 95 46 c1 b6 3f
       -0.1201480716244734 0.08888665336783279
0006a0 72 b8 97 84 f9 c9 bc bf ec 9c f2 4b 7b 6b cc bf
       -0.11245688902974552 -0.22203007896789673
0006b0 01 4e c5 b2 89 cc b1 bf de d3 ff 9e 33 3f a9 3f
       -0.06952725042838638 0.0493103152838683
0006c0 d5 71 f9 99 d2 5e c3 3f 41 ff a9 43 dc e3 cb bf
       0.1513312579944698 -0.21789124778660532
0006d0 2d 46 bf 16 11 b6 d0 bf 3c 4f 4b 26 a8 98 9e bf
       -0.2611124727382926 -0.02987921460847008
0006e0 5b 13 d4 5f 01 d4 ad bf d8 05 e6 a5 59 bf b0 3f
       -0.05825809759884378 0.06541977215058326
0006f0 1a 27 58 ec 18 0b 52 3f 63 0e 94 eb 75 50 bc bf
       0.0011012786284276322 -0.11060273171829631
000700 66 96 cb b3 1e a0 b8 bf 57 ba d5 89 64 54 c5 bf
       -0.09619323625119022 -0.1666379616758202
000710 95 24 19 63 59 1c ba 3f 4d 00 f0 cc 1b 4b b1 bf
       0.10199507398023606 -0.06755231622082754
000720 55 58 63 5d 3b 14 b9 bf b3 8c e1 5b 89 8d a8 3f
       -0.0979649641988954 0.047954838243435736
000730 a4 dc 94 d3 0d 11 c3 bf bb 69 40 19 1d 02 d0 3f
       -0.14895794707419896 0.2501290079686915
000740 65 65 af d2 87 6b ce bf 93 e2 b2 e3 16 a7 be bf
       -0.2376565722213783 -0.11973708209087368
000750 e1 b4 44 c4 d7 c8 da 3f f6 ca d0 15 3e 0d cd bf
       0.41850847403368446 -0.2269666296502561
000760 ed 05 bd 7a eb cc c2 3f 20 85 f5 9f 22 ab e0 bf
       0.1468786572750526 -0.5208905338478509
000770 18 3b ee 8b 22 27 b7 3f fd b6 c7 9a 84 df bb bf
       0.09044090191148901 -0.10887936381160652
000780 76 d4 d6 89 c1 d2 c5 bf d5 7e 29 92 b1 54 c6 bf
       -0.17049426298550302 -0.1744596446687782
000790 9b 36 ba 5d cf a0 c6 bf 02 35 f5 40 93 97 91 bf
       -0.17678253246815676 -0.0171797760388488
0007a0 40 69 bb 1a 31 d3 b2 bf 0e 77 ac 87 14 d0 c9 bf
       -0.07353503134382766 -0.20166260361377691
0007b0 0b 2c 91 10 7c ed 73 bf 19 64 d4 9d d7 0b b5 3f
       -0.004865154865068009 0.08221194842589376
0007c0 38 b9 f6 80 0a 79 c0 3f 1b e3 18 a3 8d a3 c4 bf
       0.12869387909945273 -0.16124124969226092
0007d0 11 8f 67 c8 63 64 c7 bf d2 34 c1 77 ff 04 c3 3f
       -0.18275115285279545 0.1485900244464689
0007e0 93 6b 85 85 10 ba 6a 3f 92 7a b0 eb 4a ce bf 3f
       0.003262550610242562 0.12424152616629616
0007f0 a3 d5 9a bb b6 84 99 3f ec ef 28 dc 57 77 c2 bf
       0.024920325470437665 -0.14426706552501345
