Code/800-200/darts_logs/D-dep-77_transformer/checkpoints/last-epoch=199.ckpt (torch, 653413 bytes, 205 tensors)

encoder.weight f8 [16, 1]
0	0xbfd9b71a47ca2f29	-0.40180069933625134
1	0xbfe7bae417e999cc	-0.741563841537578
2	0xbfe7905c6f3ca932	-0.7363722012135325
3	0xbfe972bf41f98ff7	-0.7952572144099567
4	0x3fe2176e7959f7ad	0.565360295309565
5	0x3fec0d3e6189ee8e	0.8766166596464744
6	0x3fa85df77a17e0d8	0.047591909078563865
7	0x3ff210275d736dbf	1.1289437914300462
8	0xbfe7cb4d3ef63081	-0.743567107173945
9	0x3fec5cd7438fbd6b	0.8863331145820842
10	0x3ff161a6b0d42d95	1.086340609300213
11	0xbfe8c36aa5c386f0	-0.773854564435366
12	0xbfd1de88af974843	-0.27920739314607007
13	0xbfe8348820c73b32	-0.7564125671577584
14	0x3fc83b771820192c	0.18931473424908896
15	0x3fd8fc8926957374	0.3904135586542943

encoder.bias f8 [16]
0	0x3fdc0c8c4599e8a7	0.4382658652972488
1	0x3fa07795897377a7	0.0321623544966621
2	0xbfe248ac44b1fdd8	-0.5713712064461403
3	0x3fb8977c35e8ca1e	0.0960614806761346
4	0xbfdb1b1eafa0306a	-0.4235302653403382
5	0xbfec55fca8034161	-0.8854964524744383
6	0xbfee8a247bdbab6f	-0.9543630999663558
7	0xbfcb685ef8586faf	-0.21412264944308165
8	0xbfd1b55daafea51c	-0.2766946954603371
9	0xbff05397496bd8c5	-1.020407950212346
10	0xbfcf465da72706cf	-0.24433489476910217
11	0xbfe04760da58012c	-0.5087131752516476
12	0x3fa6e5b1fa969f9a	0.04472118553104494
13	0xbfd3d55cc7de091c	-0.30989760893148044
14	0xbfe5c5db551f61c8	-0.680402437453318
15	0x3fb01b84a9f72cdc	0.06291989469098119

transformer.encoder.layers.0.self_attn.in_proj_weight f8 [48, 16]
0	0x3fd27a5bb74b3925	0.2887181558588899
1	0x3fc52b0d9cec60b1	0.1653763786532685
2	0xbfd51b0ed25d1323	-0.32977648299520207
3	0x3fba9e5375ba17ab	0.10397836326782676
4	0x3fd0b456d34b268e	0.2610070289052623
5	0x3fc3985eb9d0a847	0.1530874640751014
6	0x3fc44682fef0c92e	0.1584018463923455
7	0x3fc856c63716f69b	0.19014814081122186
8	0x3fcec8dcc1818bd0	0.24050483177697268
9	0xbf9d31b9bbde785e	-0.02851000031625294
10	0xbfc7f81aeee7612c	-0.1872590700647917
11	0xbfd0715e51bc5876	-0.2569194601250112
12	0xbf9cfec782c20cfb	-0.028315656047664266
13	0xbfc10b0a7cc095ad	-0.1331494435445796
14	0xbfd05e1d86c36937	-0.25574434433442
15	0xbfc00c626aef64cf	-0.1253779432434272
16	0xbfb62a9a3bd95f13	-0.08658756219062651
17	0x3f9c193dad17ef51	0.027440036477840938
18	0xbfcac76eceab5cd1	-0.20921120730665746
19	0x3fbfbadfd42d7bba	0.1239452260028732
20	0xbfc21e06ae007541	-0.14154132362538444
21	0x3fd1d6b8181ba9a4	0.27873041490843264
22	0x3fbdbad5495dbc92	0.11613209763685209
23	0xbfd013362734e13b	-0.2511725790859775
24	0xbfbef67d66b6df67	-0.1209486366050193
25	0x3fd9bae864a5d4a6	0.40203294590839744
26	0x3fd2a84baceff05c	0.2915219487038081
27	0xbfd60961b9620683	-0.3443226156597136
28	0xbfd248a5b06f4bf3	-0.28568403463321984
29	0x3fa0bdb9fc58f7c4	0.03269749837316696
30	0xbfa9b2b7c919fc64	-0.050191634462856155
31	0x3fce4be2f1792094	0.23669087210351292
32	0xbfc6abd69f99adeb	-0.1771190909670247
33	0x3fc844721e063eee	0.1895887991527085
34	0xbfd66c098f7a99e5	-0.35034407626736047
35	0x3fc39e3b7106e138	0.15326636332407317
36	0xbf9d9e9c16924e54	-0.028925360562949656
37	0x3fda624f8ad010a2	0.4122504096597003
38	0xbfd07eb31304c1c8	-0.2577331243255938
39	0x3fcf82ee76a9d28d	0.24618321222410025
40	0xbfe5424ae377770c	-0.6643423502643784
41	0x3fc2fcfa13740ce5	0.14834524106854655
42	0xbfbd8c04e0ba63b1	-0.11541777121091347
43	0xbf974f118229aa75	-0.022762559480194306
44	0xbfea6527cdb71d55	-0.8248480813862594
45	0x3fc002200c174b05	0.12506485548382087
46	0x3fbe5097972e3c10	0.11841723862583842
47	0x3fc0a4700f82de2d	0.13001824147589627
48	0xbfc04e7405f06d56	-0.12739420213697866
49	0x3fd28a8cb5f8b056	0.28970639963768485
50	0x3fcdec5c191e0439	0.23377562738827054
51	0x3fc0580ddd889be3	0.12768719975539886
52	0x3fd8629616dfcf57	0.3810172294026776
53	0xbf86aae6152e07e6	-0.01106815101752896
54	0xbfa80f128232ad32	-0.04698999251680859
55	0xbfd4ef51101ba641	-0.32710672925040646
56	0x3fd76a163e01bf9a	0.36585002951960066
57	0xbfdeca8464d68e9f	-0.4811106667277531
58	0x3fc9bc2c0b5d7a42	0.2010550551885491
59	0x3fc00e8a037861a6	0.12544369859166443
60	0x3fe18b5454c160d8	0.5482579856279939
61	0xbfd106b387f486ac	-0.2660340144812874
62	0x3fb248c1371abe98	0.07142264933895104
63	0x3fc438727a233111	0.1579726311086991
64	0xbfcbad72b40a81fb	-0.21623071471277897
65	0x3fc5bb461ec13137	0.16977764608089682
66	0x3fcce71aea992b81	0.22580276923175904
67	0x3fa8d7ab96c4ca6d	0.04852043357313538
68	0xbf98b79374106677	-0.024137786826122522
69	0x3fcc0d1e93df3b14	0.21915037365257517
70	0xbfb87bf750712c25	-0.09564157213132825
71	0xbfdd78567285e7c3	-0.46046982940572095
72	0x3fe6cd7facfc24fc	0.7125852945911499
73	0xbfd265ed55f39bc0	-0.2874711360331581
74	0x3fa3d038325265f1	0.03869796385079017
75	0x3fd0028b109d5afd	0.250155225968612
76	0x3fe1277bf28dd8cd	0.536069844950157
77	0xbfc77c1e9ee35c70	-0.18347532995423732
78	0x3fb60dab9e814d53	0.08614609355691032
79	0xbfd113bde3493d14	-0.26682994075686506
80	0x3fcd0362e0457276	0.2266658396792029
81	0x3fc5051d61a77344	0.16421859043375708
82	0x3fb3c4801c59ce4d	0.07721710865171723
83	0xbfcfd50281ade5be	-0.24868804294582775
84	0xbf99dcc14cea4d0b	-0.02525617629960401
85	0xbfc4a68a9a904a51	-0.16133244082500878
86	0x3fc009faddb460fe	0.12530456376476445
87	0x3fdc0f511e596a17	0.4384348675136222
88	0xbfd970d1d9838c5f	-0.39751096955860094
89	0x3fcb6a8867666dc2	0.2141886238940583
90	0x3fc13d7ee0baceb4	0.1346891972840375
91	0xbf6c207ddf56ba8c	-0.0034334619947096797
92	0xbfdc1953cd4c8850	-0.43904585884786673
93	0x3f8f2eabf7fdb3e6	0.015225738053880233
94	0xbfcab882570acf77	-0.20875577211483762
95	0x3fcf9a6c3c879e9d	0.2469001098208893
96	0xbfcbcd832220f6e0	-0.21720923582500173
97	0xbfb7c0188c643713	-0.09277490069890985
98	0x3fc1102380e12b94	0.1333050135893613
99	0x3fd337ce0014d1b6	0.30028104789678467
100	0x3f786fda14b7e0e1	0.005966045263896742
101	0x3fcea8d60887114b	0.2395274678839406
102	0x3fb82a68bf77f072	0.09439711260341868
103	0xbfd8d27aad5099e4	-0.387846631291181
104	0x3fe6982670f7f011	0.7060730177322531
105	0x3fb9f108646029f0	0.10133411837174555
106	0xbfcab14d0801afec	-0.2085357941717797
107	0x3fd4570f0e9aaa1b	0.31781364847361865
108	0x3fe68ea90ced7b7b	0.7049145939343896
109	0xbfc679f59dd1e290	-0.17559690671966566
110	0xbfd17e3972fa6759	-0.27332912662824566
111	0xbfd0f31184ca5a6b	-0.2648357197553312
112	0xbfbb5a0c95a40286	-0.1068427911122943
113	0xbfc1ccae323025b4	-0.1390588517245256
114	0xbfb901ad8fe04551	-0.09768185389136376
115	0x3fd8d797b8986dff	0.388158731717084
116	0xbfc4ecaaceff2309	-0.16347251040704006
117	0x3fd17c483383a1a5	0.27321057348901895
118	0xbfd765ca6b8628c8	-0.3655878114738127
119	0xbfc5dd1ece48ca37	-0.17081055710294077
120	0x3fd112d5da953dc3	0.26677461954110643
121	0x3fd4f7c79aa8ebca	0.3276232729291989
122	0xbfc1e326509ce4f5	-0.1397445577256701
123	0x3fc110712ca4a474	0.13331427268829865
124	0x3fd2ca73dda65de1	0.29360672612662425
125	0x3fd0b5eb3c40fd6e	0.26110344776312544
126	0xbfc9dcbb79315efa	-0.2020487157594671
127	0x3fc0fb3a28836c2d	0.13266684511367668
128	0x3fc245e067581e77	0.1427574638948845
129	0x3fb05e350127c991	0.06393748548706514
130	0xbfb4a2111f92dae6	-0.08059794445840004
131	0x3fcbd929152090e8	0.2175647118721209
132	0x3fdb57c7251fe8fe	0.42723253846601483
133	0x3fc2a0144c0aa1e4	0.14551023209538905
134	0x3fd43add311f3fd9	0.3160927753169723
135	0x3faa3d53097b788c	0.051249117763050384
136	0x3fd8399064c419d7	0.37851343002730914
137	0xbfd026b854ba4e1e	-0.2523632838649251
138	0x3fd3177545761a2e	0.29830676825841607
139	0x3fcba9d8e3043ad9	0.21612082562247428
140	0x3fe0b5d3831e2b26	0.5221955834289005
141	0xbf7109be615db025	-0.004159682915865691
142	0xbfad0646d3921aaf	-0.05668851215982806
143	0xbfc23f3b6b8baed6	-0.14255469084979805
144	0x3fd247864345bebe	0.28561550683569326
145	0xbfcafd2c2fa3bd3a	-0.21085121465828555
146	0x3fb0e6f6e52b86d7	0.06602423758479446
147	0x3fdd118d6d6fe686	0.45419631659715554
148	0xbfae54a1bffb964a	-0.05923943966426444
149	0xbf4216463b0537b7	-0.0005519717142676771
150	0x3fb4b6cbdf3ced7c	0.08091425132891134
151	0xbfbc41ea7e57fc02	-0.11038079819262239
152	0xbfc43f2492a5329a	-0.15817696724333957
153	0x3fd75dfd6a7871b7	0.36511168859012905
154	0x3fd07872c9c7fe45	0.25735158639142625
155	0x3fc2d386520db2e1	0.14708022123831824
156	0xbfd297396b527165	-0.29047999840419997
157	0x3fd77064118bce47	0.36623479569900436
158	0xbfa959afe0a3ed39	-0.049512382671276396
159	0xbfc688f3f9446d1a	-0.17605447455648787
160	0x3fb2c1fc05d3417b	0.07327246801583513
161	0xbfa7b176c88ae2f0	-0.04627581785229562
162	0xbfc8c976617b2b8d	-0.193648145292482
163	0x3fc86469a60f13e2	0.19056435211510264
164	0xbfbd0fc98118a932	-0.11352214242711936
165	0xbf93a559fbd2a891	-0.019185453410195456
166	0xbfc732b12e6aa654	-0.1812345005649144
167	0xbfa9b0c6c4f5ca09	-0.05017682222650783
168	0xbfd3ec555fdb8130	-0.31129965172842144
169	0xbfb6225e3de54115	-0.08646191607590865
170	0x3fcaa9b7f8507eb1	0.2083044016335314
171	0xbfa946f850ef3fc4	-0.04936958301516328
172	0xbfb3c94c9462be56	-0.07729033110330738
173	0x3fd79faa3f46b272	0.36912017993271384
174	0xbfc965b68ccd7237	-0.19841653704760784
175	0xbfcb29eac6de55c3	-0.2122167082822398
176	0xbfd17a90d4eb49de	-0.2731058196342512
177	0x3fc11e30c8749d7b	0.13373384273402764
178	0x3fd850594065bef1	0.3799040917283341
179	0xbfd314daf349b8a3	-0.29814790495482607
180	0xbfaae74b77242537	-0.052545889180758136
181	0xbfc61ddfca8831ec	-0.17278668774851214
182	0x3fd08c12d0844c9a	0.2585494076058211
183	0xbfdf294c1a9cc43f	-0.4868955860029622
184	0x3feaf4980c4a9a4e	0.8423576583925951
185	0xbfcaedc07d0a44ea	-0.21038061242555922
186	0xbfd2049e593d71c2	-0.2815318938717405
187	0x3fc61109744e5dd3	0.17239492587098812
188	0x3ff12bdd50b2f06e	1.0732091095260574
189	0xbfc69cb493ab1035	-0.17665726862299072
190	0x3fd51d774eac7b19	0.3299234646128056
191	0x3fb9463feea1bf9e	0.09872817588779845
192	0x3fc2a6587bb7a875	0.14570146599664083
193	0x3fd5a2fd0b22052e	0.3380730255813259
194	0x3f7a0e413ccbbb11	0.006361250718994752
195	0xbfc5f9751cfd2368	-0.17167533793897438
196	0x3fc2c6dc0735c154	0.1466937098698603
197	0xbfcc5c76f1bbc809	-0.2215717964496096
198	0xbfb681262758cfd8	-0.08790815792673301
199	0x3fdbef37c8ed353e	0.4364757024930731
200	0xbfd51dee46d9793b	-0.3299518291368206
201	0xbfb5bc3532370330	-0.08490307308148881
202	0xbfc2898c54ea015c	-0.14482263704486342
203	0xbfc643df478a3dfd	-0.17394629471935721
204	0xbfe30d284f7fcbb5	-0.5953561356276312
205	0xbfc2dc1c15fb44de	-0.14734221528355013
206	0x3fbf69bead6c0d61	0.12270728811204414
207	0xbf92184acc8a1f87	-0.01767079232607174
208	0x3fcd81494e99377f	0.23050800645654232
209	0xbfc8221cf04aae9f	-0.18854104741091235
210	0xbfd2ad80b193bd40	-0.291839764990943
211	0x3fc34f13c8024f2a	0.1508507467848344
212	0xbfdcefe4e278944e	-0.452141972697352
213	0xbfb5d1d304f7cbc9	-0.08523291465080186
214	0x3fd0c3dd2ef3ab83	0.26195458970203606
215	0xbfb4fe74c58c8e4d	-0.08200769255614056
216	0xbfddc2d7c0b5c9cf	-0.4650172597822832
217	0x3fc2da76a64c751d	0.14729197616626602
218	0xbf8bfb8c0a2e5c12	-0.013663381634428293
219	0xbfae5feb2481315f	-0.05932555027593155
220	0xbfa6e33a3234718c	-0.04470235693790689
221	0xbfc56a155d5e01ad	-0.1672999101538272
222	0x3fb84c1d6388cd4f	0.09491141967810289
223	0x3fbf7c80d5e79aed	0.12299351904185203
224	0xbf980c254ed4d463	-0.02348383229874108
225	0xbfc3f88bd7fdf374	-0.1560225300453585
226	0xbfd1520362caf8d7	-0.27063069007625756
227	0x3fcb33bc36d411db	0.21251633336227269
228	0xbfca6ee3dbb79531	-0.20650909641623508
229	0xbfd22ff0bf6c3d7b	-0.2841760510791215
230	0xbfd36e0d605e0dc3	-0.30359205637816106
231	0x3fb69a0be83ba14f	0.08828806323766013
232	0x3fbde5291c63c0c5	0.11677796309573114
233	0x3fd468f4cdf15a97	0.31890602218246883
234	0x3fc1d3db69731e79	0.1392778649226221
235	0xbfa6fbffc045c904	-0.044891350003029046
236	0x3fc944e924be8c56	0.1974154881873768
237	0xbfb69d7ab4c527ee	-0.08834044373830327
238	0x3f9f45b88bde9811	0.030539401566464678
239	0x3fd49f00c35e2bd5	0.32220477179424495
240	0xbfbbe42df150fefd	-0.10895049230111549
241	0xbf66902b7ff77c7f	-0.002754292450603268
242	0x3fb52e7f0e604b01	0.08274072743396844
243	0xbfb865527551399b	-0.09529605259124312
244	0x3fd856ded7ff5536	0.3803021535253096
245	0x3fd494a7de226662	0.32157322590646775
246	0x3fd00add2d00b282	0.25066308398053405
247	0xbfd7ffa2bb89682a	-0.37497776331076926
248	0x3fb1ad1119281c22	0.06904703964401951
249	0xbf920474d0e869b3	-0.01759512448379903
250	0xbfa1bb0e3c377b73	-0.03463024602000688
251	0xbfdf28dcbcd005c5	-0.48686903418282795
252	0xbfefb92af01eb1d3	-0.9913534822313131
253	0xbfdcca92b995b052	-0.44986408351428964
254	0x3fdc0083de3af5e1	0.4375314398019708
255	0xbfe17343e8f8dbcf	-0.545320467971459

transformer.encoder.layers.0.self_attn.in_proj_bias f8 [48]
0	0x3fa1dab1197d3935	0.03487161098620321
1	0xbfac9773867f2cb6	-0.055842981498778796
2	0x3fb2ccffb66b05a6	0.07344053462568087
3	0xbfb57edb68842b02	-0.08396693517367385
4	0xbfad3ea5427e86ec	-0.057118572585080546
5	0x3fb27d01f3a6427e	0.07221996496651603
6	0x3f525b631c51b57e	0.0011204212071576898
7	0x3fbe171e6b92634e	0.11754026533379866
8	0xbf4ab8cfc4fbe858	-0.0008154882907256506
9	0x3fb0ad76b1527022	0.06514684514189686
10	0x3fa3061fc080e288	0.03715609764953337
11	0xbfb7d334aac560e6	-0.09306649369443995
12	0xbfc157866df435a1	-0.1354835545429696
13	0x3fc1bd8d28738c6a	0.13859714961208464
14	0x3fc2d6b13d0e80ba	0.14717689019471952
15	0xbfd4d8c1dd3927b4	-0.3257298145659846
16	0xbd2177aaa6a715d3	-3.102842014864078e-14
17	0xbd5b289e056b918c	-3.8594778873943414e-13
18	0xbd43b1321221b48e	-1.3992128536830503e-13
19	0xbd435f0a49c21a36	-1.376410149178943e-13
20	0x3d5dbf98f48a0068	4.2275058350472e-13
21	0xbd5d39e6e41372f2	-4.1532898884883747e-13
22	0x3d5a5faa9bfa813e	3.7479277695504395e-13
23	0xbd567de656acc896	-3.196276443548119e-13
24	0xbd42facf883a8d1a	-1.3485908702080092e-13
25	0xbd47d3df4cfcaaa3	-1.693054659934209e-13
26	0x3d0b8b396fa21e1c	1.2231924431044519e-14
27	0x3d5a53ec62e0be13	3.741409062428271e-13
28	0x3d5fdf52eb4a2507	4.52933463109528e-13
29	0xbd5b6b8a0b4ad686	-3.896627040371398e-13
30	0x3d6102107dfbc353	4.833982572399616e-13
31	0xbd5aac7948517d5c	-3.7905643955560154e-13
32	0xbf76fa57e90800bb	-0.0056098398204086864
33	0x3f8f37daccdf3c3f	0.01524325311393515
34	0x3fab398e0db8d551	0.053173484015511925
35	0x3f901e19dbbff6c6	0.015739826238123887
36	0xbf94240cae139ed9	-0.01966876804809101
37	0xbf838c7a3897ac75	-0.009545283176484379
38	0x3f8f271030f69e4c	0.01521122598099036
39	0x3f871da76de468e6	0.011287029305595952
40	0xbf9fa9274e894e13	-0.030918707054594274
41	0x3fbc463e9e17111d	0.11044684753057195
42	0xbfa61dd5ace3de00	-0.04319637046313218
43	0xbfb360c7c460115c	-0.07569550079648962
44	0xbf7d22ebb615f0c4	-0.007113381144673695
45	0x3f98eb21b09a584f	0.024334455875383573
46	0xbf99d7c7a97f4420	-0.02523719760921861
47	0x3fa5e70c07a864ee	0.0427783736560715

transformer.encoder.layers.0.self_attn.out_proj.weight f8 [16, 16]
0	0xbfa80fd4d266a35f	-0.04699578350420696
1	0x3fda3a267863f9db	0.4097992110909254
2	0xbfd4695b65c95ef2	-0.3189304822931113
3	0x3fc3bcd245ff05d5	0.15419987123281823
4	0x3fcc1d1c14137f70	0.21963835697442446
5	0x3fd15924786c78fa	0.2710658241284275
6	0xbfcf3291abcf3a66	-0.24373074425826075
7	0x3fc6aa3c41ea6aa4	0.17707017153300797
8	0xbfc4d3dafbb083aa	-0.16271531381155785
9	0x3fdabb9cd839089e	0.4177009688902532
10	0xbf73703c699660ed	-0.004745708452354541
11	0xbf826fc96824626b	-0.00900227879587697
12	0xbfd922d2bbf527dd	-0.3927504382633041
13	0x3fd13ceb88e0f395	0.2693432652193278
14	0xbfce126be8f61f25	-0.23493718028134328
15	0xbfc2c8c91f093077	-0.14675249114441488
16	0xbfd4ccba0f443293	-0.32499553194865277
17	0xbfc0e336645b3929	-0.13193397426807366
18	0x3fc6661ba9fe3ff7	0.17499109077880323
19	0x3fb5b620298b0f39	0.08481026663053805
20	0xbfc51d3c2fade054	-0.16495468452535766
21	0xbfc0468adfeedcc1	-0.1271527856276631
22	0xbfc21a68fecfaf71	-0.14143097345310765
23	0xbfdb10568706858c	-0.422872192250076
24	0x3fc02648c770ea06	0.12616834390958348
25	0xbfd7fac2a932ad57	-0.37468019984472306
26	0xbfbf4e7f97769b57	-0.12229154060206092
27	0xbfd7b488d9563e3e	-0.3703939554625072
28	0xbfdd332f690f1af7	-0.456249096485791
29	0x3fd706d032d79f72	0.35979084935251315
30	0x3fd043989167d5ec	0.2541257305122986
31	0xbfca0e489dbfeefb	-0.2035609026205448
32	0x3fb8f77c5af64c91	0.09752633305315529
33	0xbfe37ace5edd78a8	-0.6087409832796498
34	0xbfd0fb5038b17935	-0.265338950504787
35	0x3faa84827ee62bbc	0.05179221915303553
36	0x3fcaeff22ee97ce7	0.21044757166507752
37	0xbfd5e55c228e3fed	-0.3421240174729963
38	0xbfdcc51a1f38cf3f	-0.4495301537419784
39	0xbfd6430fed06ed40	-0.3478431524960861
40	0xbf2ce1a79bcae609	-0.0002203480816172362
41	0x3fd4900c31bc3d04	0.3212919698425625
42	0x3f87b90c35fed38a	0.011583419225510889
43	0x3fc54cd197137305	0.16640682102924856
44	0x3fdea1a17eac390b	0.47861516352067274
45	0x3fd11378ff153f25	0.2668135157627936
46	0x3fe23f1de5563a3b	0.5702046851382144
47	0xbfd6866d2a84fcd4	-0.3519547381619763
48	0x3fd9b8fd4fc4740e	0.4019158629396892
49	0xbfc9df9697a0d7da	-0.20213587192273402
50	0x3fb4354c9ac0a0b8	0.07893828180442852
51	0x3fb8fc150ebb7f01	0.09759646997144601
52	0xbfccb92c31516446	-0.22440102012731894
53	0xbfd0fb3d844fa272	-0.26533449097636386
54	0x3fc4adf8f0a8103d	0.16155921698384815
55	0x3fb9edbc8e7b764a	0.10128382185526977
56	0x3fd446463a1610b6	0.31678920433501945
57	0xbfcdb7f5ad5e2a59	-0.23217650380350355
58	0xbfc64c2c948d4944	-0.17419965032110885
59	0x3fb22dcc3dd030ee	0.07101131924736467
60	0xbf2eaa89b68d700a	-0.0002339642626577601
61	0x3fc474d83b7ab921	0.15981581596629105
62	0xbfda3c4f38f3c66f	-0.40993099748366196
63	0xbfc1e62e8395e2bc	-0.13983708787033844
64	0xbfd100c74ffa88aa	-0.2656725197831614
65	0x3fc97523da522b71	0.1988873306293857
66	0x3fd1a8f2b4f760d0	0.27593677208416256
67	0xbfdb2fbe029227fb	-0.4247889542681375
68	0xbfd7564ff6e2b314	-0.36464308843533044
69	0xbfd1f5a715ba6a92	-0.28061844941991254
70	0xbfc3b0174cda3ee9	-0.1538113713509042
71	0xbfd9636d89c4613d	-0.3966935963994905
72	0x3fb0518704910579	0.06374400960432593
73	0x3fd1323b1f8b73a7	0.2686908538869894
74	0xbfd503f30240dc22	-0.32836604328207575
75	0xbfd44037168d8896	-0.31641938402584324
76	0x3fc40547d711c3ef	0.1564111518996749
77	0xbfcd8cdca7596dfc	-0.2308612649093077
78	0x3fc8fcdf1b71d748	0.19521702613900005
79	0x3fdf218ce38382c4	0.48642275064598217
80	0x3fc2c203770b6939	0.14654582321856838
81	0x3fa7ba030f1d2adc	0.0463410335492733
82	0xbfc5909e64eb989c	-0.16847591331242462
83	0xbfd459d5d19d9599	-0.3179831072833053
84	0xbfcfac6dbbd25f56	-0.24744960471138694
85	0x3fd5b0cd740476d7	0.3389161713583752
86	0xbfc2f49caaeae0f6	-0.14808996530133073
87	0xbfd2a3e0785a6646	-0.2912522483180492
88	0x3fc0a8689c1b5e83	0.13013942358405836
89	0xbfbfef2ced92b541	-0.12474327850460033
90	0x3fcc87950392be5e	0.22288763689492702
91	0x3f9e4025689b6633	0.029541573056894598
92	0x3fd459e19c075141	0.31798591839949003
93	0x3fd1c196204aedc9	0.2774405780180272
94	0x3fd4f49f51581772	0.327430562436681
95	0xbfccbd097ac13bbd	-0.22451895231139743
96	0xbfd2f7d1dddf0e31	-0.29637571971054216
97	0x3fd14d4e8d1a3b00	0.27034343509232883
98	0xbfcff32b4ccef541	-0.24960843325053797
99	0xbfdb901a3003841d	-0.4306703060993316
100	0xbfb6d5e11787fb27	-0.08920103859416582
101	0xbfb701a68b293aa5	-0.08986893556105231
102	0x3fd6a2107cd20053	0.35364162625774503
103	0xbfd5096011ecb2d8	-0.32869722128343204
104	0x3fbf38af92ffdcf2	0.12195870722631577
105	0xbfa631075bb76b4b	-0.043342809625491606
106	0xbf90679d1068a486	-0.016020254255782372
107	0xbfcf6003ff6fa037	-0.24511766407454313
108	0xbfcac33d75b945f1	-0.20908325432041822
109	0xbfc9910cfa9c9e85	-0.19973909603981013
110	0xbfca9b617d5b8ae2	-0.2078668462846372
111	0xbfc6e8da71e45c1d	-0.17898111878523162
112	0x3fd76c75ede5831f	0.36599491340716556
113	0x3fd4283a26f2d9fa	0.31495527080133423
114	0x3fd3cad929bded7b	0.3092558772693434
115	0x3f851d924b17010e	0.010310309330521263
116	0x3fcc658ec820e19a	0.22184929630180933
117	0xbfd33e1c2609bcb3	-0.30066589083339607
118	0x3fcbe5944a1443db	0.2179437028612757
119	0x3fc9ff0124efb3e2	0.2030946188309875
120	0xbfc82205517c533b	-0.1885382316474081
121	0x3fc021d3bfc255bb	0.1260323225330192
122	0x3fc2a9e205f805fd	0.14580941478202183
123	0xbfb96098230b212a	-0.09913016181520065
124	0xbfc389ceb526f472	-0.15264304967232395
125	0x3fad08f10f07bc25	0.056708844265692705
126	0xbfb235401ec8eda0	-0.07112503768524059
127	0x3fd2f536fbbc9555	0.29621672233254986
128	0x3fd350f382cc353f	0.30181587002956073
129	0x3faa520af6138cf4	0.05140718702184613
130	0xbfa134fdd31dfa51	-0.03360741808045432
131	0xbfd421ef33bbc4cc	-0.31457119037720527
132	0x3fdac57380eb4425	0.41830146398302964
133	0x3fc993f1059634ff	0.19982731602468815
134	0x3fd52fc86e56e5c7	0.33104143882118503
135	0xbfcb5d95d6dfeff0	-0.21379349700862305
136	0x3f9c6b691933081f	0.027753488696142022
137	0x3fbea6429c02e2e9	0.11972442921513572
138	0xbfd36cedc5dc4df1	-0.3035234863502572
139	0xbfba5da7392dd461	-0.10299153467151846
140	0xbfbffce466feb8c5	-0.12495257868315253
141	0x3fc6107eb49d44c7	0.17237838572558514
142	0x3fa4af172ce20d2a	0.04039833472145411
143	0x3fc7998897245930	0.18437297229747562
144	0x3fa94494c2f442cd	0.04935135726748783
145	0x3fbc7331529ff705	0.11113270060738152
146	0xbfd60b0e49c0f245	-0.34442479326734016
147	0xbfce2972f314c97a	-0.23563992375563797
148	0x3fd8ba39db477d58	0.38636633314123037
149	0x3fc36226de897580	0.15143285623609515
150	0xbfcd67ff3a385aae	-0.22973623602657284
151	0x3fd2fad9267d4578	0.29656056174015744
152	0xbfd3cf4f5eac426e	-0.3095282005824974
153	0xbfd14e1119da60db	-0.27038981938086487
154	0x3fc44cc2fb4c129b	0.15859257955903136
155	0xbfd471f170020902	-0.3194545358493458
156	0xbfb5d4820e5b72bd	-0.08527386522787146
157	0xbfae9a7c7a174921	-0.05977238645904693
158	0x3fe3e6e1725366ce	0.6219336731839691
159	0x3fa343d5723445ca	0.03762690562337985
160	0xbfccd47753ad24ab	-0.2252339514327891
161	0xbfa38bdf4a748c6d	-0.03817651542547016
162	0x3fca7337de091447	0.20664118138862106
163	0xbfcadec3ad324c33	-0.209923228806106
164	0x3fb253ef93c67939	0.07159325940890406
165	0xbfb2b3660d93f4a4	-0.07304990607731782
166	0x3fd5c2469e041638	0.33998265677687156
167	0x3fd0b7138e51173c	0.261174096089565
168	0x3fc0814bdbc4a5ce	0.12894581061236327
169	0x3fcfecb1327ed243	0.24941077199550152
170	0x3fb654c35d363dc6	0.08723088288956324
171	0x3fc22a33748ac064	0.14191287222411397
172	0x3fdaa0074ad69d24	0.4160173636286848
173	0x3fd7cc8dd7aefeb8	0.37185998976563495
174	0x3fd2d81a08c81829	0.29443980081157634
175	0xbfcafdcb9382ab19	-0.2108702154412974
176	0x3fbfb76abaebc208	0.123892470011704
177	0x3fd3ab0c0eb45775	0.3073148864362943
178	0xbf826452441f3477	-0.00898041029349826
179	0xbfdc74245e82b3de	-0.444588749213663
180	0x3f79e38658547a10	0.006320500169094703
181	0xbfd2571f0704d839	-0.2865674561065848
182	0x3fdc5685f03c9252	0.4427809568462965
183	0x3fa88fc3f5287db9	0.04797184341100142
184	0xbfcee2d86c6c22df	-0.24129777235091063
185	0xbfcbb6a0fdc1200e	-0.21651089086867653
186	0xbfbbcf9336fcd41d	-0.10863609402152048
187	0x3fc3dc8f36c5865b	0.15516843962091084
188	0xbfdb65e26ca1ca79	-0.4280935345515569
189	0xbfcc3ae6fb02daa7	-0.2205475545540214
190	0xbfafac7a1c7e6dea	-0.06186277005982872
191	0xbfd2190a6607304d	-0.2827783581130959
192	0x3fcbf92e1fe23ca8	0.21854187542746684
193	0x3fd27b6f13c31c5e	0.2887838070859682
194	0x3fd3374a03fe6368	0.3002495802880305
195	0xbfc363e3fab91a2c	-0.15148591749512386
196	0x3fdaf22e58cf7197	0.42103155777820106
197	0x3fba07fa89ace5f6	0.1016842447396796
198	0xbfd08637e4af2825	-0.2581920369381144
199	0xbfd4bb46ac9c6add	-0.32393042427581326
200	0xbfba612d480612d7	-0.10304530151740764
201	0xbfccc76ed660b4e9	-0.2248362108961495
202	0x3fcee8c32128f5fb	0.24147833937779226
203	0x3fb51a6e0da8255b	0.08243453820627648
204	0x3fdfbd43c6455323	0.49592680323012156
205	0xbfc0735d1f5726f7	-0.12852062254233207
206	0x3fb7e560ea14e15e	0.09334378924257211
207	0x3f963ddbd9b5c34a	0.021720347559895083
208	0xbfb589056f5bf2b8	-0.08412202805261415
209	0x3fddcd43d544b2f3	0.4656533796976838
210	0xbfa5709df58eef5b	-0.04187482473886802
211	0x3fce8bed9759d9ac	0.23864526643928963
212	0xbfb2e79d50cd82ce	-0.07384665701602985
213	0xbfd71779bd2cd3c6	-0.36080783342486844
214	0x3f9e11501f02e20f	0.02936291875150415
215	0x3fcf38ef4a914ce4	0.2439250101184377
216	0xbfd3e5523df02f4e	-0.31087165878920053
217	0xbfab82bf14fbc426	-0.053731890975435
218	0xbfd1c38221fae4b1	-0.27755788153042277
219	0x3fbbe5b8b7754e55	0.10897402266464813
220	0xbfd035c0c428ae50	-0.2532808223356584
221	0x3fd84e6da5c0a7d3	0.37978688418172374
222	0xbfc4de25fb23822a	-0.163029430033036
223	0x3fde4dc3458b92f6	0.47349626342319995
224	0x3fc5e038842290c2	0.17090517475037897
225	0x3fc30df3cea3989d	0.14886329259679068
226	0xbfc2b5233db1dd87	-0.14615288269463297
227	0x3fc28768401f6415	0.14475730067241047
228	0xbfd4d4924f1ecf22	-0.3254743359241151
229	0xbfd43f912d2cb745	-0.31637982760991107
230	0xbfd89b4179fd2e6d	-0.3844760600374915
231	0x3fcf4436e172632c	0.24426923759599484
232	0xbfd3f690b4714ba7	-0.31192414876312075
233	0xbfa21fd2ffcfed4b	-0.03539904949863145
234	0x3fcbad7d4ccd9e4b	0.21623197794109425
235	0x3fbbf83fc990455e	0.1092567317102939
236	0x3fb4f7b313e49cc6	0.08190459476155629
237	0x3fba15208e0eb9df	0.10188487499428998
238	0xbf914b8f2a52b6a0	-0.0168897981245012
239	0x3fdbe087953de44d	0.4355792005004034
240	0xbfc83580a05fd6b4	-0.18913276510982302
241	0x3fde034d9e60a19f	0.46895161119985035
242	0x3fa362d373dc0cdf	0.037863357441915595
243	0xbfd4542c160bdd8f	-0.3176374640747434
244	0xbfd55198f244042b	-0.3331053129077783
245	0x3fd20b1a41ac2a38	0.2819276467641063
246	0xbfc48b76a0187c62	-0.1605060846058875
247	0x3fd3386857337cd5	0.30031784549460144
248	0x3fd0e08f5df18b4b	0.2637060563485433
249	0x3fd43b389cc4e2a5	0.316114571661766
250	0xbfd5c0d7cac07dd4	-0.33989519882194696
251	0x3fd6685847b95a1d	0.3501187038831704
252	0x3fc14d0e0cde6d43	0.13516402843820616
253	0x3fd9f176787c3dd7	0.4053627182592811
254	0x3fcf1701c5e1e9a7	0.24288961565237097
255	0xbfd31dde07e59363	-0.2986979558102602

transformer.encoder.layers.0.self_attn.out_proj.bias f8 [16]
0	0xbf7095f73098e596	-0.00404926832703136
1	0x3fa51c145f06788d	0.04122985515572095
2	0x3f9b799fc95a6a35	0.026831146874068252
3	0x3f94bc50df01a5f5	0.020249618159516165
4	0x3fb7cf037efb923b	0.09300252771533561
5	0xbfae5723a5887d2d	-0.05925856967609842
6	0xbf880034f1709cf0	-0.0117191444570168
7	0x3f8c8d8c42b7b521	0.01394185618024807
8	0x3fa15deaebaf7523	0.03391965987223446
9	0xbfa29094e06753ba	-0.036259319680233174
10	0x3f4adba2deff17da	0.0008196397084183585
11	0xbf859837f4b1be2d	-0.010544240145661988
12	0xbfa88a7e35b9aab4	-0.047931617792376896
13	0x3f99f311d9be6644	0.025341299929641417
14	0x3f948509278dd94c	0.020038741149130332
15	0xbf881b82f120e2a6	-0.011771224006325309

transformer.encoder.layers.0.linear1.weight f8 [128, 16]
0	0x3fa6f89f19b4c280	0.044865581405592714
1	0xbfb66e98ce49efc2	-0.08762507473323836
2	0xbfc3b8271da6f5eb	-0.1540573973451694
3	0xbfcb514a315212e6	-0.21341826828224625
4	0xbfc59ac6598b060a	-0.16878585216731806
5	0x3fa6b35f9299d6fb	0.044337259908315794
6	0xbfcaf371bc68b58e	-0.21055432986888117
7	0xbfb3e6a8a23d6e14	-0.07773832283913179
8	0x3fbe15b3ada92842	0.11751864423527628
9	0x3fa1ca26634336cb	0.0347454067392455
10	0x3fb0cb9dc7a9995d	0.06560693859646478
11	0xbfa5e6552dfadda9	-0.04277292429236052
12	0x3fcab414b960174d	0.2086206345704177
13	0xbfc906eccfe82e23	-0.19552383567530382
14	0x3faacb6186ff884b	0.05233292363097116
15	0xbfaa6cde6e64bbb1	-0.05161185357643861
16	0xbfa6536f4f8225c9	-0.043605307059873484
17	0xbfbf9368ba185e93	-0.12334303420390773
18	0xbfc97b2a1b14a1b5	-0.19907118150991968
19	0xbfbe86318014a23a	-0.11923512818305762
20	0xbfcb778cc6a5d062	-0.2145858735999609
21	0x3fc808008f3636e0	0.18774420731317942
22	0xbfc88ee9a74b740c	-0.19186134976089908
23	0x3fce61d345c311eb	0.2373603907236793
24	0xbfcec46a24a61b5c	-0.24036909856314537
25	0x3fc6e81ec63bfcce	0.17895874671373807
26	0x3f8b49a307ef911b	0.013324044875795018
27	0xbfc8a7a09763885d	-0.19261557952910638
28	0xbfbe89d53aca0520	-0.11929066357881313
29	0xbfc62782776c9b36	-0.1730807383657635
30	0x3fb5e1ae3b3a99ba	0.08547486253755823
31	0x3fb15d588ac2e8fc	0.06783059489945126
32	0x3f8f378016d48c41	0.015242577263569259
33	0x3fc3077e260eb70c	0.1486661611392538
34	0x3fb2f8234fa80908	0.07409878439651518
35	0xbfb7479a19061319	-0.09093630896502382
36	0x3fd351b03093610e	0.30186085456581757
37	0xbfaf953957f0bc1a	-0.06168536375513885
38	0xbfbc8bea29af3755	-0.11150992887197948
39	0x3fc8d18e0be62c64	0.19389510708819835
40	0x3f8f9583f5aae756	0.015421896872215218
41	0x3fb75409f8798221	0.09112608257556377
42	0x3fa9a8622bf37402	0.05011278902541251
43	0x3fc528b1a4207167	0.16530437959671504
44	0x3f8f1a08ba73f247	0.015186374845591944
45	0xbfa784640ff936f0	-0.045931937169923276
46	0x3f8ffe906131d285	0.01562226101507603
47	0xbfba70d7f21c4ad8	-0.10328435574437422
48	0x3f985b7ddf2b1e87	0.02378651308643367
49	0x3fcd3f9797850b88	0.22850317858145908
50	0x3fb2fe7cf4ab007f	0.07419568036402956
51	0x3fc305144caac0d7	0.14859250777727226
52	0xbfa7451facd3a9a9	-0.04544924721433869
53	0xbfbdd5e34071929a	-0.11654491732913144
54	0xbf941c3803af4783	-0.019638896202941247
55	0xbfc8447e0188a41a	-0.18959021639719326
56	0xbf7dbb76ed73c524	-0.0072588582618078636
57	0xbfc15a020cd41fae	-0.1355593264236154
58	0x3fb40c93910a8664	0.07831690112154771
59	0xbfc8743b6640074e	-0.19104712002450203
60	0xbf8683a90e573ecb	-0.010993309736391585
61	0xbfb17842e9631c86	-0.06824129293373646
62	0x3f552851e3060657	0.0012913512874494126
63	0x3fb722dec6e883db	0.0903758273712038
64	0xbfbe411bae17e93a	-0.1181809711487504
65	0x3fc6d4bef2087e4c	0.17836748903299549
66	0x3fc00909b0e5b885	0.1252758134609772
67	0x3fcb49d64e5fcdcf	0.21319083048693563
68	0x3faa07b6b7aa4d50	0.05084010116584159
69	0xbf6a496ffcd69d80	-0.0032088458308014434
70	0xbfbe9de26dad6578	-0.11959662606877497
71	0xbfde4042d5a529f0	-0.47267218459879157
72	0x3fca9262d1288a3d	0.20759234631357684
73	0x3faae3e034315d19	0.052519804354853324
74	0xbfc481d8301e3a15	-0.16021253919139214
75	0x3f97d5e87511eebf	0.023276931901348826
76	0xbf84ce080f6b4d89	-0.010158598871760531
77	0xbfc0bc7dbfe236e7	-0.13075229520148143
78	0xbfa06a84e55561b1	-0.032062676424803434
79	0xbfa7ce7b02d23f6c	-0.046497196287531434
80	0x3fbf1a81229d4bca	0.12149817557410283
81	0x3fa38dc179c5ff27	0.038190885653419486
82	0x3fb189e1bbd47a3a	0.06851015887921444
83	0x3fb87893cc9ad5fe	0.09558986420855572
84	0xbf903dd488ef5a06	-0.01586086355004037
85	0xbfbc1cad05bb1a4b	-0.10981255903161828
86	0x3f750c012fe4aed9	0.005138401639026313
87	0x3fb697972c86b610	0.08825058781686601
88	0x3f70809ec120b3cb	0.0040289117187457075
89	0xbfa48d38c2ba57cd	-0.04013993622827137
90	0xbfc5c7bf450f5b2a	-0.17015829917974062
91	0x3faa5605016fc85f	0.05143752710854765
92	0x3f750ac2705f9e13	0.005137214209731694
93	0xbfc339666f331db3	-0.15018921308204156
94	0xbfa6b911cc67abe5	-0.04438071842363182
95	0xbf91a3265fe49f39	-0.017223929980132644
96	0xbfc41986fb600e37	-0.1570290305536319
97	0xbf7bd0ffc00cf095	-0.006791113876541873
98	0xbfb10c6412e74ac9	-0.06659532033453809
99	0xbfa20a5ac35113cb	-0.035235248892184844
100	0xbfc10fafc6883351	-0.13329121774622846
101	0xbfbdcc3dab8cc9f8	-0.11639771879416816
102	0x3fc65a2211426c1e	0.17462564318415813
103	0x3fb5002fef4f32b0	0.08203410713685844
104	0xbfc95e180283d5e3	-0.19818401453782916
105	0xbf93d57aa27baada	-0.01936904541700355
106	0xbfb0778f9489f54c	-0.06432435394704789
107	0xbfc7f41af28106d7	-0.18713700142875808
108	0x3fbb24ad1945cf27	0.10602838389405332
109	0xbfb08e1fb6239c52	-0.06466863819842786
110	0x3fa33ab9e0e410ae	0.03755741949319834
111	0xbfca4fcc578074b6	-0.20556024811313528
112	0x3fcd6d658a466260	0.22990102054315553
113	0xbfb0035e255f74bd	-0.06255138790534694
114	0x3fb3d39547de5b5a	0.0774472523174671
115	0xbfb07bc43d7a04d6	-0.06438852787870827
116	0xbfbbde199859fd50	-0.1088577267600972
117	0xbf9551251e975eaf	-0.020817356102127146
118	0xbfb0b43d70479848	-0.06525024405672852
119	0x3fb5f2cdc6501e85	0.0857361420786394
120	0xbfbb29efefc71669	-0.10610866168925671
121	0x3fb0fc10a5911079	0.06634620706705786
122	0xbfc71c89a039e5fe	-0.18055839847129102
123	0x3fc10cfd2b307172	0.13320889099930927
124	0x3fb87e32dc69d955	0.09567563897312444
125	0x3fa0f238f449a9ab	0.033098010845452684
126	0xbfc3cd960961cd1b	-0.15471148927790854
127	0x3f74bb7e6bafbc92	0.005061620550789974
128	0xbfb3e8718997740d	-0.0777655564229038
129	0x3f7ad11115aab6f7	0.0065470378273582075
130	0x3fbec2224b19cc06	0.12014974912180784
131	0x3fabf6ad77ee52e1	0.05461637581826096
132	0xbfc5ee02e40cf37b	-0.1713260282066605
133	0x3fc8d3a05f61e6c6	0.19395832688660714
134	0xbfb1b417af3d009f	-0.06915424373892386
135	0xbfc65b9bb382acbd	-0.1746706606403218
136	0x3fd13c493a4ab1d3	0.2693045682197212
137	0x3fc3c21dfd52b60a	0.15436148518840326
138	0xbf8e07dbf569aa21	-0.014663427760031546
139	0xbf9d303008189454	-0.028504133695737302
140	0x3fb3e3e9997baa59	0.07769641873498169
141	0xbf95a712c66942ba	-0.021145146713311226
142	0x3f8eaa1e06397ff6	0.014972910466155991
143	0x3fa201e48eacee3e	0.03517069093365109
144	0x3fc584c6d28c278e	0.16811452179564096
145	0xbfab8c9557738ab9	-0.05380694096108613
146	0x3fc3bb080990dd27	0.15414524523814885
147	0xbfa904d910d68bc6	-0.0488651116422925
148	0xbfc14466319690d0	-0.13489987775131462
149	0xbfc9408a3229d319	-0.19728209924110088
150	0x3fcd0984f2e1fb1b	0.22685300693043406
151	0xbf8db621cbc7e79e	-0.014507545501135696
152	0xbfca9ef0739a44e6	-0.20797544140490415
153	0x3fbdb2115d8a42cc	0.11599834951108362
154	0xbf80fdd600eaae93	-0.00829665365502955
155	0xbf977b858c842a12	-0.022932135297233876
156	0xbfaae52ecad20501	-0.052529775865886925
157	0xbfb14ee8f31dd319	-0.06761032042943461
158	0xbfa2a47b251c0ce4	-0.03641114070890142
159	0xbfbbb2a9ab8ab8c0	-0.10819492757829874
160	0x3fbdd2ef678cce5f	0.11649986532284505
161	0xbfb39cb1fd2860b6	-0.07660973005875146
162	0xbfbdfa4801548bf5	-0.11710023910977425
163	0x3fb99e37024d1892	0.10007041746311732
164	0xbfa225ebb510c88c	-0.03544556222222281
165	0x3fcbf5f8bd918ec4	0.21844395881918477
166	0x3fb100d947ccd268	0.06641920092517639
167	0x3fbd73c5b0a35d8f	0.11504779398398156
168	0xbfd263959abdb5a7	-0.28732814895087205
169	0x3fc5e8266bc2e83b	0.1711471582582947
170	0x3fc10a74e8b0629c	0.13313161241309934
171	0x3fb036933fb30397	0.06333275132329984
172	0xbfb406f3a0658de1	-0.07823107400832142
173	0xbfc235123ebdcec8	-0.142244606624095
174	0x3fb16d74f2b4569e	0.06807642865563898
175	0xbf87d253b3e59c69	-0.011631635596769567
176	0xbfcb1a721f80c53d	-0.2117445615599908
177	0xbf721460a7376207	-0.004413964797514775
178	0x3fb548f36730a711	0.083144390766986
179	0x3fa552ac21c810ae	0.0416463652836979
180	0xbfc46f6201f2f563	-0.15964913458985128
181	0xbfc24958409e187c	-0.14286330371050215
182	0xbfc1e1ccba0a1c72	-0.1397033604045848
183	0xbfbfb733ca7b274b	-0.12388919537911851
184	0x3fcb2a5d23aab5b5	0.21223034135384258
185	0xbfb8ca04b7a2143c	-0.09683255656462192
186	0xbf8a311667450819	-0.01278893950132347
187	0xbfbfebb6537abeb0	-0.12469043291161586
188	0x3fc030fcd7da0c5c	0.12649498500477108
189	0xbfd8e8e91ade1745	-0.3892157328012796
190	0xbfbf1455d93d4178	-0.12140404275601735
191	0xbfbe594432be1e54	-0.11854959715685115
192	0xbfc50d27fd5ef557	-0.16446399566295142
193	0x3fbc97fb40c6f8cf	0.11169405299640121
194	0x3fb2027c932f1586	0.07035044282300448
195	0xbfaea6f0150e762b	-0.05986738450085868
196	0x3faee2c84e31f63a	0.06032396273165515
197	0xbfb09b1eb23b0a86	-0.0648669419415829
198	0xbfbcd4711fa07a3b	-0.11261660596981297
199	0xbfd21527625be3ae	-0.28254112820973887
200	0x3fcb5d1699944a64	0.21377832888591108
201	0x3fc75d732d23b4f6	0.1825393648536317
202	0x3fd111b75adf60ac	0.26670631288790037
203	0xbfbea39eca932037	-0.1196841473166622
204	0x3fce11eae8e3e7f3	0.23492180224985723
205	0xbfbd67f855c37985	-0.1148677071937297
206	0x3faf4b0a93dcf465	0.061119394826598485
207	0x3fc6fa9b4d727217	0.17952290803522494
208	0x3fb16310b8717475	0.06791786673552898
209	0xbfc467d3cbc74bbb	-0.15941855859872853
210	0xbfbde644b8e346d9	-0.11679486764776516
211	0x3fa82ff77f9edf54	0.047240957573591175
212	0xbfb713363dfdf93a	-0.09013690007666222
213	0xbfbb730d667a31c7	-0.10722430946243043
214	0xbfb66817623338c9	-0.08752580783331888
215	0xbfc4fa5a39777b9d	-0.163890150127341
216	0x3fd1a794b4175ed6	0.2758533247665417
217	0xbfd1d18bd81ac242	-0.27841468910176925
218	0xbfcf2cb57170ded3	-0.24355190314394423
219	0x3f6a31061be5dc64	0.003197204524606744
220	0xbf9f558153eb0a0a	-0.030599613902049717
221	0x3fb37fc616ed7dd2	0.07616842326887444
222	0x3f9f2050ea3b6e9d	0.030396713539501453
223	0xbfb4ef644d59b1bd	-0.08177782905995108
224	0xbf94968d22123ac6	-0.02010555763677748
225	0xbfc1a38c83402b73	-0.1378036156532648
226	0x3f99f61d8c40d7d2	0.0253529183248345
227	0xbf97de5fa0994e86	-0.023309225251365827
228	0xbfbea97374998fcf	-0.11977311703372993
229	0x3fc26857bad0d925	0.14380928632608306
230	0xbfbbf687a13d8fd2	-0.10923049627814344
231	0x3fd58fe84297f2cd	0.3369084024741767
232	0xbfd710bdd5421b5e	-0.3603968222236541
233	0xbfa0cd6cef03113f	-0.032817272354380915
234	0x3fd9d4ddffd02d81	0.4036173818755842
235	0xbfcfcef365141abd	-0.24850313601947063
236	0x3fbd5e7850f67df4	0.11472274757988271
237	0xbfd4f6e94c31d9af	-0.32757027092830077
238	0x3fb1400e2c4637e8	0.06738365727343842
239	0xbfbb494f53746e8e	-0.10658736979933733
240	0xbfc57feb2549ba18	-0.16796626396849557
241	0xbfc777a21267e9c7	-0.1833384122727024
242	0xbfc393003c505f17	-0.15292361207024704
243	0xbfb1f23fa7cba6b6	-0.07010267111368304
244	0xbfa3c2875fa1523f	-0.038593511985400834
245	0xbfb98c474a85d68f	-0.09979672974972174
246	0xbfb13bb1362e770f	-0.06731708119192724
247	0xbf9253f77e1a644e	-0.017898432800027834
248	0x3fc3162a30c2d657	0.14911391621505984
249	0xbfccf7fdfdf091b4	-0.22631811999702978
250	0xbfd3df4b77e932ee	-0.3105038329129418
251	0x3fc434072c4857c7	0.15783776914821443
252	0xbf7eb48d0e5167fa	-0.007496405601239426
253	0x3fbef92b0aa6ef91	0.12098950395642151
254	0x3f9cc2963a84b045	0.028086039849924544
255	0xbfc39f3bdc35f410	-0.1532969308135823

transformer.encoder.layers.0.linear1.bias f8 [128]
0	0x3fc314547b13296e	0.14905792245401578
1	0xbfc135081b340bd0	-0.13443089798246755
2	0x3fb64c34afd16671	0.0871003083460893
3	0xbfc1f14b13aebeae	-0.14017618619026478
4	0x3fb6f13c1d60cd17	0.0896184512828778
5	0xbf85ef8a7eb5b5e3	-0.010710794441105292
6	0x3faf11e52d929f7c	0.06068340474422393
7	0xbfcf58e07a8cb492	-0.24489980682247797
8	0xbfa55551dbca45e5	-0.041666563110208256
9	0x3fc4ea2efc4341a2	0.16339671437755238
10	0x3fcacc750dd23f78	0.20936453986041292
11	0xbfc3794bc4cd92ff	-0.15213915929339092
12	0xbfc32c2b8e9f5c57	-0.1497854658507289
13	0x3fc028c710940196	0.1262444334934229
14	0x3fc446aa33ef48bc	0.15840652023195456
15	0x3fae2cb55c6f21b4	0.058934848340473606
16	0x3fc9199c09e73d3e	0.1960940407138682
17	0x3fc4c48f9eb5d065	0.16224856614610697
18	0xbfbc1cc9469244a8	-0.10981424305852505
19	0x3fb38b317a9c7210	0.07634267085490642
20	0xbfc35e9b0ab51cf8	-0.15132463476968616
21	0xbfb4e4c1bcf395ca	-0.08161555159639203
22	0x3fc69c24bced0806	0.17664012169740334
23	0x3fc6b9e73f5a590f	0.17754831880001418
24	0x3fccf9352c50663a	0.22635521568081335
25	0xbfc5283abc791653	-0.1652902050283723
26	0xbfc25e193bbae0ac	-0.14349666038993314
27	0xbfd10b61368f3e9f	-0.26631956413346275
28	0xbfd043517f0cea8d	-0.2541087856986131
29	0xbfd1dae8756dfc9e	-0.2789860865377224
30	0xbfd092df9538c90b	-0.25896443912928707
31	0x3fbb8d3c4976985f	0.10762383264099772
32	0xbfc41adce0daa9f5	-0.15706978778082684
33	0xbfc3f3f11265a5c2	-0.15588200948995562
34	0x3faf0dd708f449f3	0.06065246567063189
35	0x3fcaa93e7a4a7eab	0.20828991862525945
36	0x3f8eb2dd1402fcf2	0.014989592717368858
37	0x3fa37d43dc5485d1	0.03806507172181351
38	0x3fbe129115f158ea	0.11747080598556506
39	0xbfcd50d273a50db5	-0.22902899405208435
40	0x3fc5ec8bd79617c2	0.17128131891894155
41	0x3fd11b7bea09c3e1	0.26730249266898737
42	0xbfd0a1e5499f1495	-0.2598813265761433
43	0x3fc9f234bb24e93e	0.20270403993510827
44	0x3fac9e52c5c9383f	0.05589541115169582
45	0x3fa6228b5f83edd3	0.04323230305632433
46	0xbf90029308385717	-0.01563482034369831
47	0x3fad1fca0ff6f305	0.05688315815812043
48	0x3fc513c89f4f21cf	0.16466625002637023
49	0xbfb7f4003636f0dd	-0.09356690715407319
50	0x3fc0096c9ca51fef	0.12528760574991746
51	0xbfa208ffe203bec6	-0.03522491106002472
52	0xbfc8a7e63d264269	-0.19262388215840368
53	0xbf823d82cc04fc66	-0.00890638527982741
54	0xbfc517059731d2ff	-0.16476507074880684
55	0xbf93648b514f048c	-0.018938233220755538
56	0xbfc1d080faab7382	-0.13917553176625225
57	0x3f6f8e70ec1776bd	0.0038521008980144365
58	0x3fbcd7fb590de704	0.11267062114884757
59	0xbf8c5c8aac7497ec	-0.013848384273455104
60	0x3fba87e36b86079d	0.10363599181257972
61	0x3fcbe463c3d188e7	0.2179074007172581
62	0x3fc64d75d949ba4b	0.1742389021851117
63	0xbfce76dd1bb2d21a	-0.23800243236986846
64	0xbfd0b9d502015dd0	-0.2613422889312149
65	0x3fca9a65c80e3442	0.20783684032758926
66	0xbfc695e7e77038cc	-0.17644976425839898
67	0x3fcdaf0af7354f14	0.2319043833800768
68	0xbfd04d9574d7ebf4	-0.2547353402184733
69	0xbf8b6c8ad65a4496	-0.013390621820948117
70	0x3fbe982eafacac86	0.11950961865356832
71	0xbfc0bf6016d4a14b	-0.130840312144992
72	0xbf13ec29fb2f42ed	-7.599836571548962e-05
73	0xbfd4272615a42498	-0.3148894511546785
74	0x3fa24c2414238cce	0.03573715921245367
75	0x3fb669aecf6aa33b	0.087550092352683
76	0x3fb4ba184ce88e99	0.0809645831837379
77	0x3f9ebc186da40fd7	0.030014402095744543
78	0x3fb715366e42d28f	0.09016742889327588
79	0xbfaab34b39042d4d	-0.05214915343284563
80	0xbfc59548ffc21b22	-0.16861832130617765
81	0xbfc9ff1f5e1ea52f	-0.20309822173775546
82	0xbfc735969ec2e896	-0.18132288696307758
83	0xbfcf729ae844448c	-0.2456849702944378
84	0x3f8de4f365f74012	0.01459684519696228
85	0x3fd01e171345f0a0	0.2518365562643883
86	0xbfcd9f103ea6c3f9	-0.23141673144485234
87	0x3fc51fe911561955	0.1650363287591953
88	0xbfb2ede08c556c10	-0.07394221712222326
89	0x3fc06411087f74dc	0.12805378832755465
90	0xbfc4db76619db8d5	-0.1629474617615815
91	0xbfc7a6c20c9a0746	-0.18477655043903435
92	0x3fb5ba6989fdfb4d	0.08487567538211956
93	0xbfcc67d506408e9d	-0.2219187050369457
94	0xbfc20c55cc285b32	-0.14100143879542198
95	0xbfc01700828ddcf6	-0.12570196509088988
96	0xbfc9db42c246d169	-0.2020038078895923
97	0x3fb8204c5e4f4082	0.09424283316116269
98	0x3fbd7853acfd3290	0.11511729215016886
99	0xbfc3ac2e20840535	-0.15369202220612413
100	0x3fc658aa2489b859	0.1745808294685414
101	0x3fb51624a27b989e	0.08236912695756124
102	0xbf96baaaca8dd1b7	-0.02219645367900266
103	0x3fba0b3c97ac86fa	0.10173395827271384
104	0x3fcd71e78d616449	0.23003858950940728
105	0xbfb354860fb5d76e	-0.07550847896149346
106	0x3fc76ba6de5e4c34	0.18297277314977267
107	0xbf5243679769cfea	-0.0011147033343634712
108	0xbfc22f97d91005b1	-0.14207742785224078
109	0xbfce7f4acd00f857	-0.23825964937163022
110	0xbfb379bdd5e6afc6	-0.0760763785571604
111	0x3f7fb941c6c1c3b4	0.007745034159698006
112	0xbfa6b1a98dab54b7	-0.04432420591698743
113	0x3fc07aa22e2bb3a5	0.12874247793606944
114	0x3fbb8e99df3f7451	0.10764466953647057
115	0x3f75fa93c72a85da	0.0053659222200237115
116	0x3fbc42c97c6b266d	0.11039408958017712
117	0x3fad4859ab071963	0.057192613723190865
118	0xbfc31f33d21a50ab	-0.14938972243237933
119	0xbfbe0126e4acf562	-0.11720507700825558
120	0x3fc102b801272bfb	0.13289547020244172
121	0x3fbf667258b8e804	0.12265696207114735
122	0x3fc7e3a83e99ae86	0.1866350465455648
123	0xbfb41083dc198bb7	-0.07837700007944091
124	0xbfcec83391dfaa82	-0.24048466322649992
125	0x3f97e841dd4e8b85	0.023346928722854727
126	0x3fc1e5fd76f92a07	0.13983124074214023
127	0xbfb83f931bc7b5ad	-0.09472007206178175
