Code/700-300/darts_logs/D-dep-75_transformer/checkpoints/best-epoch=199-val_loss=0.00.ckpt (torch, 653413 bytes, 205 tensors)

encoder.weight f8 [16, 1]
0	0xbfd9b5c7bcc1469b	-0.4017199843702685
1	0xbfe6addcbee07ce9	-0.7087234237732477
2	0xbfe94c6a65eb9e8d	-0.7905780783302859
3	0xbfeb49d19563e30c	-0.8527610700394646
4	0x3fe6c546447b87c1	0.7115813577222455
5	0x3fed27055d9093b1	0.9110133006512254
6	0x3fbc5d57c3184876	0.11079929841096878
7	0x3ff03aef5199c8d8	1.014388388397995
8	0xbfe5c022e7a6952a	-0.6797041439464568
9	0x3feeb16bb44d1e4d	0.9591578027256645
10	0x3ff36c52d39932e3	1.213946177059534
11	0xbfed7aff43bf1fd5	-0.9212642977881794
12	0xbfd6720e06794880	-0.3507113517017686
13	0xbfe90ecbd1bcd3ea	-0.7830561729848544
14	0x3fcca91d51998dc0	0.22391096577039882
15	0x3fd60a12dcda6baf	0.3443648487824999

encoder.bias f8 [16]
0	0x3fddb472698b3761	0.46413860613835395
1	0xbf69ceda14b4ca40	-0.0031503924743898903
2	0xbfe49141a6cf35c1	-0.642731500434529
3	0x3fc0da0ebfe01651	0.13165459031022178
4	0xbfd8521f5362925c	-0.38001235144682766
5	0xbfee9fd124114dad	-0.9570089058346888
6	0xbfed6aabf5918908	-0.9192714496860228
7	0xbfd11b53eeb10482	-0.2672929602595745
8	0xbfd37f3b22f4f05e	-0.3046405640959672
9	0xbfed73e07c935f18	-0.9203951295012045
10	0xbfcda29111fabe21	-0.23152364137557505
11	0xbfe1ce3319c86297	-0.5564208510941907
12	0x3fb39b62cd07239b	0.0765897512966504
13	0xbfd2bbc372af2616	-0.29271017264963584
14	0xbfe6f8f74b0b6385	-0.7178913560593264
15	0x3fbe220d7fafea59	0.11770710341799297

transformer.encoder.layers.0.self_attn.in_proj_weight f8 [48, 16]
0	0x3fd05224fd28c324	0.2550137016542513
1	0x3fa02acc4b0bc0dd	0.03157652298057354
2	0xbfd5af8efce51c9e	-0.33884024330877505
3	0xbfc5f76758593392	-0.1716126614941485
4	0x3fcde56c7ca0141a	0.23356395802707725
5	0xbfc75672b0736482	-0.1823256837440433
6	0x3fc978d3b418af92	0.19899984639903018
7	0x3fdc100a71a49917	0.438479052524046
8	0x3f9947cdc6fd07b4	0.024687972326553356
9	0x3fa06b9867ea4309	0.032070887265154786
10	0xbfca50af9e5a1ae3	-0.20558734161405487
11	0xbfcdf3dc20180f53	-0.234004512473002
12	0xbfab8b1235522275	-0.053795403489009276
13	0xbfbf547f1cee2eaa	-0.12238306480702002
14	0xbfd0c8c76c94bec2	-0.26225457767121096
15	0xbfc4d219a5dc9e74	-0.16266174887390472
16	0x3fb32c09b6476cf8	0.07489071560069138
17	0x3f82e70ea692bf2c	0.009229769190227076
18	0xbfd52a57476170c1	-0.3307092854572709
19	0x3fbacffb93b6e565	0.10473606449422375
20	0xbfd15f3151f496c4	-0.27143509868106386
21	0x3fc0c54a5c08ef3f	0.13102082723514205
22	0x3fc87ee6b415d34d	0.19137271683907855
23	0xbfc3c734bd127451	-0.15451678497348323
24	0xbfbb27cb9bf95986	-0.1060759788318589
25	0x3fdc9926fc55f38c	0.44684767381823387
26	0x3fdc369d3283f5cf	0.44083337720061605
27	0xbfd5998226ab84f2	-0.3374944093357747
28	0xbfe05f93ab9f4d94	-0.5116670944211585
29	0x3fc29a5f921d5c1f	0.14533609995371052
30	0xbfc2160326567d1c	-0.14129676219906961
31	0x3fd405de09fa8b58	0.3128581139991886
32	0xbfc2cf60edd77db6	-0.14695369351737292
33	0x3fd1995a24fb00ae	0.27498487101912417
34	0xbfd343674277a63d	-0.30098897448496925
35	0x3fa81a5943bc8869	0.04707602455006638
36	0x3fbbba0fd8f4abc6	0.10830782934924263
37	0x3fd6776a7c6ce336	0.3510385718432646
38	0xbfc45c005fec29ce	-0.15905766185490083
39	0x3fb23779d09274cc	0.07115899412243037
40	0xbfc94d60347d4d2b	-0.1976738220497308
41	0x3f8938e342894588	0.012315535991691787
42	0xbfc52cbe37539c90	-0.16542794896597401
43	0xbfb6e01fb5b780e1	-0.08935735880322994
44	0xbfe17e80746ae286	-0.546692111375777
45	0x3f9fc72fdb460e7c	0.031033275373842248
46	0x3fc7f3098a8f2cf1	0.18710440888967342
47	0x3fb1ffdb3bf8ddad	0.07031030859149352
48	0xbfcd5231cc76e4a4	-0.22907087787260594
49	0x3fd0b27b60a5f489	0.2608936733084382
50	0x3fbccac6a97ee966	0.11246911657409484
51	0x3fc634cc8110b892	0.1734862928582897
52	0x3fd15d5dd754092d	0.2713236429991806
53	0x3fbea2c0b7caf497	0.11967091071251655
54	0xbfc18f3a36ad3311	-0.13718345327142648
55	0xbfa80db7561f1836	-0.04697964597976105
56	0xbfdda745e51a5c87	-0.46333453534447994
57	0xbfc65de09fa1ef2b	-0.17473991198118574
58	0x3fdacf50f6a0ae83	0.41890358051998805
59	0x3fa8d3b21ade5029	0.04849011018737343
60	0xbfe0d5132b7e25fc	-0.5260101174800975
61	0xbfcb12f8ee4bfc7b	-0.21151649127566316
62	0xbf942100f64b6006	-0.01965714934598852
63	0x3fccab4924c9d2fa	0.2239772252684345
64	0xbfd4475ba785bad0	-0.31685534820182415
65	0x3fb8b70e6ce5e5e0	0.09654321821826484
66	0x3fcb365e2f8eb985	0.21259667703766297
67	0xbf7240d0ea28f8d3	-0.00445634467410923
68	0xbfc64188f00e1f3a	-0.1738749668259006
69	0x3fd0e1c043fce0e7	0.2637787498420167
70	0xbfc12ed4cf097890	-0.1342416773722488
71	0xbfcc814f0d539a44	-0.2226961913176685
72	0x3fcc8c6c13055235	0.223035344398015
73	0xbfa5bbdbfba112f1	-0.042448877779440404
74	0x3fceddbae200f486	0.24114166293466982
75	0x3fcfd302441dfd71	0.24862697912247314
76	0x3fa51f6ccb0afb4d	0.041255378518590825
77	0xbfc1603aae4d29fe	-0.1357491828042185
78	0x3f9f60c2b79d25a8	0.030642549950504666
79	0xbfcbc5cf923fc3a7	-0.21697420731609648
80	0x3fd6f8f3b514048c	0.3589448231069319
81	0xbf87046875e92626	-0.011238876436567468
82	0x3fbaa0f7fdefc04d	0.10401868772146479
83	0xbfce26b1bde23289	-0.23555585643443447
84	0x3fbdcb2091360d56	0.11638072533792373
85	0xbfa42d3be1b68ccf	-0.03940760736738868
86	0x3fc2376a2134695a	0.14231611844372588
87	0x3fa56a06b4928c92	0.04182454065564757
88	0x3fc56a48e83a2bfd	0.16730605448933025
89	0x3fc017bbe21c69dc	0.1257243017251558
90	0x3fcefa2516ed4ec8	0.24200881595117196
91	0x3fa2d3b1b5d02a12	0.036771348422991804
92	0x3fc8b86eca01f77c	0.1931284414640081
93	0x3fa6600beb5e6b24	0.043701527101083465
94	0xbfcd1158902b8812	-0.22709185638001422
95	0x3fd3ab78fc221e98	0.30734085676565703
96	0xbfc6c0a07e8bb4bc	-0.17775350741377405
97	0xbf9e68ab19008f44	-0.029696153069507916
98	0x3fc293f7a1f0a830	0.1451406040881138
99	0x3fcbb3ffd480358a	0.21643064380661442
100	0x3fb67f2ced6c4847	0.08787804409465237
101	0x3fd65e78fa4bfb7e	0.34951614802405817
102	0xbfb3f8206923edbf	-0.07800486151602735
103	0xbfd26c3763984cf4	-0.2878550026518518
104	0x3fd18654aeb9df22	0.2738239008244695
105	0x3fcd5a0a66a9d807	0.229310321930541
106	0xbfd3f8e70260aa9c	-0.3120667956560881
107	0x3fd3ebae1c3146a9	0.31125977280781086
108	0x3fd74584977a75fd	0.3636180381089103
109	0xbfcd90994efe0616	-0.23097530705494823
110	0xbfcb693dcdf8d8b0	-0.21414921338300053
111	0xbfd57ff7c080d4f3	-0.3359355335154099
112	0xbfc60b542be7acc4	-0.17222072738454675
113	0xbfd5210d0787d368	-0.33014226661116775
114	0xbfbbf1ab431e60ca	-0.10915632618560092
115	0x3fd26f33fe0be087	0.2880372982904266
116	0xbfd6df61cf3afe0b	-0.35738415944430874
117	0xbfa488a29a65b455	-0.040104943606686184
118	0x3fb5d13bdb12befa	0.0852239045950646
119	0xbfc42ad916591294	-0.1575576171036529
120	0x3fd0eea21c0a085b	0.26456501711084507
121	0x3fc70c9aa5b741db	0.18007214633554622
122	0xbfd71ad54956fdc7	-0.36101276552286915
123	0x3fc5d65b2625e766	0.17060412752817483
124	0x3fe1da005e0bfa7f	0.5578615033007991
125	0x3fcd12478a59dd72	0.22712034469052927
126	0xbfc541adeca1ebe6	-0.16606687597581454
127	0x3facbfd4e3243646	0.05615105889056031
128	0x3fbcc268901baf38	0.11234143751397319
129	0x3fc3c82ecc4909ce	0.15454659438007784
130	0x3f99c868b15d6e96	0.025178561997889114
131	0x3fc8e01be20ba847	0.19433926141147337
132	0x3fd7ca8617f2f9e3	0.3717360719564608
133	0x3fd0aa536c6d7028	0.260395866285537
134	0x3fc8f72d1b69729f	0.19504321897956786
135	0x3fa333c8e1504901	0.03750446081552817
136	0x3fd39d60264dde83	0.30648044338838804
137	0xbfd138ede7d7ccea	-0.26909968987383925
138	0x3fc64caa12f1e102	0.17421461033860203
139	0x3fd1ce12de6fefb9	0.2782027408827577
140	0x3fe58d6ee34b2044	0.6735147895169651
141	0xbf844e389c07c971	-0.00991481996695562
142	0xbfa26cbd0c8a748d	-0.03598585870825231
143	0xbfc822c1fc20ae24	-0.1885607224552227
144	0x3fd4a2a85a08f79b	0.3224278334854433
145	0xbfc4d71fbbd90305	-0.16281506225825396
146	0x3f984d6c0b7e2a9a	0.02373284168383325
147	0x3fd25a5faa0e640c	0.2867659722047058
148	0xbfbd99999d9edae8	-0.11562500093610206
149	0xbfbe31edbe04d8ec	-0.1179493512071052
150	0x3fafcd9a2fe22ae7	0.06211549601092319
151	0x3fab877ca98f7b80	0.053768058489132464
152	0xbfd7b2c5f0d9387d	-0.37028645058024506
153	0x3fe00fa990018c38	0.501911908399399
154	0x3fd5ec1c7c3ccb26	0.34253608830037974
155	0xbf959d0e1c53211d	-0.02110693023567577
156	0xbfefcaf71576d40c	-0.993526021883214
157	0x3fd59d0eb1167e36	0.33771102231728223
158	0xbfa3670637107803	-0.03789538786098492
159	0xbfc6f58341114e80	-0.17936745335702042
160	0xbfae9efa2f117a26	-0.059806650396002234
161	0xbfc1add442402421	-0.13811734423532676
162	0xbfac01b73df042af	-0.05470059043012065
163	0x3fd4bf3db2c42b99	0.3241724248661569
164	0x3f9c3cccf8001388	0.0275756861083383
165	0x3fe233bab41b4c25	0.5688146131236677
166	0xbfa4d902493f67da	-0.04071814674507808
167	0xbfdcfd0d223620a9	-0.45294502583466084
168	0xbfc09aa31f4f0846	-0.12971915272470563
169	0xbfc2b88cfdf4ee18	-0.14625704193336797
170	0x3fd3acf6dbd22f76	0.30743190256975284
171	0xbfcf2a3467a73fcb	-0.24347548543164374
172	0xbfdaefa86026a9dc	-0.42087754621266327
173	0x3fcb6c140190eaf3	0.2142357833525562
174	0xbfbae4ccba9d851f	-0.10505370670354751
175	0xbfd394bce4045756	-0.30595323817521114
176	0xbfd6b5148e2cd5a4	-0.3548022640637447
177	0xbf9fa05cf305ba3f	-0.030885174115093724
178	0x3fd3ec9dac04b3f6	0.3113168887965111
179	0xbfd1be3aa5ac8d84	-0.2772356622610561
180	0xbfb97d008cb85efc	-0.09956363139678709
181	0xbfb8ad69089fde1d	-0.09639603100355783
182	0x3fd3b6bdad4da6fb	0.3080286209502529
183	0xbfd78cbc1cbdf17b	-0.3679647713359128
184	0x3fd81512b6e25360	0.37628620013975045
185	0xbfc1ec90916c3c0f	-0.14003188229295957
186	0xbfdaebb2a385fa7b	-0.42063585251882046
187	0x3fc5cd788176acb1	0.17033296891654495
188	0x3fe05ea1383e7880	0.5115514849201332
189	0xbfcaf6f946b599e5	-0.21066204025846882
190	0x3fd4b853f2278463	0.323750483015891
191	0x3fb6e1dc359b2782	0.08938385304204924
192	0x3fc396ab23b547a8	0.15303553813515447
193	0x3fa445fc5dd5ce2f	0.03959644933175032
194	0xbfb9f8d5cfa92541	-0.10145317382661735
195	0xbfcba03dc3c2b180	-0.21582767542475878
196	0xbfb85c13b54f42fa	-0.09515498329643526
197	0xbfda2fd061e69b89	-0.4091683345854383
198	0xbf97d827cd50422f	-0.023285505205480724
199	0x3fe2c3d1d660960d	0.586403769212383
200	0xbfd5c1ea67dc8c7a	-0.3399606718323366
201	0xbfa14b342728f9e4	-0.03377688386943925
202	0xbfb25f526d3bfbbf	-0.07176699797490381
203	0xbfb2cab6bdd2dfb4	-0.07340566763275441
204	0xbfef85665f76b31f	-0.9850341667675798
205	0xbf689d666717cd11	-0.0030047416737432127
206	0xbf9351e8a9f7d1b5	-0.018867144941354847
207	0x3fc2bd5ee6d3ef9e	0.1464041354264482
208	0x3fcf5f60ce5e3a82	0.2450982101112978
209	0xbfd1f8766954424c	-0.2807899502377367
210	0xbfd064509037a352	-0.2561227234241886
211	0x3fa459b276f5c8ad	0.03974683477544381
212	0xbfd1cf6782d15cf0	-0.27828395629099045
213	0xbf8d18d1f43abcb7	-0.014207496896544531
214	0x3fc002f831904d9e	0.12509062213994765
215	0x3fae1f2315b7c046	0.05883130684003439
216	0xbfe0b84cf16eeef1	-0.5224976268286509
217	0x3f95eb7cfab73299	0.021406128694979463
218	0xbfba22b24c75fee6	-0.1020919262573404
219	0xbfc7b0aaf2bdfdcf	-0.18507897236484758
220	0xbfd234373ffe9ab2	-0.28443700074641776
221	0xbfd01f29e615ca71	-0.25190207928895975
222	0x3fc891af3bb5ce3c	0.1919459382585148
223	0x3f987f3de18870fb	0.023922888651314072
224	0x3f9fb23436f77b17	0.030953231673147643
225	0xbfb51876438d1ebd	-0.08240451001358458
226	0xbfd1bfe73e0277a3	-0.2773378472864982
227	0x3fd2042b4387b6df	0.28150445551623976
228	0xbfc429f595043016	-0.15753049637021438
229	0xbfd01f47bb1d91b8	-0.25190919182775984
230	0xbfd19a0feebaafa3	-0.2750282126751193
231	0xbfc3bd8f6b4a4cec	-0.15422241915494028
232	0x3fc9620e4e213aa0	0.19830492796832733
233	0x3fd2e082df9b7cd5	0.294953077665878
234	0x3fb9749c17ebe265	0.09943557342547533
235	0xbfa2702d4d834129	-0.03601209231567488
236	0x3fcc94dfa23d4426	0.22329326078264095
237	0xbfb9cc88e591083f	-0.10077720265056288
238	0x3f9c4fa00be8f5ad	0.027647495963028557
239	0x3fd45c235278b19e	0.3181236558328012
240	0xbf98e71fa1d4f04a	-0.02431916642420643
241	0xbf961127594ee913	-0.021549811197226165
242	0x3f7faa87f765130b	0.00773099052304783
243	0xbfd27497b9533bb4	-0.2883662519279213
244	0x3fd4db6eecffc3d1	0.3258931459850461
245	0x3fd4b56a4732cd01	0.3235727019593498
246	0x3fc77e5b49fcbc30	0.18354359734209558
247	0xbfd0e86de88b4e89	-0.2641863604487545
248	0x3fb5c9643f1248c8	0.08510424175100006
249	0xbfa034900629dd8d	-0.031651020767578954
250	0x3f90be22159ae464	0.016350300377528618
251	0xbfde0edfb98ac962	-0.46965783233021885
252	0xbfd8a37e9749348f	-0.3849789121057449
253	0xbfda8a1414728fd4	-0.41467763897730703
254	0x3fdaa7c90ae008d1	0.4164908033564077
255	0xbfe07600a8e3b7e0	-0.5144046114562535

transformer.encoder.layers.0.self_attn.in_proj_bias f8 [48]
0	0x3f9a54a9abb3fa66	0.025713587860986563
1	0xbf7efe52a507b3a6	-0.007566759901675468
2	0xbf9128e7ea2b50a7	-0.016757606189302134
3	0xbf94495dcb13b104	-0.01981112052901414
4	0x3f9b4f8691117ea3	0.02667055378367301
5	0x3fbeedca84886b78	0.12081590400377518
6	0xbf798eb2cdbf28e3	-0.006239603473611607
7	0x3fb2276b148ea248	0.07091397525676613
8	0x3f90f113f512ddfa	0.016544639428245113
9	0xbfa91be5e33c6a05	-0.049040969837921757
10	0xbfb376f253c0dec9	-0.07603373093376854
11	0xbfab857082e234cd	-0.053752437569622204
12	0xbf92902b185ba430	-0.01812808357400203
13	0xbf74478a23d5d3b2	-0.0049510379879977185
14	0x3fc4c7b71c1e066f	0.16234482643999423
15	0xbfd3e50af7cd21d3	-0.31085466574998327
16	0xbd404db6dc68c30a	-1.1584384287049687e-13
17	0xbd625440025a0308	-5.209444027135193e-13
18	0x3d4d485cb03aa667	2.0806584411066886e-13
19	0x3d48f3ae65ab839a	1.7729376963373318e-13
20	0x3d1fd1f674847036	2.826198551371905e-14
21	0x3d26ec0173a3699b	4.071746877686638e-14
22	0xbd374657c57f7610	-8.268861786021492e-14
23	0x3d600bb1dec005a5	4.560457350806877e-13
24	0x3cfe8339989314d7	6.775157678246574e-15
25	0xbd405856035181ce	-1.1613865391986627e-13
26	0xbd4f2457bcff11ee	-2.2127696140976934e-13
27	0x3d63b5343a3133fa	5.601301659099994e-13
28	0x3d4ba3092bb4b0eb	1.963716917726665e-13
29	0xbd2d3defb9ffe2ad	-5.194411867219485e-14
30	0xbd22688800e8e356	-3.269975445891754e-14
31	0xbd5118ebb44dfb30	-2.4296790801403973e-13
32	0x3f68d59d86065f48	0.003031547225145124
33	0x3f887710683deeb5	0.01194584673043351
34	0x3fa20ea6940c37a2	0.03526802594397728
35	0x3f92aabbd0d67bd2	0.01822942220826091
36	0xbf89d1cca0d07a83	-0.012607191713013726
37	0xbf8d4ea0c59aa056	-0.01431012728728846
38	0x3f836fe4e1f201ed	0.009490764756493209
39	0x3f86e107f9f7e040	0.01117140037148101
40	0xbf9e1354cf0f56f5	-0.029370617998060806
41	0x3fb3a40a75a61883	0.07672181484494627
42	0xbfa3138975d67d14	-0.037258430132391634
43	0xbfa3caa7446731a6	-0.0386554976463203
44	0xbf714b221350aa53	-0.004222043139672299
45	0x3f9bf0aa92887957	0.02728525657050204
46	0xbf95ac8dd8021911	-0.0211660540667476
47	0x3f9b013090532402	0.026371725853810098

transformer.encoder.layers.0.self_attn.out_proj.weight f8 [16, 16]
0	0xbf95239382fdd019	-0.020643524999698657
1	0x3fd8163a3c50f1ad	0.3763566578889151
2	0xbfd52631cab72bb0	-0.330456207241407
3	0x3fc37641bc1819e7	0.1520464104107326
4	0x3fcbde1d49c54b0f	0.21771589376529518
5	0x3fcdda7d1a15ff82	0.2332302453396516
6	0xbfcfb26bceaa4855	-0.24763248053619927
7	0x3fc266134cd3fa69	0.14374009372109534
8	0xbfc2d8bcc5a7aa89	-0.1472393002616921
9	0x3fda847d759733a9	0.41433655246219786
10	0x3f5df16b5768183c	0.0018275783783123908
11	0x3f80ea00b2c804d8	0.008258824783299465
12	0xbfd883900b09c9b8	-0.38302994802429735
13	0x3fd1f2e814466033	0.28045083980532864
14	0xbfcebfea377f0ae7	-0.2402317782380898
15	0xbfa14548b6912a20	-0.03373172024346993
16	0xbfd4fbc2abbd0ed9	-0.32786623736704495
17	0xbfb892f7349ea38e	-0.09599251780185922
18	0x3fc7899dd53622f7	0.18388722334591254
19	0x3fb10a20693a6790	0.06656076973959402
20	0xbfcabf8cc6ec7822	-0.2089706393534821
21	0xbfb3f994e1d1469f	-0.07802706254121937
22	0xbfb9822aeadc409d	-0.09964245065589457
23	0xbfd94059f7c64d70	-0.3945527000116362
24	0x3fbd9900e7875d93	0.11561589863355541
25	0xbfd6cc8389a7b2f4	-0.35623253291014056
26	0xbfc40a1cdd921b2a	-0.15655861681826738
27	0xbfd8b2add1c575cb	-0.38590569959145843
28	0xbfdbde9e7fead22e	-0.4354625939552389
29	0x3fd781015cb993c4	0.3672488599316319
30	0x3fcef70ab000f50b	0.2419141158478982
31	0xbfb4a3cbe22cb1fe	-0.08062433502045249
32	0x3fa440e6891a1674	0.039557651744911576
33	0xbfdd2657b7d88099	-0.4554652495735439
34	0xbfcf9b3e4a6d0ff1	-0.24692515024264552
35	0x3f7a7c343e86e827	0.0064661064902172055
36	0x3fc7f7e529bc2bef	0.18725266015857708
37	0xbfd0f27e2b47d884	-0.2648005888617109
38	0xbfd68f7ed0409293	-0.3525082620347259
39	0xbfd3849657e37572	-0.3049674852644194
40	0xbf9305fb1898e8c1	-0.01857750260953917
41	0x3fd49b32624e22bb	0.3219724617015733
42	0xbf96764b86027e53	-0.021935634664826797
43	0x3fc409e06b5535bc	0.15655141106473802
44	0x3fdced98194892ad	0.45200159520235667
45	0x3fce829530bcc41c	0.2383600700354983
46	0x3fe20242b49dc4a3	0.5627759483014824
47	0xbfde2aa4dd91565d	-0.47135278356049587
48	0x3fd92ebd280cf550	0.393477715598995
49	0xbfc8171cd4bacbf4	-0.18820534121695653
50	0x3fb01cc9d2ed5e2d	0.06293927573766984
51	0x3fa7f752b226800d	0.04680879997908969
52	0xbfd59259e5c305a8	-0.3370575660483959
53	0xbfcfbf0cea01245a	-0.24801789690016812
54	0x3fcaddd7072daea9	0.209895018105603
55	0x3fb6b7569191fa75	0.08873501829109805
56	0x3fd60b3b639a586b	0.3444355461773571
57	0xbfce773753e9f9a4	-0.23801318738328547
58	0xbfc57a6589d110ac	-0.16779774884537824
59	0x3fb684f9c2bec2f1	0.0879665470554405
60	0xbfb50bf239d1a5dd	-0.08221353446574349
61	0x3fcaf63984397b97	0.21063918072010487
62	0xbfe11da26ba37cd7	-0.5348674871746891
63	0x3fa6dc2c6e3d278f	0.04464854093255532
64	0xbfd2bd401685354b	-0.29280092429401766
65	0x3fc22ab1e80741a1	0.1419279463721184
66	0x3fd170f17213d530	0.27251850262048816
67	0xbfdae0cc583e41a6	-0.4199705945730109
68	0xbfdc0666cc0a38c6	-0.43789071965956017
69	0xbfd06b655d9dde2e	-0.25655492918255873
70	0xbfca093bba286a46	-0.20340677823772263
71	0xbfd8f46cf4f69765	-0.3899185554713454
72	0x3fab9c4bc764a243	0.05392681893346609
73	0x3fd1ac8c094029ed	0.27615643409140384
74	0xbfd80a35947baf2e	-0.3756231260328943
75	0xbfd46399b25e7aca	-0.31857912463048577
76	0x3fc98226d51f9ca8	0.1992844143526089
77	0xbfc2913d4c02872f	-0.14505735598964395
78	0xbf87862b4d813b22	-0.01148637609744935
79	0x3fdfd46a1b5b70b0	0.49733975097275174
80	0x3fc4861ad6a28627	0.1603425548574233
81	0x3f9efe706cabadfa	0.03026748336098526
82	0xbfc699610d927b49	-0.1765557590742566
83	0xbfd43d2029e21cdc	-0.31623081293260014
84	0xbfd130c87756a63c	-0.2686024823584352
85	0x3fd769c38fbc4300	0.3658303168931951
86	0xbfc5671091d9a29e	-0.16720778581227064
87	0xbfd13867771dc8b4	-0.2690676367993874
88	0x3fc234aa0ca8f3ee	0.14223218553698252
89	0xbfc15d934b932937	-0.1356681937234698
90	0x3fce903cb6f7ec34	0.23877676900869604
91	0xbf7581c78859fdbd	-0.005250720428761677
92	0x3fce84b46dbc4fd2	0.23842482908423662
93	0x3fd2f4151e640228	0.2961476132186669
94	0x3fc5b14fbe0b46d4	0.16947361735815625
95	0xbfcb97f3e6ccb243	-0.21557472962867238
96	0xbfd5756c34bde826	-0.33529191160744387
97	0x3fd56e7719a09be9	0.3348672628657697
98	0xbfce561e3a32ea30	-0.23700311509840466
99	0xbfdb2b7ed048823b	-0.4245297464385975
100	0xbfb315ee21c413f0	-0.07455337833751208
101	0xbfb328518b07ac51	-0.07483396190916493
102	0x3fd64581093b8c62	0.347992190376493
103	0xbfd3ac75921803a5	-0.30740107790921406
104	0x3fbafe739fa99017	0.10544512413031303
105	0xbfa36c4e86de1f97	-0.03793568989118439
106	0xbf8860e0234e3ba4	-0.011903525426331836
107	0xbfd0ba210a8b4991	-0.2613604166955606
108	0xbfceb111a95b7a30	-0.23977871674920115
109	0xbfd1a7a92478fd42	-0.2758581978013873
110	0xbfbec9d992cb3a20	-0.12026748498758666
111	0xbfc56162dcc0a2dc	-0.16703449038438734
112	0x3fd9c492c6c4f01e	0.4026228848558747
113	0x3fc953a3a7f47af4	0.1978649683087138
114	0x3fd5788af1afccdc	0.335482345602214
115	0x3fba460fd8c68799	0.10263155977602735
116	0x3fd4a6f53f1e5e39	0.32269030727318043
117	0xbfd60628743a8ad1	-0.3441258559270582
118	0x3fc5a4e1f25c1b72	0.1690943177602225
119	0x3fcab4d4b9bc1f28	0.2086435229214143
120	0xbfcd7165c3936c58	-0.23002311753848192
121	0x3fc371f2b21adc14	0.1519149179127629
122	0x3fc1b64b499ee8a6	0.13837567419779367
123	0xbfbefc87e8129c65	-0.12104081550443054
124	0xbf61d7de11793665	-0.0021781289358731464
125	0x3f9dbcaec7f45286	0.029040080026862224
126	0x3fb14db29d38fe47	0.06759182299082865
127	0x3fd1b889480414d2	0.2768881991654101
128	0x3fd45b22575f3bb1	0.3180623868219597
129	0x3fa9d5f70c18be53	0.05046054861702189
130	0xbf9b374b83ad7def	-0.02657812110134999
131	0xbfd6e0f7e2ba280c	-0.3574809755451731
132	0x3fd7e16b6373fc12	0.37313351356709845
133	0x3fccc317975e8f0c	0.22470374003489046
134	0x3fd7fa2b0aaddaa0	0.3746440510071043
135	0xbfcb7a3b8469c301	-0.2146677395390029
136	0x3f9d5f5d24d7413d	0.02868409669264448
137	0x3fc5b4e454571561	0.1695828830544697
138	0xbfd502b4118cc444	-0.3282900020013282
139	0xbfb8e4b2cdb3c220	-0.09723966142679119
140	0xbfc432c69568ec18	-0.1577995519199653
141	0x3fcde08ceb137f1a	0.23341523626640354
142	0xbfb1ab3ce0c8ddd2	-0.0690191315451252
143	0x3fd0de881c79d31a	0.26358225613448527
144	0x3fa171766568e271	0.03406877506171647
145	0x3fc8975d5b0aa9d8	0.19211928315537707
146	0xbfd6982107bd40dd	-0.35303521877086813
147	0xbfccdd095cd14d98	-0.2254955008707895
148	0x3fdb8fbf1ea68bf9	0.43064859383792925
149	0x3fc075c5e63350e2	0.12859414806610575
150	0xbfcc9f18a80e2784	-0.2236052342016671
151	0x3fd37f945f9b9f22	0.30466183983524975
152	0xbfd3d502c20ca0b8	-0.3098761458409274
153	0xbfd3ed4da1a164d7	-0.31135884079192294
154	0x3fc789aea8fec931	0.18388922931405596
155	0xbfd51a50077cf831	-0.32973099452272253
156	0xbfb2aaca2626ebbb	-0.07291854316183237
157	0xbfb4cc447af59722	-0.08124187471329639
158	0x3fe4cb1503b29a51	0.6497902939052641
159	0xbf952ff97b8dae6a	-0.020690820852378534
160	0xbfcf580120622384	-0.24487318116396406
161	0xbf9bf4857df481a4	-0.027299962818803217
162	0x3fc9b2eb52a09495	0.20077268156561404
163	0xbfcc9cb8e8315a49	-0.223532784819968
164	0x3fb6f1cfba58e190	0.08962724971286762
165	0xbfb88a1dba1392f3	-0.09585748474962567
166	0x3fd5e7cacff6e679	0.34227247532871946
167	0x3fd128ce0900285a	0.2681155288597715
168	0x3fc0b83436f31c65	0.13062145884598234
169	0x3fd05d378efd7015	0.2556895157229076
170	0x3fb9e311cd7d18a8	0.10112105624020507
171	0x3fc096b338dd65a4	0.12959900166133054
172	0x3fd8fff8dd28736b	0.3906232986208155
173	0x3fd3eddf03399616	0.311393502377855
174	0x3fcc98ea20930d7c	0.22341658201740333
175	0xbfd41aac110ebb80	-0.3141279379441855
176	0x3fca285b6f4ee345	0.20435660300224803
177	0x3fc7985789640662	0.18433660706073157
178	0xbf6b68ccda3ec102	-0.003345871069505902
179	0xbfd8dd2b4474b9ff	-0.38849908528473515
180	0x3fa65d256130eb9b	0.043679397691867204
181	0xbfd35b857a306772	-0.30246102268721764
182	0x3fdbd8986963596d	0.4350949315243245
183	0x3f7a42e4d0ba4645	0.006411451158457708
184	0xbfccf543bb01bbdf	-0.22623488074483952
185	0xbfcfed1ed57d20ea	-0.24942384170777326
186	0xbfb906a1b732c2b4	-0.09775744173635809
187	0x3fc7a76525993a58	0.1847959931933072
188	0xbfd724c92fce82c7	-0.3616202322828425
189	0xbfc98459b5971ca3	-0.1993515144988339
190	0x3fb284ed655d0c5d	0.07234081005758371
191	0xbfd2a2afd3ffe672	-0.29117961600386544
192	0x3fd1de4708520d02	0.2791917401556959
193	0x3fd2db38a3501a55	0.29463020275617186
194	0x3fd0bf66490fb1b0	0.2616821015824611
195	0xbfcf88a92ad50afd	-0.24635805694023097
196	0x3fda51b50cbb82ca	0.41123701327709894
197	0x3fb7efc7528eb540	0.09350248113215276
198	0xbfcac0a9c5142d9c	-0.20900461314191154
199	0xbfd6626457e5efb4	-0.3497553690319777
200	0xbfaa26b4e1213d85	-0.05107655761878064
201	0xbfcbc134695a2083	-0.21683364051955686
202	0x3fd1bd4a6fffdf8d	0.27717839181377074
203	0x3fbc26a4a211f59e	0.10996464688101645
204	0x3fdbbc2272e712fb	0.4333578226181058
205	0xbfb6abcc39c64847	-0.0885589257289051
206	0x3fc3de5c70af9dfb	0.15522342207189851
207	0x3f968828dc74d9ac	0.022003782706826833
208	0xbfa3cb9bc61d8855	-0.03866278451347741
209	0x3fdea3d91ac78b7b	0.4787504922407419
210	0xbfa71b91cec1aba9	-0.04513221405871743
211	0x3fcdedb03b3f8b81	0.23381617444018946
212	0xbfafde7cede59036	-0.06224432376873816
213	0xbfd7c05ff9b15552	-0.37111663230947045
214	0x3f85197f4c77f66b	0.010302538415085402
215	0x3fcbad8a6df869f9	0.21623354310652568
216	0xbfd3147db8dd096e	-0.29812567761486874
217	0xbfab6852a300aca8	-0.05353029479768995
218	0xbfd1e2c3378333c2	-0.27946548863547716
219	0x3fc1605475bf3612	0.13575225591050405
220	0xbfcfdf4f32809b56	-0.24900236097274825
221	0x3fd9e1235f341def	0.4043663434717634
222	0xbfade60f9a085d76	-0.058395850708786876
223	0x3fdf0005d5a6e1da	0.4843763910717179
224	0x3fc39d3b87f0cd7d	0.15323585641599982
225	0x3fbef578c32e0b97	0.12093310132153899
226	0xbfc0f121b1b4a211	-0.13235875298529767
227	0x3fc0da0b44e1fe20	0.13165417540948088
228	0xbfd35bc0a03531fe	-0.30247512479107275
229	0xbfd38689c2b10e56	-0.30508655560354236
230	0xbfd8cf250fa5bf3b	-0.38764311340399943
231	0x3fd07d299a830221	0.25763931359327513
232	0xbfd4ab6c40a97895	-0.32296282114646974
233	0xbf8cc3f089241035	-0.014045600114066395
234	0x3fc8cf52cc065f64	0.1938270088401125
235	0x3fb92241973e2d7a	0.09817895834401283
236	0x3fb7d10dcd33d10d	0.09303365955185346
237	0x3fbdadd4b932c3ec	0.11593369981234475
238	0xbfaba688e4918143	-0.054004934216893584
239	0x3fdbdab4ebd22f82	0.435223799032194
240	0xbfc9c8055a92a128	-0.20141665384768115
241	0x3fdcd7108da50ccc	0.450626505207947
242	0x3faa68da3a11174e	0.051581210697391286
243	0xbfd231a678395821	-0.284280412107707
244	0xbfd4e15573d3f361	-0.32625328360864186
245	0x3fd210cffec409b7	0.2822761524149899
246	0xbfc81dbefc891a8d	-0.18840777712667425
247	0x3fd347817513a5a9	0.3012393611266711
248	0x3fcf69d350ebf8a7	0.2454170365453525
249	0x3fd373d6c1068a8d	0.30394524431373143
250	0xbfd58858d09a43fb	-0.33644695636127125
251	0x3fd70126adb0903c	0.35944525682339523
252	0x3fc52a279186abbd	0.165348955209394
253	0x3fd685de70146736	0.3519207090881652
254	0x3fd13e9f3d32656a	0.2694471452355943
255	0xbfd9167e7e9c4843	-0.3919979320936628

transformer.encoder.layers.0.self_attn.out_proj.bias f8 [16]
0	0x3f93a902f8f4946f	0.01919941563132393
1	0x3f83ed91934c8dbb	0.009730469997129334
2	0xbf87f97200768872	-0.011706247939234003
3	0x3fa051f998f67d87	0.031875419542525534
4	0x3fb1a2265ced4ff5	0.06888046044087999
5	0xbfac7f8ba212968e	-0.05566059449601567
6	0xbf9c4469efd8e583	-0.027604727996935374
7	0xbf68fbfe3fc19064	-0.0030498472024636392
8	0x3f982b4d9f3fa78f	0.02360268864132525
9	0xbf9a39bfaa9f9fac	-0.025610918797525237
10	0x3f7f3c9e6b683dc7	0.007626169992831894
11	0x3f7a242412bd2309	0.006382122908527029
12	0xbf81305b47142492	-0.00839301405587126
13	0x3fa16fcb3c6d6544	0.03405604469908011
14	0x3f62c1d73ae7f7d8	0.0022896960938387605
15	0xbf963768381f5f23	-0.02169573633713563

transformer.encoder.layers.0.linear1.weight f8 [128, 16]
0	0xbfa822a214f5fa2a	-0.047139229830453225
1	0x3faadc4a3dc5cee7	0.05246192936001908
2	0xbfb62e128fb0f8bf	-0.08664051063621779
3	0xbfa5fbae4ec04f9c	-0.04293579779928722
4	0xbfc4ce44ba188cab	-0.16254481398309414
5	0x3fc308a55bc3065c	0.14870135288770114
6	0xbfd28fcf66e62d63	-0.29002747582190674
7	0xbfc779b037252f1c	-0.18340113346709408
8	0x3f983454abeb893b	0.0236371259624175
9	0x3f863caff15d513f	0.010857939294205308
10	0x3fc106c91a59f6f8	0.13301957880678805
11	0xbfb96b5bfb1fc50c	-0.099294422921748
12	0x3fb8dde193157c5b	0.09713563767353277
13	0xbfd0b0da1fdbe82c	-0.2607941924212607
14	0xbf9b6fc70c0329ef	-0.026793584926773247
15	0xbf98ae61161df2e6	-0.024102704024232667
16	0xbfa8b2ac32959940	-0.04823816411480886
17	0xbfca2c105f4b642b	-0.20446972516109105
18	0xbfc5ed6ba742ea17	-0.17130799929675852
19	0xbfa7f96f8f838335	-0.04682491900326228
20	0xbfc62f42fd23ca9d	-0.17331731186239532
21	0x3fd15d72e6522099	0.27132866375223724
22	0xbfcbcdf644e1c42c	-0.21722296107648853
23	0x3f95bba558ef8242	0.02122362475700102
24	0xbfcafa96c09cef71	-0.21077236561711346
25	0x3fb77e2eccc7b38e	0.09176914691461333
26	0x3fb722c0256c9241	0.09037400163340072
27	0xbfc4296c0e7ce5ba	-0.1575141020528415
28	0xbfbf335b2a66791e	-0.12187738213694785
29	0xbfc8339628b10710	-0.18907429682627042
30	0x3f95121cafdb955d	0.020576904519562834
31	0x3fbdab29cabd8221	0.11589299392427012
32	0x3f894bc59b8fcbda	0.012351554689279998
33	0x3f91f003d2491cc0	0.017517146787466187
34	0x3fba06ebfad8d18a	0.10166811823075342
35	0x3f828f6ed1db7e6f	0.00906263902601198
36	0x3fbeb24ea6c0e153	0.11990825244072782
37	0xbfad044bfb5f7188	-0.056673407015952526
38	0x3fb61ccf700d7116	0.08637711034447579
39	0x3fb608eae4115f1e	0.08607357090056353
40	0x3f91673f603329b3	0.01699542069108313
41	0x3fc18509158d4ab6	0.13687242081012635
42	0x3fd40b4790eda6f2	0.31318844941289037
43	0xbf85ae894b86e9e6	-0.010586807839776346
44	0xbfae413dbf56f60d	-0.059091500861068715
45	0xbfc99332cbbfe8fb	-0.19980463932717626
46	0x3fae6fc12fbbd616	0.05944637019812775
47	0xbf9e157f82179ed7	-0.029378883662416335
48	0x3faa8f24d296fbc5	0.051873350817451626
49	0x3fbd9d69bce50583	0.11568318235096879
50	0x3fb0817e790a2291	0.06447592215602983
51	0x3fc8e5354492aea4	0.19449487541475208
52	0xbfbdb57a0ad661dc	-0.11605036511026107
53	0xbfc0ddc21ba2d46f	-0.13176752423683832
54	0x3fa51f0ab6b48390	0.041252455523369425
55	0xbfa7624416865624	-0.045671584844211105
56	0x3fa55fb2ce4878ac	0.04174574630836622
57	0xbfbbbba9385997db	-0.10833222985965511
58	0x3fbd02929d61d836	0.11332050649966238
59	0xbfc302398771fefa	-0.1485053931573857
60	0x3f92924a66b6a168	0.018136179465416374
61	0x3f9e4738d07db1b8	0.029568565106659256
62	0x3f9f1cf1969a959a	0.030383848969582773
63	0x3fada36b1408641e	0.05788740748921149
64	0xbfc827120d6620f8	-0.18869233755345483
65	0x3fc846b21d52b9ce	0.18965746337694472
66	0x3fc16c896137cf3d	0.13612477538083026
67	0x3fd2202ebc0dc207	0.2832142673933337
68	0x3fad13d539e4d1d7	0.05679193813049082
69	0xbfa20b21fcfc0472	-0.03524118626774787
70	0xbfc55964ac79454a	-0.16679056569641154
71	0xbfdc1c3acc66c804	-0.43922300301630934
72	0x3fd0a49ba82fc3ce	0.26004687714072083
73	0xbf842c114432edeb	-0.009849676984564367
74	0xbfd45c510c2168d3	-0.31813455757732106
75	0x3fafc895cdaa078b	0.06207721839474719
76	0xbf8189bbbcb76967	-0.008563486763638562
77	0x3f8237c39e380253	0.008895424142793795
78	0xbfa75bdfabcb01a5	-0.04562281581957287
79	0xbf9ff56a4f48cab1	-0.031209622468120816
80	0x3fbfa145cab05050	0.12355457495169841
81	0xbf88e41b08056d57	-0.012153826887405001
82	0x3fb8a58dc02ad337	0.09627614919265857
83	0x3fa5800f3372f918	0.041992640524300906
84	0x3f2758c92fca2230	0.0001781220998007412
85	0xbf810dd298528dad	-0.008327145837319383
86	0xbfc38cd8743688e3	-0.15273576425995036
87	0x3fbae12fcb3b5748	0.10499857627595788
88	0x3f52e916d3eb3b90	0.0011542056014836911
89	0xbfa3b9aee981942f	-0.03852602577607233
90	0xbfc95ba5f213d7cc	-0.19810938186827654
91	0x3fb0379943a32aeb	0.06334836865714137
92	0xbf8d6fae80583bd0	-0.014373172084587355
93	0xbfc4b2a171b3d783	-0.16170137454872355
94	0xbfaab62f83343726	-0.05217121578799171
95	0xbfa2453210a55f13	-0.03568417027662298
96	0xbfc6a8f855af710d	-0.17703155692914443
97	0x3fb2d4322329730e	0.07355035170025934
98	0xbfb7e1f81e487b08	-0.09329176654180682
99	0x3fa6b4e35fd04b7b	0.04434881729698411
100	0xbfc0fb862a99a5a5	-0.13267590599143123
101	0xbfb261a69b119233	-0.0718025330148258
102	0x3fc72dd106af78f8	0.18108570887029152
103	0x3facb92529ae2686	0.05610004552643226
104	0xbfc9ebfa81013d43	-0.20251399325432304
105	0xbf92332dc2388380	-0.017773356417936537
106	0xbfada819f10ccaef	-0.0579231364012197
107	0xbfc6f534515af60c	-0.17935804340770323
108	0x3fbaf29f2b83d53e	0.10526461422326336
109	0xbfac9bd44519c207	-0.05587638228906049
110	0x3f534bba745ea946	0.0011777230115322542
111	0xbfc5c7650e74587b	-0.1701475449160091
112	0x3fc4dee3e9959056	0.16305207162361296
113	0xbfc1468520807bc8	-0.1349646004391316
114	0x3fa351a26cff27de	0.03773219662214421
115	0xbfb8f681553e335c	-0.09751137095572687
116	0xbfb1f54e3aa188d3	-0.07014931613369706
117	0xbfb6d4d2b0306dd2	-0.08918492127889202
118	0xbfb9f1b79d899e8b	-0.10134456249363148
119	0x3fbb954f2c52e79b	0.10774702865719947
120	0xbfb5da29114e62d0	-0.08536011383547337
121	0x3fb1cf96671939d6	0.06957378403715295
122	0xbfc3252aa2252c8b	-0.14957173268553378
123	0x3fc1ddf336865fe1	0.1395858780131212
124	0x3fbc7409bcad4a30	0.11114559990282014
125	0x3fb042f65bf62875	0.06352176423220775
126	0xbfc35399f2f9b204	-0.15098881114990104
127	0x3f83b9fa33d73bd3	0.009632067400984134
128	0xbfbc2018699ebafa	-0.10986473635305663
129	0xbfa011abdcf770d3	-0.03138482162805336
130	0x3fc591b7979f3438	0.16850943473255753
131	0x3fb37f3d4bcf2306	0.0761602697449569
132	0xbfc6c245ea7f1786	-0.17780374479314903
133	0x3fcb9579e8bcbe0c	0.21549915184139967
134	0xbfb562d0c289356a	-0.08353905438817369
135	0xbfb37991143337bb	-0.07607371085325003
136	0x3fd0f2489bf306b9	0.26478781918931876
137	0x3fb295349f0e0c2d	0.07258919604468934
138	0xbfba17b057357426	-0.10192396287079983
139	0xbfb0a22c0a14ad3d	-0.06497454877960691
140	0x3fa79761b43a683e	0.0460768253808088
141	0xbf9923517321d9da	-0.024548790599931404
142	0x3fa5fcc1c0d18c63	0.04294400671712919
143	0x3fa65836d91b0de5	0.04364177131858663
144	0x3fbf6a652116f3a1	0.12271720941403298
145	0xbfb31e2eef1523fa	-0.0746793111512857
146	0x3fc2655a5a109b6f	0.14371804616640868
147	0x3f91f0a91090e981	0.017519609104263537
148	0xbfb89a65f4287baf	-0.09610593043224357
149	0xbfb51514a371c2bd	-0.08235291471806767
150	0x3fc5b746d76011e5	0.16965566173907046
151	0xbfbffef792527b13	-0.12498423883742431
152	0xbfcf4314c667d535	-0.24423465430997174
153	0x3fbbba82d35a0e72	0.10831468257861745
154	0x3fb930eaa24bacfd	0.0984026571492684
155	0xbfa1fdd82838b372	-0.035139803800439476
156	0xbfba6e5600127e00	-0.10324609281314423
157	0xbfc07026be9a8786	-0.12842258745973484
158	0xbfb318513b10b3f3	-0.074589802665926
159	0xbfb79248cfef0de4	-0.09207587315091065
160	0x3fb94ebb1bbdce35	0.09885758807450247
161	0xbfb043954199c732	-0.06353123523311124
162	0xbfc07302300db7e8	-0.1285097822796495
163	0x3fc16b79d9d814ad	0.1360924066249586
164	0x3f71aa665e9443c6	0.004312896614707412
165	0x3fc41cc47cee2721	0.15712791538344908
166	0x3fa3f9c5b206987f	0.03901498602071828
167	0xbfa2aee329a4321a	-0.036490534623315266
168	0xbfd401b267961481	-0.31260357013554346
169	0x3fc0daa8b870f939	0.13167294507906904
170	0x3fcfc41c7f03dc98	0.2481723423186153
171	0x3fa691425ab1f309	0.0440769897186098
172	0xbfc1bd00eac7a742	-0.13858043159353356
173	0xbfc6a508c5f522d5	-0.1769114462461149
174	0x3fb68af27c0feaec	0.08805766610013749
175	0xbf965d8e70eaab25	-0.02184126438320812
176	0xbfcc30ec4056262c	-0.2202430071013607
177	0x3f72065067a6ab19	0.004400552827443582
178	0xbfafafd3d92f40f3	-0.06188833261660589
179	0xbfc37509e6326245	-0.15200923671797476
180	0xbfcfb330cbbe24e3	-0.24765596340538484
181	0xbfb340edffdcf1d8	-0.07520949837357394
182	0xbfa250947ca0c8ce	-0.03577102681482956
183	0xbfc3a0ca77078a59	-0.1533444482038984
184	0x3fd619531b0284ce	0.34529569280318817
185	0x3f5c9e2ee751d3c4	0.0017466981928724182
186	0xbfa9c72adef1da28	-0.050347652163442114
187	0x3f95699e5c5e38f4	0.020910715472887767
188	0x3fd388d236b018ef	0.30522590008366896
189	0xbfca4b5c29dd4cb1	-0.20542480510866803
190	0xbfb16564dc913fdc	-0.06795339951463525
191	0xbfc32126ea0bf1c0	-0.14944921901759578
192	0xbfaa6396b8c9869f	-0.05154105191901447
193	0x3f9c62ec4e282554	0.02772111155539865
194	0x3fc4c25d5af09dcf	0.16218153896737283
195	0xbf9c91202bcbb3d3	-0.02789736048991982
196	0x3fc35910e6c50d04	0.1511555792622873
197	0xbfc6fb23653fa68a	-0.17953913158207896
198	0xbfc84109302f83e2	-0.18948473789990233
199	0xbfb4b651f6e6b981	-0.08090698507178297
200	0x3fd05c419308eaef	0.2556308685195025
201	0x3fbca75102e199d9	0.11192804642050848
202	0x3fa731444faf05cb	0.045297751166355114
203	0xbfbb773fdaa25ac4	-0.10728835189579927
204	0x3fc5baa28d24595d	0.16975814716051732
205	0xbf9e1defa63e857e	-0.0294110722749159
206	0x3fc2335d1e27e07d	0.1421924969906775
207	0x3fb77e64b17f1e10	0.0917723592129891
208	0x3fa69106a994aa91	0.04407521076276056
209	0xbfa0cd70f8a84cb8	-0.03281739268654732
210	0xbfb655f0456ada3c	-0.08724881834755477
211	0x3fb5c44b59467e81	0.0850264637906495
212	0xbfb76c9b4f93763c	-0.09150095646642681
213	0xbfc1cccc6a946346	-0.13906245426258063
214	0xbfb88f078f24f0e3	-0.09593245739683058
215	0xbfd0fd70aa43c598	-0.2654687559834996
216	0x3fc95d59d14e3a4b	0.19816134185789944
217	0xbfce648f56c3d2ea	-0.23744384514397804
218	0xbfd5d2a673eb9715	-0.34098206825579896
219	0xbfa2443b1e79266b	-0.0356768107126982
220	0xbfb020a349c0cb58	-0.06299801397908078
221	0xbf85b295c54d4c96	-0.010594530185392064
222	0x3f85cf036e781cfc	0.01064875298381062
223	0xbfb9b59c8752f97a	-0.10042742065249924
224	0xbfadbd0ee125bc3b	-0.058083024009527105
225	0xbfb833a88013d896	-0.09453824164288202
226	0x3fb18e8b5137bf72	0.06858130200248327
227	0xbf9aec146b9af0f4	-0.02629119784136065
228	0xbfb2f19c38dfddfe	-0.0739991797307695
229	0x3faf278103922b07	0.06084826630202227
230	0xbfb273aaa32c4562	-0.0720774315234585
231	0x3fc0a0b267b3c7b6	0.12990408004367077
232	0xbfd158504b83ded2	-0.2710152375652629
233	0xbfaa21c3450ff84d	-0.05103883951231634
234	0x3fde28c5ceb8117a	0.47123856723216984
235	0xbfd4261c2c0ba795	-0.3148260526783074
236	0x3fb193e10142e65d	0.06866270333093767
237	0xbfd290131f9afa05	-0.29004362188780447
238	0x3fc03adcbad646c9	0.1267963325777173
239	0xbfc1f92a74cb9e9d	-0.14041643813037732
240	0xbfc374a84a637465	-0.15199760086298678
241	0xbfc64b2de17f7771	-0.17416928778305477
242	0xbfc58593b648d567	-0.1681389465390268
243	0xbfc5413576b8294f	-0.16605251595349066
244	0xbfaae55ffbfcd648	-0.05253124190350583
245	0xbfb8c9ba077eb896	-0.09682810481055734
246	0xbf92b4e93d1a8418	-0.01826824603506702
247	0x3fab79d16933939b	0.053663772670723385
248	0x3fc12a5ce6e95ca6	0.1341053130624676
249	0xbfc6c952dfa0e9dc	-0.1780189125000352
250	0xbfd2fb4ca8c6527f	-0.2965881012144464
251	0x3fc2fca04f562cc3	0.14833454011782096
252	0xbf93bb3936f005b2	-0.019268888452648354
253	0x3fbb159f711b16ef	0.10579868804333235
254	0x3fa74167c01a8a34	0.0454208776475479
255	0xbfc2877ed5520038	-0.14475999275237128

transformer.encoder.layers.0.linear1.bias f8 [128]
0	0x3fc6ee59ca351526	0.17914888738065676
1	0xbfbd4dc021ab65b9	-0.1144676286889056
2	0x3fb35c5dbef853e9	0.0756281462893892
3	0xbfc1497c2fb9a7cf	-0.1350550873788152
4	0x3fbd3f81b4393773	0.11425028467166758
5	0xbf8a2defb50652a0	-0.012782929145751354
6	0x3fb37334b97fd503	0.07597665337364749
7	0xbfce16aaabf33e62	-0.23506673236851144
8	0xbfa50fb89f0f52f4	-0.04113556806229282
9	0x3fc6ae468bbdcd13	0.17719346831618363
10	0x3fc6aad080c804cc	0.1770878437819533
11	0xbfbb96828990435f	-0.10776534899220057
12	0xbfc6d707da7c63e6	-0.178437215502327
13	0x3fbf9f5fbdeded29	0.12352560412357562
14	0x3fb8a8f2860a204c	0.09632793209505158
15	0x3fb3fd39883ae6ab	0.07808265281610242
16	0x3fc355cd8662fc6f	0.15105599462365002
17	0x3fc29dc0162feb77	0.14543915828093265
18	0xbfc3f45d96e89bc7	-0.15589494579873373
19	0x3f91ade178d9b2e2	0.017264864922640018
20	0xbfc61f79e72161ff	-0.17283557687439097
21	0xbfaa0e74f06e4afe	-0.05089154658266713
22	0x3fc83a1e2e66c28e	0.18927361741727505
23	0x3fc72519e7a4f634	0.18081973849068478
24	0x3fcf6c2c8c5d3f2e	0.2454887090084354
25	0xbfb972ccc0a9ce1e	-0.09940795615857964
26	0xbfc3396f7c49d72d	-0.1501902920605799
27	0xbfd1324fcaabb4ac	-0.268695781632071
28	0xbfcc16809cb36d6e	-0.21943671847734997
29	0xbfd036646fa9aed6	-0.2533198442895189
30	0xbfcc89be95aad797	-0.2229536276624315
31	0x3fc0d1e0cc19b006	0.13140497175061244
32	0xbfc90fe19a925da8	-0.1957971577401001
33	0xbfc0ccb679900a64	-0.1312473386352223
34	0x3fb06f858690a608	0.06420168433455598
35	0x3fcbfd8a4528ac32	0.21867493035219493
36	0x3f7992cb2008ab29	0.00624350877527994
37	0xbf7ff40b9b518373	-0.007801099146576773
38	0x3fbab42d7b492ab4	0.10431179294497889
39	0xbfc80dda91bb654e	-0.18792278400250456
40	0x3fc44179778d4c82	0.15824812257287496
41	0x3fd12760de6da494	0.2680284664298338
42	0xbfd17702efe4109e	-0.27288888384669885
43	0x3fc903293a58c088	0.19540896748504033
44	0x3fb48268b4856a39	0.08011488349203767
45	0x3f99b391c28f4705	0.025099065303783714
46	0x3f83b4b000306cc1	0.009621977811596573
47	0x3fb52c9f9b6e3acf	0.0827121500462724
48	0x3fbfb8b432b30dce	0.12391210782794035
49	0xbfa6ad6f7273ba9d	-0.04429195663566541
50	0x3fc00516ff59ae52	0.12515532940175206
51	0xbf7107de3a5509de	-0.004157894208506067
52	0xbfcce214c59e9e3f	-0.22564944886583935
53	0x3f9c846cd1f9896a	0.02784891158661066
54	0xbfcfb0cc5bfbd02f	-0.24758295527829108
55	0xbf795f5f4543291a	-0.006194469595536734
56	0xbfba4f401d0aaaec	-0.10277176579499397
57	0xbfc1152f46401c19	-0.13345900469013897
58	0x3fc17f22eb45237b	0.13669239509388462
59	0xbf94522c18877c65	-0.019844712254663572
60	0x3fc58c22fb1a38ee	0.16833913098202608
61	0x3fcd8f256e4eaf24	0.2309309757814556
62	0x3fc50237c1453720	0.1641301816657057
63	0xbfcff24b3facc76f	-0.24958172425391065
64	0xbfcbfa0e2e1ad47a	-0.2185685849305264
65	0x3fcad1dfb53345c7	0.20952984187765208
66	0xbfcd929b6deac41e	-0.2310365950302477
67	0x3fc70b724f5f7f91	0.1800368201793359
68	0xbfd1a7564a852723	-0.2758384444938306
69	0xbf9947ba1f3f9244	-0.02468767944073337
70	0x3fb2c80aaf948232	0.07336489473937816
71	0xbfc993d44c777f29	-0.19982389196138087
72	0xbf9bc782ed83e18b	-0.027128263232016486
73	0xbfd605a480b6f01d	-0.34409439630303656
74	0xbf97ffbb6f3b0e37	-0.023436478294355658
75	0x3fbdcdc8356ff859	0.11642123512862791
76	0x3fb4225b937a394c	0.07864925718806609
77	0x3fb022853aba630c	0.06302673991957536
78	0x3fb76b12bcc7081d	0.09147755726647273
79	0xbfab51dec56b791a	-0.053358995055292804
80	0xbfc53b18bdd7c5bc	-0.16586598653479523
81	0xbfc5f5ed95641c69	-0.17156762880788115
82	0xbfc6ba970474236b	-0.17756927220787175
83	0xbfd10c8359432c19	-0.2663887378409427
84	0x3fa734db3e950f18	0.045325137509762026
85	0x3fcdb0988c5985ed	0.2319517789174336
86	0xbfcda3694b9c7742	-0.2315494174189841
87	0x3fc4f158e3110590	0.16361533248168003
88	0xbfc73b17d5fb5817	-0.18149087856608112
89	0x3fc1a4833e170db7	0.13783302814236517
90	0xbfc826b3b0ac942e	-0.1886810887018852
91	0xbfd086781deb4c67	-0.2582073490313576
92	0x3fb6c3f188cf0477	0.08892736043982717
93	0xbfccdf59022ab0f8	-0.2255660305576226
94	0xbfbb3cbc53a8c28a	-0.10639550249539745
95	0xbfbba43aceaf169d	-0.10797469659800148
96	0xbfc97dbd68534067	-0.1991497764015577
97	0x3fb15bd5a0e83785	0.06780753305812766
98	0x3fb39a6df8d1ef63	0.07657515835484001
99	0xbfc7316e5033b6a5	-0.1811960116969448
100	0x3fc4dfd4e2b0a309	0.16308079785201127
101	0x3fbb8cbc2150c878	0.1076161938988508
102	0x3f9e43c65ffb7120	0.02955541573361231
103	0x3fb8841e076c96d7	0.09576595002416909
104	0x3fcb89f0bd868678	0.21514710668730053
105	0xbf87400bef12bb30	-0.011352627976831536
106	0x3fcb3cb09a9b0e98	0.21278960751634624
107	0x3f73ebe20e7e9ada	0.004863627465886389
108	0xbfc4037c3e51a94f	-0.15635636370582026
109	0xbfc436753947ab66	-0.15791192337868692
110	0xbfbabda59f0efdce	-0.1044562829329074
111	0xbf58eee41c697487	-0.0015217998167351991
112	0xbf93e7abcf5c6ccc	-0.01943844273692434
113	0x3fbdd3d6071e9370	0.11651361154379258
114	0x3fbacb5dc78a16b7	0.10466562387054067
115	0xbf875ab280a17e6a	-0.011403460073949396
116	0x3fbee725f814bdab	0.12071454340615755
117	0x3fad6bad8f506635	0.05746214270056919
118	0xbfc0ef6455b9608a	-0.1323056620192385
119	0xbfb619e04869a722	-0.08633233802688925
120	0x3fb4be536b3e615d	0.0810291420770048
121	0x3fbd907eecd784f1	0.11548608095428727
122	0x3fc7add0cd3e0ef3	0.18499193212129902
123	0xbfb036f91578cf99	-0.06333882116524449
124	0xbfcc097fe6c76339	-0.21903990524767794
125	0x3fa971e5c523bae2	0.04969709426392456
126	0x3fbf935ca10467dd	0.12334231310924744
127	0xbfb42712384e7b99	-0.0787211787669392
