Code/700-300/darts_logs/D-dep-92_transformer/checkpoints/best-epoch=39-val_loss=0.00.ckpt (torch, 653413 bytes, 205 tensors)

encoder.weight f8 [16, 1]
0	0xbfd30575cadf6e48	-0.2972082596950014
1	0xbfe3dd1df520f8f7	-0.6207418239280561
2	0xbfea1617a9e9698d	-0.815196830614967
3	0xbfe5fb3c0529adf2	-0.686918268283476
4	0x3fd7ab1a499cf0af	0.3698182791592996
5	0x3fe76de9bc58cb43	0.7321671179437107
6	0x3fb440080ef11f7e	0.07910204281608732
7	0x3feceb50a4aef054	0.9037249771568079
8	0xbfe2024f408172d1	-0.5627819309116494
9	0x3fe98d0062f8b6c6	0.7984620984113568
10	0x3ff19302c6e5a7d6	1.0983913201730409
11	0xbfda7328aa7f232a	-0.41327873849927477
12	0xbf9cf46c4ea15a8c	-0.02827615003510657
13	0xbfde2314c0e165a0	-0.47089117847425577
14	0x3fac77e5f3627f4e	0.055602251014760115
15	0x3fdddbc11ef02a35	0.46653774281790855

encoder.bias f8 [16]
0	0x3fdf2715f4f33b4b	0.4867606060114908
1	0xbfa26574740a3ab0	-0.03593028942588228
2	0xbfe93c6e256759c7	-0.7886267405072481
3	0x3fc2ea17d1e908c7	0.1477689528420056
4	0xbfdfefac4967b73b	-0.4990034787032191
5	0xbfef2de00ab28b31	-0.9743499955114655
6	0xbfedbd30ddcb9bf9	-0.9293445903721241
7	0xbfc827902538d127	-0.18870736901738747
8	0xbfd8f45d7370f582	-0.38991485856589503
9	0xbfeb896c3e91587c	-0.8605252477671139
10	0xbfb8c1993aa688db	-0.0967040794553528
11	0xbfdb2e31cd2c94f7	-0.42469449078119176
12	0xbf96e2fd11f6b4a8	-0.022350267621437908
13	0xbfca7517d198f5db	-0.206698396055727
14	0xbfe916ed102ef42c	-0.7840485874254504
15	0x3fca981e4f270b3c	0.20776728501194863

transformer.encoder.layers.0.self_attn.in_proj_weight f8 [48, 16]
0	0x3fc6b566c098c34a	0.17741093067300034
1	0x3fc7f3cd19da2f2f	0.18712772142714004
2	0xbfd05c179fbc1c9a	-0.25562086676695517
3	0xbf944791400c0acc	-0.019804257902260855
4	0x3fd2f5ee195fc17c	0.2962603805344981
5	0x3fc107c6b0f83184	0.13304980889405382
6	0x3fc1f40b98e027d0	0.14026017155293724
7	0x3fc9d8470287d1ad	0.20191276191293409
8	0x3fd283354b237912	0.28925831163168525
9	0xbfc044b5231c40ef	-0.12709678854344683
10	0xbfd28258b9dec606	-0.2892057242525826
11	0xbfd1748b69456452	-0.2727383163488116
12	0x3fa31471a35b5a20	0.03726534957029437
13	0xbfc4c99e7bb14558	-0.1624029258696662
14	0xbfcce6126078a1b2	-0.22577123365887314
15	0xbfc8db60db805d85	-0.19419489591448894
16	0xbf63a2b7851abe57	-0.0023969253896536746
17	0x3fb317e5140d85c2	0.07458335628100257
18	0xbfd1db3c59c2051b	-0.2790060879270457
19	0xbf954f169e88a783	-0.020809510637412664
20	0xbfc9dc264f114532	-0.2020309339591591
21	0x3fbe61ee1d1fcdf3	0.11868179522553372
22	0x3fa8c148e0c75c1f	0.048349645079433616
23	0xbfd3bed121eccb25	-0.30852154076562704
24	0x3fc9b4aba7b6a599	0.20082612694868088
25	0x3fcbcee7230cd2c2	0.21725167476110668
26	0x3fc3db73ba78e13d	0.15513464551055192
27	0xbfcd315f0a08a54b	-0.2280691908829716
28	0x3fd2935aaa3506cb	0.29024378415861624
29	0x3fb8dbce115b91e4	0.0971039574029145
30	0xbfbe361aee4c1762	-0.11801307981303702
31	0x3fd06c2529c417d3	0.2566006572600347
32	0xbfb360cddf0571aa	-0.07569586462836378
33	0x3fcd708d70cae0ef	0.22999732978292495
34	0xbfd0de0a215b54b5	-0.2635522199391958
35	0xbfa29f78fb88d4cb	-0.03637292929162469
36	0x3fbf1745b9ece4c0	0.12144885815804951
37	0x3fd2e507c816db83	0.2952289060589736
38	0xbfbdbbb63e34cf07	-0.11614550608356576
39	0x3fb272a60b095b11	0.07206189889380378
40	0xbf97def915e6a47f	-0.023311511956908944
41	0xbfa3076724cc9703	-0.03716585468491298
42	0xbfc937bf22f19afe	-0.1970137520431407
43	0xbf9d6dcad2674e00	-0.02873913678361184
44	0xbfc3f81f312648b8	-0.15600957775001745
45	0x3fa1d70402c0591e	0.03484356435380874
46	0x3fc98489d0590052	0.19935724900460855
47	0x3faa599b6cff6b76	0.051464898162257564
48	0xbfca083caef1462a	-0.20337637464631203
49	0x3fcf56508758fa8d	0.2448216114880392
50	0x3fc60761151b6375	0.17210019617666786
51	0x3fcd3de4d6bbaead	0.22845135197655023
52	0x3fd1e8e12866b8f8	0.27983883805690324
53	0x3fb7a0478f8b1932	0.09228942160107037
54	0xbfca17cda4ae87de	-0.20385141888715358
55	0xbfb84bb589d58adc	-0.09490522971240573
56	0xbfd2c274d5967fb5	-0.2931186757868958
57	0xbfd029a97051547c	-0.2525428387501234
58	0x3fd27747e4d746e1	0.2885303244375859
59	0x3fc31732721e69e8	0.14914541790206148
60	0xbfc1c5901057cb0e	-0.13884163663859578
61	0xbfc6394599264706	-0.1736227987099072
62	0xbf862bf57755a5cf	-0.010826032356550023
63	0x3fcf1a64d1a5d656	0.24299297558507033
64	0xbfd22cf1fc2c804e	-0.28399324060774667
65	0x3fce3b25108fb25d	0.2361799555650518
66	0x3fc1d7c9c7fdd2e6	0.13939783349237372
67	0x3fb1f1da7087616e	0.07009663817678355
68	0xbfcbd7ee2634259d	-0.2175271688977717
69	0x3fd0023f600d8986	0.2501371801391986
70	0xbfc13ba67cce2bb2	-0.13463288396846235
71	0xbfccbd409ee2f85d	-0.22452552564749598
72	0x3fd29860e6e52c75	0.29055044697151483
73	0xbfc25e15252cf5c4	-0.14349617305008
74	0x3faa945cb463677c	0.05191316320424641
75	0x3fd1e564d27fda82	0.2796260886820293
76	0x3fc10e1a10e9f7b9	0.13324285341144362
77	0xbfbe3fe841ce48c8	-0.11816264731013171
78	0x3f91b1b3b64a338d	0.017279441834535048
79	0xbfcb5499750ce73d	-0.2135192700896428
80	0x3fd22017fba9f558	0.2832088430075905
81	0x3fc27a3d254e2cc2	0.14435543366957942
82	0x3fbe2789fa90aa41	0.11779081694900474
83	0xbfcefed74407d456	-0.24215212652021262
84	0x3fc96cbb2d117ef9	0.19863071156122894
85	0x3f90a4fc69224dd0	0.016254371563787562
86	0x3fbdbcaf2851bc0f	0.11616034254414863
87	0x3fb98e1c549635d9	0.09982468667131829
88	0x3fb747b65d9d3bb9	0.09093799386503933
89	0x3fb5c96b52f1ca20	0.08510466361057256
90	0x3fba3a0676246ec9	0.102447894900645
91	0xbfa46a2ce2d26f19	-0.039872553528054584
92	0x3fbee5dacc2377de	0.12069480403758301
93	0xbfa606b6708be143	-0.04301996349198813
94	0xbfc08d867586a64d	-0.12931900728772164
95	0x3fcd04ca3265911b	0.2267086740568026
96	0xbfb7bbb7b5b1383f	-0.09270809350820829
97	0xbfc6c5e27d9a1bd8	-0.1779139626780466
98	0x3f982c702a7fdc1a	0.023607018083534916
99	0x3fcedfa16b03993d	0.2411996624497962
100	0xbfab72b81d24f72a	-0.053609612996736125
101	0x3fc76b69e3f9bd00	0.18296550399416134
102	0x3f99611d6d463e7c	0.02478452662904694
103	0xbfc25e150ddfdb05	-0.14349616219961817
104	0x3fa85f685fd3673d	0.04760290307758772
105	0x3fd4cf7ce606ddb8	0.32516405547672944
106	0xbfca65e2290fc513	-0.2062342358108614
107	0x3fd1c2f5ff75d9af	0.2775244707803734
108	0xbfd16588c0efbb99	-0.271822155394085
109	0xbfc4c037ed76e075	-0.162116042088886
110	0xbfd214e9325eb282	-0.28252630156456615
111	0xbfd103800b707565	-0.2658386337005452
112	0xbfc2a97cbcf23cc8	-0.14579734063997862
113	0xbfd12bde9dd4a6d9	-0.2683025876345773
114	0xbfca88fcab4dfbe3	-0.20730551113589887
115	0x3fd3e4fca4e6ce62	0.31085125068350383
116	0xbfd505c15c580acd	-0.3284762765689891
117	0x3fc8db175f476074	0.19418613579069055
118	0x3fbfaad6ad4c12c5	0.12370053988349657
119	0xbfc0466188bf4962	-0.1271478574477199
120	0x3f9275905612b0fc	0.018026595357398797
121	0x3fd50d3f9a421ae3	0.3289336210658986
122	0xbfc838cb4e9ce487	-0.18923322046774535
123	0x3fb76683811c3311	0.09140798475364088
124	0x3fb24a2473fb9c0c	0.0714438231621985
125	0x3fcc48ab7aff64e4	0.2209677076887494
126	0xbfc35a994af53111	-0.15120235595748757
127	0x3fb279096bd1d399	0.07215937502208049
128	0x3f8d026c6242a788	0.014164778469723208
129	0x3fb6712ff64efc29	0.08766460193054172
130	0xbfb8dfc3923efbd4	-0.09716436691722602
131	0x3fc908dd9171e97d	0.19558305360608222
132	0x3fd2e4e5b49d7462	0.29522078169049426
133	0x3fc0d03b7613ce28	0.13135474458214103
134	0x3fc79c675ffeab3b	0.184460565445386
135	0x3fd0e05235aeb75e	0.2636914753191969
136	0x3f9b74edcc54703a	0.026813235851577334
137	0xbfc567a79fe158d1	-0.16722579294827836
138	0x3fcdc2c74fd9f7a6	0.23250666998859265
139	0x3fc975539a07676b	0.19889302273696371
140	0x3fc1505ebf41d399	0.13526520098426145
141	0x3f7b64313cc9e6db	0.006687347730456951
142	0xbfb5ddbeead46cbc	-0.08541482194088962
143	0xbfc368b5fc0d2058	-0.15163302237692977
144	0x3fd451c0b88ab353	0.31748979589138066
145	0xbfc338d024ad0d4e	-0.1501712969858126
146	0x3fbb49f6e3c17c8d	0.10659735737270833
147	0x3fd2dff2f7fd4580	0.2949187680979648
148	0xbf9e74b490b7e216	-0.02974207051554075
149	0xbfb4fa6db7d0f10c	-0.08194623696994457
150	0xbfb16fe944a3163a	-0.06811387944898054
151	0xbfb701bfecec2151	-0.08987044843900562
152	0xbfc541ea4cb1fc95	-0.16607407326589355
153	0x3fd1c11ce33a0371	0.27741167249774096
154	0x3fa2fa05abae1b00	0.03706376763061847
155	0x3fbb2bcb35a0503d	0.10613699015840523
156	0xbfd0fde1dd23aa80	-0.26549574466358905
157	0x3fd352a6048e175f	0.30191946453884627
158	0xbfa224fbfb787615	-0.03543841786106953
159	0xbfd03861bf4836ee	-0.2534412734974997
160	0xbfb1f12d8c9ec3a7	-0.07008633311376276
161	0xbfb30d999cc358ff	-0.07442627026771119
162	0xbfa2a3791889da54	-0.0364034502462586
163	0x3fcd3291f71df2eb	0.22810577932604956
164	0x3fbab81a1fe0e53e	0.10437167433055536
165	0x3fd2ecb53a5fb4e9	0.2956975050027056
166	0xbfc14e40dfc9028c	-0.1352006046963833
167	0xbfd74092c9452d00	-0.36331624656004635
168	0x3f81148bdf29eaf7	0.00833997034827892
169	0xbfd2476ed33944d6	-0.2856099188548574
170	0x3fb9bd511cbde7e3	0.10054499580101565
171	0xbfc9c27d9b90c3e0	-0.20124788375826963
172	0xbfa9541f06291e2c	-0.04946991872980919
173	0x3fc7e10139440b8a	0.1865541009538812
174	0xbfa94cfdb05b463e	-0.04941551950254251
175	0xbfd8443650259488	-0.3791633398707934
176	0xbfd005db480f1185	-0.25035745656011726
177	0x3fb06f026c3000f3	0.06419386998459568
178	0x3fd523960a8e9da6	0.3302970030876743
179	0xbfd0e1cd3edab515	-0.26378184450261816
180	0xbfb68c780a59dc57	-0.08808088543615732
181	0xbfc15a9982f5faa5	-0.13557738203595196
182	0x3fd5de35d0db4440	0.34168763538497515
183	0xbfd38cc88b0f1196	-0.3054677350994778
184	0x3fc5d4e6f3befb6d	0.17055975820218397
185	0x3f565ccd073a4458	0.001364898894199015
186	0xbfd1a97d06dff5bf	-0.2759697501313347
187	0x3faef1a10f3a39b9	0.06043723402864338
188	0xbfc5ca8eb20dadff	-0.17024406141295853
189	0xbfcacba735cc0bea	-0.2093400013619367
190	0x3fd7c227e9b94f42	0.37122533630939725
191	0x3fb3f48f503f3cee	0.077950436679419
192	0x3fbb91c03a5106cd	0.10769273208372994
193	0x3fcd791bfaff5444	0.23025846248370574
194	0xbfacae289254ba39	-0.05601622377649957
195	0x3fc9e635e92038ce	0.20233796961878742
196	0xbfc788f40e6cb3db	-0.18386698440863722
197	0xbfcde7c33fc21df0	-0.23363533604809517
198	0x3fb3639f6f97a1a7	0.07573887323781624
199	0x3fd49b4185bdeb73	0.32197607098321795
200	0xbfbc16a528e7c290	-0.10972053764977319
201	0xbfbac76c69886eb3	-0.10460546089637539
202	0xbfa5c696dd4e4121	-0.042530741228917764
203	0x3f9abb3e78a870bf	0.02610490428388412
204	0xbfb3ba9f27b365c0	-0.07706637114770043
205	0x3f92c918e125db98	0.018345249883590847
206	0xbfa32d3af8e5c568	-0.03745445526409236
207	0x3fc0faa17354f90d	0.13264864093248044
208	0x3fb0b7045962d6c6	0.0652926176288374
209	0xbfd356180895cbf5	-0.3021297534789363
210	0xbfc77fba1de5a1da	-0.18358541927160738
211	0x3fc9604e4f878d44	0.19825152285839398
212	0xbfd261d442d67f81	-0.28722101714264886
213	0x3fb8137baafd464d	0.09404728817505621
214	0x3fccc21ee1fa8ae6	0.22467409166446045
215	0xbfd18827c096c8be	-0.2739352589370688
216	0xbfc91b56a0e63fd9	-0.19614680153290356
217	0xbfb5dc585fb3bd1c	-0.08539345108487278
218	0xbfc98f5e64abf2b4	-0.1996877662239932
219	0xbfc19ccbc13e5823	-0.13759753165931085
220	0x3fcfa912c730030c	0.24734720922426623
221	0xbfd2f8370c365cf7	-0.29639984314549345
222	0x3fcca87413be4e16	0.22389079059631517
223	0xbf9656bc708d0ad4	-0.02181524693447552
224	0x3fc617f27195ebd2	0.17260580583737678
225	0xbfc2067a8f87777a	-0.14082271583805178
226	0xbfd1da6dc599a930	-0.2789568357171843
227	0x3fcafb4de8f7ed03	0.21079419970906352
228	0xbfbdeaaa42a639e7	-0.11686195494824113
229	0xbfd1a74d038a2b9f	-0.2758362326209695
230	0xbfc543d9f18c8b1b	-0.16613315863022468
231	0x3fbe64d856b64e3d	0.11872627369876283
232	0xbf9df3115f5aef9e	-0.02924754280569141
233	0x3fd66c20bdef96bc	0.35034960316111685
234	0x3fc4d302ae0afdd3	0.16268952844801152
235	0xbfc0c81e5f409ce6	-0.13110713625903897
236	0xbfd469bbddccbc55	-0.318953482247655
237	0xbfc256b9d59030d2	-0.14327166488545245
238	0x3fb9492b896bc6de	0.09877273659710847
239	0x3fd18ba7ae118dc5	0.27414886473544825
240	0xbfc1aba4b88d1155	-0.13805064212113885
241	0xbfa41a0df6c97502	-0.039261280417784775
242	0xbfa1b21e8bf47cdf	-0.034562067589144034
243	0xbfb159ba3709e8f2	-0.06777538150518916
244	0x3fcb05b76abdb736	0.21111195289580004
245	0x3fc5e4406e27db38	0.17102818850227108
246	0x3f9671e3112d7a85	0.0219188193544775
247	0xbfd8f9fdae5ab3f5	-0.3902582361868661
248	0x3fd44e909f5e305b	0.31729522288583717
249	0x3f778416d0f3119e	0.005741204381767421
250	0x3fa64fcc293007fc	0.04357755663660609
251	0xbfd04743bc20c6f6	-0.25434964534643656
252	0x3fc871f1fffc9918	0.19097733497000813
253	0xbfd0cb02c7c48f13	-0.2623907996041776
254	0x3fcfd6193b608080	0.24872126960054075
255	0xbfd829f8823ed6cb	-0.37756169051440897

transformer.encoder.layers.0.self_attn.in_proj_bias f8 [48]
0	0xbf733299a9c2d0d8	-0.004686928030583647
1	0xbf850c9aae10ab95	-0.010277946888967363
2	0xbf834578acae26f4	-0.00940984990099334
3	0x3f5b8d70a2730b29	0.0016816711375191118
4	0x3f7a31bcb89c2d58	0.006395089332510061
5	0x3f871c9c80057de4	0.01128504052820651
6	0x3f8f8389d917b488	0.015387608468666394
7	0x3fa179b60ef3e55a	0.03413170750168133
8	0x3f6a8e4bba7830ff	0.003241680056595197
9	0x3f7f7abeccabec27	0.007685418425121638
10	0xbfbba3d811dce2ac	-0.10796881137947406
11	0xbfc11efb2ef69aa9	-0.13375797074441678
12	0x3f96f7bf6ff74378	0.022429457863668983
13	0xbf6ec93072dd506e	-0.0037580438865152865
14	0x3fb3d7d2de98b615	0.0775119584511333
15	0xbfbea45b3ca82c99	-0.11969537955171673
16	0x3d35d6adc6ecbb5f	7.758625431842576e-14
17	0x3cf9a4a3c1de37e4	5.69391727945964e-15
18	0x3d102d3cab090983	1.4367802034202744e-14
19	0xbd0cb29afb0ea187	-1.2744328844544129e-14
20	0xbd40e4a5ecbc7ad9	-1.20033098559527e-13
21	0x3cf44690581da215	4.5020964773397324e-15
22	0xbd2bbfdf79e112a9	-4.929302073102594e-14
23	0xbcc7234c4693afea	-6.422052507748516e-16
24	0xbd05395da81c2c63	-9.425387287330783e-15
25	0xbd34d360def8ac5c	-7.398773818991309e-14
26	0x3d22c555075ca39b	3.334368991735922e-14
27	0x3d2bfb45dac5285f	4.970519044562534e-14
28	0xbd3a04a9fd074daa	-9.243528188927691e-14
29	0x3d2b36207dc842fe	4.8337215614071835e-14
30	0xbd27b010bc187a77	-4.207790622956071e-14
31	0x3d00436342c02641	7.222326447458912e-15
32	0x3f7d229ab97b63d1	0.007113079445581997
33	0xbf5dbc79418752dc	-0.0018149551525443097
34	0x3f78bedf772a8194	0.006041405593947852
35	0xbf671e807a16b2cf	-0.0028221616091371536
36	0xbf80b40880a072d2	-0.008155886102082208
37	0x3f775a61eeeea872	0.005701429893557474
38	0x3f7448759a67c7e9	0.004951915156640376
39	0x3f85857ca3059f22	0.010508512234721549
40	0x3f704c5f449bae33	0.003979084149004874
41	0x3fa15a2e195fe178	0.03389114436862689
42	0x3f757daa2119e5c4	0.005246796195586826
43	0x3f6999a12cb8a376	0.0031250141089639817
44	0x3f82e9e795054435	0.009235200152632664
45	0xbf3c211200485cc2	-0.0004292172382362563
46	0xbf7e594e519a8974	-0.007409387524292977
47	0x3f8485cbce033386	0.010020820831778254

transformer.encoder.layers.0.self_attn.out_proj.weight f8 [16, 16]
0	0xbf9c3195236f757d	-0.02753289250164447
1	0x3fd72c3e38ba94e4	0.3620753816597484
2	0xbfd454d52e7c3274	-0.3176777795750134
3	0x3fc5b22edc76845a	0.1695002151946337
4	0x3fcddfb96d516265	0.2333900245455595
5	0x3fd04f365abac357	0.2548347364454932
6	0xbfd0aa991f31a6e1	-0.2604124836567348
7	0x3fc3ea76ee51b892	0.15559279095345296
8	0xbfc4c7470ecc11f4	-0.16233146879689253
9	0x3fdaed5541117c3c	0.4207356582100521
10	0xbf901e5ceb5990c4	-0.015740825523963733
11	0xbf781c25f3a11d1a	-0.005886219261874071
12	0xbfd7924f60feb723	-0.36830505821386533
13	0x3fd2057a741950c0	0.28158437097341604
14	0xbfc93dbbaa13c281	-0.19719644360113267
15	0xbfc29dd49a01e8a3	-0.14544160385031998
16	0xbfd68e8a9d761b71	-0.3524500405987317
17	0xbfc04ae5adbd608a	-0.12728568061243478
18	0x3fca582f2658a9e9	0.20581616756801616
19	0x3fba9b9bb1ebddb7	0.10393689245017056
20	0xbfc92b9ff97a0d09	-0.19664382630808344
21	0xbfb17d66e7ac0f90	-0.06831973224694665
22	0xbfc2e38b7345637b	-0.14756911400288772
23	0xbfd94dd4211322e4	-0.3953752825732819
24	0x3fb795a411036f03	0.09212708869329948
25	0xbfd7888986129b3a	-0.36770856946025143
26	0xbfc78bc5c7de025c	-0.1839530206598451
27	0xbfd984b6138f95cb	-0.39872505102388506
28	0xbfdb000a5005914f	-0.42187745871185184
29	0x3fd80cbef1e2c300	0.3757779466787241
30	0x3fcfd85cad70efdf	0.24879034489447258
31	0xbfd0014ca0c2ed28	-0.25007930468901174
32	0x3fa117ce618c2708	0.033384751708650795
33	0xbfd9acf36436945a	-0.4011810759205382
34	0xbfcfca30ab7029d7	-0.24835785265925267
35	0x3f5a658c57f6d694	0.001611125044161642
36	0x3fad8d0cb799eebb	0.05771674863077921
37	0xbfd029908fe69160	-0.2525369076995698
38	0xbfd8bf26492f3143	-0.38666684290798886
39	0xbfd27b911c7add5a	-0.2887919214367308
40	0xbf93eeb28e9fab0b	-0.019465246157703436
41	0x3fd5e0e6d85ccbdb	0.3418519127764605
42	0xbfa29476888bfc91	-0.036288932960809046
43	0x3fc1cad603de0e9c	0.13900256337011718
44	0x3fdb16a43b8c2612	0.4232569295423626
45	0x3fcf34f5045ce705	0.2438036223700736
46	0x3fd7a36a2b7cffeb	0.36934904333975166
47	0xbfd700cdcfe5e8c0	-0.3594240694288935
48	0x3fd94c20ee8c2aee	0.3952715234342311
49	0xbfd034828d54dbc3	-0.25320495416547945
50	0x3fb37bf695889f05	0.07611027861332438
51	0x3fb185fcacb82164	0.06845072953013226
52	0xbfd19c2194015350	-0.2751544900286733
53	0xbfcea89156a1e6d9	-0.23951927881335314
54	0x3fc8db150ddee40a	0.19418585946348826
55	0x3fb4a981a7d30da8	0.08071146342540791
56	0x3fd5882fa2dbff96	0.3364371385978243
57	0xbfcd8e9257311fca	-0.23091344125191277
58	0xbfc806448e9477bd	-0.18769127809440347
59	0x3fb529c5fbc34e04	0.08266866108470344
60	0xbf32d874c5a4ddea	-0.0002875599945073292
61	0x3fc981352bb1e6de	0.19925560601750808
62	0xbfd7ff2585e259d5	-0.374947911020539
63	0xbfc383eab907b1d2	-0.15246328386946445
64	0xbfd75e1a4bb4399c	-0.3651185740754046
65	0x3fc32299429f7d93	0.1494933677013078
66	0x3fd55e98761932a3	0.3338986542992563
67	0xbfd7ae47b4bd39d5	-0.3700122132330795
68	0xbfd9646bdd4511ab	-0.39675423248652447
69	0xbfc5c37775ea97b8	-0.1700276685489237
70	0xbfc9a2948380c6a7	-0.2002740518669743
71	0xbfd4c6c672f613b0	-0.3246322748821582
72	0x3f849d9ad39ee500	0.010066232283735932
73	0x3fd35e2c2dcabc81	0.30262283775204685
74	0xbfdb4886a8b05136	-0.4263016364432305
75	0xbfd8088a3f430275	-0.3755212419310177
76	0x3fcecb5d68d1b562	0.2405812036335347
77	0xbfc4f6389146919a	-0.16376406758821532
78	0x3fb7cdfc86e79be3	0.09298685353824925
79	0x3fd7ef159a70582f	0.3739675529662944
80	0x3fc19f1778e93d55	0.13766759303914947
81	0x3f1bce3f12d273d0	0.0001060701367400906
82	0xbfccc16bf8627e98	-0.22465276363526665
83	0xbfd73be89841cf7b	-0.36303152912955
84	0xbfd1c3d5d6310b17	-0.27757783810754816
85	0x3fd4bd8f9a7e4057	0.32406988227103767
86	0xbfc7d75200058676	-0.1862585544686685
87	0xbfd32b8a142d40e4	-0.2995324322737487
88	0x3fc85aa4f949bf25	0.19026624843854126
89	0xbfc433cb38fddc55	-0.15783062250895577
90	0x3fd2d759fbd12e73	0.2943940123702539
91	0x3fa56891064c8ba0	0.04181340410129697
92	0x3fcfddfcfcb87e5b	0.24896204318882806
93	0x3fd4f086f2c55608	0.32718061168756707
94	0x3fc7e3674b45ab9e	0.18662730384252496
95	0xbfbf923418f3a998	-0.1233246384541985
96	0xbfcfd1244b2188b9	-0.2485700003481435
97	0x3fcff72cb00a1c8f	0.24973066898039462
98	0xbfd06dc6197b6228	-0.25670006264184275
99	0xbfdae00d12f2e773	-0.4199249920890146
100	0xbf9b1c90ed0ac182	-0.026476158588310657
101	0xbfc229eb5dee7f50	-0.14190427862649324
102	0x3fd88315e4b31599	0.3830008252519633
103	0xbfd77f27b6b9affd	-0.36713593334457056
104	0x3fbfbadb5ed50efa	0.12394496026268689
105	0xbfa8d7054e3066ad	-0.04851547793823605
106	0x3f7874ed68de3940	0.005970885640534995
107	0xbfcbf853e489f51b	-0.21851586016774935
108	0xbfca5ed2172055db	-0.20601869706358297
109	0xbfcbe4267fe9c120	-0.21790009732968318
110	0xbfb553b5c55b2aa2	-0.08330856388344413
111	0xbfcb016f2f0207e3	-0.21098127169903966
112	0x3fd8c08f1780a604	0.38675286574525125
113	0x3fd1a34ddbba6ea0	0.2755922933372208
114	0x3fd564eb0e374039	0.3342845572306064
115	0x3fb6a6d8855fadcc	0.08848336464114154
116	0x3fd4bb0b981f5a28	0.32391633849821
117	0xbfd5338a515ea4c0	-0.3312707705141058
118	0x3fc6395abdf352b4	0.17362531924176994
119	0x3fcf2d5a423ab234	0.24357155069209713
120	0xbfcd3254b60e1d58	-0.2280984772626009
121	0x3fc2099fc289efd9	0.14091870306935908
122	0x3fc40b136d71fa0c	0.15658800930027927
123	0xbfbf4da8b54514bb	-0.12227873254331005
124	0xbfb115bb4d0d0827	-0.06673784857869745
125	0x3f88705d4e4bcd68	0.011933068229587021
126	0xbfb31d8571cf7de5	-0.07466920879914303
127	0x3fd66c1cca369563	0.3503486609209487
128	0x3fd584c81caece63	0.33622935105379365
129	0x3fac91c3779ed5a5	0.05579958758554974
130	0xbf952118e24d59ed	-0.020634068310153287
131	0xbfd662c03a0a3452	-0.34977727573352013
132	0x3fdb055dab90cde2	0.4222025084920614
133	0x3fcea92190e91d9a	0.2395364720889404
134	0x3fdab97ad9fe6aaf	0.41757079399546176
135	0xbfcde840924bbb35	-0.2336502756438336
136	0x3f9a9bcd2d56ceb6	0.025984960453299087
137	0x3fc62da1b83a888b	0.17326756949939112
138	0xbfd651a62093b417	-0.34873345548004536
139	0xbfba9089e5087745	-0.10376798478725131
140	0xbfc1b2c30aafc312	-0.13826787969403448
141	0x3fd0d73b30d5235b	0.2631366707687925
142	0x3fb95ecf89edde58	0.09910294644748185
143	0x3fc31c373e6b745c	0.14929857776488376
144	0x3f88da56b2e71cf4	0.012135197958640799
145	0x3fcca527451b863a	0.22379008173361276
146	0xbfd7206518ef7474	-0.3613522284993629
147	0xbfd029f906cea04a	-0.2525618139720832
148	0x3fdaca666667178e	0.4186035156275175
149	0x3fc1de95210b47f1	0.1396051799152356
150	0xbfd084d037bb90ff	-0.2581062835945573
151	0x3fd5c7e5d99d1fe1	0.34032579661697865
152	0xbfd3b118662baa57	-0.3076840398559048
153	0xbfd4044feb3b9501	-0.3127631947703123
154	0x3fc9e73ff11e932d	0.20236968301210237
155	0xbfd531f9e47370bb	-0.33117530164396286
156	0xbfc15600b909fcc3	-0.13543709788425504
157	0xbfc39ce58b571f5c	-0.15322560600020096
158	0x3fdc0db663c8b24e	0.438336942143711
159	0x3fb899af3872c1f0	0.09609503868228564
160	0xbfd0aadf2c9a9da2	-0.26042918544632176
161	0x3fae44a5c75077ff	0.05911748941456096
162	0x3fca33d33b5c69a6	0.20470657728658387
163	0xbfcf6eb4cfba9aa8	-0.24556598799718654
164	0x3fb327052fedacb5	0.07481415195586545
165	0xbfb171b357d27c6a	-0.06814118284317919
166	0x3fd98174c8ac8065	0.39852637860349766
167	0x3fd43f3012107336	0.3163566757591981
168	0x3fc11f6b510924b9	0.13377133805105304
169	0x3fd04b753d3fedfb	0.2546055887357565
170	0x3fbf046e74efae9b	0.12116136889351951
171	0x3fc038bb22ef273b	0.12673129277964698
172	0x3fd4b49c54cbe2d1	0.32352360039616906
173	0x3fd35541f8bfefab	0.30207871715514995
174	0x3fc59866cb8dd7fd	0.1687134260097877
175	0xbfc4b51ba0e45f87	-0.1617769752126572
176	0x3fc8adb752bfed2a	0.19280139484895048
177	0x3fb0d04ba700c204	0.06567833735676493
178	0x3f75ea2a8d4e66b7	0.005350271433508239
179	0xbfd717734342c20b	-0.3608062893718233
180	0x3fab6c7fb4b643bb	0.0535621555419605
181	0xbfd5ccb7e62f0400	-0.3406200168502096
182	0x3fdb5db1eae66e46	0.42759368838753564
183	0xbf9a03f0bd5216e7	-0.025405656390396294
184	0xbfd0583e5dbd3190	-0.25538596300318606
185	0xbfcd834b073d7eb4	-0.23056924680257895
186	0xbfc0ec3f352b9dc4	-0.13220968338212746
187	0x3fc5b1cd238ac137	0.16948856578302138
188	0xbfd2deb3287e9fe6	-0.2948425193267198
189	0xbfca9414d70deda8	-0.2076440858908033
190	0x3f9c89cb0954a398	0.027869389004226613
191	0xbfd3efc1857b8d0a	-0.3115085414448947
192	0x3fce2c22c0c5c045	0.23572191632001896
193	0x3fd72cadf5dd9602	0.3621020222693404
194	0x3fd0681f5b252d96	0.25635513211155947
195	0xbfd0c9c50e1842cc	-0.2623150479931098
196	0x3fd78622fbf3d7ef	0.36756205181825313
197	0x3fb940e24b5d1117	0.09864630069666123
198	0xbfcb6f373a724e3e	-0.2143315348990757
199	0xbfd78519c2f71a63	-0.36749881782126276
200	0xbfa5f52171ee7e43	-0.042885823400180566
201	0xbfcd69e276a0e59c	-0.22979384224326516
202	0x3fd11687fc94000e	0.26700019517738915
203	0x3fb9142743d6ff93	0.09796376615758921
204	0x3fd8cdb01ea7ffa9	0.3875541972520247
205	0xbfc02beb154a885f	-0.12634027995688066
206	0x3fab77dd69eb390f	0.053648871593042206
207	0x3fb8af6eb374d1a2	0.09642688637979416
208	0xbfb124e710625b9c	-0.06696933889393936
209	0x3fdac673939beeaf	0.41836251654579376
210	0xbf9698487e632844	-0.02206528922469199
211	0x3fd0fd673e70406c	0.2654665097952662
212	0xbfb1fde36b7dd5f2	-0.07028027891450231
213	0xbfd632fe795de1b3	-0.34686242916316273
214	0x3f9814e4b74bf0b6	0.023517202079333464
215	0x3fcd6ecc09e6b1ab	0.22994375689939991
216	0xbfd5009092dd585d	-0.32815946905373555
217	0xbfa7920b20c6cba3	-0.04603609824280077
218	0xbfd4808d891ae215	-0.3203462447086463
219	0x3fbc3796d8e7235b	0.11022322459679172
220	0xbfc9b94d6927191c	-0.20096748003397458
221	0x3fda37a1cf0cfda5	0.40964551181601855
222	0xbfb67b1c7a7083a4	-0.08781602849241082
223	0x3fda2db4261eeab4	0.4090395328782208
224	0x3fc936b53576749c	0.19698205099567623
225	0x3fcfa24fc45c993f	0.24714085662817273
226	0xbfc30fba36bad571	-0.14891746208528958
227	0x3fbbabd98b25070c	0.10809096953473957
228	0xbfd5d4d9b123071c	-0.34111635492819103
229	0xbfd34cdce38c4868	-0.30156633588297277
230	0xbfd7082908b58f21	-0.3598730645228319
231	0x3fce5278e4498013	0.23689185282546585
232	0xbfd3439c72f80794	-0.3010016558401898
233	0xbf93b4bde6b9216a	-0.019244162757133955
234	0x3fca2a4a0c7bfa3f	0.204415565582126
235	0x3fbc4b81024fc79e	0.11052709871708408
236	0x3f9de465833335c2	0.029191576130690462
237	0x3fc06e9ba14defbf	0.1283754861468633
238	0x3fad9dd03ed7ca99	0.05784464614034341
239	0x3fda97449e9faf4e	0.41548266878702556
240	0xbfc6ec41de648e3e	-0.17908500060103621
241	0x3fda8567fc051e1c	0.41439246760680404
242	0x3fa3aced08c36091	0.03842869502995073
243	0xbfd25cf952bc170f	-0.2869246776539151
244	0xbfd38faa5d0978da	-0.3056436451496559
245	0x3fcdddc762bc6a80	0.2333306533917785
246	0xbfc8a2252289fae5	-0.1924482744834314
247	0x3fd23324f55c01d1	0.2843716045463483
248	0x3fd02973c0a4bda2	0.2525300389561044
249	0x3fd380832935c04c	0.30471877121363344
250	0xbfd44a2a2285f864	-0.3170266472951708
251	0x3fd8e7c46d514b54	0.3891459529451613
252	0x3fc94737fdce4e9f	0.19748592274537644
253	0x3fd6d30550c2bd38	0.3566296852759083
254	0x3fce660961313508	0.23748891111100812
255	0xbfd584b6424998b8	-0.3362250945414291

transformer.encoder.layers.0.self_attn.out_proj.bias f8 [16]
0	0xbf6f6dc551188029	-0.0038365224688874555
1	0xbf8544c35cb57818	-0.010385061518430702
2	0xbf8baf783e22e139	-0.013518275638816678
3	0x3f81c54b66d80980	0.008677090717360114
4	0x3f5d58d2bfbd26e8	0.0017911966414935702
5	0x3f621c66baf458bf	0.002210808415507775
6	0x3f793a1747631247	0.006158915455845965
7	0x3f83f633e5959f69	0.009746938175069624
8	0x3f80cb5660c514db	0.008200335338765566
9	0xbf8f60735c42615d	-0.015320683720617618
10	0x3f8530b48619f302	0.010346803991745816
11	0xbf84cee063ed8709	-0.01016021065669605
12	0xbf6d2c8b2daff8d4	-0.003561279137556198
13	0xbf72de38a0b596af	-0.004606457903127455
14	0x3f8f6a72ed6aaca8	0.015339753981001472
15	0x3f586afbcad7e6fa	0.0014903506192908687

transformer.encoder.layers.0.linear1.weight f8 [128, 16]
0	0x3fa68fa9a2e4a258	0.04406480897370518
1	0x3fa95a0d328ffed5	0.049515163824251175
2	0xbfc479c2a8a3e39c	-0.15996583208450665
3	0xbfb5b580abdafbe2	-0.08480076022804853
4	0xbfc7d8b304046937	-0.1863006372084983
5	0x3fc4fef1ee204ddb	0.16403030516867897
6	0xbfca8bbee0688af5	-0.20738969762268025
7	0xbfc0f0967207a655	-0.13234215324273416
8	0x3fa613e1d2151ad2	0.0431204384754459
9	0x3f995d6cf01689a6	0.024770452646075157
10	0x3fb9f2356c90ffb3	0.10135206127688327
11	0xbfb5162b7e520438	-0.082369535770355
12	0x3fbeba30d16906cd	0.12002854454569985
13	0xbfcb0685a10d7aba	-0.2111365353002464
14	0xbf9c71adae34cc6f	-0.027777398832040164
15	0xbf9973c3b461e059	-0.024855668911613147
16	0x3f84357b397031b1	0.009867632570625813
17	0xbfc9abc335644212	-0.20055427653325403
18	0xbfcaa4c674655360	-0.20815354045285073
19	0xbfbd2d1fc7813d63	-0.11396978970264153
20	0xbfc9b0bc53dfd78b	-0.20070604415348856
21	0x3fbfd7711d50a46e	0.12438113179872953
22	0xbfc78425578e8b45	-0.18372027182803144
23	0x3fb9e4a3135cc677	0.10114497397150922
24	0xbfb98048ba7ab402	-0.09961370995252142
25	0x3fba16eab014c21d	0.10191218184332525
26	0x3faaa79a813683b5	0.052059963486733286
27	0xbfc48091ed5f107c	-0.16017364588163108
28	0xbfae158cc0627567	-0.05875816200680611
29	0xbfc692ea6a696952	-0.17635851093184357
30	0x3fb2f9b60c496d13	0.07412278938265997
31	0x3fb5b17af6c4b8b7	0.08473938488598064
32	0x3fb1a36e8b5c4bda	0.06890002157551525
33	0x3fc1d35f440734c5	0.13926306554495774
34	0x3fb043d51a307d29	0.0635350407542218
35	0xbf43e27191a62a82	-0.0006068281684730866
36	0x3fc8ad0207fb7835	0.19277978315125358
37	0xbfbc7d4ecd804777	-0.11128704564205615
38	0xbface80b7e8240a8	-0.05645786208435882
39	0x3fb56340906a032f	0.08354571843848356
40	0x3fa5da6852d5f478	0.04268194209269266
41	0x3fbc5f9610f04e72	0.11083352960150153
42	0x3fc540131f1bbea5	0.1660179044624687
43	0x3fb48560e298ca8b	0.08016019374989918
44	0x3f878cb7f930a3be	0.011498868267226455
45	0xbfb3e404e8f4d93c	-0.07769804656422691
46	0x3f892d5c2dac017b	0.012293548721118644
47	0xbfa5b09e494690cd	-0.04236311573484528
48	0x3fb2bc78899d9151	0.07318833694222816
49	0x3fbfc6cc626ed575	0.12412717250011503
50	0x3fa3e51a89111467	0.03885729716470437
51	0x3fc4ff7685edcce9	0.16404611148354967
52	0xbfc178e91219ec8f	-0.1365023935685241
53	0xbfb6e4f37c7f056b	-0.08943101682145531
54	0x3facaa6463d26121	0.05598748892333761
55	0xbfb63ac820790275	-0.08683443825521826
56	0xbfb7975f34098bfa	-0.09215350170556738
57	0xbfb9ab225eda7f5f	-0.10026755157241272
58	0x3fbf680b065d5be0	0.1226813211954858
59	0xbfc3a1b1ab65d8b4	-0.15337200993571332
60	0xbf9ece68b00af953	-0.030084262604526412
61	0x3faa8bba76b01afb	0.0518472928888993
62	0xbf8f82671c27aa94	-0.0153854423014839
63	0x3fc22668aa5af91c	0.1417971450627612
64	0xbfbf9848000fc759	-0.12341737748627447
65	0x3fc0a08af87c5007	0.12989937909208057
66	0x3fc54f998af9b388	0.16649169240863793
67	0x3fcbb5f5d6564510	0.21649048772500423
68	0x3fa6fa053f1615eb	0.04487625498863309
69	0xbf87cecf6ef68174	-0.01162492806798874
70	0xbfc0e7b1b22a456d	-0.13207074355572548
71	0xbfd66c394ebbfb55	-0.3503554600610433
72	0x3fc3d5d05e9a1612	0.15496258372529376
73	0x3fc9320ba6154576	0.19683976754690108
74	0xbfd029a5dc1f37ca	-0.2525419854763383
75	0x3f9beb8201530ff9	0.027265578585470938
76	0xbfa8df3ce4895061	-0.04857816972494856
77	0xbf9f755ecbf41c1d	-0.03072116966088966
78	0xbf918587cc67144f	-0.017110940790889647
79	0xbfb0b336b47adfe7	-0.06523458391427504
80	0x3fb822f9af0a1413	0.09428368113920298
81	0x3fb433ba1ac83d07	0.07891429094182821
82	0x3fabead8c4faadef	0.054526113553347126
83	0x3fb3951dadf8a7d7	0.07649407861086331
84	0xbf7a99edf280401f	-0.006494454843064572
85	0xbf88e0716786f337	-0.012146841022394035
86	0xbfbf8bae8e8cc0bc	-0.1232251260778438
87	0x3fc1c31d64cbb8f0	0.1387669317404696
88	0xbf8c75f270bdf2ba	-0.013896841111767134
89	0xbfa59feb5f831215	-0.042235713395289455
90	0xbfc97f0a00c6a2f5	-0.1991894248760883
91	0x3fb1ca6b9446bed3	0.0694949376108938
92	0xbf9c73a50bab7ed6	-0.02778489955642168
93	0xbfc4d590c1ded0ba	-0.1627675005562475
94	0xbfacd9f8081ba569	-0.05635047053312798
95	0xbf95013e97e64f0a	-0.020512559910982588
96	0xbfc91d694f2f2f1f	-0.19621006361409685
97	0x3f99948f74ea9f5a	0.02498077536679886
98	0xbfb7feafa5e8e637	-0.09372995186358755
99	0x3fa1205a508ea4b3	0.03344995721210733
100	0xbfc1bcff408fbebd	-0.1385802331201286
101	0xbfaa72c85f2841b5	-0.051656972518802226
102	0x3fc7143f90398385	0.18030542890758397
103	0x3fb13e6fbaff3554	0.0673589545760554
104	0xbfc7178b95df0577	-0.18040604417732783
105	0xbf96683fd59c08f5	-0.021882054722490236
106	0xbfb7bbc8fe4ea77d	-0.09270912369416169
107	0xbfc4ff313507a7a0	-0.1640378483710352
108	0x3fc0a4eb4b8d2a51	0.13003293217691916
109	0xbfa4de2a2277ee4c	-0.04075748129613696
110	0xbf7bac35c18ff627	-0.006756029114510598
111	0xbfc6e5d5f5e934fc	-0.17888903148051571
112	0x3fc82acd989a1269	0.18880624724637876
113	0xbfa386b5d234fa89	-0.03813713255884916
114	0x3fb11d9c0f2d259b	0.06685805674091798
115	0xbf925f082138d3f7	-0.017940642383297924
116	0xbfb42b77dce28a48	-0.07878827231119445
117	0xbfc1355c7f99a095	-0.13444095831369354
118	0xbfb05e6b49a37154	-0.06394072101415321
119	0x3fb5155a707f8ef0	0.08235707518138802
120	0xbfc06c8464b03ffc	-0.1283116809504462
121	0x3fae2125b3e4ba85	0.05884664364781592
122	0xbfc039ad2f928ff7	-0.12676014731289317
123	0x3fbfa66b6a07d9d5	0.12363311136855455
124	0x3fade4059b493c58	0.05838029404241557
125	0x3fac5877577c8e7c	0.05536244337988891
126	0xbfc25cec1e9cec15	-0.14346076483511241
127	0x3f3f58eb29f15754	0.0004783224230256917
128	0xbfb603d4e13d21f1	-0.08599596499437447
129	0xbf4cbc721417969d	-0.0008769566558696932
130	0x3fbab23ac8da1a13	0.10428206828701318
131	0x3fb54f84ca470d35	0.08324460924545891
132	0xbfc73b4e37233401	-0.1814973611093649
133	0x3fcd3b009cbd02ac	0.2283631100963438
134	0xbfaa898253245c6a	-0.05183036103169843
135	0xbfab2ad7eb4ff78f	-0.05306124446359128
136	0x3fc9d16f4530f0c9	0.20170393827891633
137	0x3fc8deb83cc4d7b8	0.19429686515075928
138	0xbfb7b943a049264c	-0.0926706568071946
139	0xbfad49f7faaf1035	-0.05720496115785104
140	0x3fa3497bf4459f07	0.03767001492343352
141	0xbf7b8be8f2ee60c4	-0.006725225407443417
142	0x3f98f3ce3245463b	0.024367544000887014
143	0x3fa1dc42d6c272cc	0.034883583751456365
144	0x3fab1780cce0a216	0.05291368962236136
145	0xbfae816a0061b721	-0.05958110098514014
146	0x3fc25cbb6f83c56d	0.1434549612527393
147	0xbfa1cb21fd5577fc	-0.034752905058425626
148	0xbfba6c69d1106022	-0.10321675638294939
149	0xbfb28bff9801e4f5	-0.07244870625608597
150	0x3fc95770e8599bed	0.19798098893372132
151	0xbfc05b8f95ab0f0a	-0.12779421623246662
152	0xbfc894bb1fc18724	-0.1920389084871711
153	0x3fb78bdcb73eb465	0.09197787736657544
154	0x3fa807a5e6011221	0.04693334992092369
155	0xbf935d2e6f8d923b	-0.01891014629235797
156	0xbfae7e40e503a3df	-0.059556987720334346
157	0xbfc20253aa0b4fa7	-0.1406960087102764
158	0xbfb01b9199a33a2e	-0.06292066574972274
159	0xbfbafc8a12845c5e	-0.10541594459606204
160	0x3fb83358ab3c0d1b	0.09453348331958404
161	0xbfb3f52fad3bc700	-0.07795999507268547
162	0xbfc1052a7ed4a6d8	-0.13297015374091958
163	0x3fbd98f06881ba65	0.11561491538462006
164	0xbf963f359fe0ab57	-0.021725499995379618
165	0x3fccef5f6d24ff23	0.22605507687875911
166	0x3fa9cc152ccf1c4c	0.05038515254960227
167	0xbfb255228a14b7c4	-0.07161155577770645
168	0xbfc9aee18e101404	-0.20064944683704777
169	0x3fbb0abf0a914633	0.10563272483820967
170	0x3fc11a25edaa120a	0.13361047844604484
171	0x3fb98fefe2552dfb	0.09985255504323469
172	0xbfa62ec5faf9734e	-0.043325602423215245
173	0xbfc63ee814fa23ac	-0.17379475616715234
174	0x3fb1b874ac1b757a	0.06922082139813837
175	0xbf81a75af1d5a13d	-0.008619986062243451
176	0xbfc5593888c521de	-0.16678530386185647
177	0x3fa1cc811734464f	0.03476336868528717
178	0x3f9f93666d8dc256	0.03083572429335598
179	0xbfc053a343cf22be	-0.1275524216746557
180	0xbfc240dbe6114b7a	-0.14260433896796681
181	0xbfc645eaae58ee92	-0.17400868905121009
182	0xbfc088f2ead1929c	-0.12917934861902303
183	0xbfc1611a8c12072e	-0.13577586974502637
184	0x3fc40897937ae63c	0.15651220990348402
185	0xbfbb1db3e3a42a8b	-0.10592197711609168
186	0xbf94f8b4cd17f813	-0.02047998906891031
187	0xbfbd37ae499e00e4	-0.11413087174696873
188	0x3fba37dd9e3d47e3	0.10241494286790913
189	0xbfc6589bc63731f0	-0.1745791166162145
190	0xbfbcc1f1bcc85b90	-0.11233435496283861
191	0xbfc2554a108e41e7	-0.14322782333739711
192	0xbfb4427d160353b3	-0.07913953578402193
193	0x3fbc4ec6dc4941e9	0.1105770385559094
194	0x3fb591c474404c9a	0.08425548399127294
195	0xbfa8e894a352b45e	-0.048649449288270516
196	0x3fb1f8354df4a1c6	0.0701936068841241
197	0xbfb7916c0ffc02ce	-0.09206271543736053
198	0xbfca14ce4fa0ad5a	-0.2037599457556592
199	0xbfc6608382d55044	-0.17482036484091357
200	0x3fc7d210b5378a9f	0.1860981831406052
201	0x3fc28bade9da0726	0.1448876754621377
202	0x3fc3d062989d338e	0.1547969098268393
203	0xbfba7bbc2029d4f8	-0.10345054421653177
204	0x3fb6cfe352d50215	0.08910961887614406
205	0xbfaacc8cc2ca084c	-0.052341841485955415
206	0x3fb7e8bf9d21e73e	0.09339521013489802
207	0x3fc2bd64b85c7a72	0.146404829044474
208	0x3fc376b2deadd87a	0.15205989716531915
209	0xbfaad96f48c1dd86	-0.0524401451411292
210	0xbfc01cc752e2eff0	-0.12587825343314263
211	0x3fb08987fe99c2db	0.06459856000743562
212	0xbfbdc8f95af39b17	-0.1163478705453652
213	0xbfc04afffaf12163	-0.12728881600402095
214	0xbfc041981e441784	-0.1270017764838337
215	0xbfcb8c2ea0207079	-0.21521551912963213
216	0x3fbe4c9be456eb51	0.1183564598531295
217	0xbfc53aa37ad6a7a9	-0.16585200784657886
218	0xbfcbd465388760ee	-0.21741929302402901
219	0xbfa59bbd04984075	-0.04220381432617241
220	0xbfa71d9c8e1191d7	-0.0451477931426642
221	0xbf95f4cfdc7100cd	-0.021441696004558964
222	0xbf7806bf5b8ed5ff	-0.005865809908689012
223	0xbfb67c61dce3a360	-0.08783542292407054
224	0xbfb9257caa47f05b	-0.09822825581790211
225	0xbfcc47239ca3fd9f	-0.22092099331346746
226	0x3fc0302db1b18c4e	0.1264702909130357
227	0x3fa7bf21f23b3c6d	0.04638010103155286
228	0xbfc0ea3727a3d8b1	-0.13214768825100046
229	0x3fc217a298f440c3	0.14134628742659147
230	0xbfa669b1875c1084	-0.04377512719477841
231	0x3fa3fb1263f1c268	0.039024901104203036
232	0xbfc73678967e6df8	-0.18134982441266323
233	0xbfbc9546f5bc85cd	-0.11165278911041483
234	0x3fd2f6805c02c9b5	0.29629525170744425
235	0xbfc56f6c1bf09aaf	-0.1674628387856578
236	0x3fc25486cd4c6f68	0.1432045462068985
237	0xbfd194ae03f7b58c	-0.2746996916528921
238	0x3face1b4ed8b814b	0.05640950584143186
239	0xbfb9f789aa8d37e4	-0.10143337644441847
240	0xbfcadba1c5e286b3	-0.20982763445231498
241	0xbfc7d09f27711a3b	-0.18605412889356096
242	0xbfc76400310e442e	-0.18273928065585338
243	0xbfb1621bd678613f	-0.06790327058877653
244	0xbfb3837028634172	-0.07622433649090057
245	0xbfb79559197d675f	-0.09212262031851769
246	0xbf9f7000d2d1ae31	-0.030700695865034603
247	0x3fb1df41691329d6	0.06981285872749451
248	0x3fbc504fa4be5625	0.11060045024927286
249	0xbfc19cb66e99d5ac	-0.13759498978076345
250	0xbfc66e58ebedac7d	-0.17524253387395908
251	0x3fc21b97059f009c	0.14146697782962725
252	0x3f8e9c89c07d7362	0.014947010218458071
253	0x3fbb87f99f6514df	0.10754356519199203
254	0x3f911a55f8233f35	0.01670202567112185
255	0xbfc13d9e0b61df50	-0.1346929126336769

transformer.encoder.layers.0.linear1.bias f8 [128]
0	0x3fc8918fea49e919	0.19194220485571448
1	0xbfc01b9b0d4697ec	-0.12584245823126083
2	0x3fbb752f95e08880	0.1072568646345946
3	0xbfb68c913806f475	-0.08808238618708393
4	0x3fb78325e26f4d4c	0.09184490945999818
5	0x3f5d2497d51ac9ad	0.0017787440050765866
6	0x3fb7fe4e7414f8d7	0.0937241586115961
7	0xbfcf3800ed97522b	-0.24389659501197633
8	0xbfa42d86856fdc5a	-0.03940983179921238
9	0x3fc6696189190660	0.17509097284532782
10	0x3fcb188542fbca7b	0.21168580790216027
11	0xbfc3947bb6e27cb8	-0.15296884946744682
12	0xbfc2df57f67029f2	-0.14744090588676745
13	0x3fc185a4341ccf3c	0.13689091248090246
14	0x3fc6125247065f20	0.1724341246415344
15	0x3fb7191650e3f770	0.09022654986253342
16	0x3fc3ce36e1cf1fcd	0.15473066354593215
17	0x3fc5424e7a201c76	0.1660860153499219
18	0xbfc2c71c9cfde7e9	-0.14670140901199538
19	0x3fb469af065fe0aa	0.07973760514858222
20	0xbfca078a470e6a07	-0.20335510701700363
21	0xbfb270dfc18f5df8	-0.07203482127749072
22	0x3fcb9669a158fadb	0.2155277288274736
23	0x3fc9954fc07a3fb2	0.19986912630383596
24	0x3fd051874f2d0cb5	0.25497610790280173
25	0xbfbf9ee04650cff3	-0.1235180064839481
26	0xbfbd8855a0a17e39	-0.11536154910708597
27	0xbfcbd8e4b291d955	-0.21755655974602442
28	0xbfc8fd015fde9a98	-0.19522111111765095
29	0xbfce6a7165c0ac46	-0.2376233813132293
30	0xbfcda19dbc4a6aef	-0.2314946336162715
31	0x3fc8dea5f9b555b9	0.1942946881560326
32	0xbfc68e6f1d7dbfcb	-0.17622174205780392
33	0xbfba3b18e22e0c85	-0.10246425172776881
34	0x3fb9d332cf2fd80a	0.10087888296388328
35	0x3fc7589b441a1d33	0.1823915560273491
36	0x3f9a52cf0ab7c654	0.02570651534001052
37	0x3f91e291dc60a01a	0.01746585757805983
38	0x3fc676221c1cca0e	0.17548014042547816
39	0xbfc77acefda89bef	-0.18343531976390134
40	0x3fc72c07318898d4	0.1810311309683984
41	0x3fd017492c079129	0.2514212541557464
42	0xbfd074b26d400a3a	-0.2571226183792167
43	0x3fcb81af0d530e1d	0.21489513540846952
44	0x3fb57428a3fb47fa	0.08380369189697481
45	0x3fa54eedf8e1b140	0.04161780989747621
46	0x3f92214b2fc33f97	0.017705130377009572
47	0x3fba8587ad0e018b	0.10360000586479694
48	0x3fc392759eda57b9	0.15290708786477383
49	0xbfa7935683006390	-0.04604597424640311
50	0x3fbcb00bbfa336d3	0.11206124714518788
51	0x3f74d54896f7da5a	0.005086215547172113
52	0xbfc8ddb362235df9	-0.1942657689275931
53	0x3fa0f092b315414d	0.0330854266745769
54	0xbfc447553c561a6e	-0.15842690893278494
55	0x3f6cdcd9204e50d3	0.003523277353858581
56	0xbfc38c2e11a45a04	-0.15271545278001508
57	0xbfb23d90dd7559cb	-0.07125192076396229
58	0x3fbd9d0f8deea392	0.11567780699864574
59	0x3f89b42d3a07bd8c	0.012550690968935262
60	0x3fc1e6882a132ca8	0.13984777502478107
61	0x3fc6a1778e698a6c	0.17680258229946177
62	0x3fc8bc918d15b913	0.19325465573224018
63	0xbfc95f991e3b29c6	-0.19822992302063208
64	0xbfcb21433d6f268e	-0.2119525957080452
65	0x3fccd28324c8ec20	0.22517432495246315
66	0xbfc6d4df1b3dab44	-0.17837132291909985
67	0x3fc9cd7ffe30c6da	0.20158386146208934
68	0xbfcd4142c0763fbc	-0.22855410001329612
69	0xbf860242c157df9f	-0.010746499562614363
70	0x3fabb2a4bee0d67a	0.05409731702858962
71	0xbfbfe92eb8b9e1a4	-0.12465183267511876
72	0x3fa5a3e2c9ad5886	0.0422659751117616
73	0xbfcedaf3f43567be	-0.24105691360710851
74	0x3fae9ea32f216103	0.05980405760118581
75	0x3fc1365d6f4d5f6f	0.1344715875118214
76	0x3fb99bcc837da3a3	0.10003355226730419
77	0x3f85323675ade305	0.010349679437909662
78	0x3fbfa19c34e2b844	0.12355972567704138
79	0x3f71b015e9bf96ae	0.0043183189372705665
80	0xbfc02c5cb57b5d9b	-0.12635382520123248
81	0xbfc592dff66b4366	-0.16854476482560726
82	0xbfc5bbae295df85a	-0.16979004878880027
83	0xbfce6574977f7e3f	-0.23747117421497596
84	0x3fb08c5ae8b035b2	0.06464164906375094
85	0x3fcdda339ecf540b	0.23322148565662845
86	0xbfc8b47c9df8a8b1	-0.1930080195755344
87	0x3fc910e18f4b93d3	0.19582767006718757
88	0xbfc94edc3347328f	-0.1977191210156843
89	0x3fc0b0afd2d3b5f2	0.13039205354964128
90	0xbfc9675175a910e7	-0.19846552128922854
91	0xbfcd32838427a736	-0.22810405686259977
92	0x3fbc22c084805f98	0.10990527377032178
93	0xbfcfbd2129300928	-0.2479592753516695
94	0xbfb4cde4bd6735a7	-0.0812666857156815
95	0xbfc1a99c4b3b4524	-0.13798860238470312
96	0xbfc1f3d3ecf63c53	-0.14025353498843404
97	0x3fb4c2d1b77a4b2b	0.08109770516811625
98	0x3fb8e54a5458f59c	0.09724869307770806
99	0xbfc60477c9b3c395	-0.1720113501428641
100	0x3fcab776a6b91e8d	0.2087238611295458
101	0x3fc4ab105bd8c137	0.16147045597745954
102	0x3faa66ab0d556d1e	0.051564545991562336
103	0x3fbb21395d216c96	0.10597570918746366
104	0x3fcd0855e491739c	0.22681687984996024
105	0xbfa3d755ec70ca1b	-0.03875225554692837
106	0x3fc78623d87011cf	0.1837811285805757
107	0x3f95de885ea24535	0.021356707359307243
108	0xbfc5299b3d641eb0	-0.16533222673046089
109	0xbfc6ad6c9fb73972	-0.1771674899923244
110	0xbfb978b1d9e3eec1	-0.09949790544117844
111	0x3f701b46fef804f4	0.003932263687148597
112	0xbfa32f4bf7dc84e4	-0.0374702205720128
113	0x3fc81affbdf75dab	0.18832394386002468
114	0x3fc19bc4b84b4260	0.13756617544869965
115	0x3fa29fa094b329c3	0.03637410941299237
116	0x3fc48f0dd26d82d3	0.1606156613807089
117	0x3fb0d76d908de869	0.06578717021139514
118	0xbfc2cd5848d118f0	-0.14689162784106413
119	0xbfb59311b3d1a748	-0.08427534713851259
120	0x3fc28b4cf624d3e0	0.14487611788504662
121	0x3fbe9bbf0bd5ec5f	0.11956399954753881
122	0x3fc9521f2f48b019	0.19781865891252506
123	0xbfb5135337f3d0e4	-0.0823261272051386
124	0xbfc87fd21449e037	-0.19140077582028578
125	0x3faf355d3a2791c1	0.06095401129622103
126	0x3fbfa069fd2ca4dc	0.12354147368445773
127	0xbfbc8cc8231efa72	-0.11152315957495221
