Code/800-200/darts_logs/D-dep_04_transformer/checkpoints/last-epoch=199.ckpt (torch, 653413 bytes, 205 tensors)

encoder.weight f8 [16, 1]
00000000: ce9f c4bb f886 d6bf adc5 870c fed1 e4bf
00000010: 753f ac6d 3f63 ddbf c0eb 460d 940c e6bf
00000020: 92b7 f86d ab7a e43f 3787 4042 16ce ea3f
00000030: 8b34 f105 92a4 b83f 9175 61c6 bd19 f13f
00000040: a93b 1aa9 0010 e6bf 0a38 877a 7f01 ed3f
00000050: 3f0c cf52 c0ca f03f 8754 c60d 3d50 e3bf
00000060: de90 8b7e db0b d4bf f638 1196 9c43 e2bf
00000070: 7084 44ea ec17 c23f f704 08ba 0f21 d93f
-0.35198801361775345 -0.650633835290298 -0.45918260298002816 -0.6890354403798185 0.6399743221170289 0.8376570981965646 0.09626114506791532 1.0687844990964985
-0.6894534399779008 0.906432856858147 1.049499820205497 -0.6035447377240793 -0.3132237182419554 -0.5707533770562623 0.14135514677858252 0.3926429096901098

encoder.bias f8 [16]
00000000: 0922 5113 d4aa de3f de37 1400 7f47 903f
00000010: ca8f b89d a8c2 e4bf ce36 691b 9f1a c33f
00000020: c739 dcb8 f462 ddbf f892 05eb f36b ecbf
00000030: 79ef acaf 5328 edbf bff5 ec78 0688 cabf
00000040: b09b e1c9 05a2 d6bf 46c4 4fc4 d6cc edbf
00000050: ef32 d35a a41e c8bf e01e a641 e54a ddbf
00000060: 8e58 f206 ca2f ad3f b50b 386a f47a cdbf
00000070: e586 17be 37e5 e7bf 4204 e983 3268 c33f
0.4791765392915584 0.015897735957928087 -0.6487620430457295 0.14924992407252663 -0.4591647916103309 -0.8881778326291103 -0.9111727172053029 -0.2072761621911194
-0.3536390754219907 -0.9312547525606838 -0.18843511996092085 -0.45769626055742485 0.05700522742078916 -0.23031478105994344 -0.7467306816799605 0.15161735001496096

transformer.encoder.layers.0.self_attn.in_proj_weight f8 [48, 16]
00000000: 6bc2 f8d5 e83a cc3f b4df 666c e11c bf3f
00000010: 611c 92eb e60a d1bf fa68 368c cab5 95bf
00000020: fe63 d805 58c6 d63f f8f6 5353 7a37 c03f
00000030: 38b3 00c7 ef69 ca3f ccc9 4934 8ca0 d23f
00000040: 980e b3d3 dea4 c63f 9761 8178 6430 9ebf
00000050: b03b 61b2 d773 c7bf 5925 1519 464f d6bf
00000060: 8601 1605 542c d8bf 1c42 f8a3 a800 c8bf
00000070: 8932 831b 08bf c9bf 0dac fae5 46fa c7bf
00000080: dd2b 1505 27d7 b3bf aa0e 0391 ff06 a53f
00000090: 67ab f019 3491 cdbf 94c5 85c5 4626 aabf
000000a0: 7542 6b10 117a c8bf 7cd8 2142 a37c c93f
000000b0: 2aba e7b9 1a7d ac3f 20f2 bd18 5ad7 d1bf
000000c0: 1283 9cbd 2246 c33f eae0 a24e 5804 d03f
000000d0: d122 e3e5 18af c93f 4dfe f77a f971 d2bf
000000e0: 7f9d 7a7f 5300 b73f bdd6 c165 c319 b23f
000000f0: 1ed1 c0cf 7010 b8bf 428c 3745 f7df cc3f
00000100: 6e28 2167 0d25 a83f 4100 dee3 101c d23f
00000110: 7a61 b437 4cdf d6bf 9f78 c912 884a b03f
00000120: 10a9 52ca 15e4 7e3f 2add dbb1 a4cb d53f
00000130: 9489 b873 bdcb b6bf e9b4 c884 e5c3 a83f
00000140: 7a1d b028 2c7e b8bf 5e7a f18e f390 a43f
00000150: 2bfb b7cd 39dd c0bf 0149 a0c0 1f8c a13f
00000160: 0af7 6f38 d15e cebf c86a b128 eb8d be3f
00000170: f587 71bf 7626 c13f 6f9f 35ec 7e3b c13f
00000180: d9ba 7f74 fb13 d3bf effc 4db3 e743 c93f
00000190: e282 c863 a595 cd3f b7e1 c02a 9ec6 c43f
000001a0: 2e1e 3dea 39ea d53f 17a0 506e 9c13 b23f
000001b0: 1711 dd44 5f48 c8bf 9325 5c5f b7f3 c7bf
000001c0: 0483 4ac0 8a77 a3bf 63b2 121b f5de dbbf
000001d0: 3286 f467 2b3e c83f 1af3 c247 a8fe bb3f
000001e0: 7c46 9dfc d481 bd3f ab3d b23b 43c2 cebf
000001f0: 37f2 ea21 2184 a63f cf40 6adb 0c9a c43f
00000200: 2897 3283 57c2 d8bf fd24 7f52 4268 c63f
00000210: b494 1195 79c8 cd3f 4338 40b0 87ba c0bf
00000220: abe2 c4a9 9fe8 c3bf 13cf 652f 957e ce3f
00000230: e2a1 0636 1d76 cabf 402e 9d56 5fd8 ccbf
00000240: d624 4c0d 0ef4 da3f 81e2 418c 88e0 d2bf
00000250: 113a 0df0 a754 96bf edfa 3b73 64fd ce3f
00000260: ac4c 6aa3 0b6e cf3f af8f c6bb 8fc7 c6bf
00000270: 26d1 00a8 0771 b33f 2004 4270 008f d1bf
00000280: 31de 77b2 97a5 dd3f 747f 19cc 3192 c13f
00000290: df03 5489 193f 7bbf c63e 3d75 56de bebf
000002a0: 2293 e024 75df cc3f a515 6b82 f955 cdbf
000002b0: f8a3 291e 111b adbf 6420 bfec b8f3 d23f
000002c0: 2d2f 9bd4 8888 b0bf 61ca b103 2b8a cd3f
000002d0: f1ae f04e b2ac c53f 1a92 0725 db90 b83f
000002e0: 8cb5 b2db 3fda 8e3f 10fd 7074 a443 b33f
000002f0: d6f4 c949 ff41 d1bf 180f a76b a5f8 d33f
00000300: 381a 72f2 0aa1 b9bf 4b72 6654 fdd7 afbf
00000310: c932 56ce 53aa ad3f 20c7 1415 ed5b d13f
00000320: 60be 9d7b 1f71 96bf a4f6 8f37 4b7a ca3f
00000330: 4563 31c9 2b27 b53f 1dd4 55e6 d6ef b9bf
00000340: fecb 1b55 897a b0bf 6cd2 c588 6ce6 d73f
00000350: f002 8a7c d740 c4bf efc4 9310 261e ce3f
00000360: 6816 c9a2 9c63 e2bf b827 f08d 015c c5bf
00000370: da2c 661c d009 d1bf 19d7 a518 7f25 d2bf
00000380: dd04 e9f0 ce68 a8bf df97 03a2 2325 d1bf
00000390: 6b65 0902 2b2f d3bf 086d d126 bcca d63f
000003a0: a3d1 dafd fd1c dcbf 11a7 474b 22f0 b73f
000003b0: 8f23 ebf5 e1ff 98bf 41a0 ba18 9f13 cdbf
000003c0: 0d75 ded9 d598 c53f 0629 72d3 7e5e d43f
000003d0: cabd 95d3 64bf c5bf be85 a88b 5ea8 cd3f
000003e0: 26c6 b780 970f e83f 1aaa 8d2d 1814 d53f
000003f0: 3ba9 17c7 7872 cfbf 17aa 3c68 01b4 c43f
00000400: 7178 4a4c 396a 993f da81 b12c b68f bc3f
00000410: ecb8 4fbe ae1f b3bf 7e7c 16ab c954 c43f
00000420: c88f 8d91 09b0 d33f 794c 29ff 6ec4 c33f
00000430: 08e1 bc50 b030 cf3f d914 386a 9853 ce3f
00000440: 3a17 a75c bee3 b23f 020b b0d6 9579 c7bf
00000450: 17bc b34c b430 d33f 803e 6a8a b115 c53f
00000460: 5232 542a 2c13 c03f 103e 2d86 d022 8abf
00000470: d761 ebf3 0970 a8bf f93a 866e 61de c4bf
00000480: e771 441d fe3c d53f f21b 9a4c f621 b9bf
00000490: 9de3 d3fc ecb1 aa3f e31b ffa9 2bf5 d63f
000004a0: 9c18 421f a71e c0bf 361d cf29 071a a0bf
000004b0: a411 b6bb 1bd4 58bf 7416 5ee4 c346 b0bf
000004c0: 66eb b7fa 9cbd d0bf 0d42 6a4d 2bee d83f
000004d0: 4760 b815 2f52 ce3f 66ee a8da 9f7a ae3f
000004e0: 3926 18d3 893e e0bf d248 91d5 29bf d43f
000004f0: 5b86 390b 130c b0bf 17e8 d87f b3fc c8bf
00000500: ab70 f318 0c3c c3bf 3c2c 6e16 ff35 cdbf
00000510: 1367 13ed 197f ac3f b8e3 56df 7cd0 833f
00000520: 527b ea30 3e3f cd3f ae8e 6611 be6c d13f
00000530: 2e49 6b75 4d0e c2bf 15f4 122d 2463 c7bf
00000540: ecb8 7bce 31e1 c4bf d307 92ce f180 c9bf
00000550: 018c f966 b53b c43f 8be7 939a 1d11 d5bf
00000560: d875 f53c eef5 e6bf a3cd 98b8 b7cb b93f
00000570: 1487 590f ec40 9a3f 6591 e5c7 fda1 dbbf
00000580: b748 b4ee 04cc dcbf 166f 59bb 0d12 b1bf
00000590: e32a f588 c853 e03f 9e5e 59d6 206b d6bf
000005a0: b2e3 2aef 4f59 c23f 11b1 c025 1196 b7bf
000005b0: 92f5 1926 da0b d23f 9b25 1230 5af8 d1bf
000005c0: c19c 74a7 70e8 cb3f 174b 599c a40f b3bf
000005d0: d491 d024 2692 d6bf e73a f4f7 070a b9bf
000005e0: 24be f21c 7366 b5bf dc1a 347f 6c6e d9bf
000005f0: e2f7 3575 3cf2 e03f adc7 0455 c87e b5bf
00000600: 9ca2 ac21 53ba dc3f e7a3 b396 ee60 c73f
00000610: f3de 4a74 990e d4bf 4faf 8d83 ca18 e33f
00000620: 47a1 8a2f c393 d7bf 324b d48d 2062 d7bf
00000630: d053 1c68 3a2a a0bf 4a39 8880 bfc6 e33f
00000640: 3d45 4f02 9b7d debf 146b 618e b99e ce3f
00000650: 6856 79dc 113d d23f 22ea 1a6a 98d1 c63f
00000660: b6f8 4b9f 4c05 e8bf 5c98 6e9d 2db1 ce3f
00000670: bfb5 99b5 3fba cebf 58fc d960 da16 d83f
00000680: ce84 6b54 ad20 b0bf 5b5f 0c74 0835 dfbf
00000690: 97f4 43cc e826 bfbf c7fe 9072 e068 bebf
000006a0: bc90 2836 9bdd c4bf 1b27 db68 91be b23f
000006b0: e04c 59cc 485b c63f 8e1b 5086 58ce cebf
000006c0: f226 4688 c92f c8bf 650f 5b72 73b7 bcbf
000006d0: f3d2 8c31 7013 cdbf 2e20 68df ee50 c7bf
000006e0: c1af a802 9dc9 d13f 8aa0 cbe4 cd95 d6bf
000006f0: 8fdc 52c9 528d d03f c7ca 6c60 44ff b2bf
00000700: e6b3 f51c 6549 c93f f84b a251 a146 c3bf
00000710: e3b6 cccd bba5 d1bf a5f5 5e4b f0fb d13f
00000720: b4f2 030e 1ec2 c6bf 8772 998b e74e d5bf
00000730: 384a f375 d0b4 c9bf b4f0 860e 1c98 9b3f
00000740: 650f 3321 5457 b93f cf7e 7e05 0af4 cd3f
00000750: c227 3ebb 1add a33f 8380 5806 7dfb b0bf
00000760: 9a7a cb73 1553 cd3f b113 9433 860a c0bf
00000770: bd4b 8727 1a06 b53f 743a 7c09 b28c d03f
00000780: d2ca f5a3 407f d3bf b1f6 7f92 e987 a2bf
00000790: 92fb 28db fad5 b63f a734 b99e a7c2 dcbf
000007a0: a3a2 4aa5 3124 d93f 4f07 7f53 d906 d23f
000007b0: 7f8d c773 f83e b73f 697b de42 418a d2bf
000007c0: 90be 0cf0 b91b c93f c1c7 51ee 90af af3f
000007d0: ba2b 0b70 0fee b63f 0bfc dbcc ca69 dcbf
000007e0: 8e74 386e 2f29 e5bf 6631 6949 b8c9 d9bf
000007f0: ae25 3b47 c21d d83f 999b 7e1a 7636 debf
0.22054777572477077 0.12153443237809719 -0.2662904072280466 -0.021201290901083227 0.3558559472162982 0.12669304913281798 0.20635792939119724 0.29104905229828826
0.1769064458550147 -0.029481477599206576 -0.18322273454620364 -0.34858849000427977 -0.3777055787723146 -0.18752010351501347 -0.20114232390769285 -0.1873253462739232
-0.07750171541299218 0.04106901784100832 -0.23099375979048917 -0.051073276149405405 -0.19122517873485703 0.1991161415969066 0.0556419708190002 -0.27876903930862973
0.15057787187927169 0.25026519469567055 0.200656044244417 -0.288206453405995 0.089848726866526 0.07070561632448409 -0.094000864716524 0.22558489684806388
0.04715768703370392 0.28296301129012497 -0.35737901153472473 0.063637260996503 0.007541737669422469 0.34055440300967865 -0.08904632640090987 0.048369572123513845
-0.09567523949964665 0.04016839141762739 -0.131751275490353 0.034272186531000066 -0.23726859336596134 0.11935300582392039 0.1339863238127347 0.13462816747346149
-0.2980946195302017 0.19738479857549104 0.23112933513859618 0.16231133544512286 0.34242103457333684 0.07061174100147159 -0.18970862257459295 -0.1871251311897991
-0.03802140805533408 -0.43548324245310804 0.1893972642511002 0.10935451271047861 0.11526232879011816 -0.24030342497688414 0.043976817503310554 0.1609512397158199
-0.3868616849161861 0.17505673435361038 0.23268050936454687 -0.130692444858541 -0.15553661145692863 0.23823799909916285 -0.20672955644592067 -0.225353162090288
0.42114592836931075 -0.2949544305516057 -0.021807312037077923 0.24210792185473143 0.24554582099208255 -0.17796513241512232 0.0759434495128671 -0.2743531318920436
0.4632319681981896 0.13727400270272094 -0.006651973487579148 -0.12058010446821318 0.22556938458105785 -0.22918623798447615 -0.056847128803219904 0.29612563247474655
-0.06458335104542519 0.23077905350108366 0.16933277945042094 0.09596032766382515 0.015064715282586481 0.0752508911400478 -0.2696531506151819 0.3120511580748242
-0.10011356753430156 -0.062194744637257125 0.05794011968382546 0.27123572405536045 -0.02191590492242168 0.20685711110120508 0.08262895261704013 -0.1013159096090281
-0.06436975791784502 0.3734389625235852 -0.15822881299029445 0.23529506501612427 -0.5746596507457982 -0.16687030249187074 -0.26622393391944643 -0.2835386028958609
-0.047674624355303875 -0.2678917963188478 -0.29975390623947956 0.3561239604075159 -0.43926954069618257 0.0935079034603883 -0.02441361487834431 -0.22716129977675517
0.168726664906821 0.3182675423528426 -0.16990337687773965 0.23170072383167722 0.7519032968540997 0.3293514675957866 -0.24568090173063148 0.16174333181091136
0.024819274217059154 0.11156786528727683 -0.07470218797945777 0.15883751729868217 0.3076194688239835 0.15443217715310079 0.24367336218143287 0.2369261282584947
0.07378759157208217 -0.1833979891090039 0.2998476742786251 0.1647245336393901 0.12558509890404196 -0.012761715979336535 -0.04772978880436412 -0.16303651711174164
0.33184769495144767 -0.09817447061696763 0.05213871561313186 0.35871402360174737 -0.12593544985083305 -0.031448577741282 -0.0015154143173684376 -0.06357979131106523
-0.26157307132932883 0.389536691284804 0.23688305435712406 0.05952930015743334 -0.5076340792595097 0.3241676889057433 -0.06268424057045634 -0.1952118276838639
-0.15026999681766048 -0.2282103404544119 0.05565720576278301 0.009675002637651406 0.2284925211760887 0.2722621126106145 -0.14106147988656786 -0.18271305275803287
-0.16312239248458782 -0.19924757563063497 0.15807216194215815 -0.32916965575679374 -0.7175208273508202 0.10076473480949359 0.025638283192512892 -0.43176216622511837
-0.4499523478599587 -0.06668172668417713 0.5102274584727094 -0.3502885907414369 0.1433505933580626 -0.09213359042832205 0.2819733974536912 -0.28078322119162075
0.21803100754298124 -0.07445744340047288 -0.3526702270048905 -0.09780931285443338 -0.08359450775855543 -0.39736473486156654 0.5295698441766457 -0.08396579814578216
0.44887235916625357 0.18264562948686988 -0.3133910785358999 0.5967762536433642 -0.3683937038681688 -0.36536420679583437 -0.03157217522508626 0.6180112371819544
-0.47641635156204015 0.2392188973634225 0.2849774029794845 0.1782713430491905 -0.7506468878998678 0.2397820490561483 -0.24005886428078146 0.3763948388877387
-0.06299861250910796 -0.4876118787083123 -0.1216874598212193 -0.11878779217749545 -0.16301288742500286 0.07322033700907264 0.17466077783556155 -0.2406721740555579
-0.18895835069661576 -0.11217423955809876 -0.22715570849836517 -0.1821573820927837 0.27793050059949215 -0.35289332717230393 0.2586256948520224 -0.07420756677746985
0.19755233682681633 -0.15059296117814802 -0.27574057672141644 0.2810021148723883 -0.17779899296137602 -0.3329409468913486 -0.20083051451963896 0.02694743956247754
0.0989887791684488 0.23400998371379564 0.03879626784971847 -0.06633740811276038 0.2290980163006296 -0.1253211738441258 0.08212436165858512 0.2585873692159233
-0.3046418763325792 -0.036193179257663195 0.08920257425869085 -0.44938078403795106 0.3928341020751224 0.2816680255310659 0.09080460383079546 -0.2896884110468166
0.19615864010983275 0.06188633832142854 0.08957001195373851 -0.44395704274933284 -0.6612774994606683 -0.4029370037940424 0.3768163390746747 -0.47207405650481743

transformer.encoder.layers.0.self_attn.in_proj_bias f8 [48]
00000000: 40ee b108 1fda a3bf 60fe 0a4d 5213 acbf
00000010: cc6b e5c0 391a aa3f 86a0 fb50 1ff8 abbf
00000020: 07ad e827 bfc6 abbf 8983 9707 ce74 c13f
00000030: 56c0 fe9d 68ad 6ebf f03c 3efa ad86 c33f
00000040: 5844 8284 fa5f a3bf d933 96ac 9813 6a3f
00000050: b547 8ae0 fb37 c9bf f3c3 46ac ef1c d2bf
00000060: 0bf5 9891 e97a cc3f ddf2 3b0e 0b29 a5bf
00000070: ac41 523f bd14 b93f 8c83 6c21 4173 d0bf
00000080: 7841 a980 3602 3a3d 4bbb 2745 3035 59bd
00000090: 1a4e 6fdb b51f f53c 0e27 0ebb 9c17 15bd
000000a0: beef 0db6 eec5 35bd 214b 7aed e6bc 3b3d
000000b0: a69c a283 6e25 f33c 3bd6 c298 d9e1 55bd
000000c0: bbd0 7933 44bd 03bd d059 f352 6417 033d
000000d0: 846e 2b46 4099 56bd 819e 6bc3 6dc2 453d
000000e0: 70ed bf4f cd58 7d3d d62a 167e 635b 443d
000000f0: dba6 e548 137a 5bbd f2b7 7271 9e82 613d
00000100: 7136 fc60 0396 6e3f efb2 a4fa 9920 973f
00000110: 9748 cc54 d039 933f 492c f3f7 dad4 913f
00000120: 3614 3d1e e437 8abf 8ee8 c2ef bab2 683f
00000130: 773f 29b0 ada3 983f f6fd 32f6 bacf 61bf
00000140: 90b1 a0c9 cbd5 a2bf 438f 7c6e b4a9 b23f
00000150: 0871 ecc0 ab49 a1bf 7a3d da3c 57d3 a5bf
00000160: 3f05 501d 2639 8fbf 4cb4 4a10 369b 7b3f
00000170: c52e c013 410d a1bf 0d51 b04c 46e0 a23f
-0.03877350789204259 -0.054834911255508656 0.05098133544625902 -0.0546273981433965 -0.054250692006769845 0.13637709971137849 -0.003744797068030474 0.15254759520437444
-0.037841633487126713 0.0031831724088022648 -0.19702099288821065 -0.28301612686033123 0.22250098809482952 -0.041328759658403526 0.09797270580225498 -0.25703457130480767
9.240126581535374e-14 -3.5822392581289686e-13 4.6904410733523145e-15 -1.873366819045816e-14 -7.735385201032964e-14 9.854481204832714e-14 4.25131431455536e-15 -3.1096514181422996e-13
-8.766019872588285e-15 8.478273449140273e-15 -3.211459470966441e-13 1.5461045674648646e-13 1.6681771515556733e-12 1.4464509153429832e-13 -3.904696194751492e-13 4.976706734028859e-13
0.0037336412423261624 0.022585302279526095 0.018775229621561165 0.01741354120603614 -0.012801916287239572 0.0030149127106514134 0.02406188380911042 -0.0021742488475806577
-0.03678738437915563 0.07290198991227918 -0.033765189457172495 -0.042628027132304916 -0.015245721597241356 0.006739817796796176 -0.033304246579147136 0.036867329465311106

transformer.encoder.layers.0.self_attn.out_proj.weight f8 [16, 16]
00000000: 39a5 feb5 6b56 a2bf 7caa db17 caf9 dc3f
00000010: acaf 4512 7eda d4bf 3249 60ab cac1 c13f
00000020: a316 6985 45f3 ca3f c384 fa7a a909 d13f
00000030: d930 c9b5 9a5f cfbf cd21 fbbb 49ba c53f
00000040: 6d16 2192 9a49 c3bf cead 797c a6b6 da3f
00000050: 41fd 0daa fcc3 72bf 2d60 95cb 9a46 7d3f
00000060: a0e0 9f92 eabf dabf 6188 9761 1bb3 d23f
00000070: d525 4358 64ac cdbf 7aba 177a 3bde bebf
00000080: 3bf9 f8e4 a95e d5bf bd92 cb52 cce3 c6bf
00000090: 6044 86eb 9f2f c83f 3303 9009 4755 b63f
000000a0: 5bd9 7ca9 bf31 c5bf 1671 3cc1 8581 bbbf
000000b0: 8cf2 edaa ae04 c6bf eefd a489 43c5 dabf
000000c0: 9156 4eb7 f2b6 bc3f 148b e455 2efb d7bf
000000d0: f08d 4123 3354 c4bf 61b7 3b61 888d d8bf
000000e0: ea4b 7fc0 8297 dbbf b184 e76f 06b5 d93f
000000f0: 8f31 0be9 6edc ce3f 5899 b4ae 733c ccbf
00000100: 9f48 5ffd c1a6 ae3f 14d2 d1d9 93c7 e7bf
00000110: 7b6f b06b e814 d0bf c625 0d48 8493 ac3f
00000120: d3c8 123c f844 ca3f 0a44 6785 5a10 d5bf
00000130: 6287 6d49 fc37 ddbf 103d c559 f98f d6bf
00000140: 8ee0 2e34 98d8 99bf 9120 50e0 5ed3 d43f
00000150: d638 a849 3d11 a2bf 5ef9 7a21 b19c c43f
00000160: 1cfe f470 89ea e23f 9b81 dee6 f9b3 d33f
00000170: 2051 5d8e 1520 e13f 3b69 8086 3c6f dcbf
00000180: 3c39 93d3 fae8 d63f 3adc b2d0 9999 d2bf
00000190: 7343 24b4 29de b53f 08b4 4ac8 c22e b03f
000001a0: 3700 716b f956 d2bf 8462 a7db 248a ccbf
000001b0: 9fe4 f168 a652 c93f c3d0 4e7b 4d16 bb3f
000001c0: 1f33 23d7 585a d53f 0b74 e690 7799 ccbf
000001d0: 8f47 2fff 87f5 c8bf 809a 7e91 be83 b53f
000001e0: ee52 1478 290e b5bf a267 d9fa 4633 cc3f
000001f0: aaeb 548b 98da dcbf e5c3 0a4f 5ee8 c3bf
00000200: 09d1 ee4c a702 d7bf 5b44 30b4 b4e9 3f3f
00000210: 750f 2ceb b953 d43f d9c1 d77b b76d d7bf
00000220: 8044 5379 3f5a d9bf 03cc 7fb9 c316 ccbf
00000230: 04bc a328 e019 cfbf e4d7 67de 7ddb d6bf
00000240: 8baa 24e2 413d a03f ea3d e7d9 fedd d13f
00000250: d740 797a b3ff d9bf d766 ed98 8e14 d6bf
00000260: 50df 788b 747c d23f 8aaf e877 921a b5bf
00000270: 1c0e 8e4e 8523 a13f 646c 1bdf b4bb db3f
00000280: 4e6c e60d f3bc c23f 491b a423 d4c6 ccbf
00000290: b8a2 e681 ca5a c8bf 71f9 cb03 5a57 d3bf
000002a0: dd5e 01e3 00b5 cebf 1841 593c 09e9 d43f
000002b0: d256 716a 5a7b c7bf f5b8 908d 3f6d d3bf
000002c0: bffd cf11 0b91 c33f cd4c af7b 0bea c2bf
000002d0: 95c4 552e 980a d03f 82fe 659f ff4b 9e3f
000002e0: c539 8dc7 1944 d23f 888b 5651 435d dc3f
000002f0: 9795 bc4a f9dc d03f 71c5 98c2 fd81 ccbf
00000300: a749 3583 9a1f d1bf 9512 4a2f fc2b d73f
00000310: 87a1 7d81 d923 d0bf d618 7bf3 dc39 dcbf
00000320: 26d0 1228 70e2 b4bf 1e34 79ff 7d3a bbbf
00000330: da4d 6584 f4ed d93f b6d5 e944 7d17 d5bf
00000340: 91af 7cda 1de5 bf3f d9b1 b66c 0d1d a3bf
00000350: c799 a1b3 a246 603f d1af e148 879b cdbf
00000360: 067a 337b 651a cebf 3b02 49d6 f76d d4bf
00000370: c037 b860 2742 c4bf 7a52 145e a8d5 c5bf
00000380: 50db f93d 3196 db3f 2dcd 4ef7 45ac d03f
00000390: 33d0 9fe9 32e9 d43f 6eb0 c2c7 7388 ba3f
000003a0: ec76 7844 0f23 d63f 2116 0fe1 62ad d6bf
000003b0: 26b4 ac4f d1e4 c33f 211a 5819 5cd9 c93f
000003c0: f60e 515d 40b6 ccbf 171f 6104 5553 c13f
000003d0: e248 45d6 d48e c43f 6a12 7e9d bf75 bdbf
000003e0: 3f83 6bee aa37 93bf 9863 aad8 c071 8f3f
000003f0: 241b 8e9f 1ee1 af3f 3d7e 9490 7bbe d13f
00000400: 4552 5041 16c3 d33f f9bb 8384 d0f0 c53f
00000410: 9885 6808 f03d a1bf bb35 1d1a 26c7 d8bf
00000420: c2a2 eb9e adc5 d83f 1918 ee20 f976 cf3f
00000430: c1d1 209d c59e db3f 5679 730c 8931 cbbf
00000440: 6353 7df0 9d44 a63f 41c0 57b9 7a14 c53f
00000450: 647b 0a96 0e42 d5bf 33f7 2aec 6d8e b8bf
00000460: 4644 68b3 7fd3 c8bf f921 4e47 72d4 ce3f
00000470: baac 5699 94f0 8fbf d4bb a7dd fb49 cc3f
00000480: cf14 dae3 3f39 a23f 2166 bf43 08bb c33f
00000490: 0f4d 5d0f 27fa d5bf ba0b fbef 88b3 c9bf
000004a0: 59f9 3323 e079 dc3f 664e 6ae6 b140 c13f
000004b0: 46f1 1ebd ae33 d1bf 3c97 c3ad 00a6 d43f
000004c0: 7ed5 fefe ff4e d5bf 2fbd a0ce 86ff d2bf
000004d0: 5a15 792c a142 c73f 4851 2e9f 4fb1 d6bf
000004e0: d599 4a99 0d6f 673f 5bfe d9ca 585a c9bf
000004f0: e27d bdb7 bd20 e23f 6e21 4b30 ddbc a13f
00000500: 4e36 3f96 f330 cebf cdaf e338 cbc4 c0bf
00000510: 0f0c d998 3089 cb3f 8a87 4a9b b320 c8bf
00000520: 5054 d81e 6957 c13f ebbe 6522 80dc babf
00000530: 166d 40e8 27b7 d73f 36fd 89b9 2c77 d13f
00000540: eef8 3835 5f1f bd3f 35ae 5c8e ab46 cf3f
00000550: 622a 9b6d 6dc3 b83f aa1f 10e3 46c0 bf3f
00000560: 963b e322 15cb db3f 34e2 58b5 e24f d93f
00000570: de86 0007 b4ce d23f 96f3 6cb5 32cb cdbf
00000580: 5c0c b9ae c5dd c73f 5856 7194 7aca d33f
00000590: a467 79f8 e84a 64bf f01a fbb6 b824 d9bf
000005a0: 35eb 840d c5a5 ad3f fff6 03a9 5e79 d3bf
000005b0: f263 c94b a3d8 db3f 6805 3e7d e01d 853f
000005c0: 8599 6f23 4877 cfbf e223 4fd3 12ab cbbf
000005d0: cdfe 684c 81b7 babf 1347 b515 074b c43f
000005e0: 0c14 7b3a 7e42 d1bf 84a6 e26b d455 dbbf
000005f0: d556 e3cf b44b af3f 1c9d c960 6d51 d6bf
00000600: 9d95 d40f d792 cc3f 7841 694c 506d cd3f
00000610: 08cd 7845 602e d13f 7625 210d 419a cebf
00000620: babc 674d 154d db3f 121d 00c1 7854 b93f
00000630: aba9 8bc8 91da c9bf 8e04 07f0 46ba d6bf
00000640: f870 962f c086 adbf 53d0 7306 348b cdbf
00000650: d621 9b39 5722 d03f e760 721f 5131 be3f
00000660: 1c80 2bd2 3b88 d93f 221e 4a8f 2c09 b3bf
00000670: f3fe 472a 13e6 b83f 814a a0bd 4aab 903f
00000680: 23f7 200b 9cb8 b0bf eb22 e47a aaaa de3f
00000690: 249c 4481 6e8f a3bf afe7 1e15 0803 ce3f
000006a0: 1629 e788 5b98 b0bf 347d 5549 4186 d6bf
000006b0: c750 e526 7fbc 913f f0c0 dd67 01ec cd3f
000006c0: 0fb3 1298 8dca d3bf dc38 0714 1ad1 a8bf
000006d0: 825c df2d 94d7 d2bf 8b80 2827 3721 c03f
000006e0: 8168 4c30 9ead cbbf 5bf5 d069 28d9 d73f
000006f0: 2734 2865 9422 b6bf d9ea 4c7a 4118 da3f
00000700: 65d0 ca73 2e06 c43f 05f8 d6c2 a435 c23f
00000710: 1dc6 af41 7e76 c1bf 4945 8a12 0978 bf3f
00000720: c448 2c5e c683 d7bf 6547 73e2 b105 d3bf
00000730: 5be8 5d14 5376 d6bf 9ccc 2b1c dd35 cf3f
00000740: 5f20 846a ccc7 d3bf 390e b233 f8c4 94bf
00000750: b9f9 cfb3 c909 c73f f57a e940 95ff b83f
00000760: b9a6 33fc f52a 9b3f d8b7 8c2f 63e4 c83f
00000770: ee3e b6a4 3e4b 9abf 1845 e176 1915 df3f
00000780: 364d 876f 0d84 c4bf 6c14 319a 4b3c e33f
00000790: 969f c7df 1b08 a13f 2591 8722 efd6 d4bf
000007a0: e8eb e44b 607a d4bf bdc4 f925 ea82 d13f
000007b0: 720d af2f 857c c5bf 95fe 1b20 160f d43f
000007c0: 6289 fc3a 9434 d03f 3f93 1a6b adf0 d33f
000007d0: 0e3a 73d2 2da7 d3bf fece 4c71 d7e5 d73f
000007e0: 248c fb4b 6e82 c43f 1ab0 bf3b 6782 d03f
000007f0: 919e a197 82d0 d23f 67a0 d2b8 ff41 d7bf
-0.035815587965155556 0.4527459366787878 -0.3258357218207901 0.13872655265783745 0.21054905904945995 0.2662147236788536 -0.24510511280312278 0.16974755934485444
-0.15068370948044976 0.41739809184829546 -0.004581438989475218 0.007147411984384217 -0.4179636413459864 0.29218182115994834 -0.23182348546678946 -0.12057849627283615
-0.3339028106746757 -0.1788268474839664 0.1889533901235465 0.08723873122654595 -0.16558070922628584 -0.1074451061981033 -0.17201789232412457 -0.4182900280174796
0.11216656661266657 -0.3747058714672431 -0.15881957265365498 -0.38363847251354427 -0.43112248228606964 0.40167389801178915 0.24110208872879155 -0.22059484510937
0.05986601083681475 -0.7431124929703992 -0.25127611652873555 0.05581296329053091 0.20522978719015458 -0.3291231444137003 -0.45654208346069514 -0.352537477175205
-0.025240305123333466 0.32540103822294336 -0.03528777622351391 0.16103185782226154 0.5911299902144864 0.30785987420861155 0.5351665287549032 -0.4442893327228778
0.35796995793943487 -0.2906250513146379 0.08542118690480809 0.06321351423203236 -0.28655848972630643 -0.22296581959996697 0.1978347790170902 0.10580906162687413
0.3336393452598702 -0.223433442832999 -0.19499301872434358 0.08404151012528338 -0.08224734479547255 0.22031485794542244 -0.4508420334493005 -0.15552882060504128
-0.35953695786453516 0.0004869524165665489 0.31761024442697955 -0.36607157796882245 -0.3961332974259406 -0.2194447189100118 -0.24297716125826707 -0.35714670867252907
0.03171735654389803 0.27917453078859344 -0.40623175583188015 -0.3450047009879262 0.28884614582374457 -0.08243670871223521 0.0334741266624656 0.43333169734768817
0.1463912790175947 -0.22481776943478796 -0.19027072279756907 -0.30220651980189134 -0.23989878734823025 0.32672339337752154 -0.18345194051169372 -0.30354298424471376
0.15286386842488572 -0.14776748217864225 0.25064663433938367 0.02958678636923518 0.28540653693644585 0.4431923193280274 0.2634871702051326 -0.22271701814456038
-0.26755392850204845 0.3620596372423191 -0.25218808789806996 -0.4410316827528623 -0.08158017137867599 -0.10636126982827007 0.4051486294676728 -0.32955867509675885
0.12458979210049238 -0.037331027527531986 0.001986806656577775 -0.2313088518015989 -0.23518055453946846 -0.3192119209889232 -0.15826885435711624 -0.17058281511039636
0.43104201366752637 0.260514728080312 0.3267333299147623 0.10364459635701603 0.34588987051561904 -0.3543326566544654 0.15542045965540402 0.20194579350955258
-0.22431187206722542 0.13535559381329484 0.16060886824067838 -0.1150779494765374 -0.01876704292488118 0.015353685962780791 0.06226440141386139 0.27725113982339505
0.308782161505665 0.17141157598913973 -0.033675671602632906 -0.38715508032040774 0.3870653202016393 0.24581827266610004 0.4315656694846233 -0.21244919879877483
0.04349225578940865 0.16468748140278147 -0.3321567979091269 -0.09592329994026443 -0.1939544321071784 0.24085834962558275 -0.015595589570543179 0.22100780795105257
0.035593029560041615 0.1541452723311503 -0.3433931016963507 -0.20079147069745124 0.4449386924533392 0.1347868323397165 -0.26877945393404834 0.32263199776786045
-0.3329467764081854 -0.29684610537056505 0.18172087356121375 -0.3545722059727905 0.002860571441789287 -0.1980696669088385 0.5664967144656965 0.03464404310722356
-0.23586888157153613 -0.13100567128947063 0.2151242014243455 -0.1884979732758974 0.13548006063561724 -0.10492707099706038 0.3705539482195531 0.2728988468079082
0.11375994729403135 0.24434418154975082 0.09673198629313043 0.1240276626923548 0.4342701760005466 0.39550082883536963 0.2938661640529129 -0.23276361330672718
0.18645545035733135 0.30923332687721006 -0.0024771261412696744 -0.39286630505777875 0.05790534772901027 -0.3042828226606246 0.4350975265602407 0.010310891935435065
-0.24582769136686636 -0.21615825002507366 -0.10436256518823513 0.15853966293303098 -0.2696834155179324 -0.42711363349608455 0.06112446820922705 -0.34871992542180563
0.22323120377511155 0.22989848834050597 0.2684555700718225 -0.23908246174896036 0.42657978591064316 0.09894518577504055 -0.20198271076453742 -0.3551194519059856
-0.05766869145301884 -0.23081064524706338 0.25209599137863614 0.11794001596206592 0.3989400436821613 -0.07435873506812432 0.09726066381699265 0.016278426956044093
-0.06531691810320388 0.47916662217225675 -0.038203671722208093 0.23446751624379433 -0.06482479183538134 -0.351944276442697 0.01732062029744055 0.2337648160132697
-0.30923786021121286 -0.048470320649004 -0.2944078872655568 0.12601365482351343 -0.21623589857410155 0.3726292641984707 -0.08646514386801184 0.4077304548588195
0.15643864301603397 0.14226207269342708 -0.1364286251769479 0.12292534544601098 -0.36741790005283925 -0.297222586768035 -0.3509719561476509 0.24383129001180215
-0.30906973268475285 -0.020282629161114427 0.17998620300200033 0.09764988741651932 0.02653107024972343 0.19446983167421084 -0.025677660754410185 0.48566280946131846
-0.16027992196777924 0.6011102687413206 0.03326499087034944 -0.3256185376360626 -0.31996924792809844 0.27361539562759757 -0.16786255672750944 0.3134208024566559
0.25320916901013935 0.31156478366238 -0.3070787959267428 0.3734034162946357 0.16023043356025923 0.25795918307153587 0.2939764481329599 -0.36340325402352963

transformer.encoder.layers.0.self_attn.out_proj.bias f8 [16]
00000000: ad76 b239 fa0b 823f 3c16 39f0 7533 953f
00000010: f2bc af2c f5cb 85bf 9955 cea3 47c0 843f
00000020: e063 010e b873 a13f b390 8eca d784 a7bf
00000030: 90c3 7a8a 3c22 813f a25f 1386 f56b 633f
00000040: 236c e46f cb2c a13f e885 5b4a c82f a8bf
00000050: f2cd 6e29 0d7c 87bf 21db 9b0b 42f3 703f
00000060: 7975 8233 3755 98bf 0870 5f6d 3c6c 973f
00000070: f361 d63e e553 803f c7cf 31e4 0614 82bf
0.008811907659317464 0.020704119479225222 -0.010642924715254829 0.010132369696104248 0.03408599062885975 -0.045935386158164525 0.008366082168636685 0.002370814837018246
0.03354488125679491 -0.04723955066379998 -0.011467078043870569 0.004138238896976871 -0.023762571829697408 0.022873825240694173 0.007972517948290103 -0.008827260817476102

transformer.encoder.layers.0.linear1.weight f8 [128, 16]
00000000: 11b1 84bc f493 963f c89a e9e0 fe41 b63f
00000010: 6e01 84bf 1dc2 c1bf ae06 f93f 6653 c1bf
00000020: c3ff cc91 83a3 c4bf 209b 95f8 f1cd 9c3f
00000030: d199 b6a0 209a d0bf 7fda 2795 7203 bdbf
00000040: 007a 956c 5fde ad3f c492 16b0 b31f 703f
00000050: 7161 af80 66f6 bd3f 16b0 d46f 5458 bbbf
00000060: 870e c30f 3d91 be3f f05a 114e 16a9 cebf
00000070: 3b17 5d90 d868 713f 7641 0c4e a4e6 a0bf
00000080: fcaf ebf4 6d64 a4bf 8bf2 3298 7c46 c1bf
00000090: 855e 9f78 4f4d c9bf ba17 0edd 0f8a b3bf
000000a0: b2d2 07dc a77a c8bf c447 f781 b841 cc3f
000000b0: 8abd 9696 dc76 cabf 2f91 3e8d 91a2 bc3f
000000c0: bcfa 1298 727e c1bf 9d12 9374 cbc2 bc3f
000000d0: 55ea 4cf9 6811 a83f aa53 22db b864 c9bf
000000e0: 2733 9f46 b08a b9bf 9e47 5050 47d6 cabf
000000f0: 4510 1bc9 9300 b43f 526a af76 2780 b43f
00000100: ee92 239a 8f62 9b3f 5e36 dc83 3268 c23f
00000110: 79e2 abe5 c775 bc3f e2c1 2bad 83ca 8c3f
00000120: eb2c a591 f141 cc3f 5a0f 6f98 b527 97bf
00000130: 7a77 d580 a936 cdbf 1992 f017 0a61 c33f
00000140: 544f 7035 6077 a53f 44e2 cc5d 49d9 ab3f
00000150: a956 082f 9874 b43f ff41 d60f 360a ad3f
00000160: 3f25 1c5e c34e acbf 9392 c558 2b4b afbf
00000170: 473e 7bb5 e0ae 933f d799 62a4 7406 acbf
00000180: ed59 feb6 aa35 ab3f f8bc a468 8968 c73f
00000190: c0fb 07c9 c7cd 973f 49a9 f37e 76cb bc3f
000001a0: 5d0e b5d1 2ace c1bf ba31 8dd5 1145 3e3f
000001b0: b472 8434 c3a4 b43f b771 445a da6b c9bf
000001c0: c491 9e5c 154b b33f 24fd fbb0 0e99 bfbf
000001d0: ad85 1f0b d87e ca3f 49a9 925e 6b8a c2bf
000001e0: dcdf 5780 8fec 803f 6fb0 172a a3c2 a03f
000001f0: 2251 29b7 4fab 863f 5b8f 27f5 813e bb3f
00000200: 5cd3 c97f e736 acbf 61a1 f764 4cb5 a83f
00000210: 9680 88d3 bd6f c13f 10c6 b9b6 4d43 cb3f
00000220: 44df 8b26 f66d b43f bac6 6b04 ebe7 c2bf
00000230: 01a9 bca1 d75c 793f e12b 7091 fe34 d7bf
00000240: 642a c147 c2bb d33f a13b 99d9 ddcd a23f
00000250: 4c86 92f0 b957 d0bf 90af 2556 7336 933f
00000260: e65b e4d9 fe0f aabf dfb9 7f33 7be4 b7bf
00000270: 8865 67d9 f09e 883f e84b ebd9 6d26 bcbf
00000280: 0624 c6db fa85 ba3f 1356 13c8 13a6 a83f
00000290: fb02 8755 2940 b43f 3233 0522 1a42 9b3f
000002a0: 17e4 134b 4cd6 67bf 636d 4548 6117 71bf
000002b0: 9907 2d86 5683 adbf e750 7b35 4aed b83f
000002c0: 1003 5112 f42f 553f 2a20 2427 a540 a0bf
000002d0: d267 0ef1 0690 c7bf fa95 b7de cb79 ae3f
000002e0: 13a6 f3eb 0417 9abf c9b4 d3c7 c3dd ccbf
000002f0: 9b2e 992a 6727 a4bf 60ab b84f 4cfc a3bf
00000300: 6ea1 f3da 0363 c8bf 1ca1 296b f35e 303f
00000310: 26f7 cbde 4acc b4bf 8560 50ef b8a5 8d3f
00000320: ea43 d5c3 1d10 bfbf 70a8 58d7 c1d4 c1bf
00000330: 195c 6fd6 b7e2 c53f 7051 d5c5 542e b83f
00000340: 6eed 3849 90ce c5bf f5e1 bee8 94f3 99bf
00000350: 01d1 4081 0d34 b8bf a25c 68d0 dcda c6bf
00000360: 1c3f d74d d8f0 bc3f a1c2 fcd8 c943 acbf
00000370: 108c fedc 2519 803f aaf1 c927 901e c7bf
00000380: 08b1 405a a3ab c33f 67e8 1e5f c425 a7bf
00000390: 2b60 c68a 9b11 b23f d508 a203 a86d 90bf
000003a0: 2b8f 2e3b 732b b2bf 76e3 ccaf 5a7e bfbf
000003b0: d3b7 9a17 a16d a7bf 52a5 b66a 04f1 b23f
000003c0: 0616 4d4b 48b6 bcbf 5945 542e aa4b ad3f
000003d0: 48ae 516f 1e49 c4bf bcff 2d24 a9df be3f
000003e0: cdb2 bb61 2b88 b53f 09f0 a42f 3529 8d3f
000003f0: e521 ae25 737d c0bf 9de1 db48 39cf 90bf
00000400: dbd3 5265 1037 92bf 9078 549d f49b 893f
00000410: e932 4642 528e b93f 21fa 6091 d1e5 823f
00000420: 443b 79a2 73f6 c6bf bfa8 6dc7 db13 bf3f
00000430: cc02 a6be afc0 acbf ede5 70c8 f79b bdbf
00000440: 1e23 f2a9 7fff d53f e03f a007 8033 993f
00000450: 8d58 5c8e c2ea a9bf 682f 11f8 1e2e adbf
00000460: f57a 69e3 ac17 b23f 7d9d fde4 afe3 a23f
00000470: 965f 27e6 3144 b13f 2a87 e868 e414 9b3f
00000480: 1dfc f16e 93eb ab3f 2924 72ea 4a49 a5bf
00000490: 196a 95e8 64fd c23f f724 b22e 9e1e a0bf
000004a0: a130 fbba 0715 b8bf 9a70 d236 ff06 b3bf
000004b0: ebfa 5222 1dc7 cd3f fe03 c02b 1a6f bcbf
000004c0: 822e 1cae 2de2 ccbf f55c 38a4 b693 bc3f
000004d0: 91b6 beec e140 a73f e3c8 1ea6 a5c6 96bf
000004e0: 4666 6d86 cfe1 b1bf 4754 554d a101 c2bf
000004f0: e8fa c8e2 f863 b2bf 2c30 eb6a 81ff babf
00000500: 1dcb 53c1 3e4c a43f 213f bc3e 122b 96bf
00000510: e3d1 23a5 5efa bdbf 4aac f8bd c028 bf3f
00000520: 92ed 0b19 a9cc 77bf 514f 00fe c480 d33f
00000530: 6110 31a5 3d29 ac3f 6385 b6cd 7368 aebf
00000540: 7e98 bc32 1909 cbbf c89e 0702 be7b bb3f
00000550: b03c 5842 0cda c33f a6ca 2f3b 0350 b13f
00000560: c922 9adb aebe b1bf 51b3 8976 6520 c8bf
00000570: 43dc 3b03 1e6d b63f 1f31 f228 1660 a1bf
00000580: fe06 b8d7 0345 c0bf e98c 2b83 3508 a93f
00000590: a320 ea3a c14e b13f 8084 9b7b 17f6 c5bf
000005a0: 6bd2 7ce0 df49 c5bf c0a2 da01 287f d1bf
000005b0: 54cc 4c16 c409 b5bf fb58 e48b d795 b6bf
000005c0: 1334 cce7 3ee3 c13f eef8 e2d1 5b9c b9bf
000005d0: 22af 6ad4 728c 8cbf bd6c dbe8 126c afbf
000005e0: 153c 2e29 2fbf c53f abc5 e6de 377e c4bf
000005f0: 4769 769f ca32 bfbf 0dd5 c894 4564 c1bf
00000600: f9c6 99d9 f4a9 7c3f 914f c187 06cf b53f
00000610: b22f fa8f c5ed bc3f d482 3dea 4335 cbbf
00000620: c99a c1e2 8bd2 ca3f 7fff efca 7bf2 c7bf
00000630: 08ee 9baf fae5 c7bf c763 331f 917d 80bf
00000640: cfab e4e6 fa3a c63f b1f2 df63 29ac c83f
00000650: eb80 4a8b 93ca c73f 6f62 31ea 2387 c7bf
00000660: a54b 470a c022 babf 2c4f bebb 2f12 a4bf
00000670: d32d d8b3 1234 bd3f 3d4d d545 307e b73f
00000680: 4d7b fe81 4157 c13f 3f68 25ba b638 aabf
00000690: 90f7 747e e459 c4bf 1ced ed65 6e87 b33f
000006a0: e154 4ec4 1983 bbbf 07b9 3760 e040 b2bf
000006b0: ce8c 3434 357f c0bf 0ec1 c861 15bf c2bf
000006c0: 4a9d 0f1b 88f7 c53f 2ee1 477d b0c9 ccbf
000006d0: 077d 7485 b2bb d0bf 7c20 d217 1e68 a1bf
000006e0: 1576 7117 de50 acbf 130b 936a f77a 943f
000006f0: 7e51 126c cdec 343f 70bd e959 2f5d b6bf
00000700: 94f8 5c1f b1be b2bf da92 058c f5cf c3bf
00000710: 1113 309f 8c26 bc3f 41eb 50ee 4f2d ab3f
00000720: b33d 1efa 09e4 c1bf 0a05 8db2 6186 ca3f
00000730: 10c1 d992 9164 bcbf c373 b4ee a3aa c23f
00000740: 4527 f382 e937 cebf d48d 8f8d 2688 c0bf
00000750: 6d53 a46e 562a de3f e4ac 814e ce04 cebf
00000760: 39bd d329 6a9b c23f 116f db8a 13df dabf
00000770: 9f81 8665 0a77 b43f 2f72 08ca ca23 b9bf
00000780: 7d5a e03f dd19 c7bf f5c8 ba15 f03e c5bf
00000790: f970 c8f2 773f c7bf 9574 47fb e70b afbf
000007a0: 5bfc 1ed1 5a40 aebf 9515 2b7d 9086 c4bf
000007b0: e9eb e8ec 5b23 abbf f474 e9c4 52ba 75bf
000007c0: 03e0 431f 19da c13f 541e 2fd0 5606 c8bf
000007d0: fbf8 a365 b0d8 d1bf a897 7d70 2022 c43f
000007e0: 0048 0e35 ecd1 87bf a468 db20 8535 c33f
000007f0: f36f 313a a281 8e3f f3e5 1ad0 fd95 c0bf
0.022048782354589017 0.08694451323536179 -0.1387364564070696 -0.1353576481215461 -0.16124004954508395 0.028129368588817205 -0.2594071931329412 -0.11333385602470435
0.05833719444739316 0.003936483293192242 0.11704102174497223 -0.10681655626530104 0.11940366396725653 -0.2395351296606445 0.004250379517378107 -0.033009657409027435
-0.03982871641878202 -0.1349635832938428 -0.1976718272187449 -0.0763254084286861 -0.1912431549423182 0.22075563760750871 -0.20675237038583943 0.11185559938764265
-0.13667137551779784 0.11234733196313092 0.04700782817095176 -0.19838629436403937 -0.09977246975104191 -0.2096642629772391 0.07813380870635551 0.08008047721470149
0.02674316767015033 0.14380484999167015 0.11117219311916839 0.014058140489823626 0.2207624398382458 -0.022612416676352033 -0.22823065558162253 0.15139890831882566
0.041926390193252644 0.05439214010261087 0.07990409038787995 0.05671853011438443 -0.05528841518214244 -0.06112037142410034 0.019221793247935073 -0.05473675257353577
0.0531438206082163 0.1828777085260993 0.02324592747208576 0.11247959708604073 -0.13910422553645932 0.00046188054470943827 0.08063907653963548 -0.1986039105185122
0.07536443244186503 -0.12342922039896514 0.20699596922990562 -0.14484922521416824 0.008263703445649577 0.03273496521782781 0.011068938042776259 0.10642254100053831
-0.0551063865176846 0.04825819714079916 0.13622258023042794 0.21299144193794506 0.07980287972520467 -0.1477025767886085 0.006192056953105985 -0.3626095218939423
0.3083348942497308 0.036726887523961034 -0.2553543900813551 0.018762399800308638 -0.0509032860738257 -0.09333009726808637 0.012021905550613679 -0.10996138162890612
0.10360687127662524 0.04814206902817033 0.07910402620383288 0.0266193469299651 -0.002909802446648967 -0.004172687539120676 -0.057642654303449344 0.09737075620370526
0.0012931712638108474 -0.03174320318981956 -0.18408285875631109 0.059522982537412575 -0.02547843637595377 -0.2255177236287749 -0.03936312098502733 -0.039034256679164825
-0.19052169981956574 0.0002498001369191248 -0.08124225558637174 0.014476246646197186 -0.12133966475563765 -0.13930533423382796 0.1709813878103155 0.09445695714868463
-0.17036632132826973 -0.025343252854982585 -0.0945442619857353 -0.17855415512233203 0.11305000210199662 -0.055204684961045254 0.007860465819083756 -0.18062021200956951
0.15367547900076084 -0.04521001492635506 0.07058117044505312 -0.016043305608499054 -0.07097549624319004 -0.12302176277161245 -0.0457582799257207 0.0739901314288052
-0.11215640867620644 0.057217901378076426 -0.1584814113187909 0.12060029156964353 0.08410903106750851 0.01423875381134822 -0.12882842388013596 -0.01641549594111923
-0.017788177665995036 0.012504492808656203 0.09982790105841456 0.009227406739339252 -0.1793961089446957 0.12139676684242583 -0.05615758135082202 -0.11566113132075602
0.3437194022777009 0.024610519853069834 -0.050619201543825466 -0.05699250009692386 0.07067375709582875 0.03689336462303581 0.06744682187070192 0.026446885016532175
0.0545316765719621 -0.04157480346572868 0.14835797649978202 -0.03148359603899025 -0.09407089533778158 -0.07432551468304141 0.23263897109969575 -0.1110702854930565
-0.22565241815060594 0.11162892827302413 0.04541688933327948 -0.02224215341966208 -0.06985184699933553 -0.14067474628487472 -0.0718379548716076 -0.10546120510406415
0.03964420423462498 -0.02164867885500066 -0.11710158855186807 0.1217155898854553 -0.005810413874083225 0.304734466598565 0.055002142348286716 -0.05939065824646652
-0.21121516206148166 0.10735690640978668 0.15509179343687185 0.0676271457194085 -0.06931584226016264 -0.1884886578367522 0.0876024969000904 -0.03393620729284152
-0.12710617097041416 0.04889075494954815 0.06760795296043169 -0.17157262359163283 -0.16631697140987298 -0.27338600331362883 -0.08218026680406015 -0.08822390714007959
0.13974748914952836 -0.10004209398445926 -0.013939759356922436 -0.06137141315931547 0.1698969794346971 -0.16010187515125315 -0.12186876671913636 -0.13587255253666122
0.006998020596812309 0.0851902085717582 0.11300310864515842 -0.21256302773965408 0.20955036708911326 -0.18708751114899866 -0.18670590948737265 -0.0080519998213492
0.17367492937168413 0.1927539575261981 0.18586963940925413 -0.1838116544265804 -0.10209274531307118 -0.03920125166692254 0.11407582178815483 0.09176923470413541
0.13547533843390128 -0.05121394178668525 -0.1589933030572266 0.07628526676665043 -0.10746918718935518 -0.07130243634285104 -0.12888207482419606 -0.14645640635127005
0.1716165668615111 -0.2249050723764951 -0.2614561370155148 -0.03399747887402868 -0.05530447040721868 0.020000329856666953 0.0003192903059894488 -0.08735938973562951
-0.07322222724630684 -0.15478391015053355 0.10996321569843938 0.053080079881019156 -0.13977169716643587 0.20722600191405888 -0.11090955577106265 0.14583253055107379
-0.23608130353960113 -0.12915498649736767 0.4713340836036 -0.23452166398360597 0.14536788027133143 -0.41986549911756393 0.07994141558311306 -0.09820239479490377
-0.1804768144508734 -0.16598321019188914 -0.18162440638196367 -0.06063771192905524 -0.05908473780390785 -0.16035657989247612 -0.05300414339986743 -0.0053046448871019065
0.13946832682245267 -0.18769345441090712 -0.2788506500800307 0.15729146473603106 -0.011630864495405291 0.15007080177639864 0.014895694161332051 -0.12957737599735672

transformer.encoder.layers.0.linear1.bias f8 [128]
00000000: eb04 ac9f 49b9 c53f c170 98f6 89a3 c2bf
00000010: ce71 4827 afcd b43f 53f2 e031 063f bbbf
00000020: baa9 1888 aae3 ad3f 3537 36c3 ab35 89bf
00000030: b58a 0605 33a7 b33f e83a 72b0 22a4 d0bf
00000040: 469b da5b 7f04 acbf cb7a f31e d5d0 c63f
00000050: 92ca d175 6db3 c73f a0f7 06e7 b78a c0bf
00000060: 2bb2 0406 e189 c5bf 469a 3d98 d5cb c13f
00000070: 9ce6 2fe0 3e21 c33f 65f0 b309 3f49 b73f
00000080: 3ba0 f9cc e6a3 c13f 66df 25ef 8db3 c03f
00000090: de7e ba09 dac6 b5bf 0dbc 4fb7 cf1b b13f
000000a0: 4233 65dd f68c cabf 671c 1bee 41bb b0bf
000000b0: b088 156e 3cfa c63f d3ac f1a6 bb0a cb3f
000000c0: dc05 0cb6 ba03 cd3f a20e 565d 88db c1bf
000000d0: a3fb cfe8 3cde c3bf 21cd 3e8f 72c0 cbbf
000000e0: 478d eef2 4c49 cabf 8d65 cb93 e15f cfbf
000000f0: def1 194c beab cdbf 3701 0629 cd52 bd3f
00000100: 3440 82ca be79 c7bf dbfb d49a 9659 bdbf
00000110: 34ca cfb0 a94f b33f 6061 13cb d650 c93f
00000120: 129b 30d9 5fcb 8e3f 9395 8da4 3441 b33f
00000130: e820 ef91 fa25 c23f 3b55 cf24 d999 cabf
00000140: 8ad2 00a1 9ea6 c73f 4462 71d2 0459 ce3f
00000150: fa89 932c 33f7 d0bf 5d38 5238 d160 c83f
00000160: 742c 29d0 ce61 b43f b688 1bf8 0642 9f3f
00000170: 617e 3c22 068f a03f 5c45 2861 94a1 b63f
00000180: 75bf c945 17d6 c53f 5f3f 8ff0 49cf b2bf
00000190: 6152 c0a9 c3a6 be3f a33d 2db9 9674 753f
000001a0: 5498 7543 12b6 cbbf 7a02 1502 5592 8c3f
000001b0: d5ff 3658 70d6 c8bf 01eb b2af e7dd 573f
000001c0: 295f 2d39 0b4b c2bf b35d 221b c309 b3bf
000001d0: 6d4b bd63 f0b4 be3f 106e c878 1772 81bf
000001e0: 15d8 0c1c 4a45 c63f 80ab 7c28 f570 c73f
000001f0: 1723 52c4 31a3 c53f 9d32 4e82 63f3 d1bf
00000200: 1fc8 5249 e507 cbbf e17c ab7b 6018 cc3f
00000210: 90b2 b620 a01e cbbf 3ec9 a4d4 0889 ca3f
00000220: 2411 c83c 0e99 cebf 96fc a0e5 1e5f 94bf
00000230: e9af b62b 8445 a03f 538a 3296 7f13 c6bf
00000240: 0051 2dee 55bf 90bf cb6c cbc7 0063 d2bf
00000250: 94c7 2d99 b86b 973f 2cbc 9ffb 7b47 bb3f
00000260: 1967 c4d9 3818 b13f 8b9d ca82 d57c 9e3f
00000270: 994e 54d3 8066 c13f 74ab 8ea2 be2b 89bf
00000280: 6d48 0dea 7323 c5bf 829e e4c7 7d49 c8bf
00000290: da8a d049 9b3e c6bf 82a3 5ea2 e95d d0bf
000002a0: daa7 537e e6f1 ab3f 3ded df63 8f7e d13f
000002b0: 8260 dbe8 d535 cfbf 7ef7 5cc6 e314 c73f
000002c0: d148 815d bd19 c5bf ec99 3fa6 b725 bf3f
000002d0: 99f7 182a 936e c4bf c950 06ce b94b cabf
000002e0: 221c 9166 beea b53f 0b70 d142 c4e6 cebf
000002f0: 99bd f72e fea1 b9bf 5ac3 0586 752b bdbf
00000300: 1cce 6717 7e2d c2bf d321 a3ea 8554 b13f
00000310: e66b ecd5 9568 b53f d101 65e6 f366 c9bf
00000320: 7b37 247d 222c c23f b868 b3f1 f246 c13f
00000330: cdb4 c6cc 2bb4 80bf 4349 3163 7bb3 ba3f
00000340: aa26 3ee0 c972 d03f 844e 5a72 febb aabf
00000350: da32 49c2 ef9d c83f c694 b182 6260 903f
00000360: 9aa6 7d34 0bef c2bf a36f 382f aaae d0bf
00000370: f6db 9a5f 2fa5 aebf ed37 37c2 954f 933f
00000380: 5678 679e 0310 a4bf 3a0c ac03 d54f c23f
00000390: 88d2 7ab2 dcd0 bb3f 5f11 164b 8c07 983f
000003a0: 583e ed83 3275 c13f e707 a53b 60c9 9e3f
000003b0: e80b 213a 8a84 c2bf 8771 da63 3e8d bdbf
000003c0: b1af e861 a603 c03f 225f c5ef b574 bc3f
000003d0: 9478 7ef5 a85a c93f f0b1 91dd 4669 adbf
000003e0: 1300 3fa8 34e4 c8bf 29da 0326 dbcb a53f
000003f0: 7a12 1fdb 0763 c23f 15b7 cdee 1541 bdbf
0.169717028584308 -0.1456158117370077 0.08126349171693123 -0.10643042295209541 0.05837757979709886 -0.012309400458231682 0.07677000878042402 -0.2600180361850293
-0.05472181316627327 0.17824806224139986 0.18516319516091478 -0.12923334866166858 -0.16827023309578357 0.13903303083061952 0.14945207544933659 0.09096139895331275
0.13781437881994116 0.13047956635613928 -0.08506548631202857 0.06683061814668197 -0.20742688951795613 -0.06535732329494835 0.17951159835053465 0.21126504565777413
0.22667631043445524 -0.1395121055357907 -0.1552196633128605 -0.21681053156280775 -0.2053619562330857 -0.24511356083420957 -0.2318036910618408 0.11454469920682163
-0.1834028710186445 -0.11464825897290558 0.0754343086880816 0.19777951160245788 0.015036343398674688 0.07521370904358653 0.14178402066887164 -0.20782007500990027
0.18477232800946225 0.23709163928539756 -0.2650878844562211 0.19045462846810582 0.07961742956210732 0.030525311368258833 0.03234118621753335 0.0884030091476879
0.17059603603001575 -0.07347547648464346 0.11973212141340063 0.0052381408339238515 -0.21649387639917228 0.013950981260337548 -0.1940441542374162 0.0014567148744350502
-0.1429151562867841 -0.07436770832497679 0.11994841036839228 -0.008518393872740254 0.17398954743993103 0.1831346938791647 0.16904279790858176 -0.28048026776449736
-0.21117845611803518 0.21949392355506972 -0.21187211606356415 0.2073069608973785 -0.23904588668677562 -0.01989410664122867 0.03178036721814676 -0.17247004350527337
-0.016354887640162907 -0.2872926665419981 0.02287186083726274 0.10655951398051461 0.06677584950048433 0.029773079021337117 0.1359406501656977 -0.012290467582564558
-0.16514443329157605 -0.18974277744677087 -0.17378560165624074 -0.25573197227873135 0.054579928322553165 0.27334961655988704 -0.24383043165176238 0.18032500444126848
-0.16484801355051684 0.12166927155303825 -0.15962447696250306 -0.20543596801565503 0.08561315540383466 -0.24141743910411181 -0.10012806555436383 -0.11394438287767397
-0.1420133222851384 0.06769597032974355 0.08362709496252271 -0.19845436811193776 0.14197188482688347 0.1349776916675347 -0.008156149088643616 0.10430117770855411
0.25700613878926026 -0.052215529879643646 0.19231984125726492 0.015992678858670194 -0.14792003691700445 -0.26066069232342154 -0.059854011936685866 0.0188582801618437
-0.03918467816014075 0.14306128196048623 0.10865573270241147 0.02346629341401873 0.13638907853827464 0.030065063133640903 -0.14466979826292392 -0.11543645799469547
0.1251113870688392 0.11115586379798661 0.19807922350895935 -0.05744382338238896 -0.19446428504124977 0.04257092322398066 0.14364717673574373 -0.11427437858739282
