Code/800-200/darts_logs/M-data_Benin_transformer/checkpoints/last-epoch=199.ckpt (torch, 653413 bytes, 205 tensors)

encoder.weight f8 [16, 1]
0	0xbfdc1782b104c1f8	-0.4389349678704373
1	0xbfed02a31cce098f	-0.9065719187349702
2	0xbfe6b7a9b737ed1f	-0.7099197939382157
3	0xbfedfcff00da98f7	-0.9371333138158481
4	0x3fdc122bcdd05239	0.4386090764903972
5	0x3fed5fad40baf5a9	0.9179292930854689
6	0x3fd3b9fb3f13cade	0.3082264057149312
7	0x3fec64d12284339b	0.8873067545078926
8	0xbfe26591d91e77f9	-0.5748986473661254
9	0x3fecfb109574651d	0.9056475562130434
10	0x3ff22e58712dab6a	1.1363148137122274
11	0xbfe9bb856fd0c0d5	-0.8041407760520324
12	0xbf939b853006a7d0	-0.01914795022609167
13	0xbff1b7f7bcb36b38	-1.107413994896616
14	0x3fc387d6f3c3f3c3	0.15258299734696665
15	0x3fd46bb258a339e0	0.31907328277602964

encoder.bias f8 [16]
0	0x3fd74096b6bb6a3a	0.3633171829693854
1	0x3fa142eba751e5bd	0.033713688063424986
2	0xbfd6883b8c71b04d	-0.35206497874492443
3	0x3fbacffec3f66f3a	0.10473625454181681
4	0xbfdbb0b5a4f3bfa9	-0.4326604948864721
5	0xbfecdd38618b7a4b	-0.9020044236347727
6	0xbfea5c6176344aa9	-0.8237769421269451
7	0xbfd95f9686440af9	-0.3964592276753787
8	0xbfd31cb2f31c327d	-0.2986266492960466
9	0xbff1955f57c973d0	-1.0989678792168327
10	0xbfe0d0eefaad403b	-0.5255045791655059
11	0xbfe1e70d2c3cf44d	-0.5594545234704441
12	0x3f61c7a751afaf5e	0.002170397563068179
13	0xbfde7b23c9e72bc5	-0.47626585690585116
14	0xbfe5441580a2511c	-0.6645610344299118
15	0x3fa68a85ca0d187c	0.04402559367604028

transformer.encoder.layers.0.self_attn.in_proj_weight f8 [48, 16]
0	0x3fb427d1a14e39d4	0.07873258770107522
1	0x3fe48a3711a05c25	0.6418719620004408
2	0xbfb6d001e985a676	-0.08911144210073893
3	0x3fc84e891930cbe6	0.18989671449671092
4	0x3fe11dae15bb62b6	0.5348730492069851
5	0x3fd43620a40339a7	0.3158036805806667
6	0x3fb280737dc63a2a	0.07227250881826622
7	0x3fbc4128ff20e51f	0.11036926487658548
8	0x3fe2555e01944bc8	0.5729208021970118
9	0xbfd2b40d3af5ee5b	-0.2922394824779297
10	0xbfdb1c969ea6a8a7	-0.4236198949171332
11	0xbfd6fcab8ff12668	-0.3591717630084532
12	0x3fa85941707d3a68	0.047555966359699664
13	0xbfc927f2c35f5104	-0.19653162517227696
14	0x3f9ffcdbcae234f4	0.03123801637461994
15	0xbfd3b392957fb6dd	-0.3078352413129844
16	0x3fc4f1c6f9d3307e	0.16362845610126792
17	0xbfc8eddb75464d13	-0.19475882746028414
18	0xbfd94d93bf093bc6	-0.3953599324785809
19	0xbfc191d8ecce652d	-0.1372634083061625
20	0xbfe0b7e365767309	-0.5224472982114047
21	0xbf9c325dde83f609	-0.027535883623377475
22	0x3fdc95ac2ff8f1dc	0.44663529095467225
23	0xbfd2e28ccce22ca9	-0.2950775147261973
24	0x3fcc89d602c1d8ed	0.22295642027501775
25	0x3fe1d3cf84b7c416	0.5571057884354811
26	0x3fe50ab8355e4be4	0.6575585405683992
27	0xbfc7ae031c4e578e	-0.18499792940263798
28	0x3fe29ced7ab46048	0.5816562077116112
29	0x3fc186d25f56e614	0.13692693381544585
30	0xbfd4425de3ebe8f8	-0.3165507055088166
31	0x3fdd347d6df91262	0.4563287328676663
32	0x3fa64e1bd5bef7b8	0.04356467231944755
33	0x3fceea195a293a01	0.24151913549799534
34	0xbfd4309ad65da220	-0.31546660360484857
35	0x3fb591d294a01949	0.08425632599400958
36	0x3fab742e66ab4e21	0.05362076762471824
37	0x3fcae19d78d9510f	0.2100102272112356
38	0xbfdafe96f22d28c1	-0.4217889180187165
39	0x3fc7a79610de54e4	0.18480182479530705
40	0xbfc42de38dcb3c98	-0.15765041755227993
41	0xbfb6946fc35cceb3	-0.08820246238320344
42	0xbfe2e36c80a88cc8	-0.5902616989955272
43	0x3fc8c2cb259d94e1	0.19344462715813562
44	0xbfd2b93ca529181b	-0.2925559628387206
45	0x3fc66ac7fe080c85	0.17513370422247845
46	0x3fb2420eaa793a3b	0.07132045423461701
47	0x3fba00a162213b10	0.10157211919543507
48	0x3fb3c9b12f92d17e	0.07729632770025849
49	0x3fc5b9c5460d8a45	0.16973176880408594
50	0xbfb0ea47d762f9c7	-0.0660748387190103
51	0x3fd51c946f10d32f	0.3298693737627216
52	0xbfc74d830d8e56a7	-0.18205297624506508
53	0xbfd1612fcdeb0fda	-0.27155680760574585
54	0xbfdb7d03250834b4	-0.42950514427577535
55	0x3fa4fb9cda797e7f	0.04098215262342552
56	0xbfdf277e040ac1ae	-0.48678541559913924
57	0xbfc7b1dc54efa5b7	-0.18511537692329025
58	0xbfb4459ffe52feb6	-0.07918739279829876
59	0x3fe2921c91d551b9	0.580335888701078
60	0xbfbf2b73391b9085	-0.12175674576025315
61	0x3fc5a8194f335ca0	0.16919247023790707
62	0xbfd74b3722f86e6b	-0.363965782309356
63	0x3fdfb99ab0562b5f	0.4957033845936873
64	0xbfcae82e116629e3	-0.21021056985439576
65	0x3fce806e5f762958	0.2382944074746074
66	0x3f8807fa906aa526	0.01173396828865465
67	0x3fa78ef27caad474	0.04601247569863967
68	0xbfd5737779f881e3	-0.33517252837375916
69	0x3fd14272924db51f	0.2696806362863117
70	0xbfa43938d1152dd9	-0.03949906875876836
71	0xbfd26c9e64e0bf1d	-0.28787956096037864
72	0x3fd1f6c6ed6f8fd8	0.2806870764454721
73	0xbf9f25f057e6984c	-0.03041816269401236
74	0x3fd0be7d1cc7915a	0.26162650881294314
75	0x3fcee500768f606e	0.24136358059945756
76	0x3fcb7081d6ff858e	0.2143709468646588
77	0xbfc4f80bad43c5df	-0.163819751359866
78	0xbfb12512e2e1f4c1	-0.06697195090414977
79	0xbfc923331091615b	-0.1963867026231679
80	0x3fc6908506fd8c35	0.17628538934067853
81	0x3fd5dfd685206877	0.34178698540348
82	0x3fcc8f3b7e85aad5	0.22312110593642012
83	0xbfc1539dddac45cc	-0.13536427806734108
84	0x3fdbb8bc96794a93	0.4331504315825125
85	0xbfd6d49d7a325734	-0.3567269986464112
86	0xbfa1aca3e3a8e0d6	-0.03452026514099919
87	0x3fc410d5346c4250	0.1567636972399833
88	0x3fc7fa18d96a5cd1	0.18731985679617094
89	0xbfb9f0da2e4a95a3	-0.10133136396560487
90	0xbfcf5a3842dfcc8b	-0.2449407888921978
91	0x3fb202522285aa31	0.0703479131968059
92	0x3f88dfb88fe54a0d	0.012145463839861948
93	0x3fa7268d07e4d5e6	0.045215995038613774
94	0xbfc10196fd5967f9	-0.13286101694649213
95	0x3fc5af0b729c690b	0.16940444084395553
96	0xbfcdfbc33d6d4bd3	-0.23424568652498454
97	0xbfbd14e013e90a40	-0.1135997818574106
98	0x3fc049579ea11384	0.12723822827879527
99	0x3fe3186fbfcfeae5	0.5967329737025834
100	0x3fab1193354a004d	0.052868461852086136
101	0x3fdcf1141c39ae0a	0.45221426731470216
102	0x3fc4f3fe9c43ce90	0.16369612341042172
103	0xbfc8ac1ec2884a1a	-0.19275269030238534
104	0x3fbb3ce4a68b58c0	0.1063979059793807
105	0x3fd4cf148f7036ce	0.32513917930269265
106	0x3f6ddb7bd0de6bcc	0.003644697025220611
107	0x3fa7ff576b383134	0.04686997588950917
108	0xbfd0837562a5d5a9	-0.25802359231542
109	0xbfd548ca2297d39f	-0.33256772402028817
110	0xbfbe906205b301cc	-0.11939060820714714
111	0xbfd88d57d2b9295d	-0.3836268956989864
112	0xbfdb75c85052a7b6	-0.42906387180357386
113	0xbfdf33b6227b1bff	-0.48753121726298326
114	0xbf90e5c91ade35ee	-0.016501562371152127
115	0x3fe38c7f6d326b74	0.610900605464265
116	0xbfb78fac7411bbd8	-0.0920360358593223
117	0x3fe03c075504a7cc	0.507327714968818
118	0x3fdcf6fc75c831d3	0.45257483961247863
119	0xbfd3058baee17ae8	-0.29721347883416493
120	0x3fca0ad5bf3b8e68	0.20345565640956242
121	0x3fd16189c5e5ede0	0.27157825780861167
122	0x3fc1391c90e875ba	0.13455540729129983
123	0xbfd1a4854062f0c3	-0.27566653526060864
124	0x3f9acc78dad48918	0.026170624119125824
125	0xbfb97591e9b56fca	-0.0994502254083606
126	0x3fc2e56ea3c0e74e	0.1476267146661549
127	0xbfc47143a453b23c	-0.15970654987121857
128	0x3fbf4b5ed8c9ccc8	0.12224381249125138
129	0x3fc18a87601d1e1c	0.13704006379178757
130	0xbfb9e8887385d765	-0.1012044221914415
131	0x3fce405ef014aaf0	0.2363394424695211
132	0x3fcb01fb73bd6549	0.21099799300535896
133	0x3fb7a266cc3c7e79	0.0923218010543624
134	0x3fd66546974e696a	0.34993138099675625
135	0x3fd096a6c2704dbf	0.2591950320067688
136	0x3fb2bd52160b547c	0.07320130384626283
137	0x3fa56abd3cc9ff43	0.04182998053602074
138	0x3fe386dcb40a09c7	0.610212661398969
139	0x3fbe37fd721bcafd	0.11804183994153657
140	0x3fd4c0d64bfa91ae	0.32426984233668577
141	0x3f867f3201ba7137	0.010984793355696893
142	0xbf9a10d1a408184e	-0.02545478404683648
143	0xbfb2862a87fc9aea	-0.07235971279133549
144	0x3fdc5dab8c8f6907	0.4432171700151603
145	0xbfb71f36cf4b900a	-0.09032003937642244
146	0x3fb6852648420d53	0.0879692007456943
147	0x3fd50d1d85ecdcc1	0.32892549589764647
148	0xbfbc153225a3c0ee	-0.10969842356621815
149	0xbfc313913477cb74	-0.14903464376365216
150	0x3fb16fc9aa40cdf0	0.06811199575968607
151	0xbfb689c993ac1350	-0.08803996901776867
152	0xbfbcec1417b20337	-0.11297727182865179
153	0x3fdde9ccd23ecee0	0.46739502460262194
154	0x3fd7fd754e8cfb4f	0.37484486266105405
155	0x3fa606b4e74acc17	0.04301991771117047
156	0xbfab2c53ae2aa6f9	-0.05307256222779517
157	0x3fd58fa4a32f398f	0.3368922799681053
158	0x3f909d3aa144a48e	0.01622478112509334
159	0xbfc4f9c59fb99ce2	-0.16387243556093894
160	0xbf8f95833876e9dd	-0.015421891365680668
161	0xbfddf0d0208f9481	-0.46782305888911685
162	0xbfccf91f999afc1e	-0.2263526439691938
163	0x3fd2c4efb3e25fbc	0.2932700401956898
164	0xbfbe560fe4a78222	-0.11850070316678132
165	0x3fc9e2a8aa8050ad	0.20222957921271725
166	0xbfb4a5e35161682b	-0.08065624939754971
167	0xbfcefa06d7f213f5	-0.24200521034450131
168	0xbfd051df293050f7	-0.25499705335938877
169	0x3fbe302100ef8ac1	0.11792188904613977
170	0x3fe2c184a2c1c89b	0.5861228159758584
171	0xbfc1fcc6ef976747	-0.14052664469527995
172	0x3f8a6b76b9f65f56	0.012900283384439309
173	0x3fce05734013d34a	0.23454132679730783
174	0xbfcc44475a06d8c2	-0.22083370109402806
175	0xbfc27b1a77404522	-0.14438181708150305
176	0xbfcf0d0a26f2354f	-0.24258543874422364
177	0xbfd7bde04cdf7671	-0.37096412188643685
178	0x3fcc33e8a97a51fb	0.22033413195880755
179	0xbfc02c6f5e4d9d3b	-0.12635604958198052
180	0xbfdbeab2d97eb66d	-0.4361998676275565
181	0xbfd042b8355f206e	-0.25407223903722
182	0x3fcbe51fd4524fc3	0.21792981974851786
183	0xbfc7afa5de5df3a6	-0.1850478492523539
184	0x3fb895f5232f8f7e	0.09603817090061104
185	0x3fb748094957704a	0.09094293633046494
186	0xbfc707c63f700781	-0.1799247560266473
187	0x3fd2d6e5198b9fdb	0.29436614508312936
188	0xbfc4b9a9239104d1	-0.16191591488499182
189	0xbf847b9571e0e24b	-0.010001342332644067
190	0x3fc422441d9a6864	0.1572957176729829
191	0x3fcec694341d8ae4	0.24043514771172803
192	0xbfc0feed4cf4eb4d	-0.1327797532811367
193	0x3fd203fc5b7cfde6	0.28149327215575537
194	0x3fce3bd7cfb726da	0.236201263831666
195	0x3fc9ffa93f3dda4d	0.20311465824097966
196	0x3fb138502120795e	0.06726551827202829
197	0xbfb86ce6b4d9f231	-0.09541170039478498
198	0x3fd13757adce9e7f	0.26900283788061324
199	0x3fae459656915fcb	0.05912465864884061
200	0x3fc874445e80cd68	0.1910481893006406
201	0xbfd58ca968c8533c	-0.3367103122011945
202	0xbfc89042037fe0dd	-0.19190240069270362
203	0xbfd0887dc6791bcd	-0.258330768414848
204	0xbfc9fb9264bb704a	-0.20298986357272703
205	0xbfcd5ba2080e620c	-0.22935891526573504
206	0x3fd36865a06a53e1	0.30324688592491894
207	0xbfc4040e4dc91229	-0.15637377546421874
208	0x3fb12ac05f2b5be6	0.06705858539076778
209	0xbfc285a84f2ca344	-0.14470390191970683
210	0xbfa86c9f3fddd80f	-0.04770372061368288
211	0x3fd7b33885bf3b96	0.37031376897078283
212	0xbfc201aedcb59fc7	-0.1406763627703624
213	0x3fba8252c646e646	0.10355107632394675
214	0x3fd55cfdca3ae2b9	0.33380074261689746
215	0xbfd95bf46c7ab873	-0.39623747438134344
216	0xbfb8dfdc2fb0f53e	-0.09716583408677068
217	0xbfb9bab24addf520	-0.10050501182373184
218	0xbfc01ae3e4e851e5	-0.12582062413333897
219	0xbfd04dbcdefb3f2c	-0.25474473739176307
220	0x3fc7ee95b42fe9a5	0.18696852968407743
221	0xbfd7acbd257f876e	-0.36991814290933334
222	0x3fd5db329f2eeb63	0.3415037683986865
223	0xbfb9b18b80a640bc	-0.10036537066321477
224	0x3fc156e23ad98764	0.13546398042222585
225	0xbfdb2f0475bdaa59	-0.4247447156728064
226	0xbfc851e064ff52d8	-0.18999867373954404
227	0xbfc81b4bb8eeeff1	-0.18833300142239254
228	0x3f95a3c8173079b4	0.021132589736333876
229	0xbfd87514cbf7d603	-0.38214607161293673
230	0xbfdb7d162f5878ed	-0.42950968383401184
231	0x3fb963b68379a5b4	0.0991777487739885
232	0xbfbe69bfb002ca70	-0.11880109831944607
233	0x3fb5ec132872c8d7	0.0856334661246224
234	0xbfe09c8d86626602	-0.5191104530996997
235	0x3fab3b0ae75f7b63	0.053184834235927146
236	0xbfdd6c41c7eaeacf	-0.4597324802704578
237	0xbfba8afe9c58c900	-0.10368338887272799
238	0xbf841c0aa954adbc	-0.009819110195698914
239	0x3fd0b04c70dc4b82	0.26076041242156844
240	0x3fcbcbfb95fb8ca2	0.21716255973214965
241	0xbfd2aa67565cdfe3	-0.29165061410776455
242	0x3fa2e25c6d41e61d	0.03688324769695959
243	0xbf67a8697faa18a2	-0.0028879223366998366
244	0x3fd1dc0c4de48db8	0.2790556679412606
245	0xbfccd8ca1fbcd099	-0.22536589193044135
246	0x3fd86266f688fbc1	0.38100599361126447
247	0xbfd4879db12a6fc3	-0.320777342809148
248	0x3fdaa2657a00ce6a	0.4161618892132767
249	0x3fd014b135da8747	0.2512629533685992
250	0x3fe6ca9cb81cb6bf	0.7122329326573079
251	0xbfdaf6b92525b57a	-0.4213087904707532
252	0x3fb4edbb1b130cba	0.08175248538013849
253	0xbfd4a51509f1b164	-0.32257581683258807
254	0x3fd4ff92c53d2016	0.3280989576492187
255	0xbfd7be5118c20cf5	-0.37099101465010104

transformer.encoder.layers.0.self_attn.in_proj_bias f8 [48]
0	0xbfc4b17a973ef9bf	-0.16166622529085647
1	0x3fd080986ea16ecb	0.2578488426567957
2	0x3fb881bd84cd4fbc	0.0957296799872997
3	0x3fd510c10798fb7d	0.32914758436157127
4	0x3f96ba826b496513	0.022195852087269218
5	0x3f68c73ffd08b375	0.0030246972821913972
6	0xbfc24416bd945069	-0.1427029061966352
7	0xbfd1af8f953947ec	-0.276340385176012
8	0x3fac64e382cf5087	0.05545721980857459
9	0x3fb3c0cd4e3c2e9a	0.0771606746677044
10	0x3fab99e46de3aef0	0.053908480085594124
11	0x3fb6a3b3bb17fafb	0.0884353954097427
12	0xbfd4579035350f8d	-0.31784444042227095
13	0xbfbdd8ed47b5d8ef	-0.11659129143467671
14	0x3fa8d3a4101fc11a	0.048489691704050666
15	0xbfc0edd1462c0c7c	-0.13225761343355547
16	0xbd5ef824e050fd71	-4.401004032204076e-13
17	0x3d42bce439d1facb	1.3314048494991014e-13
18	0x3d591ee24c6e0c8b	3.5698577309380975e-13
19	0x3d4d2e3f4899a8cb	2.073410110698288e-13
20	0xbd3a934415e0a49b	-9.44142813766915e-14
21	0xbd0b3716495b58bb	-1.208596947666806e-14
22	0x3d57958eae22d98b	3.3515175882384315e-13
23	0x3d6e0c308400953b	8.540045908439377e-13
24	0xbd41dbea2bd7a980	-1.2689612503786732e-13
25	0x3cf462641dd6a2a2	4.52623275691058e-15
26	0xbd0ff49d57e0507c	-1.4191104232936423e-14
27	0xbd3c409e9672b583	-1.003727584818974e-13
28	0x3d50707a1ef4b4be	2.336174051347943e-13
29	0x3d5198790ceb2557	2.5004847378058715e-13
30	0xbd55ef41b13728cb	-3.1170935889909365e-13
31	0x3d458b701e0b8894	1.530841553091001e-13
32	0xbfa649ab614d5a82	-0.04353080332537208
33	0x3fa647199c981f62	0.04351120029974599
34	0x3f9aff7ffef740d9	0.02636528009117076
35	0xbf9f94b72bcc91d1	-0.030840742157254134
36	0xbf750a65f70f0188	-0.00513686971766026
37	0x3f9310382d48e501	0.018616559757195898
38	0x3f93cd356b38da42	0.019337496442142894
39	0x3fb53d0cd5021697	0.08296280098337615
40	0xbf9fe804d21a7266	-0.03115851909989189
41	0x3fb722278a1f9ed4	0.09036490556865867
42	0xbfa4e4b6cd705110	-0.040807449892016234
43	0xbf9c169c9eb810d1	-0.027430007159652107
44	0xbf719947e721a297	-0.0042965706544257
45	0x3f96bd582697943d	0.022206666331744385
46	0xbf924f664a57e5f4	-0.017881010329778804
47	0x3fa27c151b7a0444	0.036102923969345585

transformer.encoder.layers.0.self_attn.out_proj.weight f8 [16, 16]
0	0xbfba92f5aecf5dfa	-0.10380492704222624
1	0x3fb9845c9180b50c	0.0996759276610712
2	0xbfd433a6ba3141f1	-0.3156525438580778
3	0x3fc5663a37798d44	0.16718223294001622
4	0x3fd0800345fe0edb	0.2578132804412527
5	0x3fcc39ef76d72ace	0.2205180483127464
6	0xbfc86ea9714fcc2b	-0.1908771327285604
7	0x3fa9b385bda43ec9	0.05019777240715723
8	0xbfc226c3a196a6a0	-0.141807989025712
9	0x3fd9c2cc1c562339	0.40251448409303553
10	0x3f858645ec4c7f0a	0.010510011934058667
11	0x3f9352dab7bbe17a	0.018870751823642597
12	0xbfd11a05198fa48e	-0.2672131299610293
13	0x3fd04464344af7ba	0.2541742811844149
14	0xbfc12b438331e4a4	-0.1341328039741586
15	0xbfc24145ad0a1b8a	-0.14261694859689228
16	0xbfc4e72a5cf4d356	-0.1633046106232096
17	0x3fca6e6338bc1391	0.20649376173255665
18	0x3fcec81a001f3824	0.2404816151233159
19	0x3fd232ad2b8d1680	0.28434304478683003
20	0xbfc3e98eead6efa9	-0.15556513277794906
21	0xbfb030335d7582f9	-0.0632354834720096
22	0xbf9281710734d84f	-0.018071905197949708
23	0xbfda4905b28e4b5d	-0.41070692479222776
24	0x3fb7c7710c56e898	0.09288698722130773
25	0xbfd6b0c32c547bf4	-0.3545387204084698
26	0xbfc475436f094ad1	-0.1598285953683303
27	0xbfd976883f0f1d86	-0.39785963209256925
28	0xbfd976470945499d	-0.39784408479058603
29	0x3fd90c7811591ff4	0.39138604826121015
30	0x3fd0d492542679cc	0.26297434060861913
31	0xbfd3cfb84bc29f2d	-0.3095532169195277
32	0x3fb5bdce903f235b	0.08492747327467269
33	0xbfd580a842c957d8	-0.33597761652106106
34	0xbfcd05240f3b5b8e	-0.22671938651793905
35	0xbfb78d667d5a29d3	-0.09200134811741316
36	0xbfa529a552c61478	-0.041333357195107945
37	0xbfcb6b51940dc4e9	-0.21421260575474513
38	0xbfbf65a3a9f11668	-0.12264464282005749
39	0xbfcbd7b0535f4db7	-0.21751979895507897
40	0xbfa9dba5d5e8ea0c	-0.050503904687918405
41	0x3fd4bf84c5b9e459	0.3241893702430097
42	0xbfb175ff93ecd12b	-0.0682067619462187
43	0x3fc0648dbb97fdfa	0.1280686536774594
44	0x3fe4d0c7167139f5	0.6504855573965062
45	0x3fd4273dbd323930	0.3148950908297534
46	0x3fd727ea9de8f870	0.3618113081064456
47	0xbfd5d0f6c45f0c15	-0.3408791463554633
48	0x3fd0063df2024468	0.2503809798591363
49	0xbfd8cecd6c9ef0b6	-0.38762221915727524
50	0x3fb207f219b15d4f	0.0704337418295513
51	0x3fb75a8ba246fa4b	0.0912253638443669
52	0xbfc98737c0ee4afa	-0.19943901939821967
53	0xbfccc0862775ad7a	-0.2246253674196444
54	0x3fb48134102932ac	0.08009648699335042
55	0x3fc23c040478b94d	0.14245653360689872
56	0x3fd42219260a33d9	0.31458119120435196
57	0xbfcb876bec1d7309	-0.2150702383904888
58	0xbfc562d370c5c981	-0.16707842833018208
59	0x3fb28754a39d94d6	0.07237748140831299
60	0xbfb0fe0667e49aa8	-0.06637611423921419
61	0x3fc5d721e7908249	0.17062782103404775
62	0xbfd7f3491a5c8670	-0.3742239720760159
63	0xbfc8e10460043eff	-0.19436697662649036
64	0xbfd824d8e63dd56d	-0.37724897846722777
65	0xbfbf8b44d22e5d1e	-0.12321882373213497
66	0x3fd0267e39e8dec8	0.25234943061103055
67	0xbfdac2000ca78a7d	-0.4180908320978814
68	0xbfdb61ec742fbfd0	-0.42785178514804745
69	0xbfcb17ff2098022c	-0.21166981784337346
70	0xbfc12b03dd92a65d	-0.13412521666514268
71	0xbfd5a531376f8f41	-0.338207534920219
72	0x3fb147a3828222a7	0.06749936996687698
73	0x3fcdb4e1364b30e8	0.23208251143513015
74	0xbfd7035ce6fbf41a	-0.3595802550988211
75	0xbfd41e1aa5eebfbe	-0.31433740810734523
76	0x3fc719e40a9773e0	0.1804776241032462
77	0xbfbd192cc0a48296	-0.11366538718403726
78	0x3fba15c642a9b3e8	0.10189475181114427
79	0x3fd8338b179fe879	0.3781459551534066
80	0x3fd830776ebcbbe0	0.3779581624430062
81	0x3faa8a9f7766cf04	0.051838858914747404
82	0xbfc79369cb9cd89b	-0.18418619577432058
83	0xbfcdedf5da2375e9	-0.233824473870228
84	0xbfd26ea1e77097c8	-0.28800246812386066
85	0x3fd50cd58ff4fadc	0.32890833910270856
86	0xbfcb234361d8fcf0	-0.2120136478206187
87	0xbfd3528588c40b90	-0.3019117198565988
88	0x3fc5033bf5b2209d	0.16416120049348573
89	0xbfc167ce5ae5bff8	-0.1359804099879509
90	0x3fd09c8889b7cd72	0.2595540375616202
91	0x3f87215638a696e2	0.011294053653567674
92	0x3fc4737f2fea14a8	0.15977468337601874
93	0x3fd2b450495e6df7	0.2922554699414088
94	0x3fb9eef668ad6b3d	0.10130252891160026
95	0xbfa6c31a3a17046c	-0.04445726355653154
96	0xbfd7c7b6a37c3504	-0.3715645405325889
97	0x3fc2a026f2a63c92	0.14551245544541708
98	0xbfce9403d57c8bae	-0.23889205860277002
99	0xbfd9bbd1a7c8ed85	-0.4020885599636233
100	0xbf92cfc5e071b328	-0.018370715927107956
101	0xbfb9202e34be9cb1	-0.09814728534421381
102	0x3fcbc09122db460e	0.21681417657832508
103	0xbfd35f3dce76e3fe	-0.30268807566204703
104	0x3fba66a54da7418b	0.10312874933084097
105	0xbf9523ae98582146	-0.0206439285739475
106	0xbf972dc94f2d3457	-0.022635598619036603
107	0xbfce87b053184d4e	-0.2385158925759278
108	0xbfd4dd5a611e2495	-0.3260103176513181
109	0xbfcd591857714750	-0.22928146619465872
110	0xbfbd005b06867aa1	-0.11328667554196638
111	0xbfcfc0132b5bce20	-0.24804916016692946
112	0x3fde88ed10ebc7e4	0.4771073022121739
113	0x3fe11baa6680c461	0.5346271516811038
114	0x3fd56d698a5b3c88	0.33480299483648723
115	0x3fb63a072dfbcd7b	0.08682293770453058
116	0x3fd3385a328d7090	0.3003144735028025
117	0xbfd5d6c88884b688	-0.3412343342959976
118	0x3fd19845700cc6f2	0.2749188989865693
119	0x3fcd1be63ef3f398	0.22741392206071676
120	0xbfcfac181ee0c739	-0.24743939883915703
121	0x3fc2e406bdd04c50	0.14758381145711263
122	0x3fc202f561520c4f	0.1407152867505794
123	0xbfc2a3e5da5d54c6	-0.14562676584561113
124	0xbfb6207f030d4663	-0.0864333517504519
125	0x3fb25b89b66579b0	0.07170925810849016
126	0xbfbcda91a53fcf37	-0.11271009716420798
127	0x3fd781526f2e794e	0.367268189025613
128	0x3fc9a01cc97814b3	0.20019874417645198
129	0xbfb6dc0f57d8b587	-0.0892953481167834
130	0xbf9fdd4bfef54458	-0.031117618023305788
131	0xbfdb3947bdc7ddaa	-0.42537110837244063
132	0x3fdb722b5c8002bd	0.42884334595877843
133	0x3fd07614cd51ac91	0.2572071080273384
134	0x3fdaccd81dc852b3	0.4187526980252116
135	0xbfcd371987b15fd4	-0.22824401021602958
136	0x3f99a35cbc1fe8ba	0.025037240011422247
137	0x3fc680c18e708c42	0.1758043237215095
138	0xbfd45a0f374aa99a	-0.31799679183554874
139	0xbfbaa4d196917a03	-0.10407743383391481
140	0xbfc8a234f9d55ae6	-0.1924501628770578
141	0x3fcd7065e998e0f4	0.22999261766540935
142	0x3fb2f48b2c1ffc59	0.07404393985051295
143	0x3fc4d4027e3af4cb	0.16272002376164205
144	0x3fb1c7e912d31e1c	0.0694566412886321
145	0x3fd6b224cedd913f	0.3546230335398554
146	0xbfd8d69bdf4ca961	-0.3880986862810883
147	0xbfd26b0c192d0e44	-0.28778364618867536
148	0x3fda1caa44a36da0	0.40799957945793075
149	0x3fb4eb27ad1ed6a5	0.0817131803185825
150	0xbfd747e228319535	-0.36376241612591126
151	0x3fd3a0bf624ba36d	0.30668625449339154
152	0xbfd2531a448f997a	-0.2863221807041537
153	0xbfd63ad2c828d39c	-0.34734029337715255
154	0x3fc6077ff4f26d49	0.172103876688974
155	0xbfd45617e9312a6c	-0.31775472424184303
156	0xbfb2b275f2446f75	-0.0730355946038211
157	0xbfbabd33e9f236bf	-0.10444950543952823
158	0x3fde3fc9e62c3be0	0.4726433513432635
159	0x3fcab888c25968ff	0.20875653733930474
160	0xbfcbee277aa4c8bb	-0.21820538986646007
161	0x3fbdec8ff3bd156c	0.1168909044327699
162	0x3fc6353c8816150c	0.17349964756810043
163	0xbfd31e0f97f4dc42	-0.29870977248669217
164	0x3fb4b74c38046dad	0.0809219013939841
165	0xbfbec4e77300671b	-0.12019201810508344
166	0x3fca0fd464faa256	0.2036080830632893
167	0x3fd1457640aada56	0.2698646193997879
168	0x3fc413ae1d736834	0.15685059011485836
169	0x3fcc2ffa820c1d77	0.22021418905226728
170	0x3fb5b9497de1b3d0	0.08485850642473669
171	0x3fc2a91bbf5a47a0	0.14578577845946672
172	0x3fcb54d5545b7505	0.21352640742308196
173	0x3fd469ef99397b69	0.31896581614812775
174	0x3fc7af907896f45e	0.18504529846350953
175	0xbfaa1f5e59a592dc	-0.051020573085031024
176	0x3f9801d39f4a83e2	0.0234444681142384
177	0xbfcda70c317c25d9	-0.2316603891015763
178	0xbf6a061a9922ac7d	-0.003176738690930102
179	0xbfd7f8f64c09b134	-0.3745704405362347
180	0x3fb16738fce613fe	0.06798130201612193
181	0xbfd4b32dff5c27da	-0.3234362596273265
182	0x3fda400c875248f0	0.41015923705084756
183	0xbf5d502065691691	-0.0017891231888297646
184	0xbfcfbad99590d248	-0.24788970759404294
185	0xbfcc69492b0bacbd	-0.22196306802593382
186	0xbfbe28240c43c37f	-0.11780000018531032
187	0x3fc788dd4e978be7	0.1838642724752326
188	0xbfc822df64f1c686	-0.1885642283337356
189	0xbfca02175bd18381	-0.20318881972619
190	0x3fa589a0954e10fb	0.04206563780374669
191	0xbfcf9904785e30fb	-0.2468572223409707
192	0x3fd57187811427f8	0.3350542793783684
193	0x3fda2738df9d048a	0.408643930790341
194	0x3fd2573c94c7d60c	0.2865745022712367
195	0xbfd05e504b56e16b	-0.2557564483390908
196	0x3fd3f2cc1e4c58df	0.3116941734200633
197	0x3fbb447060b5dff2	0.10651304589362079
198	0x3f9654481c0cf398	0.0218058840866778
199	0xbfd9f7a29c340b90	-0.4057394528792253
200	0xbfb0e17f5906e1b0	-0.06594081805713503
201	0xbfcf24843b465dc1	-0.24330189604073207
202	0x3fd0a859e3be49c0	0.2602753376060285
203	0x3fb68672d4c20b90	0.0879890222004589
204	0x3fe1bd6a3a07e62e	0.554371941892162
205	0xbfa5dcff0ac9dbaa	-0.0427016926450315
206	0x3f8d09c675be37fe	0.014178801029427032
207	0x3fbd14741b0bb071	0.11359334621710261
208	0xbfc47689c6867b6c	-0.1598674983369749
209	0x3fd4eb090342ccf0	0.3268454105229486
210	0xbfa0eefc1d878a41	-0.03307330952136001
211	0x3fd4bd7e31924f9a	0.32406573143929907
212	0xbf8bb7ecb7979b74	-0.013534402230062283
213	0xbfd5a8b0a8715ead	-0.33842102479455144
214	0xbfab360700bf5591	-0.053146571007952954
215	0x3fd135d617e2b82a	0.2689109071023973
216	0xbfd3a2f0b9c04c29	-0.3068200887657349
217	0xbfa67236dc6a0252	-0.04384013596154958
218	0xbfd1a2b3b5e01c0d	-0.27555554162285106
219	0x3fbf4496b223d42b	0.12214032982940697
220	0xbfcc9cd24d95826a	-0.22353581226618086
221	0x3fd7c619ffd18576	0.37146615965146823
222	0xbfb2f58b7542f3d3	-0.07405921566801447
223	0x3fdacd3e0d97ea40	0.41877700164301146
224	0x3fc410627d0600bb	0.15675002197895602
225	0x3fdc1e6604ece28a	0.43935537796964097
226	0xbfc01d82a185c686	-0.12590058218807004
227	0x3fc168c2dadcdbe5	0.1360095566430736
228	0xbfd5c68a0b7a1f3a	-0.3402428733902415
229	0xbfd04178e98fa2a1	-0.25399611290644414
230	0xbfda733ec43e2aa7	-0.41328400768603973
231	0x3fd1f0244a54aef7	0.2802820897947948
232	0xbfd525a5778a968e	-0.3304227511783687
233	0xbf4b1a8ca5cbcf41	-0.0008271395450649492
234	0x3fc8f49366852a7c	0.19496386056774273
235	0x3fb42e14cbe12195	0.07882814385914678
236	0xbfadc6c2f22a8ec1	-0.058157054959591566
237	0x3fbe0d75ce93ed48	0.11739288609890253
238	0xbf98f5b7d02b9b7f	-0.024374839859685245
239	0x3fd8e9cc93bcca43	0.3892699663876195
240	0xbfc4f7d5763cec0e	-0.16381328843439785
241	0x3fd184b28caf3865	0.27372421015468823
242	0x3f7f1797d9758f5f	0.007590859567560531
243	0xbfd9a9db813c1b89	-0.4009922754343554
244	0xbfd7b486c07024ec	-0.37039345543651225
245	0x3fcd6d129cbeabab	0.2298911347728255
246	0xbfca4e6b48ab59bd	-0.20551816032702944
247	0x3fd22cdeb9d67867	0.28398864887447534
248	0x3fd27e48a26ccdad	0.28895774709527694
249	0x3fd38bb96d31e0bc	0.30540309585149905
250	0xbfd3aa60f91eef6e	-0.3072740967579567
251	0x3fd96f50d516f413	0.39741917428529056
252	0x3fb033d8bb1b468f	0.06329111640959638
253	0x3fd4888e312922fc	0.32083468247269287
254	0x3fd0152188a5c68c	0.2512897333573185
255	0xbfd16b61c6fde184	-0.27217907364640603

transformer.encoder.layers.0.self_attn.out_proj.bias f8 [16]
0	0x3f99b02b1d0319d5	0.025086091657408566
1	0xbf9415b9f489dd8c	-0.019614129591415216
2	0xbfaa0ff7ed1ee01a	-0.05090307969607029
3	0x3f6d96b4a254bd78	0.0036119010934709227
4	0x3fb48676d3ec108c	0.08017676042442384
5	0xbfa06b3c7689d448	-0.03206814715387246
6	0xbf77c9efd77ab0a0	-0.0058078163926148785
7	0xbf7b2432197363a8	-0.00662631578526255
8	0x3f80b4ebd69c27ce	0.008157579886319068
9	0x3f91a96972d3f915	0.017247817643686398
10	0x3fa6328a64959a25	0.043354344156615356
11	0xbf59c5ee856cad98	-0.0015730695065013563
12	0xbfa41ab066dad18b	-0.039266121440422706
13	0x3f95408b51ac7771	0.020754029140440836
14	0xbfa03fec1a9694b6	-0.03173768829882688
15	0x3fa734d163b5fc35	0.04532484380887817

transformer.encoder.layers.0.linear1.weight f8 [128, 16]
0	0xbfb3fb3fe71e381e	-0.07805251495867124
1	0x3f8ee9da5d09b4c4	0.015094476665775132
2	0xbfc8991a5797afe9	-0.19217232968310263
3	0x3f7bae74f231e084	0.006758171864127974
4	0xbfc452dbe92cf1a8	-0.15877865682149417
5	0xbf976f9a5be6e3b3	-0.022886669024703554
6	0xbfcdbb488681fe4c	-0.23227793281329168
7	0xbfb80be308c320ab	-0.09393137897416419
8	0x3fb14ff48db944a9	0.0676262708668839
9	0x3f951f11c7cc8e3f	0.020626333064809762
10	0x3f8296f9ce2e7806	0.009077025990162479
11	0xbfa7b7ce16889447	-0.04632419610087673
12	0x3fc4bdd9d2cb94e3	0.1620437888406406
13	0xbfc5627fca24ebf7	-0.16706845636676323
14	0x3f87f88a2f671e37	0.01170452077066307
15	0xbfa8e225abce32d5	-0.04860036585077913
16	0x3fa3d597e2120e37	0.03873896250391023
17	0xbfc63a1402bbf24f	-0.17364740499023631
18	0xbfc1f8ac3721482a	-0.14040138904471294
19	0xbfc39f831f803dbd	-0.15330542600757538
20	0xbfc9b8fe4ceea441	-0.2009580493588903
21	0x3faeffa49085e78c	0.06054415001103938
22	0xbfb7588414d4eed7	-0.09119439610088463
23	0x3f93282730466a60	0.01870785934588992
24	0xbfac7e0183a1f575	-0.05564884883731739
25	0x3fb0863adfc1cab1	0.06454818690125809
26	0x3fbc7264723243ba	0.11112048900601126
27	0xbfc652868f4a2a74	-0.17439348217552075
28	0xbfaa771a91ffad1d	-0.05168993980609058
29	0xbfce66755e6cc795	-0.23750178442565742
30	0x3fbb6db87cd54293	0.10714295432740988
31	0x3fa9faa9ff7420b1	0.05074053996401185
32	0x3fbaae39722f5e09	0.1042209533474009
33	0x3fd92afa2941d25c	0.39324811963095896
34	0xbfabd76c590a01db	-0.05437792384055103
35	0x3fa1b306fac0158f	0.03456899462620832
36	0x3fb4669fc45c4b4b	0.07969091934164145
37	0xbf9eae807f55971f	-0.029962547084685483
38	0xbfa118163d4c151f	-0.03338689325577548
39	0x3fb37dfd1e161107	0.07614118561292936
40	0x3fbb36b43f320410	0.10630346815925429
41	0x3faae103e1655083	0.052497979416018324
42	0xbf656c5849ea4b3e	-0.0026151394261630092
43	0x3fa8830ca1c6300a	0.047874827144454526
44	0x3f9032bb3047497f	0.015818524190601032
45	0xbfb1aed23b1d2eab	-0.06907381003582695
46	0x3fb43b7097ef5156	0.07903197964998773
47	0xbfb7506f73582519	-0.09107109609626142
48	0x3fa5a2028c0e91de	0.042251662823477906
49	0x3fc05cbb92329a33	0.12782997740323906
50	0x3fb97f9881c971b8	0.09960320633530884
51	0x3fd0a1b63dc2510e	0.2598701098552433
52	0xbfb816fea10ac52c	-0.09410087043467702
53	0xbf9a1405028adf23	-0.025466993599109543
54	0x3f9fa97eb703e541	0.030920009537088736
55	0xbfc4a03aeb3066fa	-0.16113983615723965
56	0xbfacb577bcad2045	-0.0560719888513295
57	0xbfbffbaf1a9e0781	-0.12493414306484675
58	0x3fc3a22a70d76039	0.15338640699224174
59	0xbfc569f338a8b334	-0.16729583994438146
60	0xbf5719cd598ca0f3	-0.0014099603051339032
61	0xbfa89e827e4c7d98	-0.04808433334096235
62	0xbf93c8feae3d4eb2	-0.019321421990140926
63	0x3fb5d1c2f7ead3fe	0.08523195793789282
64	0xbf94d1f5ba273be6	-0.02033218334855382
65	0x3fb55a28675e3a4c	0.08340694926867193
66	0x3fc6fd5434d76280	0.1796059854521168
67	0x3fc62e6f3358e65a	0.1732920647353236
68	0xbf7e016a6984d714	-0.00732556884059023
69	0x3fd0f6ec51cfdded	0.2650709914155119
70	0xbfdca9e0068439eb	-0.44786835323694046
71	0xbfcb6c3d49bba6ef	-0.21424070453877372
72	0x3fb2452ee3a1660c	0.07136815125831947
73	0x3fd583dc5cbd2e7f	0.33617314392606795
74	0xbfc30760d4741dad	-0.14866266607007841
75	0xbf88f3a1c5d3d6e0	-0.012183441018787489
76	0xbf9d2b9879bf0245	-0.028486616545480698
77	0x3f279944084557fc	0.00018004374954710956
78	0xbf54df6841d795f0	-0.0012739675652196879
79	0xbfb64b8de9788f02	-0.08709036779378823
80	0x3f18a9498f65c4a3	9.407531238083077e-05
81	0x3fac96586ea75e72	0.055834544665853594
82	0x3fc0d785a63309cb	0.131577211524997
83	0x3f7a7dde512ab79a	0.006467693735130365
84	0x3f398fe2d9e9e3b9	0.0003900460086821395
85	0x3faad75e620d597f	0.052424382657295425
86	0xbfc0926afb62dbcf	-0.1294683196517483
87	0x3fbf30931d92b2cb	0.12183494064329208
88	0x3f81fc2fbe9f68fc	0.008781788830607422
89	0xbfb04a34feec4e06	-0.06363230918605475
90	0xbfc85d593464e9dd	-0.1903487687903426
91	0x3fa998d0d5e707e8	0.04999401675333087
92	0x3f820650c55f40ad	0.0088011083825282
93	0xbfc570a6b2cd12d6	-0.16750034075280124
94	0xbf92c7930f54a748	-0.01833944111891775
95	0xbfafb94484c211a6	-0.06196035500127843
96	0xbfc9ae4f7419521a	-0.20063203019039194
97	0xbfb0185a9447cf52	-0.06287160987977572
98	0xbfa3f189a352477a	-0.03895216101331207
99	0xbf91a2ae401422a8	-0.017222139988947532
100	0xbfbd1f95d16fa126	-0.11376320231613998
101	0x3fb3a4232ee70613	0.0767232884891416
102	0x3fc88ac236f9b7f2	0.19173457798336774
103	0xbfb2062071f4d71b	-0.07040598661555146
104	0xbfc5100c93e47c19	-0.1645522806292952
105	0xbf9fec3fad0f27c1	-0.031174654901213964
106	0x3f9ab547ba348043	0.02608215402608517
107	0xbfc710d8e85e11a0	-0.18020163866107186
108	0x3fc0abcf6bbd2719	0.13024323235213656
109	0xbfc29183be463211	-0.14506575384838574
110	0xbf64537619cc5da4	-0.002481203713965834
111	0xbfc6a5dfe17f8bcf	-0.17693708906798952
112	0x3fc7cd5b21643e8f	0.18595446711014005
113	0xbf90d6458ea7e5f0	-0.016442381698629605
114	0x3fa21c0b4ec2ba9e	0.03537021004136885
115	0xbf97465db7bf2f98	-0.02272936281205737
116	0xbfb72bb7b0a806ca	-0.09051082671069391
117	0xbfbd67a750112a4e	-0.11486287789117819
118	0xbfada1e195dd9ff8	-0.05787568048873476
119	0x3fb420820a88239e	0.07862103230594505
120	0xbfc0f344ffa0c378	-0.1324239967521199
121	0x3fa2a4a1f5730f93	0.03641229745110688
122	0xbfcb310a5f47373a	-0.21243409778838346
123	0x3fc178c4a395b07d	0.13649805057082523
124	0x3fb0c6eac1d67405	0.06553523285261072
125	0x3fb49c6f438e977c	0.08051200293865962
126	0xbfbe349b7fec89e1	-0.11799022553581252
127	0xbf93c0108b6b60c0	-0.019287355908858883
128	0xbf7a63a9940a61c1	-0.0064427017356582525
129	0xbf72f8bde0645190	-0.004631749825666623
130	0x3fa7552054333cb2	0.04557133701165962
131	0x3f80dd2f49b0d82b	0.008234376369824123
132	0xbfc55654d935e436	-0.16669712644559959
133	0x3fcbe707e8fc2800	0.21798800350399006
134	0xbfb1da8f30c5c1df	-0.069741200835558
135	0x3faadc9e31bbfe26	0.05246443135365224
136	0x3fc8760350619456	0.1911014692770176
137	0x3fbb3ff814cdf01e	0.10644484050675415
138	0xbfba5a7cc36be07e	-0.10294322749166615
139	0xbf96a409f29f8944	-0.022110133584541516
140	0xbf9c0196d228c74e	-0.02734981210432546
141	0x3fbe3d7a4cdc4000	0.11812557579492022
142	0x3f95d8f816484111	0.02133548389434831
143	0x3f8f7f15fbc6d5ce	0.01537911581622611
144	0x3fc0680a73b2e1a4	0.12817507409432694
145	0x3fa7f8e841333bbc	0.04682088657283809
146	0x3fc3baf04b5c85ec	0.15414241485363733
147	0xbfa25ed498c731b5	-0.03587974896399563
148	0xbfb677723a025de7	-0.08776010433427182
149	0xbf94580982301f31	-0.019867085047763303
150	0x3fc90d7ca817c043	0.19572408874182842
151	0xbfd5a4b0543c9c20	-0.33817680574651554
152	0xbfc70a80e2d620bd	-0.18000804019925978
153	0x3fb2ede1a2ae4375	0.07394228192994297
154	0x3f919fd4966336dd	0.01721126716511533
155	0xbfa6d88385f3392a	-0.04462061891682574
156	0xbfbcca4c2bac19da	-0.11246181551187054
157	0xbfc40b85820d3c63	-0.15660160875492854
158	0xbfa5e97322ce0d89	-0.042796705244678775
159	0xbfc1734d453f03fd	-0.1363312328449239
160	0x3fc0b3dc6af6b29e	0.13048892233691317
161	0x3fa3e137183ae327	0.03882763071800915
162	0xbfbf5b4ebf85b0e6	-0.12248699355922418
163	0x3fb9e9778a9f7bcd	0.10121867307996908
164	0xbf64948b573ccf34	-0.0025122376918264248
165	0x3fc0ed00a6a3253d	0.13223274361215856
166	0x3f8c1d01d701613b	0.013727201818412573
167	0xbfafadc1f0471aca	-0.06187254007413896
168	0xbfce05a1c397d5dc	-0.23454687166638066
169	0x3fb96a2762fc0c97	0.09927602926841171
170	0x3fcc5c09cb3cf1f1	0.22155878471120574
171	0x3f7c0e95fdaf451c	0.006849847700281655
172	0x3fbfc37f28711c70	0.12407679307317365
173	0xbfd14fe316979682	-0.27050091940177634
174	0x3fb1ab3f44630914	0.06901927394486435
175	0x3f4f3e3e7783fa03	0.0009534649862244507
176	0xbfd3d3c0cad8d845	-0.30979938325197437
177	0x3fa6a526221c6b65	0.04422873655695162
178	0x3fdb3dae6063f63f	0.4256397191346401
179	0xbfa6a49d8d341b5a	-0.044224666105995694
180	0xbfc42c2cd0af11eb	-0.15759811582223845
181	0xbfb2fe6e67098402	-0.07419481292301103
182	0xbfcd1f0d3346724a	-0.22751011851950614
183	0xbfbb125755f39eb8	-0.10574861381939626
184	0x3fc5cea0cf9b4534	0.17036829125439967
185	0xbfc0dc5e6faf62ad	-0.13172512486814494
186	0xbfd476fbfee5644d	-0.31976222889131095
187	0xbfbcb6bd4b8f950a	-0.11216338248012306
188	0x3fa3cba998f5e814	0.03866319648928154
189	0xbfc68ff5e3c205c5	-0.1762683260058521
190	0xbfbca44721e30047	-0.11188168122589658
191	0xbfbea3751eda57c1	-0.11968166354412714
192	0xbfbd383f8534a462	-0.11413952829447419
193	0x3fc3b117c2d52e6b	0.15384194386784897
194	0x3fa569d0138f21fa	0.04182291258581823
195	0x3fb3f076c30c664b	0.07788793813633636
196	0x3f7fac47b9a76e1b	0.007732658554654682
197	0xbfbb77856b29deab	-0.10729249826715186
198	0xbfc3c1db45ad7fb9	-0.15435353185875814
199	0xbfd5794811e63908	-0.33552743671397467
200	0x3fc9333fee0a673e	0.19687651751592655
201	0x3fce5ad5b7715928	0.2371470590321192
202	0x3fb67d2f6e67ac3c	0.0878476757567776
203	0xbfbb14fbaa363779	-0.10578892617760784
204	0x3fc6212f31eeffce	0.17288770616687404
205	0x3f8867ae7d7033f3	0.011916506960938355
206	0x3fa5c5ed38290a77	0.04252568541098339
207	0x3fc432cdb0ee1f15	0.1578003992001348
208	0x3fcc0481f112fe5d	0.21888756056977146
209	0xbfb0eba55d976566	-0.06609567198701924
210	0xbfbd1b19fd08932d	-0.11369478633475856
211	0xbfb01f86711dca69	-0.06298103582029459
212	0xbfc20268d3498a60	-0.14069853131066434
213	0xbfb5e714824bae5a	-0.0855572527031482
214	0xbfc4d00a5a2f10ea	-0.16259889033802405
215	0x3fbb40f20006a550	0.10645973683007992
216	0x3fbfebd93465cffa	0.12469251183739508
217	0xbfc8257fdde84ff1	-0.188644393304116
218	0xbfd257d79c05055d	-0.2866114638928446
219	0xbf9447d9dafc10a9	-0.019805339804421482
220	0x3f8b30a54e38cdd2	0.013276378106730134
221	0x3f9d90f7b88ef340	0.0288733202357776
222	0x3fadf2333129ace0	0.05848846411830677
223	0xbfc325677066e8dc	-0.1495789812887044
224	0xbfcd939b08e4f8a1	-0.23106706556604187
225	0xbfcbc8d08fc3cc7e	-0.21706587810294659
226	0x3fa2af39b0062d72	0.0364931132672507
227	0x3facccb076b3d87c	0.05624915551190754
228	0xbfa28c1ec2a5f8fc	-0.03622528196409466
229	0xbfaa19585b395c4f	-0.050974618087530225
230	0x3fc54935cf97ce8b	0.16629669796349264
231	0xbfbc3a6e9a04ab6f	-0.11026660213671645
232	0x3fac21f9baa5726b	0.054946712526292206
233	0xbfbd0b7ebfb32845	-0.11345665149852475
234	0x3fd7e682dacf3c30	0.3734442841350214
235	0xbfcb7fd455abb6e3	-0.21483854468481586
236	0x3fcb0f6aca95928c	0.21140799419221812
237	0xbfd02e05cb11bec1	-0.25280899840343457
238	0x3fbd38835b842922	0.11414357170375358
239	0xbfc12345ba41bc8f	-0.13388892740792754
240	0xbfbc8d023de17496	-0.11152662287482182
241	0xbfc624568d21985e	-0.17298395053075216
242	0xbfc9b95a217ee6e8	-0.2009689963868404
243	0xbfb9570117424ca3	-0.098983829668486
244	0xbf9bd3ae2c6155e9	-0.027174684008363235
245	0x3f93f50ffd2550ff	0.01948952658251901
246	0xbf979e0db0530dfd	-0.02306386364649703
247	0x3fa84e427c4cf4bf	0.04747207419721055
248	0x3fb4fc0e9aec35fe	0.08197108537952855
249	0xbfc8030f52d4c27b	-0.18759337944495144
250	0xbfc8226ce7a449ee	-0.18855058012611842
251	0x3fc06e23691ffd93	0.12836115487150987
252	0x3f9bda111898254b	0.02719904625522433
253	0x3fada3935550828e	0.057888607181898796
254	0x3faddc796bcb9e55	0.05832271042691831
255	0xbfc5210af3b4f853	-0.16507088565589587

transformer.encoder.layers.0.linear1.bias f8 [128]
0	0x3fc6a173ab89efa2	0.1768021190254077
1	0xbfc3def579c84f27	-0.155241665329066
2	0x3fa882a6b43833b6	0.047871789454894495
3	0xbfbd9ea5a068065a	-0.11570201078577594
4	0x3faa681e77fafbff	0.0515756150684794
5	0xbfa66466df7262ac	-0.04373475530264179
6	0x3fb183ed0ab9cd90	0.06841928016529253
7	0xbfd068740fd5815c	-0.2563753275517422
8	0xbfa9e8087091754c	-0.05059839605449187
9	0x3fc2df6aa0a6124b	0.14744313091445557
10	0x3fcaeaf0df8ecf12	0.21029482761297708
11	0xbfc49c733615e8b6	-0.16102447644136014
12	0xbfc0ec65544ba977	-0.1322142278289211
13	0x3fb5c0740a271edf	0.08496785400268035
14	0x3fb7f3b615eaeca4	0.09356248889064261
15	0x3fab37fef31a65e7	0.053161589790032875
16	0x3fbab4506d302f03	0.10431387582519495
17	0x3fc3bbdc3f48a8a9	0.1541705426219029
18	0xbfc9a672b38b158d	-0.20039209143412187
19	0x3f5e30e9e72647ed	0.00184271661837387
20	0xbfcb8128a75ea46a	-0.21487911388729525
21	0xbfb44e9add643865	-0.07932441620889248
22	0x3fcbc85cb8074d50	0.2170520685745978
23	0x3fc6c0233fdae309	0.17773857705994825
24	0x3fccea3c28266c57	0.22589828453496594
25	0xbfc5288231e55ff7	-0.16529872356727512
26	0xbfc12a97cd9e69c0	-0.1341123346326878
27	0xbfd05d1a9f692fd5	-0.2556826168772635
28	0xbfd006d20ee7ec6d	-0.2504162927213603
29	0xbfcf87c6c7c00a7e	-0.24633106950212275
30	0xbfcbb6799621eebc	-0.2165061934537017
31	0x3fc0e208cd6bf297	0.13189802198748588
32	0xbfc8429e4dd6304d	-0.18953303146952508
33	0xbfc19702611675ba	-0.13742093792545323
34	0x3f985ac258001401	0.023783718701469784
35	0x3fc0735a68c00944	0.12852029909852025
36	0x3fa0e9b67bf95d0e	0.033033087380937784
37	0xbfb309e3f358420a	-0.07436966601404307
38	0x3fc155e471b12752	0.13543372680060856
39	0xbfc8904fbf7c309d	-0.1919040379510805
40	0x3fbe7e52e41e8dc9	0.1191150481159219
41	0x3fc91b752bcebfae	0.19615044249576158
42	0xbfd1587a2191d234	-0.27102521208078945
43	0x3fc69c096c59f1e9	0.17663686552613392
44	0x3fb1ad332f4d3fa9	0.06904907135799355
45	0x3f9645c78123d1cf	0.021750561959338385
46	0xbf921b8cef660758	-0.01768322192356861
47	0x3fb5621118abcb95	0.08352763035126849
48	0x3fbc2b709aa85aac	0.11003783965893871
49	0xbf93baed400278e7	-0.01926775649246162
50	0x3fb7a6c9feefc487	0.09238874887502578
51	0x3f6be63721ce2a24	0.0034056736753360784
52	0xbfcae1df5a5ffa55	-0.2100180808337934
53	0xbf489ac217d67165	-0.0007508704872410231
54	0xbfc5c17c52a11e52	-0.1699672130073276
55	0xbf9d090c797d1c3c	-0.02835483066089871
56	0xbfcad2584dea4919	-0.2095442181058125
57	0xbfbad0c040ba84b7	-0.10474778728759558
58	0x3fba6b8812070629	0.10320330085871689
59	0xbf97103eeb6de7b8	-0.02252291023203387
60	0x3fc7a689d9f4bde1	0.1847698511351004
61	0x3fc5f0515d8db4c5	0.17139641826671528
62	0x3fc3d94dab8fa2e2	0.15506907345777338
63	0xbfd5b8ab2fe7518e	-0.33939628294071944
64	0xbfce9d2ae73f5247	-0.23917137423872445
65	0x3fcba5c399f4c067	0.21599621789346488
66	0xbfc68a898085b7fb	-0.17610281730179608
67	0x3faded2df6916842	0.05845016131270643
68	0xbfcee1042441160f	-0.2412419487974806
69	0xbfadcc21a5487817	-0.05819802420249703
70	0x3facfbac4b0ec3bb	0.05660761276465772
71	0xbfc31711c4f4bdf9	-0.14914152256959293
72	0x3f90e52ab0b247d9	0.016499201807682915
73	0xbfd070b36e8efe92	-0.25687871739135304
74	0x3fa0af3bd263af1b	0.032586926872538245
75	0x3fb95e524656b745	0.09909548012975929
76	0x3fb303f582e74a1f	0.07427915998349775
77	0x3f7198c9051d1509	0.004296097978856447
78	0x3fc07fce23b525f4	0.12890030616317427
79	0xbf93d4af51b69ea3	-0.019366015779864864
80	0xbfc4af52826aee39	-0.16160041206409106
81	0xbfc9f699c4e60792	-0.20283815492808493
82	0xbfc6a623cd66d50a	-0.17694518594149883
83	0xbfd0bfffd6e1b453	-0.26171871170555966
84	0x3f8d2e02cb52475b	0.01424791510570216
85	0x3fc5cdff499aeaf6	0.1703490361595283
86	0xbfd01fcaa941577b	-0.2519404080279554
87	0x3fc3609f881a00ce	0.1513862051542731
88	0xbfcf6d1942ead58d	-0.24551692740866962
89	0x3fbe8b07e01f8aa7	0.11930894109495203
90	0xbfcce95250afd8af	-0.22587040843763392
91	0xbfcc520c89d4f93b	-0.2212539361007176
92	0x3fb12ad4f6bbe869	0.06705981277255692
93	0xbfd17241e52ae60d	-0.2725987184490755
94	0xbfc212ff6d4e1cf2	-0.1412047656742526
95	0xbfc35be8f6cb7c77	-0.15124237108736668
96	0xbfc70977e53faafd	-0.1799764508608276
97	0x3f9f57580e061862	0.030606628280587585
98	0x3fb445524554c7cf	0.07918276016860591
99	0xbfcabac1f016c66e	-0.20882438872426995
100	0x3fbae78a7d0aa009	0.10509553482791047
101	0x3fbf4b6229891a07	0.12224401010562512
102	0xbf927aad5321efcc	-0.018046100806244955
103	0x3fb1504f196bfb2b	0.06763166781091161
104	0x3fc698d9730d021d	0.17653959386554244
105	0xbfb5071ca009d86d	-0.08213976771534855
106	0x3fc4ef2824e008dd	0.16354848671477998
107	0x3f6122bcdfcfe6e1	0.002091759581614436
108	0xbfc3c3c9649f2d02	-0.15441243565724255
109	0xbfd2a1ceeb5f6311	-0.29112599359136576
110	0xbfc1f8a306390ffc	-0.14040029338696047
111	0xbf5ba59a6a89ea01	-0.001687432095563879
112	0xbfb12112f495d1b1	-0.06691091986960519
113	0x3fc07d7babb31f93	0.12882943996214333
114	0x3fb54c0b68924887	0.08319159796727336
115	0x3f7c1f162b25b5a7	0.006865583988071056
116	0x3fc20697bf421c74	0.14082619513303352
117	0x3f8d6524fb884872	0.014353074003370579
118	0xbfc519c20e294476	-0.16484857264962088
119	0xbfae7986c8917d9a	-0.059520923598707046
120	0x3fb71aea442b3bc5	0.09025444187430683
121	0x3fba7cfe5f8639f6	0.1034697516645123
122	0x3fc63a93d665ad2d	0.17366264313327787
123	0xbfbeced93abec4db	-0.12034375843247196
124	0xbfca9cd205238d33	-0.20791077853128
125	0x3f9eef802bb38fb3	0.030210497538874125
126	0x3fb96e00625c2400	0.09933473969807949
127	0xbfc6cd4290a674bd	-0.17813903868674244
