Code/900-100/darts_logs/D-xrp_transformer/checkpoints/last-epoch=199.ckpt (torch, 653413 bytes, 205 tensors)

encoder.weight f8 [16, 1]
0	0xbfdb54603cf624f8	-0.42702489808341637
1	0xbfea84b686996086	-0.8287003163232078
2	0xbfea01f516e90e64	-0.8127389380901602
3	0xbfeefaa57090af5d	-0.9680964659250823
4	0x3fe0ac1626b3b248	0.5210066562554596
5	0x3ff1d0022d70d45e	1.1132833266285824
6	0x3fd0f5916989a368	0.2649882822648153
7	0x3ff283560dd0d724	1.1570644893340125
8	0xbfef769616461d4e	-0.9832258639370737
9	0x3ff1da124cf1cf88	1.1157401090285664
10	0x3ff465c9921f23b1	1.2748504360081194
11	0xbff0f59b421329f4	-1.0599625187920738
12	0xbfe13662123a55d7	-0.5378885608685618
13	0xbfe9c60021fb365b	-0.8054199851701002
14	0x3fc7484a06e86b93	0.18189359032916438
15	0x3fd7bf863ccee87c	0.3710647195654315

encoder.bias f8 [16]
0	0x3fdc65e25fff9ea3	0.4437185227857105
1	0xbf8fa4ad8d59275f	-0.015450816990000225
2	0xbfe2785622ee6c41	-0.5771895105602952
3	0x3fae88bb20888c59	0.059636924477921745
4	0xbfd70d4c3fd187c3	-0.3601866362788508
5	0xbff005be8739d070	-1.001402405000615
6	0xbfecdf37607c09c9	-0.9022480854476324
7	0xbfc58d61bad5d127	-0.16837712881864172
8	0xbfd7d8f6f538541d	-0.3726174730994119
9	0xbfefa943805a3e5c	-0.9894120699772873
10	0xbfd095df6c64c541	-0.25914750657382873
11	0xbfe2fcd75dc6c5c6	-0.5933644134112732
12	0x3fad8405b4a49462	0.057647875119337014
13	0xbfd39fd42df56c37	-0.306630177384878
14	0xbfe54a7949f22290	-0.6653410381560025
15	0x3fb46b61fca30cc7	0.07976353090184594

transformer.encoder.layers.0.self_attn.in_proj_weight f8 [48, 16]
0	0x3fc0c00db6a1164c	0.13086100976413417
1	0x3fd55e46711de458	0.3338790993362344
2	0xbfc915c447c1805a	-0.1959767675753053
3	0x3f792348ffcf7d44	0.0061371661695084935
4	0x3fe2faae5806baa8	0.5931007117522613
5	0x3fce43499c3daf78	0.23642845276787816
6	0xbfa8c30acdcaa207	-0.048363053914105385
7	0x3fd63398b22e39dc	0.346899198536361
8	0x3fb869d63b2359f9	0.09536494201470437
9	0x3fa75649093c9b6c	0.045580179574520624
10	0xbfc472fe0707c04f	-0.15975928633952427
11	0xbfd308c9fdad5dd6	-0.2974114396397146
12	0xbfc4a893f1a32d94	-0.16139458941175333
13	0xbfc3c261ecaf26e7	-0.1543695836719998
14	0xbfcb96356da11c18	-0.21552150586123342
15	0xbfc4c04730412165	-0.1621178613297715
16	0x3fa3f98eb5fcc420	0.039013347354178274
17	0x3fbcd8248f3243bb	0.11267307754520932
18	0xbfd4b2b8130ab814	-0.3234081445651793
19	0x3f83fd7da8854023	0.009760839181268527
20	0xbfca04537303cd3b	-0.20325701824149597
21	0x3fce2cca2fec2a73	0.23574187602965288
22	0x3fba204b10e90ae0	0.10205525553559935
23	0xbfc4c7b7d4cf0549	-0.16234491244362406
24	0x3fb0367a3d32603c	0.06333126062452349
25	0x3fe04c2c97f8137a	0.5092986076493695
26	0x3fe01d5b0a7b18d8	0.5035834507659969
27	0xbfcd5c7b35324947	-0.2293848047016331
28	0xbfccae213b984cb9	-0.22406402025135266
29	0x3fc15a851c9cd492	0.13557495019054905
30	0xbfb518d4ed2b12dc	-0.0824101523422302
31	0x3fd1eeec03f38cea	0.28020763765216705
32	0xbfc5d71887d981d0	-0.17062670357974108
33	0x3fc7fae2d60013cf	0.1873439354823447
34	0xbfcea39a262a9834	-0.23936774123757376
35	0x3fac0a6497a35c2f	0.054766791830552435
36	0x3fc2b7b977970c60	0.1462318262038904
37	0x3fd99b36e7aa1884	0.400098539576341
38	0xbfd07aa312adda38	-0.2574851686871713
39	0x3f757e6b3c87e8d9	0.005247515575769601
40	0xbfa8d3a0168eb32f	-0.04848957324370528
41	0xbfb64b1f9fc5e788	-0.0870837941237409
42	0xbfd791a8e590e2ff	-0.3682653657775034
43	0xbf8d907856a560e2	-0.014435711044527403
44	0xbfa25afe5a1b88ba	-0.03585047578759899
45	0x3faa450fa5ef568e	0.051308144574858536
46	0x3fc7fb3a747fc3cc	0.18735438049728115
47	0x3fa808cc6dd543a2	0.046942127616268495
48	0xbfce4fd4b18f5f5f	-0.23681124372410076
49	0x3fcf57b720a9a39b	0.24486435980659568
50	0x3fbbafc6151724d7	0.1081508447160958
51	0x3fcde870460076fb	0.2336559621625652
52	0x3fd984cf444e9698	0.3987310568867115
53	0x3fc65d246c3b392d	0.1747174766991945
54	0xbfd3810ac39d62f8	-0.30475110152251217
55	0xbfafa1ba71962c66	-0.0617807639747177
56	0xbfd990d702084db9	-0.3994653243873603
57	0xbfca86beaed48a42	-0.20723708664543677
58	0x3fd1f14329f1adf7	0.28035048576450045
59	0x3fbe2acc957797a0	0.11784056328869363
60	0xbfc065e68bb05402	-0.12810975857487966
61	0xbfc9060daa77ff41	-0.19549723457020643
62	0x3f3d9e4e7bae53d6	0.0004519406899644007
63	0x3fcd69af39c95767	0.22978773423772766
64	0xbfc96cbf8ef6ac02	-0.19863123398440058
65	0x3fd7a3ae6c6389b2	0.3693653162464684
66	0x3fce33b60c5e2904	0.23595309833428513
67	0x3fb19672af17a5cd	0.06870190405574945
68	0xbfc7a2980fe3062e	-0.18464947486613553
69	0x3fd7432a0b124094	0.3634743793600219
70	0xbf98d377b9d1d3a7	-0.024244185177355295
71	0xbfd4e5689e058bc0	-0.3265019934826192
72	0x3fdbc4f90349b0a5	0.43389725991324674
73	0xbfbb40712ae7e170	-0.10645205781464084
74	0x3fd2a666e93964ac	0.29140637183952367
75	0x3fd34a36ec94a370	0.30140469649864254
76	0x3fb0ff10186de9e3	0.06639195057315521
77	0xbfc0ce17e3f1ea4a	-0.13128946905256306
78	0x3fb1304dfe869562	0.0671433206940342
79	0xbfcf71a84092bc9e	-0.24565604355800458
80	0x3fd4d7d7ea990a52	0.3256740370744967
81	0x3fa42e75bba2df79	0.03941696086388808
82	0xbf631f262272c58e	-0.0023341889205645344
83	0xbfd09058a0d73057	-0.25881019312942527
84	0x3fce755ffaa1f6b1	0.2379569982330643
85	0x3fb8fe5b265a04ef	0.09763116537398607
86	0xbf92aa136b047f8b	-0.018226912886461426
87	0x3fd9c00379480b92	0.40234457820786773
88	0xbfb8f527d25d943b	-0.09749077688100354
89	0x3fdab9fb2c8162ab	0.4176013884184992
90	0x3fd95099e8a6a103	0.39554450721563245
91	0x3f8bff1a5b9fffdc	0.01367016403310111
92	0xbfdaaa4406f4f43e	-0.4166421955049521
93	0xbf7569e37b373468	-0.005227936362144005
94	0xbfc51bca87af1823	-0.1649106180686327
95	0x3fd2c2ef6084f474	0.2931478922435595
96	0xbfc40437d018965c	-0.15637872372569717
97	0xbfcb21d6c99b144e	-0.21197018474609525
98	0x3fd6ae2293552c6e	0.3543783606334675
99	0x3fc49469c88f858b	0.16077921193122466
100	0x3fc698ffc1b55c8b	0.17654416044635854
101	0x3fcbda545e9146b7	0.2176003896479892
102	0xbf79c1fd6463abe4	-0.006288518727369106
103	0xbfb304773981ff74	-0.07428689149855733
104	0x3fbd5a458b0b81e5	0.11465868611003989
105	0x3fade67dc5c309da	0.058399134054997595
106	0xbfe444168a4654d8	-0.6333115292242395
107	0x3fc34c8ef8eeb5fc	0.15077387957482802
108	0xbfd34d976a5dccc0	-0.30161080729812895
109	0xbfd7676a8728f22f	-0.3656870193406431
110	0x3f45a17299d11eae	0.0006601152014206935
111	0xbfe1a9517de09d5a	-0.5519187410872448
112	0x3fa7ea4d1d5be5e0	0.046709451516971034
113	0xbfbab418e0f3a867	-0.10431056491839429
114	0xbfe11efb4dcf0464	-0.5350319404316335
115	0x3fe5bd4e6ce10001	0.6793586851636065
116	0xbfe32cd04dc3b091	-0.5992204207264128
117	0x3fcc212d0faf9dff	0.21976245180051987
118	0xbfb8aec9a964b7c6	-0.096417049270456
119	0xbfd2c0ee5952c553	-0.2930255768106537
120	0x3fabd4ddf8c45201	0.05435842191414864
121	0x3fdecb2610fdb328	0.48114921244887165
122	0x3fbe0dec489a1fdd	0.11739994785796122
123	0x3fd94ac01cf77f0e	0.3951874049071059
124	0x3fe04eb9401d9d0c	0.5096098186740234
125	0x3fe16fd2d4599183	0.5449003360231902
126	0xbfe0efaf5f5f50a5	-0.5292584288349828
127	0x3fdb757130524840	0.42904309958351305
128	0x3fbb697b77de5272	0.1070782821319172
129	0x3fc5cb8f443371df	0.17027464704632586
130	0xbfa98ef8e1f644d8	-0.0499189163048272
131	0x3fd126ae7b34980a	0.26798593551427585
132	0x3fd9ac2fc679ac25	0.4011344373927293
133	0x3fca78b4043e75e7	0.20680856902337938
134	0x3fd8d08527e8ebf3	0.38772705933996504
135	0x3fc9ace9deb15107	0.20058940290130797
136	0x3fcc2cbb76beea57	0.22011512086995097
137	0xbfbc9d8ee11832d5	-0.11177914615127389
138	0x3fe707913d503493	0.7196737477803644
139	0x3fb5086417925b70	0.08215928626519342
140	0xbf921cf727a5f624	-0.01768861941808643
141	0xbf909ed4642d4eb2	-0.016230887045209648
142	0x3fabcd00da3e8814	0.05429842628588247
143	0xbfc7383acdfeef77	-0.18140349443808265
144	0x3fd5698d0d98e2bd	0.3345673210892917
145	0xbfb64bf12d661f0e	-0.08709628446933612
146	0x3fad3c363cc5695f	0.05710000507197565
147	0x3fdd0f29c90a6e26	0.45405048973927575
148	0xbfbe5c525d0a6016	-0.11859621783730775
149	0xbfb344800a68dad2	-0.07526397947445254
150	0x3fb92860f1110ebc	0.09827237973609732
151	0xbfc0346dc911a8c2	-0.1266000015051017
152	0xbfa7177cf109b3fb	-0.04510107462269982
153	0x3fd8b16c3c493702	0.3858290280085016
154	0x3fe02ebadf23ed2e	0.5057043417176936
155	0x3fbd08e518705754	0.11341697546626267
156	0xbfdbe35f6973d644	-0.43575272844404744
157	0x3fd847e38d29d643	0.37938774857989105
158	0xbf95e22ea71d9c8c	-0.021370629262858418
159	0xbfc6250d2b0dce8c	-0.17300572015993898
160	0xbfd7b0e547651101	-0.37017185184619456
161	0x3fd6fa3012d6cb3b	0.35902025069951876
162	0x3fd1dbf22dfc8412	0.2790494393430559
163	0x3fd7f64129fe856a	0.3744051847553097
164	0x3fd2a30452dfbb8d	0.29119976132545206
165	0x3febf70e3cd13aa1	0.8739081561887653
166	0x3fce73dab3354123	0.23791059255973676
167	0xbfe6dc28f47885dc	-0.714374997598664
168	0x3fcb19df530b65f1	0.2117270617953149
169	0xbfd4b7fa8be07980	-0.32372916850899713
170	0x3fc424f481186022	0.15737777999379526
171	0xbfdee14404c5439e	-0.4824991270625619
172	0xbfdbccb50a3e9ca6	-0.4343693351788239
173	0xbf9c2c6fd1adad55	-0.027513262913470744
174	0x3fc5ceae54f41d46	0.17036990306972138
175	0xbfe1c301a382c2c5	-0.5550544923372277
176	0xbfe2071c730ff57f	-0.5633680579482386
177	0x3fc6a3e95a704b87	0.17687718311261966
178	0x3fe1f47f3725977f	0.5610958172880912
179	0xbfcd8caf907d0ad6	-0.23085588984584743
180	0xbf9853445a05c8ff	-0.023755138392012928
181	0x3fb0e933ce61df5c	0.06605838574057316
182	0x3fe5de885f409287	0.6834146366496306
183	0xbfe22ef54deaabb1	-0.5682322046098901
184	0x3fe089a9d7d7016e	0.5168046203253149
185	0xbfce335e0df286f4	-0.23594260865234384
186	0xbfd2849977b1218d	-0.28934323013938795
187	0xbfca71c57959bc0e	-0.20659702706640853
188	0x3fd01c3bee226a48	0.2517232728511414
189	0xbfd5e297f1aa9b0a	-0.34195517158734445
190	0x3fdc0bebf0c47a48	0.43822763931703834
191	0xbf8170e32723a2fe	-0.008516096717771312
192	0x3fc09cf2627741f8	0.12978963668730592
193	0xbfbf0857153509ef	-0.12122101085427749
194	0xbfcf3f21bd0b4fda	-0.24411412935898974
195	0xbfda0d962033231a	-0.40707924980647336
196	0xbfd3775d436f1183	-0.30416041932428345
197	0xbfe16c192f751d84	-0.544445603075403
198	0x3fbecb1b065e1d84	0.12028664498767766
199	0x3fe161b29596d6ac	0.5431759759582824
200	0xbfd3a7a5d63c3f0f	-0.30710740968150757
201	0x3fbe8e420b0396ac	0.11935818451783103
202	0x3fc5794e5f86882d	0.16776446976024442
203	0xbfac85c125f98ada	-0.05570796574172272
204	0xbfdd687ef7f5cf51	-0.4595029279218937
205	0x3f85a5abe6475314	0.010569899525685801
206	0xbfbb37240d956b6d	-0.10631013232834415
207	0x3fc793b1c8773f5a	0.18419477737779283
208	0x3fc1da2e053f3302	0.13947081810183454
209	0xbfda4c6716195bd2	-0.4109132495699984
210	0xbfcd677c2b1cf4a0	-0.22972061257488452
211	0x3fa73a299691bd83	0.045365619306603676
212	0xbfd70d0426a337bc	-0.3601694466896068
213	0x3fabefb6e2b8174f	0.05456325070922096
214	0x3fde0e32d2c52c11	0.4696166094115038
215	0xbfcdcf6e3f97d25d	-0.2328927813065488
216	0xbfcc067d5bcfe9e9	-0.21894804938331383
217	0x3fb3e7e286ac265f	0.0777570322790324
218	0x3f915079f34b5ddc	0.016908555483352447
219	0xbfcfeb1d4a1c639f	-0.2493626224393468
220	0xbfc628c35deb86be	-0.17311899267138203
221	0xbfd757b001d1ee91	-0.36472702195872225
222	0x3fd4408061f9a7c4	0.31643685882465555
223	0xbfb2d61db5d9ed11	-0.07357965173462257
224	0x3fab3b963870c8a5	0.053188986196248046
225	0xbfbe60dc10f4d049	-0.11866546071979757
226	0xbfc93a700a125aef	-0.1970958756616805
227	0x3fc3297459fd04d3	0.14970259088480606
228	0xbfc6fbce8826c7be	-0.17955953262349839
229	0xbfd36f1ab83efaf7	-0.3036562728192815
230	0xbfcbd35c97cd4bad	-0.2173877469272986
231	0x3f6dc620bcd016b0	0.00363451379826326
232	0x3fb767905a6df4b6	0.0914240093970474
233	0x3fc0d43789b542b3	0.13147634719873266
234	0xbfbfa37e0fd5f263	-0.12358844648947236
235	0xbfb9e1ab946ac870	-0.10109970448937289
236	0x3fc32974188bb90a	0.1497025604107381
237	0xbfc4d1fbaa793a68	-0.1626581747427338
238	0x3fb6c2095f7acb5c	0.08889826375051996
239	0x3fceecc70cd9d8c7	0.24160087707031705
240	0xbfb9145b115efcb0	-0.09796685384843573
241	0x3fd1475f0de275b8	0.2699811587898142
242	0xbfa03dd0e5e79df9	-0.03172161871389884
243	0xbfba52052ccf5315	-0.10281402915945777
244	0x3fdca76e82d46b04	0.44771921898215816
245	0x3fdd0b57ad9eed6f	0.45381729083211203
246	0x3fc030a9cd51492e	0.1264850857283561
247	0xbfd50bd7a96f30e5	-0.3288478045112824
248	0x3fca79799d21065e	0.20683212444605464
249	0x3fc80ee5beaabce9	0.1879546338072722
250	0x3fce77bcafde89f1	0.2380290850388316
251	0xbfdafca7e048ebc0	-0.42167088415925136
252	0xbfe08647a641c285	-0.516391586990793
253	0xbfd74e44daa2be42	-0.36415215827125647
254	0x3fd7190f0b6ede03	0.3609044658328175
255	0xbfdc95503d303bc8	-0.4466133687537277

transformer.encoder.layers.0.self_attn.in_proj_bias f8 [48]
0	0xbf92ce4db20eca33	-0.01836511039045714
1	0xbf903a1f71dcc0ca	-0.015846721005062382
2	0x3f7739d147fa73e7	0.005670373444130106
3	0xbf62eb06e70382f1	-0.002309335213894641
4	0xbf97211fc2798f0d	-0.02258729576568812
5	0x3fb4afe80424cf44	0.08080911732832613
6	0xbfd1a368d3877701	-0.2755987230028581
7	0x3fdabe023b1384e0	0.41784721154369997
8	0xbfbcf52f9b551bcd	-0.11311624090477253
9	0x3f6612f10710bee9	0.002694578892736267
10	0xbfd4f2594ad9173f	-0.3272917967736823
11	0xbfd0017b15632597	-0.25009038055994764
12	0x3fb737ec6a015ad1	0.09069707477588486
13	0xbfbab61d3e909042	-0.10434134271105314
14	0x3fb39416495a8571	0.07647837916240065
15	0xbfcd4d033b70c75a	-0.2289127388226529
16	0x3d244d59c292fc2b	3.60638645697802e-14
17	0x3d506ed97d218e41	2.3352706244310113e-13
18	0x3d018020b100594f	7.771782697997654e-15
19	0xbd3107d7ce21af0e	-6.050497587767681e-14
20	0x3d06b03a78988c60	1.0075670163907502e-14
21	0xbd4409134bcb6fbc	-1.4236043941698134e-13
22	0xbd40b87107accf3d	-1.1880611836994553e-13
23	0xbd6047f7ba0ee2c1	-4.627373687307064e-13
24	0xbd34259a986ef45f	-7.157613236065876e-14
25	0xbd36d3e631c64030	-8.110039302618622e-14
26	0xbd586d2d9e5e32ef	-3.4712112061149144e-13
27	0xbd46a314899638ba	-1.6084578736719218e-13
28	0x3d3708bd498b9306	8.183369819920848e-14
29	0x3d257dc80d5ddd1a	3.817627779150574e-14
30	0x3d2688eed794b859	4.0030013866182835e-14
31	0x3d56d8830ad9c7ec	3.2465762768822107e-13
32	0xbf937e55afa4e212	-0.01903661617800096
33	0x3f98d766221420e6	0.02425918181418831
34	0x3fb406d71f6057c8	0.07822937503837502
35	0x3f7aad29c38c1053	0.006512797489225691
36	0xbf95243039127e4b	-0.020645860179341374
37	0xbf7791c672d19493	-0.005754256429189602
38	0x3f9214e669af5976	0.01765785236406133
39	0x3fa02782bf1241b8	0.03155144293225781
40	0xbfa0e9bc8489a633	-0.033033267191808234
41	0x3fb79556df4bed47	0.0921224875600518
42	0xbfa161451d8c3aee	-0.03394523606958964
43	0xbfa82886a2b8e89c	-0.0471841882358188
44	0xbf2ce5a1170b1a24	-0.00022046653204750675
45	0x3f8da8d536709b54	0.014482179378388395
46	0xbf8f6fa8904fe3c4	-0.015349690345816465
47	0x3f9a474ed8f6ec3c	0.025662643425430995

transformer.encoder.layers.0.self_attn.out_proj.weight f8 [16, 16]
0	0xbfa9f684de448940	-0.050708915836610746
1	0x3fdcde7f7a278e72	0.45108019761230544
2	0xbfd47e6806c5ab5d	-0.32021523152677905
3	0x3fc2511db6175565	0.14310046569031978
4	0x3fc42dbaf881dac0	0.15764557966368464
5	0x3fd1fda70330d880	0.2811067134056273
6	0xbfc9c860bf177337	-0.20142754870075816
7	0x3fc8b8b89c87c116	0.1931372417743737
8	0xbfc53a6f66c06c3a	-0.1658457996098564
9	0x3fdb0bf5ff25fa63	0.42260503689604983
10	0x3f63228370066d95	0.0023357932224834046
11	0xbf8d10af66a3e480	-0.014191980666952597
12	0xbfda60d017916a3d	-0.412158988013889
13	0x3fd0d8918b6b4e3d	0.26321829428818316
14	0xbfd14711d0cc59d1	-0.2699627436681143
15	0xbfaf0c1c447c8f56	-0.06063927017228703
16	0xbfd36ac52dc17392	-0.30339173763587113
17	0x3fa9fcb061e6cac8	0.050755989027853554
18	0x3fc790bb4a491aa3	0.18410435797905675
19	0x3fa6450592a894c9	0.043495344307567026
20	0xbfcf6d59c7884ffb	-0.24552461855694205
21	0xbfb6692b21a9c0f7	-0.08754224368908924
22	0xbfc10c7f797aacc8	-0.1331939070854331
23	0xbfd81472687afb68	-0.37624798014797145
24	0x3fc1003240fe9bc9	0.13281849072993016
25	0xbfd6ee1f78e8f05a	-0.3582838707695878
26	0xbfc13228ed19deb4	-0.13434325768661426
27	0xbfd8a05e035452f3	-0.38478803944717227
28	0xbfdfdb746c874689	-0.49776945684889334
29	0x3fd4e5ae35616f71	0.32651858532857775
30	0x3fc8857b7663da15	0.19157355576290117
31	0xbfb13df614b21baa	-0.06735170369402846
32	0x3fa0cca5da5fe8cb	0.03281133928972365
33	0xbfe1bf2bef4fd8b0	-0.5545863794384527
34	0xbfccd8ab7c4719d1	-0.2253622395348445
35	0x3fb23098977a3f37	0.07105401704961599
36	0x3fc6c4542ce5eae8	0.1778664798001366
37	0xbfd2913ed941acfb	-0.2901150819440798
38	0xbfde915ae8d23690	-0.4776217721599574
39	0xbfd7aac98c43cf66	-0.36979902932875175
40	0xbfada3d583ea3a37	-0.05789057956018378
41	0x3fd415f2226bc26f	0.3138394676343869
42	0xbfb5b331c453f59d	-0.0847655395809483
43	0x3fbd302f37e6bda2	0.11401648630884734
44	0x3fe1b9d1034e0546	0.5539326729341745
45	0x3fd18317ebacfa2d	0.27362630858616194
46	0x3fde288b6beebab9	0.47122464695250305
47	0xbfe0246aea6bd59e	-0.5044455126323333
48	0x3fd71f636faf944a	0.36129079729864044
49	0xbfd129ff94363ffa	-0.26818837617702196
50	0x3fb2514c1b1aabe1	0.07155299817775031
51	0x3fafaaa5cfc58b47	0.06184881364131072
52	0xbfd4760ebefa7903	-0.319705664160111
53	0xbfcccaffe8364465	-0.2249450572822155
54	0x3fd2d72543e75bdd	0.2943814433214678
55	0x3fc21851ddf55ca3	0.14136718118490874
56	0x3fd3da2d587ed5b6	0.3101914753163685
57	0xbfce219101f89457	-0.23539936634293454
58	0xbfc6bdf442c9d375	-0.17767194043303972
59	0x3fba0e672768b643	0.10178227150091694
60	0xbf63fbb60d63eead	-0.002439361163053841
61	0x3fca333a28fc9b3f	0.20468832970910886
62	0xbfdae782809ca70d	-0.4203802352882214
63	0xbfb8c2945dbd47b8	-0.09671904839095091
64	0xbfd3b498dc8e0f9a	-0.30789777315680456
65	0x3fca5c30a44127e2	0.20593841572036725
66	0x3fd2bbfddb37bc9c	0.29272409828167567
67	0xbfdba72897336a68	-0.4320775486536719
68	0xbfd0d2e1c36eac76	-0.2628712090033284
69	0xbfcb9110f3825cf6	-0.21536456956957978
70	0xbfd6c2e484882338	-0.3556453031783806
71	0xbfd77073bb9305c6	-0.36623853032878306
72	0x3fafcbafa14d11b0	0.062100876274175376
73	0x3fd37bf9e154e803	0.3044419003014129
74	0xbfd9f059ff4b36e2	-0.4052948945144249
75	0xbfd7d2d768ea7c1f	-0.3722437405176055
76	0x3fc4b924e30bda5a	0.1619001492142214
77	0xbfccf8505dc1436e	-0.22632793977620785
78	0x3fad93be662acac6	0.057767820331169825
79	0x3fdf0a17feaa1205	0.48499107236446576
80	0x3fcae6e27e26a853	0.2101710430118283
81	0xbfa68bc85821abfe	-0.04403520656418179
82	0xbfc7df59e1e91f84	-0.18650363474648313
83	0xbfd3e3518b43f9a6	-0.3107494220747874
84	0xbfc970997653629a	-0.1987487628710099
85	0x3fd57cd0b876ab04	0.33574312223451863
86	0xbfd2017e0492abb6	-0.28134108015609216
87	0xbfd67b164fb5cc40	-0.35126264366335036
88	0x3fc67e98f46c691e	0.17573844847431358
89	0xbfc644deac129dd5	-0.17397673990238496
90	0x3fca2b0a26212b89	0.2044384657077354
91	0x3f592888dfca41d6	0.0015355431234277315
92	0x3fd53930176c95e9	0.33161546981349815
93	0x3fd673e5792b2a34	0.3508237536704286
94	0x3fc9168401642d11	0.19599962299285115
95	0xbfd0975e5763ae2e	-0.2592388013278847
96	0xbfd0822cea1b525b	-0.2579452787588587
97	0x3fd1769c68921a51	0.2728644391249065
98	0xbfceefe09f4156ea	-0.24169547821173093
99	0xbfd9493264dee659	-0.39509258127836727
100	0xbfc0524c168e450b	-0.12751151181559126
101	0xbfb858a63cb2c646	-0.0951026819409658
102	0x3fdcc4924366c368	0.44949776251001206
103	0xbfd55c1759c76074	-0.33374580161535694
104	0x3fb9ba5ee3b78212	0.10050004062168963
105	0xbfa231c948737deb	-0.03553608903325397
106	0xbf9435538781a180	-0.019734673638966083
107	0xbfd118ae8290a12c	-0.2671314501808577
108	0xbfc8d2dc2ea88826	-0.193934939176928
109	0xbfc6f5a5a57c014c	-0.17937155323307719
110	0xbfbc854fb929993b	-0.1114091708237525
111	0xbfce1831690b363a	-0.23511331204501734
112	0x3fdb64cb50558a95	0.42802698941356115
113	0x3fda6776b0222dba	0.4125649185231982
114	0x3fd59126144747d3	0.33698417644802453
115	0x3faab49133fae947	0.05215886840365385
116	0x3fd204267e2afe86	0.28150331803406237
117	0xbfd305378e36026f	-0.2971934212473916
118	0x3fcabb87560e7a4b	0.20884792043666986
119	0x3fce0318b5b7b13d	0.23446949837615164
120	0xbfc9c7f737b8fd69	-0.20141496868925948
121	0x3fc3a25d4de35422	0.15339247038960574
122	0x3fc1693c84806e18	0.13602405996140088
123	0xbfc0acc5fa8b6091	-0.130272624336389
124	0xbfbe5e20f1ac4e06	-0.11862378978940322
125	0xbfb04433472a1db2	-0.06354065406241352
126	0xbfc22bbd50a2eb68	-0.14195982396435203
127	0x3fd8e4f4b68f8d39	0.3889743597812472
128	0x3fd0c54aaccd59af	0.2620417296906465
129	0xbf7f7f6f3950daee	-0.007689890354461977
130	0xbfa0df378143ca4b	-0.032953009156604006
131	0xbfd5e2f6623f0e40	-0.34197768778196647
132	0x3fd96c19f47dbe40	0.3972229850396367
133	0x3fcd71ee7e7aa93d	0.2300394170354795
134	0x3fdb4ad080d6b3a5	0.42644131261732304
135	0xbfc7e6b2c9f77a29	-0.18672785627036717
136	0x3f8676880aa547bd	0.010968268227461548
137	0x3fc6f8113f5cf386	0.17944541543866083
138	0xbfd308222cea5b53	-0.2973714293124676
139	0xbfb7b6f342c8c725	-0.09263534908748434
140	0xbfc0cdef5d65a072	-0.13128463802718532
141	0x3fd1f7b6c0234f49	0.2807442547175368
142	0x3fc720dd8d2d002a	0.18069047349308792
143	0x3fc1382bf84f3c3f	0.13452672600257817
144	0x3fa59c09e06313ff	0.042206104889864086
145	0x3fd5f571ed4f9687	0.3431057755936781
146	0xbfd5ed443534fae9	-0.3426065940474659
147	0xbfd071ad6a1f4a28	-0.25693831790445865
148	0x3fdb814df250bafc	0.4297671190605994
149	0x3fbe4bfeb996e0c0	0.1183470919703522
150	0xbfd9ec0afae24dbc	-0.40503191471472255
151	0x3fcf2e2aaecbc683	0.24359639677964048
152	0xbfd18dc880afae0e	-0.2742787605954796
153	0xbfd3099514308036	-0.2974598595774326
154	0x3fc3be4697a7a970	0.1542442551138481
155	0xbfd59bcc51f7c4dc	-0.33763416294739357
156	0xbfc1903f98b400a0	-0.1372146125431799
157	0xbfc740deb506d817	-0.18166717375942262
158	0x3fdd0a6c29545618	0.4537611392600822
159	0x3fbf83af16b6b9d9	0.12310308746848565
160	0xbfc83220ee56cfe0	-0.18902980458881213
161	0x3fb3a8a83a3d75db	0.07679225370289748
162	0x3fc9f15bed2c5f7d	0.20267819481591323
163	0xbfd0a9ee3fa87b66	-0.2603717443143324
164	0x3fa23ca18d4e9ef7	0.03561882829609247
165	0xbfb4b0723e327591	-0.08081735628589672
166	0x3fd4d5aba8a7e00c	0.32554141493119526
167	0x3fcf0edb55a5bf08	0.24264089281086165
168	0x3fc387acca5cf5b2	0.15257797127735057
169	0x3fc6c7c686c56e3f	0.1779716642439428
170	0x3fa5ab95b717f9c7	0.042324713325786294
171	0x3fbcb55eb3af7e66	0.11214248549321723
172	0x3fd427030e5e3730	0.3148810997307576
173	0x3fd10ac7eff201df	0.266283020326254
174	0x3fb07642d125e0ed	0.0643045197119851
175	0xbfc2e53cbc29e713	-0.1476207655685405
176	0x3fc29e74124f5bba	0.14546061414759298
177	0x3faa5295738ea08f	0.05141131435021961
178	0xbf86f3cda7b729c6	-0.011207205467958736
179	0xbfd6cfe87cbce014	-0.35643970662522517
180	0x3fb5bb9417ce806d	0.08489347058503123
181	0xbfd4fe6583fe29d5	-0.3280271328918876
182	0x3fdeb4d82ee1e69d	0.4797878702007468
183	0x3fa23912513e39c4	0.035591671388022245
184	0xbfd10347debab322	-0.26582524062068746
185	0xbfc94c2dbd87f066	-0.1976372886127848
186	0xbf9992df800539c8	-0.024974338711496263
187	0x3fc515c48d1b13c0	0.1647267998688715
188	0xbfd40633ffd32a9b	-0.3128786085405097
189	0xbfc6cb6f6d3680fb	-0.17808335144673734
190	0x3fb3041846c0f6fd	0.07428123214137013
191	0xbfd5e243e0f386cf	-0.3419351288595011
192	0x3f92700747dfa1a1	0.018005479585470167
193	0x3fdc12c82f6d188a	0.43864636069736973
194	0x3fd0e62a94d27f43	0.26404823811934736
195	0xbfd00bf42314dbc7	-0.2507295935242237
196	0x3fd2d45b32ed2092	0.2942111966444908
197	0x3fc0ead1fe274cba	0.13216614637221885
198	0xbf7d60b1101a33e3	-0.0071722904700779215
199	0xbfce5a50ce6d7747	-0.2371312148997566
200	0xbfb9bee9143638e0	-0.10056931251003531
201	0xbfc67d3e48ff315e	-0.1756971222333829
202	0x3fd840978add2153	0.3789423805324265
203	0x3fba48a7180701a8	0.10267109238248529
204	0x3fd70288e90cf5b2	0.359529712284565
205	0xbfb56b5e895860d0	-0.08366957524447405
206	0x3fac0aeb4d966214	0.05477080652343971
207	0xbfb242882d5cc784	-0.07132769687157575
208	0xbfb30326a8f1eb52	-0.07426683067926135
209	0x3fd31e3b0b6edc61	0.29872013203152475
210	0xbfa2cf1da1938fb2	-0.03673641774528792
211	0x3fd10e0ac490fd15	0.2664820594399811
212	0xbfa61ac57cf4bc41	-0.04317299986211554
213	0xbfd767a9c6a5ca08	-0.3657020988386255
214	0x3fa6e387dddc244c	0.044704671700011106
215	0x3fcf0af9c5e620b9	0.24252245104822182
216	0xbfd452a05cedbf63	-0.31754311633175386
217	0xbfa6a2f4df45e822	-0.04421200967313178
218	0xbfd173f1c7198d9d	-0.27270168727246774
219	0x3fbd4587ae01f0e9	0.11434219358665455
220	0xbfc9d0872b8c8604	-0.20167626978313546
221	0x3fdb4480b44e6388	0.4260560761263652
222	0xbfa58bd6b7916c00	-0.042082509906968824
223	0x3fdaf331fc320032	0.4210934603543165
224	0x3fc78f0620911ddd	0.18405224409273915
225	0x3fb590f6e5e0874d	0.08424323189003964
226	0xbfc3f34b1534fcfe	-0.1558622220563634
227	0x3fc07baf114ccd2b	0.12877453179098927
228	0xbfd363809b958ee8	-0.3029481429459637
229	0xbfd398892db0204a	-0.3061850496455959
230	0xbfdac394a3cd5aa6	-0.41818729397111054
231	0x3fcebd2b29b5ca44	0.24014796768786273
232	0xbfd4704fdde6ec79	-0.3193549792301336
233	0xbf99bd030cbe2150	-0.025135085728409223
234	0x3fc83896052a4ecb	0.18922686817369647
235	0x3fbc579041fdeba5	0.11071111308221633
236	0x3fb2765580e67d16	0.07211813351613147
237	0x3fc519f8b9f242cb	0.16485508994494177
238	0x3fb6107583319935	0.08618864491436258
239	0x3fd88a17a32d20cb	0.38342848715957406
240	0xbfc7d34e8b1a2b36	-0.18613607208347965
241	0x3fddabea446a3f0e	0.46361786538271665
242	0x3fa5e28a7df04727	0.042743995545732986
243	0xbfd2404e4082ba5a	-0.28517490672940016
244	0xbfd061eb9b073989	-0.2559765829036214
245	0x3fce3d078254d179	0.2362374674209027
246	0xbfd358aa2553c730	-0.3022866596721654
247	0x3fd300d44c5e0222	0.2969256158612855
248	0x3fd10a7434f7e636	0.2662630574483019
249	0x3fd48b67ccf0aa4a	0.32100863469773755
250	0xbfd3490bbb502019	-0.301333363459436
251	0x3fd859fad82d236a	0.3804919348809138
252	0x3fc5e7464edda13b	0.17112044192186623
253	0x3fd6e934694f3b7c	0.35798368724947927
254	0x3fd0b65b44f82329	0.2611301587608517
255	0xbfd52172a1e594b4	-0.33016649065241244

transformer.encoder.layers.0.self_attn.out_proj.bias f8 [16]
0	0xbf38df8fe979d2a2	-0.0003795362804120216
1	0x3fa1840138ba90c2	0.03421024148454556
2	0xbfa20c3d451f5e58	-0.03524962872296261
3	0x3f7ea6697e8b8c35	0.007482921683478462
4	0x3fb2cd0a5b001e10	0.07344116899195563
5	0xbfa47ab9d703bf58	-0.03999882459345255
6	0xbf92ab58b7a907ef	-0.01823176022504208
7	0xbf678427cf86c968	-0.0028706338454977283
8	0x3f935587272e3150	0.018880950704941057
9	0xbf92c7c43c2265d9	-0.018340173883734188
10	0x3f8946017df6ca1a	0.012340556770912992
11	0x3f4a5996f4e2e364	0.0008041369526586681
12	0xbfa23f6a0468cb61	-0.03564006141495813
13	0x3f93a6670fee9638	0.019189462993059986
14	0x3f87e99a9c0aca70	0.011676032912281559
15	0x3f6b4d70c6d673cc	0.003332824961673064

transformer.encoder.layers.0.linear1.weight f8 [128, 16]
0	0x3f75aa5f83a6d2d4	0.005289433577151132
1	0xbfa37c559f89023b	-0.038057971691618474
2	0xbfc15a8690a01760	-0.13557512342247957
3	0xbfc155af41813006	-0.13542738626927092
4	0xbfc4818640ed3230	-0.16020277185670428
5	0x3fae4e3ced84760d	0.059190658563448385
6	0xbfcfc08695ff2393	-0.24806291889242668
7	0xbfa7c75947d33f24	-0.046442785279962956
8	0x3fb277035d4d4300	0.07212849643589081
9	0x3fa1e2e9dceb434e	0.03493433782353482
10	0x3fa2b5423d0acbf6	0.03653914446967825
11	0xbfb36e17414b6017	-0.07589860290625015
12	0x3fc7c07cdc45a734	0.18556175952408582
13	0xbfd1093753a1ce4c	-0.2661875073165205
14	0xbf9370ff882a15da	-0.018985741315665418
15	0xbf95cd02130aa137	-0.021289856350137994
16	0x3f91581c592ce1d4	0.016937678282575266
17	0xbfc8f9fa70a258ff	-0.1951287317248855
18	0xbfce12d3565d026e	-0.2349495097823992
19	0xbfa75f8b8bcf7349	-0.04565082627934786
20	0xbfceffc9efaedee3	-0.24218105510021024
21	0x3fba6f5067242bf7	0.10326101797197383
22	0xbfb670d27c684072	-0.08765903031621905
23	0x3fb2cf6b4d44508d	0.07347746502301984
24	0xbfbd8e7876b6eba7	-0.11545517824462924
25	0x3fc2e4246504f64e	0.1475873463877399
26	0x3f85bb81ff65d033	0.010611549002284537
27	0xbfc5e33a8da8c778	-0.170996970338418
28	0xbfa401d8ced588d6	-0.039076590774827544
29	0xbfc0bc8511d292bd	-0.13075316782228255
30	0x3fafcdefa17af72a	0.06211804243274195
31	0x3fbc14889bf9a154	0.10968831832872655
32	0xbf827afdd89b2a0d	-0.00902365033416166
33	0xbf65f32317e23b9c	-0.002679413358300532
34	0x3fa271f57e18deaa	0.03602568783065625
35	0x3fb7187ee4586f36	0.09021752428855909
36	0x3fcce35af2367e30	0.22568833185958814
37	0xbfb29634ca1c1971	-0.07260446485824958
38	0x3f826b3b18bb34fd	0.008993589107741057
39	0x3fb49e4cec113ce5	0.08054047358858758
40	0x3fbbe58836c832a6	0.10897113168193559
41	0x3fb8bf0a0f2a876d	0.09666502828852482
42	0x3fcf749e6de01fcf	0.24574642529500898
43	0xbf90f8a5bf01cab7	-0.01657351473154264
44	0xbfb628a3d107c337	-0.08655761578826292
45	0xbfc0443dfca568ab	-0.12708258472668396
46	0x3faf5409c609bdba	0.06118803541618996
47	0xbfb0dd86a8d0e47b	-0.06588021871074716
48	0x3fb5760b22c14263	0.08383245085247774
49	0x3faba7f2b7581580	0.054015717392796425
50	0xbf7086e87b1b50fe	-0.00403490841718601
51	0x3fbb19b45410c1ca	0.10586096813563653
52	0xbfb2666148ac3048	-0.07187469505532917
53	0xbfc7e47cb93e509c	-0.18666037602509256
54	0x3f901b0c59a17919	0.01572818085730274
55	0x3fa415e15800de62	0.03922943305263683
56	0xbfb7334002bd4be5	-0.09062576357727854
57	0x3f6c690c5b3b57f8	0.003468059667151909
58	0x3fe0b821a071964f	0.5224769719758998
59	0xbfd24aab49183c31	-0.2858074392142412
60	0xbfb7feee134bbb1e	-0.09373367281999065
61	0xbf8bf394df65daaf	-0.01364818865543546
62	0x3f853e515d6c5627	0.010372768081235396
63	0x3fb25c299942cd9a	0.07171878806803136
64	0xbfb3167202c5936a	-0.07456123893423486
65	0xbfa2b91a264f24c0	-0.03656846730843588
66	0x3fc6a7d86a3eb1f8	0.1769972342275563
67	0x3fce31016e5dab70	0.2358705319305403
68	0x3fb2d705891e50df	0.07359346959703171
69	0xbfb248b731d157ad	-0.07142205206159132
70	0xbfc19d2b93dc94ff	-0.13760895461852127
71	0xbfd8166361a136de	-0.3763664678016151
72	0x3fd4b6746e59f03c	0.32363615776535304
73	0xbf54048d1e1dbde9	-0.0012217882253614482
74	0xbfc5c7ed584d465a	-0.17016379176725388
75	0xbfa2c4c182b6e28a	-0.036657378393504095
76	0x3fbec8308d6938ef	0.12024215176026919
77	0xbfc2ff4247f0ed65	-0.148414883735181
78	0xbf7b61e2a0265590	-0.006685147529784344
79	0xbfb2216e5eb89067	-0.07082261860392834
80	0x3fb4bffba0636a6d	0.08105442682009718
81	0x3fb31dbf4f9405ca	0.07467265789821123
82	0x3fb4a85297fa4fb8	0.08069339952845567
83	0x3fa6311c46d1ecc7	0.04334343304159343
84	0x3f40a8e534c68a99	0.0005084151430774952
85	0xbfa00c8cc7ffcd44	-0.03134574834248352
86	0xbfb04173c385d3ae	-0.06349872134690202
87	0x3fb57f9be56f9988	0.08397840835059445
88	0x3f8362fb1e8d1e3e	0.009466134900903641
89	0xbfa3ad3f9988a3b7	-0.03843115567389737
90	0xbfcb58d1914c022d	-0.21364802927566143
91	0x3fab744fed937434	0.05362176680657918
92	0xbf855f8f5a3bc4cc	-0.010436172429282208
93	0xbfc415a5c938fb63	-0.15691063237496924
94	0xbf9d76618e571940	-0.02877190047527134
95	0xbfa5d9608e807454	-0.04267408122562047
96	0xbfc3d1259420d02d	-0.15482015354939574
97	0x3fc144d38cb30bb2	0.13491291399085764
98	0xbfb425751d8ed77e	-0.07869655582075372
99	0x3f82b62c4825d77f	0.009136529876496045
100	0xbfbf561aafda0ebc	-0.12240759652382399
101	0xbfc5d3face8f9937	-0.17053160749419202
102	0x3fc3d2eb2e7dd52f	0.15487422723860209
103	0x3f9eaaebc8be75c6	0.02994888699287459
104	0xbfc4b345c4a38e3f	-0.1617209634924723
105	0xbfa7cb946404aaf4	-0.046475064477211975
106	0xbfc22ce935d84588	-0.14199557427540932
107	0xbfc5f59ed47744e7	-0.17155824064551625
108	0x3fc0cfcdbdeed43e	0.13134166502064376
109	0xbfa7929224b8f7db	-0.04604012201569648
110	0x3f75844d5f99fd5d	0.005253126373303854
111	0xbfc723d93707eef3	-0.18078150927600908
112	0x3fc9cb39d69fb4d8	0.20151446323089917
113	0xbfc053f10072e26f	-0.12756168863213044
114	0xbf99a216fe12d38d	-0.025032386071604008
115	0xbfaa32667dd513b5	-0.051165774212257466
116	0xbfb1d83525527f48	-0.06970531617343767
117	0xbfb1a1dd1d728f31	-0.06887609452183764
118	0xbfb41c4a4cbd75a6	-0.07855667470490477
119	0x3fc2e27c2ddad6ce	0.1475367759609782
120	0xbfb5c750761f024d	-0.08507254489723799
121	0x3fac0dd0a998bafd	0.054792900755606035
122	0xbfd4b42a7f0d2350	-0.3234964600310848
123	0x3fc7ce8b724145a9	0.1859907443891136
124	0x3fbf9be534c0ec19	0.1234725240509963
125	0x3fbb2e71a74420a8	0.10617742856641377
126	0xbfc2ac5c2f79456e	-0.14588501279881022
127	0x3f80f14b87fcc417	0.008272733771805858
128	0xbfae29ad9ee8fc92	-0.05891172947712521
129	0xbf9285f03bf0158d	-0.018089059503855465
130	0x3fc09f43ca22ae2c	0.12986037607093814
131	0x3f92a80d0a70f4bd	0.018219188463480352
132	0xbfc41405c10b5072	-0.15686103750215669
133	0x3fc260bfbc3364d8	0.1435775441121112
134	0xbfa1788ca32b0bba	-0.0341228436641567
135	0xbfab25619f8b9acc	-0.05301957199644888
136	0x3fd3817ddc033cf3	0.3047785423813842
137	0x3fbfd5880a609196	0.1243519807181371
138	0xbf7a913f00c8eae5	-0.00648617373058855
139	0xbfb67784a313dcb9	-0.08776120168100733
140	0x3fc1c71f723048b5	0.13888924670806593
141	0xbfbbbe6288dbbcd6	-0.10837379304188074
142	0x3fabd9ae2ff9d84e	0.05439514480251316
143	0x3f907447552cdb08	0.01606856782310742
144	0x3fac92420de390ea	0.05580336017172434
145	0x3f724d4144045bfb	0.004468207306010714
146	0x3fbffb7f746775c7	0.12493130294702502
147	0xbf9c50b2e71e4290	-0.027651591640792506
148	0xbfb77c5d8646e0a8	-0.09174141433948313
149	0xbf960f356d248e6b	-0.021542391573474633
150	0x3fc950f90df127e3	0.19778359585535474
151	0xbfc0af3730990df4	-0.1303471553129466
152	0xbfcba0aa62e5422b	-0.21584062413104851
153	0x3fb4eff4130c28ad	0.08178639855410337
154	0x3fa2712ae73e4f68	0.036019650199846265
155	0xbf6abbbfda17e6f6	-0.0032633540256455885
156	0xbfbb9ab011ec8ad7	-0.10782909810636042
157	0xbfc200ca9c3e63b8	-0.14064915303313597
158	0xbfad8a1369f010d1	-0.057694060022215894
159	0xbfbeca13d83864d3	-0.12027095822158466
160	0x3fbb20c414a1aaad	0.10596871856402386
161	0xbfa3c24d08543a8f	-0.038591773287511726
162	0xbfc02b172fc2960b	-0.12631501991306524
163	0x3facd55a37cc57a3	0.05631524973993798
164	0xbf72b5bc43bf1be0	-0.004567847641687245
165	0x3fc5318cd7a66844	0.16557465104853197
166	0x3fa3c9f5c1939a2f	0.038650207405045094
167	0x3fa1bb0e6bd165a1	0.03463025156151934
168	0xbfd07cbd9368c07c	-0.2576135577719538
169	0x3fc53aaea750a304	0.16585333985974426
170	0x3fcda0076027d19c	0.2314461917409404
171	0x3fabb041d51dffc9	0.05407911039856079
172	0xbfc4e80bed486a0f	-0.16333149992063098
173	0xbfbe8fefc6259de9	-0.11938379848071858
174	0x3fb317a6c95cb459	0.07457964340274383
175	0xbf556e0fd374d9de	-0.0013079790640638726
176	0xbfc0ec06c0dff6cb	-0.13220295350759267
177	0x3f299e1675240998	0.00019544624462504152
178	0xbf9c3541e08ad630	-0.027546910600639574
179	0xbfae6913c28849d5	-0.05939542531645584
180	0xbfcd31040e32bf0a	-0.2280583447768481
181	0xbfcde48422cdd0d0	-0.233536259645581
182	0xbfba55ec115cc4cd	-0.10287356780897312
183	0xbfc6ce5df6c9cc07	-0.17817282247742147
184	0x3fd8d64a7a0836b8	0.38807928006358905
185	0xbfc7df12709b1998	-0.1864951181252763
186	0xbfb5f359f3c5806f	-0.08574449731304566
187	0xbfb28be68423208a	-0.07244721151357872
188	0x3fd49dd52ead4278	0.322133346159752
189	0xbfc274a6551fe7fd	-0.1441848674438119
190	0xbfc4da4508492920	-0.16291106133059774
191	0xbfada2ce7517d020	-0.05788273982389591
192	0xbf9631766f403a31	-0.02167305997869046
193	0x3fb5d26a7a8bbe2b	0.0852419423279051
194	0x3fc13768ce07c52c	0.13450346050334738
195	0xbfa6c9728019c605	-0.04450567067841508
196	0x3faf635ea1df0a89	0.06130500532119238
197	0xbf6fcd02f505e3c4	-0.00388193681299895
198	0xbfd04725280799b6	-0.25434235486172996
199	0xbfd2d31e08b915de	-0.2941355786500405
200	0x3fccc2ff4a60f64b	0.2247008431603937
201	0x3fc118ac677dba31	0.13356547406461197
202	0x3fe03db130abfd24	0.5075307798978526
203	0xbfcb1124fa568af7	-0.21146070693529115
204	0x3fc5129f3b0f74e5	0.16463079818541995
205	0xbfb5a75c60f53d6c	-0.08458497397554304
206	0x3fa388c50d15f00b	0.038152845237135656
207	0x3fc2202d70735402	0.14160697928187466
208	0x3fba689fe47c9495	0.10315894439971125
209	0xbfb8a96c5e9b3261	-0.0963351946804294
210	0xbfbed5c098657546	-0.12044910164464281
211	0x3fa71c1dc7b7b58a	0.04513638556441453
212	0xbfb6aa7c1d7b2aa0	-0.0885388919806851
213	0xbfc928b4bfde640a	-0.19655475014295148
214	0xbfc843f9c9b53816	-0.1895744547750275
215	0xbfb96073a3cebdf8	-0.0991279864235749
216	0x3fc1635f18db99b3	0.135845076692204
217	0xbfc9bbcb6e98f448	-0.20104353809611752
218	0xbfd148a56d9ed526	-0.27005897240754206
219	0x3f585f14841d8a74	0.0014875126220991438
220	0x3fa2de8fd11444de	0.03685426165805848
221	0xbf79895a7649ea71	-0.006234506003802141
222	0xbf959dfcb81c6d1d	-0.021110485779996958
223	0xbfb39a1719f65aee	-0.07656998046727967
224	0x3f9f670124eabc95	0.030666368368369296
225	0xbfcc7effe29c86f0	-0.22262571873675752
226	0x3faef0c7ef573d14	0.060430763212588584
227	0x3fac3634fabc6e34	0.05510106621497038
228	0xbfbdc9f2797973ec	-0.11636271920856672
229	0x3f99ab41dde1324d	0.02506735722299629
230	0xbfa5bf75185ff541	-0.04247632906479249
231	0x3fd32d829b472baa	0.29965272106044927
232	0xbfcc194dfd9b1e90	-0.21952223666288662
233	0xbfb6ba942dab7960	-0.08878446688638553
234	0x3fdeb72b4ebf2d40	0.4799297589313092
235	0xbfcbf378de5c8f10	-0.21836768014429042
236	0x3fb502beb1a1449c	0.08207313381832865
237	0xbfcb10e1c72d8e86	-0.2114526960896123
238	0x3fb4cb937a0055d4	0.08123132446811293
239	0xbfbd89dc03e53ef2	-0.11538481803040293
240	0xbfb34adc42758f77	-0.07536102888621864
241	0xbfcaae33b65aae54	-0.2084412231828191
242	0xbfc6d9529e7b39fb	-0.17850716341349923
243	0xbfc5e0dfb5ce0b95	-0.17092510583105694
244	0xbfaf2327ee8343fd	-0.06081509386570614
245	0xbfc5b111025ff3fb	-0.16946613899190752
246	0xbfaac638f7b0e5a5	-0.05229356788226917
247	0x3fad1fa6aeb39c79	0.05688210375392883
248	0x3fc020be5cd0feed	0.12599925548601423
249	0xbfc56b1a28c94ed4	-0.1673309992935318
250	0xbfd749ae7ef89259	-0.36387216948995654
251	0x3fcb08e6333ad3c0	0.2112090826173283
252	0x3fb41c05db5941bc	0.0785525951880634
253	0x3fbef0ade476f182	0.12085997417211128
254	0x3fa251dec9855b67	0.035780870532724766
255	0xbfc19104c9ae5987	-0.13723811958034224

transformer.encoder.layers.0.linear1.bias f8 [128]
0	0x3fc75e2a7d308b18	0.18256121742987186
1	0xbfbcbc71ee615c5a	-0.1122504431708519
2	0x3fa376581f17271f	0.038012269778461276
3	0xbfc030953408b3d9	-0.12648263016435982
4	0x3fb2b94bc522a1f3	0.07313989222405563
5	0xbf99f93e608c0b3b	-0.02536485161091238
6	0x3fb485069351ac99	0.08015481087356803
7	0xbfcc0742fba147c9	-0.21897160803433582
8	0xbfb002d195bc14a3	-0.06254300981170728
9	0x3fc57997ad254259	0.1677732081830239
10	0x3fca370d77c94088	0.20480507229740774
11	0xbfb357a439d06348	-0.07555605327105497
12	0xbfc49d307c5fcd33	-0.16104703972778509
13	0x3fc3e827f813d1e1	0.1555223428073438
14	0x3fc42e54e33bc283	0.15766392798788695
15	0x3fb71bdbf9e05503	0.09026884890075242
16	0x3fbfabf52e0c74a3	0.12371761678919539
17	0x3fc0526575034270	0.12751453603279428
18	0xbfc374d1c91b759c	-0.15200254745188324
19	0x3f992f90229ffdca	0.024595501054134584
20	0xbfcb33b1c51ad807	-0.21251508831272778
21	0xbfb1baadf7226cc0	-0.0692547539096493
22	0x3fc8e75171624740	0.1945592692978213
23	0x3fc48bb6da28dcb2	0.16051374103856159
24	0x3fce74830ab7877b	0.23793066046988173
25	0xbfb89cad4d817ab4	-0.09614070074301645
26	0xbfbf34b10edbe59c	-0.12189776051299933
27	0xbfca48d89b56e137	-0.20534808716707584
28	0xbfc4334b7ddd5999	-0.1578153957913855
29	0xbfccc19559ec3edd	-0.2246576966358508
30	0xbfcaaf42c83feb93	-0.208473537233513
31	0x3fb35c41b03e1c10	0.07562647393034205
32	0xbfca9bfb269f0d3a	-0.20788516412549446
33	0xbfbec2a152499274	-0.12015732058496004
34	0x3fa829f729b4f63f	0.04719517120473115
35	0x3fcbe0859c326196	0.21778936507031393
36	0x3f94cf352aa959e0	0.020321684578755383
37	0xbf9d8a0064174861	-0.02884674654871622
38	0x3fc04431409b9b2f	0.12708106665305638
39	0xbfc94bb9b49adb7d	-0.19762345617865754
40	0x3fc40e51c4c2bc6e	0.15668699367003874
41	0x3fcb6b34687b73df	0.21420912839576453
42	0xbfd258c009d530c7	-0.2866668792746733
43	0x3fc9011588e505d9	0.19534558471973076
44	0x3fb68252549507b8	0.08792604985231278
45	0x3f9525a1bba923fc	0.020651366309071037
46	0x3f8ba9eb7eb703b0	0.013507690243274556
47	0x3fb71a6fec2f76a7	0.09024714962239476
48	0x3fc7498e1a785663	0.18193222324832722
49	0xbfaeb43695469ea4	-0.059968667719031005
50	0x3fbca159b0c9a2e4	0.11183701101402793
51	0xbf9ac72a8c9be684	-0.026150383789149703
52	0xbfca6a43a439165c	-0.2063679267759423
53	0x3fa008676ec0ef8c	0.031314117688878346
54	0xbfc6cbcab60c9448	-0.17809423340910002
55	0xbf9768842bb6da81	-0.022859635513408087
56	0xbfc2672b168f6a71	-0.1437734470517458
57	0xbfac923091106290	-0.055802839000709814
58	0x3fbc8122a1b622d4	0.11134544799837026
59	0xbf9c5add0b0fa35d	-0.02769036655437006
60	0x3fcaed5f040e38ae	0.21036899278664606
61	0x3fc1f7eb0e1ff928	0.1403783625573365
62	0x3fc3bc00c1a68497	0.1541748948630228
63	0xbfd2f9d31d3e5743	-0.29649808746158984
64	0xbfcab4231dd5c0e9	-0.20862235028062706
65	0x3fcca66a9c8d113f	0.22382862705320325
66	0xbfcacd6df0f8c76d	-0.20939420953942137
67	0x3fc6582a7701b05a	0.17456560908192637
68	0xbfd199734bc9205c	-0.27499086762373337
69	0xbfa978003244282f	-0.04974365819551029
70	0x3fb2432eeedced84	0.07133763629547302
71	0xbfc35fd510d84e95	-0.15136206934458998
72	0x3f86d30f11f7e2f8	0.011144750343178952
73	0xbfd1d587dce4b102	-0.2786578805123697
74	0x3f6fd5068968012f	0.0038857581778303433
75	0x3fbd2043f35f3d96	0.11377358142566715
76	0x3fba14516cbfc1fc	0.10187252907758898
77	0xbf9ec0486ebfcaeb	-0.030030376205057257
78	0x3fc35fa1876544b4	0.15135592566597256
79	0x3f65dc3e598e6109	0.0026684968729108233
80	0xbfc3491f08a377c0	-0.15066898271373752
81	0xbfc65c968784e019	-0.17470056168690531
82	0xbfc6763c076c0742	-0.17548323023225448
83	0xbfd0c9204caacbe0	-0.26227576720265056
84	0x3fa228ec1dced471	0.035468462599433155
85	0x3fc9b98d19292113	0.20097507217929741
86	0xbfced880013ecbae	-0.24098205624394836
87	0x3fc37010b881449d	0.15185746201544684
88	0xbfc54b4ea77877a2	-0.1663606946685237
89	0x3fbbb660e0c30a32	0.1082516239867253
90	0xbfc669e58b3d4f41	-0.17510670946887255
91	0xbfd08e06dbf7d6ab	-0.25866862756024983
92	0x3fb3bdb31ab5e375	0.07711333658325066
93	0xbfcc6284547e04b6	-0.22175649762724498
94	0xbfb3847c42183668	-0.07624031652104579
95	0xbfbbc23d7690a802	-0.10843261856703637
96	0xbfc75bd556ef013d	-0.1824900316696673
97	0x3fa80d4b38e4ec38	0.046976423926445354
98	0x3fb9cd269a44a10a	0.10078660265265085
99	0xbfc6b5b271079095	-0.17741995352765075
100	0x3fc680a06be5b440	0.1758003737299152
101	0x3fbf1a39751d44ea	0.12149390324818268
102	0x3f9be85d951d6caf	0.02725359175324787
103	0x3fb27589424e145c	0.07210595959448213
104	0x3fcad109f35e9917	0.20950436003949655
105	0xbfa0f798a4124680	-0.033139009502645145
106	0x3fcb3428a2f7837a	0.21252925832143515
107	0x3f7a5d86ccab435a	0.006436850128651661
108	0xbfbbc0bcd3fc83b4	-0.10840969253014415
109	0xbfc2a276aaca5104	-0.14558299388284734
110	0xbfb555226d988ec2	-0.0833302991455254
111	0xbf6c6551a392cd7a	-0.0034662813673890765
112	0xbfa04f6ccde91def	-0.0318559647899369
113	0x3fc4b016d8722a95	0.16162381714487553
114	0x3fb3964489a74b16	0.07651165352517028
115	0x3fa8ac4632d75df0	0.04818934794064578
116	0x3fc1a67bcce7c8ba	0.13789317612788016
117	0x3f8a2ff9efa5eda2	0.012786820054990159
118	0xbfc30d14ef50ad06	-0.14883672414121224
119	0xbfaf9b11b7c8b39b	-0.06172995918709675
120	0x3fb24af6af22beec	0.0714563539102035
121	0x3fb1cf71880ae74b	0.06957158633568132
122	0x3fc642d01e0f9510	0.17391396968665918
123	0xbfb2258938a2c972	-0.07088525421821659
124	0xbfca8b3e78c6bce6	-0.20737439057618373
125	0x3faa08e34bbd2987	0.05084905910060216
126	0x3fc0c1f698b72447	0.130919289177003
127	0xbfba1757b72b2cc6	-0.10191868039980809
