Code/990-10/darts_logs/M-data_Afghanistan_transformer/checkpoints/last-epoch=199.ckpt (torch, 653477 bytes, 205 tensors)

encoder.weight f8 [16, 1]
00000000: 4366 e7ce a24a ddbf 50e9 980f 405f f1bf
00000010: 11e4 878a 5710 e6bf 2e0f 877d 1dd7 e7bf
00000020: 1f79 7735 47e3 e23f 76c1 ebc6 c246 e83f
00000030: 4482 b9fc 124f d63f 463c ed3c 7f8f ec3f
00000040: f508 f060 58cb e2bf f564 a48a c143 e83f
00000050: 91d0 5346 7a6b ed3f 28a6 c80f 0085 e5bf
00000060: 7ae9 026a 9b56 d6bf 163b a0a9 17ab ecbf
00000070: c617 abf2 ebfe d03f 688b 2c69 6d98 d73f
-0.45768041806659115 -1.0857544526357579 -0.6894948678665306 -0.7450091792784173 0.5902439159652068 0.7586377988027795 0.3485763042463399 0.8925167264914158
-0.5873224156678406 0.7582709987501902 0.9193698285657935 -0.6724853809620912 -0.3490360770480475 -0.8958853066450014 0.26555918405608414 0.36867842932604455

encoder.bias f8 [16]
00000000: f12c 8ce2 54f2 d73f 306e d14f d25f bebf
00000010: f8d8 3b9d bdf3 d7bf eb6d 0869 28d1 a73f
00000020: a0ae 6a78 79a6 d9bf 8d47 1922 dff8 f0bf
00000030: 5f40 9335 e576 e7bf e9a9 37fb d1aa d3bf
00000040: 1199 18df 74c5 d2bf c0a1 21f9 975e f2bf
00000050: 43e3 cc4b a386 debf b96e 4cae 3972 e1bf
00000060: fd1a 041d d163 c53f 7cbe 9a57 38ee dabf
00000070: 719d 9b43 6ac8 e3bf 8f35 3958 934e 703f
0.3741657459620021 -0.11864962052043704 -0.37425175051556847 0.04651762277736878 -0.40078579673238757 -1.0607596714002938 -0.7332635923758167 -0.30730104001000186
-0.2933017901108466 -1.1480941516584693 -0.4769676437604639 -0.5451935199993933 0.16710866848753617 -0.42078980021594936 -0.6182147331682427 0.003981185498174069

transformer.encoder.layers.0.self_attn.in_proj_weight f8 [48, 16]
00000000: 98ee 805e 2794 c4bf c0ef 90bb bcc0 d03f
00000010: dc23 ffaa afde a73f 45f6 8476 17df c8bf
00000020: 9e95 0160 172c e73f 210e 432f 004a e33f
00000030: 6673 362d cb19 a23f 8a43 91c0 ab2f d53f
00000040: e77f b37f 2f12 ce3f c601 28cd af82 c1bf
00000050: a5b8 7cdf df5b d7bf 79d8 ebd8 102b debf
00000060: dc1c dc89 9d38 ccbf 6a73 06dd 4041 d4bf
00000070: e2b3 7812 6f83 97bf 2dd7 2bdf 900d d6bf
00000080: 5c80 8f96 99a7 e13f 7514 a071 78fe c3bf
00000090: 0323 0cf0 d062 e7bf d07f 9090 a035 cb3f
000000a0: 73ef 5dfa 5003 eabf b275 df55 2dec d8bf
000000b0: 2d7a 18b4 5979 c23f 3932 210f d0d1 c9bf
000000c0: eebe 401f 9880 bc3f 6753 647f ea4b df3f
000000d0: ea7a 5a81 99ff d73f f411 99cc 6d5f cb3f
000000e0: 74af 0d22 75f6 d73f c176 5c95 de68 de3f
000000f0: d4e7 5514 7ce6 e2bf f11d ccb6 1aa4 e53f
00000100: fa91 7b78 3827 823f 2ac6 4953 42fd c13f
00000110: 9fdf 361b aa60 c3bf a42b b7b4 234f b0bf
00000120: 12bf 2b21 566e d63f 767f 4489 16d4 d13f
00000130: bd0e e795 2d10 c0bf cbe4 17ac 2462 bd3f
00000140: ef14 c00b 1e57 bb3f 65af 5d67 4405 b5bf
00000150: adb4 f172 4505 c9bf 37e7 7abb bd91 acbf
00000160: 0f40 7754 9098 d3bf c154 a5c4 a59e af3f
00000170: 8b92 6190 9bb6 ca3f a287 5f1d 6402 41bf
00000180: c8fd 439b 5323 b7bf 67c4 4d2c aa56 be3f
00000190: 1f9f c634 88f1 d13f 0f8b 8457 a0c6 cb3f
000001a0: dff1 97e0 d79f e03f 1097 84ea 46be af3f
000001b0: cc4c 8bd2 f622 c9bf 715a 3388 da43 b9bf
000001c0: 1f2e bdd9 4ae6 b4bf 09e0 fc8e ffc2 d6bf
000001d0: a6ac 3018 22e0 cf3f 765c c5bf 9b57 c23f
000001e0: 55cb 7f3e 3450 d1bf 7c08 8639 8179 babf
000001f0: d5b1 c782 643d 743f d607 8a82 6a35 c73f
00000200: f2f1 a5a7 decd d0bf 223b 630c a06a bc3f
00000210: a167 5f1f 6289 b33f 295f bc27 c7a1 ac3f
00000220: 0b52 472d 78f1 b6bf b194 0f46 e977 d73f
00000230: d1a3 9034 3810 d6bf 8f89 cb6d 8d33 d1bf
00000240: 5f5f fb2b 5d54 d33f 125e 3ac6 e739 c7bf
00000250: d6ac 6a1b a823 bc3f 2f2a 2281 6a2e d33f
00000260: a558 7354 c55b b83f 0388 bc56 67be b9bf
00000270: 8dc1 6ba5 16f3 a6bf ee91 3672 164e cabf
00000280: ca7c e801 5095 da3f eb40 dbc3 d61e a0bf
00000290: 2164 622b 5cc9 b33f 9e06 0521 32d9 b7bf
000002a0: bb03 dcbb 3b50 d53f 66c9 6a9c 0c2e b73f
000002b0: 8040 4310 3a95 d03f d0fb 7bfe c8c1 b13f
000002c0: f6bd 719c 2c41 cd3f 8364 0438 cfb6 8dbf
000002d0: 3bf6 1e26 2b11 a83f 7983 a433 a9a0 9cbf
000002e0: 8933 92ef 5b1a ce3f 6501 7f31 8cff 7fbf
000002f0: 0e6b a976 7856 bdbf 8afc 5d1f 7b36 cf3f
00000300: 3f2f b42d e829 d4bf 0b5c 046e c699 bfbf
00000310: b52a 5efc 1b3a af3f 67f0 143e 2855 d03f
00000320: 7897 e83e 43ff b43f 4661 20b1 538e c13f
00000330: de89 5bb6 8435 363f d8b9 87e5 9be9 923f
00000340: 01ba ce66 0e05 c1bf 45b4 387d 7b5a d93f
00000350: 9e1a 40db 1bdc cabf c6bd a3a0 64a3 cb3f
00000360: b6fd e07a f225 ddbf 9a2f 726e 96b7 cebf
00000370: 73d9 bf72 f9ee d1bf 23c8 a52d 5044 d1bf
00000380: eea6 24bb 4de6 c6bf dd1c 14f0 1f09 d2bf
00000390: 5caa f189 c122 d8bf b6b9 fb29 32e9 c83f
000003a0: b523 3f63 7db6 e2bf f3cd 4068 6c39 b0bf
000003b0: 7801 7576 5949 b13f c80e cebf 4b37 c83f
000003c0: 2304 e866 c3b4 dfbf 8326 ffac 5409 e53f
000003d0: 6667 41a2 2b57 b3bf 0a74 cdc4 ccb0 ac3f
000003e0: 2100 e5f1 8c63 e9bf ebab 10f9 7dd7 c13f
000003f0: 9d3f ae39 b930 d6bf 1dcc 9b45 e98a c43f
00000400: 7c7b 3484 f815 b43f 775c ce50 4245 873f
00000410: 2caa 2263 51cd c2bf 83fb be85 fe74 d33f
00000420: 8104 74da 9019 d93f 785e a8fe ab0d d13f
00000430: 50de f0da 5578 d03f 6d64 909e 0e7f bf3f
00000440: e1b6 25fb 3d78 ca3f 1898 4761 8578 d4bf
00000450: 89be e67a 9511 d23f 31b1 aec6 1778 c63f
00000460: 985e 20e0 8a89 c03f ceb1 2b7f f9dd 883f
00000470: f33d 156d 9fb9 6f3f a377 d961 92f6 c9bf
00000480: 8c02 90a5 5d0b cd3f 2847 7610 45ab cbbf
00000490: 931a 7a58 fc9c b53f c908 2c79 4d4e d73f
000004a0: 2056 6364 f186 a33f db50 96e1 6252 b1bf
000004b0: 4b61 bfda 50cb 7d3f 61d7 1ad6 cc47 b9bf
000004c0: e2be bfe8 f5f4 c0bf 71be 9f35 821c d23f
000004d0: 40f0 c3ac c69c bb3f c2ee 6c93 35bd bd3f
000004e0: 69f7 6793 f7a9 d8bf abb0 9a4a cb62 d23f
000004f0: b0c1 ceb6 ce5f abbf e2d1 c880 2fe2 c9bf
00000500: 45ba 7e03 33d7 b33f fabd 15f7 cc50 d8bf
00000510: 1cc5 2f1b f75d c9bf 5896 6cc3 7e7f d33f
00000520: 3de8 5a8d 941d ce3f 8528 5b5a bfcc d63f
00000530: e9ff 48f0 fc52 b1bf 9518 53ee 58b1 cbbf
00000540: 38ce d8b9 65dd c1bf 75b7 5376 102b 9dbf
00000550: 7bf2 0727 7682 d93f 0206 71db efc0 b1bf
00000560: 2772 8682 d606 d0bf 6bcd 1dd9 dbbe d03f
00000570: 869e ae40 4e06 c9bf 6224 594c 4b72 c0bf
00000580: a546 4cab e153 c7bf 77b2 64cd 28b3 d33f
00000590: 73b4 fc7d c95c d53f 0cff 5d3b daf3 cfbf
000005a0: 12cf fb90 d262 c8bf 0b5c dfb4 b1a1 dabf
000005b0: 4629 9d07 c4ad d03f c227 3544 0a34 cbbf
000005c0: 136a 24d5 0ca9 ca3f 5d71 ae36 9f5f a2bf
000005d0: 9a88 e5a7 0db7 c4bf e61f 24c3 c358 c53f
000005e0: 13e7 dc94 e1e5 d13f eef8 c7a1 1027 b5bf
000005f0: c28f 0077 6028 d93f a6d9 c5d5 4a20 b03f
00000600: ee5d ac9a 3fef d63f 771a 69e6 d39e d43f
00000610: 0a82 273f d464 c0bf 42d1 7d8b 71bd d53f
00000620: 9da6 45b7 693c d4bf d0aa 2468 7ab3 cfbf
00000630: 9086 eac7 ef7b a0bf 5f69 67a7 643e d63f
00000640: 3719 c36e 41ad b6bf e1c1 749b d0fa c5bf
00000650: 66ed 590d 2433 c0bf 823c caf3 0b7b d53f
00000660: 61f8 a029 d5f6 d73f 3f2e b6dd bf1f d53f
00000670: 239e 4fdd 5b78 c2bf dd9f de56 30f3 cc3f
00000680: 68e9 9f8f a6fd 83bf 2846 b08a 1bfd d5bf
00000690: eda1 9bb3 c310 ccbf 6462 899f f98a ca3f
000006a0: 2416 0a26 dd3e d2bf b4cb e08d 7020 c73f
000006b0: 5338 70b4 2b36 ac3f 57e0 13bc b8ce c7bf
000006c0: abb9 9087 c845 d4bf b427 bcd4 a9a8 5dbf
000006d0: 566c 72b1 b3cf c4bf 1c5a 6cfc e361 cbbf
000006e0: 1af5 7df8 f867 abbf b4a8 47ce 21be d6bf
000006f0: 9c61 f678 646e c53f fe50 ae0f 3a44 983f
00000700: 6564 df7c 4a32 db3f 99e6 f508 17d3 e6bf
00000710: 4364 aafe 667b e5bf 9197 d6e7 4abe bc3f
00000720: dd44 2f89 0805 e2bf 1bfd 03f2 c95c e0bf
00000730: f713 03a3 60f5 d7bf 2529 79f0 728e e23f
00000740: 9dba efe4 e98c e0bf 0220 09ea a4e1 eb3f
00000750: 596d 651a 63c3 e13f 2c03 c537 b49f 8bbf
00000760: c6ce 58b6 13cd ebbf 50fa 8caf a8fd c2bf
00000770: d171 dd4b 1fc6 cebf e8c4 002f ebe9 e33f
00000780: 25b4 ac91 2aff bb3f fd99 64ed f810 c5bf
00000790: c64b d9aa 9997 8d3f a861 831b e754 cb3f
000007a0: 8397 2eff 7cbc a23f 4511 8569 9d04 b43f
000007b0: 4303 4a53 1977 c2bf 3589 3b4d b495 d4bf
000007c0: 6df6 03c6 c0b8 d63f 4ee9 6a43 b5b2 9c3f
000007d0: 1bd8 329f 53cf 7b3f 111c a8b8 dfaa b7bf
000007e0: 2560 7a07 5ff9 d33f 6213 2161 991a 52bf
000007f0: 0463 00f0 d756 c83f 57c4 be27 6613 d5bf
-0.16077129473147944 0.26176374737746855 0.04662083589898433 -0.19430821692542302 0.7241322398301013 0.6027832911572127 0.03535303999817678 0.3310346012631774
0.23492997870835028 -0.13680074231525746 -0.3649825747005571 -0.471378528439693 -0.22047776442943856 -0.3164827497910695 -0.022962317945871898 -0.3445779971510657
0.5517089787135876 -0.15620332286940522 -0.7308125198770486 0.21257407244502113 -0.8129048242549132 -0.38941510568642024 0.1443283204434506 -0.20171547640565438
0.11133719218264179 0.48900854530920984 0.37497556335612947 0.2138497590077716 0.3744175751260095 0.4751507242780058 -0.5906353375605655 0.6762822695026768
0.008863869835701078 0.14054135386281646 -0.15138746575189274 -0.06370757257461307 0.35048440207809606 0.27856982617412684 -0.12549371547185287 0.11477879716393884
0.1067980555236152 -0.08211162112791966 -0.19547336685665098 -0.0557994166715176 -0.3061867546903167 0.061757259611718414 0.20869774389133897 -0.0005190838662623052
-0.09038279095329138 0.11850989896426399 0.28036694673436274 0.2169990947087048 0.5195121180145711 0.06199857342498494 -0.19637952118373503 -0.09869161439142161
-0.0816389829243964 -0.3556517502179309 0.24902750188025385 0.14329859603705913 -0.27052026847302574 -0.10341651586898765 0.004941361065430934 0.18131762861236095
-0.26256529209038526 0.11100197126800684 0.0763150526612706 0.05592176780754549 -0.08962203126368011 0.3666938003719436 -0.3447399628954005 -0.2687715122430285
0.30202416701421514 -0.1814546316061159 0.10991907758095762 0.29970800982178764 0.09515031158238914 -0.10056157939519043 -0.04482336777971616 -0.2055080468827692
0.41536331354468514 -0.03148528233362121 0.07729126033008572 -0.09315789514678349 0.3330220541538968 0.09054640597131466 0.25910808170466026 0.06936317646976353
0.2285514606369216 -0.014508837601669327 0.047005985644755964 -0.02795662286473852 0.23517941663558542 -0.0078120685865886485 -0.11460068604484894 0.24385012656782507
-0.315057797081625 -0.12344017206156381 0.06099021392500018 0.2551975828425896 0.08201999936917825 0.1371559729457294 0.000338883305046304 0.01846927250329053
-0.13296680469416347 0.3961476061693399 -0.20984218793474424 0.21592386096697974 -0.4554411125172594 -0.23997764962075224 -0.2802108402824139 -0.2697945066239546
-0.17890330922937586 -0.2818069309727898 -0.37712133856863317 0.19461657571760121 -0.5847765863810453 -0.06337621255152452 0.06752547399537956 0.18918749680971403
-0.4954079155868973 0.6573890093652185 -0.07554886542621161 0.0560363760220995 -0.7934021687033274 0.13938879643805477 -0.34672384865643285 0.16048923395973783
0.07846024730359419 0.011362569895750447 -0.14689080563160084 0.3040157610047844 0.39218541463203144 0.26645946377673324 0.25734468823381906 0.12303248759453007
0.20679449809124775 -0.3198560190197681 0.28232323648533303 0.17553994370735773 0.12919746345209115 0.01214213294357416 0.0038726915160294194 -0.20283727433974005
0.2269093569193682 -0.21616423896608095 0.0844266620643828 0.36415421326831826 0.038138907913588094 -0.06766336448191927 0.007273975217650562 -0.09875183322114146
-0.13247560372064188 0.2829900287315246 0.10786096303849124 0.11616835450416388 -0.3853739680779343 0.2872799137646875 -0.0534653280404912 -0.20221513546279285
0.07750243029907107 -0.37993168000590993 -0.19818009211989185 0.30465668758765707 0.23527771856407922 0.356246793974272 -0.06767254701935567 -0.21634971272414263
-0.13956901144557476 -0.028484589788539922 0.3985877400553261 -0.06935023410280652 -0.2504173540744738 0.2616490955617425 -0.19550493391328788 -0.12848798015537272
-0.1822473608413492 0.3078100209993759 0.33378827384405624 -0.24962928675449125 -0.1905158241203187 -0.4161190286953917 0.26060581916376113 -0.21252563791705198
0.20828400046669113 -0.035885787415483185 -0.16183634470059333 0.1667713835561237 0.279655833600928 -0.08262733411536136 0.39308940526302305 0.06299274176658418
0.35835256676497707 0.32219407559424645 -0.12807705959041044 0.33968771574224743 -0.3161873140112251 -0.2476647385131714 -0.032195561555693364 0.34755817745248935
-0.08858117059853475 -0.17171676245335646 -0.12656069423597244 0.33563517387023734 0.3744404703646805 0.33006283427741673 -0.1442980604763174 0.2261715339820957
-0.009761143930508268 -0.3435734609966823 -0.21926161069792674 0.20736618318439348 -0.2850869056204337 0.18067748000757222 0.055100789810339855 -0.1859961431835042
-0.31675923575212533 -0.0018102320199795243 -0.162588559764887 -0.21392488313058855 -0.05352762254094952 -0.35535473961375463 0.1674314108502245 0.023697764594161612
0.42494451708404873 -0.7132678198824635 -0.671313760179267 0.1122786346446374 -0.5631144217860783 -0.5113267638079465 -0.37435165328162107 0.5798887917274312
-0.5172013732352131 0.8712944575318036 0.5551009669829156 -0.013488204910233025 -0.8687838136160841 -0.1483660561734319 -0.240421211284128 0.6223045270945962
0.10936227852353449 -0.16458045569852678 0.014449310804740888 0.2135285267202225 0.03659430136694566 0.07819541765372147 -0.144259610813629 -0.3216372255539171
0.35502642953347313 0.028025467147679443 0.006789518974235543 -0.09245107897014317 0.3120954106357224 -0.0011049745412645352 0.19015025347541592 -0.3293090236794049

transformer.encoder.layers.0.self_attn.in_proj_bias f8 [48]
00000000: b710 46fd deaf cbbf 758f 860b 37f1 e03f
00000010: 2788 d5dc 9151 983f 23ad ac34 de63 a03f
00000020: 278b 61d0 6e3a 983f 0cd0 3e15 6b36 5a3f
00000030: 8381 575c 88de 823f e0cf 34ae f01e c13f
00000040: 9b61 fe19 cd71 b6bf 9260 1e0c 558a 9f3f
00000050: a3ea c6f1 9a90 b53f dbf2 072d 215b c1bf
00000060: 60a6 53ba 84a1 c23f a290 a4a0 df0a a33f
00000070: 4c53 4849 85f8 da3f 253d c2a2 0635 6dbf
00000080: 5267 3384 2f87 4e3d 9e44 eb59 2441 82bd
00000090: 4fda fdaa 7e40 1d3d 2fcd f925 a8a9 353d
000000a0: a150 47aa 9489 47bd c8eb 86d5 7e5c 413d
000000b0: bc28 5c86 e245 41bd 15c4 d130 09ee 6c3d
000000c0: 83d6 aa05 2b79 1fbd cf19 b42c be43 27bd
000000d0: fe7f e881 1e36 42bd 44c4 f002 61ba 373d
000000e0: ed43 898f 108b 0abd a95a 3c44 ac17 1fbd
000000f0: f42f ed61 af7f 73bd 862f 6b59 9fe2 21bd
00000100: a602 4fe7 a734 a3bf 092a fc88 9e35 a73f
00000110: 9613 e66d dcda a43f 442d 571e 1358 773f
00000120: 1f83 84eb 3b0f 75bf 836c 13e9 ba61 943f
00000130: 2788 40a4 afd1 7c3f 18b1 6c2b 0df4 a83f
00000140: c703 4660 871a 9cbf 4342 15d7 eab9 b13f
00000150: 9fbc 309d 3425 a4bf ccb6 29ab 9553 96bf
00000160: e0cf f8fb 0eb5 8cbf 6191 6f8d b7b0 963f
00000170: 224e 81ed 3b9c a1bf 609b 20ee ec6e 9d3f
-0.216304658573909 0.5294451928243534 0.023748664001125654 0.03201193230628465 0.023660403698509882 0.001599888394577145 0.009213509862946228 0.13375671869437067
-0.08767396816836596 0.03080113302675664 0.08423775103339408 -0.13559355448514662 0.14555415246950343 0.03719233356449193 0.42141849667068665 -0.0035653237919813945
2.1691497517556527e-13 -2.0752919369894293e-12 2.5980935446870914e-14 7.696144873426576e-14 -1.672434613920982e-13 1.233595294154452e-13 -1.2273195966946554e-13 8.222351578684894e-13
-2.7953917150584234e-14 -4.132626789125601e-14 -1.2939980114484348e-13 8.429894214787555e-14 -1.1787558238851039e-14 -2.761566293764063e-14 -1.1083767432729108e-12 -3.17705754632954e-14
-0.03751110743133283 0.045330957624248276 0.040732277312634554 0.005699228936872306 -0.005141481459106228 0.01990406081754915 0.007035909748113445 0.048736964751102174
-0.02744494938952238 0.06924312354136312 -0.03934635561778887 -0.02180322510905945 -0.014017216744015515 0.022158496863896263 -0.03439509653312835 0.028743459734097754

transformer.encoder.layers.0.self_attn.out_proj.weight f8 [16, 16]
00000000: 031e 3836 de6f 8e3f c776 cba3 2a62 bc3f
00000010: 753c 04cf 3d4d d5bf 3d4f bc38 95ab c33f
00000020: 3c5a 5b6d 5b06 ce3f fec1 82c6 ce7c cc3f
00000030: 9707 4d3c 9430 cfbf 1e68 f145 8357 c23f
00000040: d314 0f56 a1bf c2bf 77e9 64ae 72bd d93f
00000050: 865b a9bd 8f12 873f 013c e25f aa00 903f
00000060: 38f8 0634 15f1 d6bf b9da 95ac a786 d03f
00000070: eab2 b1f6 c9e4 c9bf 37da 483b e548 bcbf
00000080: 6d3f cd29 f13f d5bf e85f 241c 32b4 d4bf
00000090: 3b5c e41e 7a5d c83f c9db 5a77 d496 c23f
000000a0: 3ab2 eda3 7e02 c7bf ab47 5cad 5fd4 b4bf
000000b0: a0e4 5a55 cd0b bebf bfbb 055b 11c2 dabf
000000c0: f3cf bf68 e42f c13f 5f49 cddc 4c01 d8bf
000000d0: 39a9 e20d 2598 c5bf b466 3745 50d4 d7bf
000000e0: 30a2 28f9 605c d7bf 67dd 43ff cd55 d83f
000000f0: d544 a453 2d34 d33f 1c97 ccf8 2df8 d2bf
00000100: 7257 a676 9f19 8cbf 3ae5 60df 5c0b bbbf
00000110: a14f d416 5436 cabf d186 8028 1a54 b7bf
00000120: 469e ec4e f7b5 9ebf b791 5211 ba30 c2bf
00000130: 1796 f89d f916 c6bf fd70 4161 7002 cbbf
00000140: 1b24 baca db4a a2bf 7393 98c8 0d36 d63f
00000150: 04f4 c233 951c afbf 53bf c60a 99c6 b83f
00000160: f2ed 4ff1 d72f da3f 0549 3ad9 741b ca3f
00000170: 3804 da1d ae08 cb3f befb 97ef 2ffa bbbf
00000180: 2172 2f4d 42fc d53f 79f3 d445 9f3e b2bf
00000190: ebab 5b47 bb60 b73f 4a6d 75de 7f48 9e3f
000001a0: 1b62 bb0c 804f d0bf 9da1 e245 bac5 cebf
000001b0: 9cf6 9e88 f91c c13f 69d8 e33a 8d3a b93f
000001c0: e5f9 1797 218b d33f dc13 4b8f 1865 cabf
000001d0: ddcb 7b1d 8c84 c8bf 01ac 17bc 886f a93f
000001e0: 4dcf c003 3267 453f 25bb c0fb 97aa c93f
000001f0: 9f93 6f9e 29f4 d4bf dad1 855a 8b2e cabf
00000200: 956d 38e9 feaf abbf 6572 8528 a94e 97bf
00000210: 643d fc69 04a9 ce3f e32a 8a0c 3cfb d8bf
00000220: 6b5e b729 b029 d3bf c0e3 dce5 dc4b cfbf
00000230: f015 ca89 03c7 ccbf 5e75 e97d 7cf9 d7bf
00000240: 6ce4 1910 f4a3 b33f de45 b7ac e302 cc3f
00000250: c8ce 57e4 025e d6bf 657d ac39 fe03 d3bf
00000260: e97a 12c1 8d35 c83f 551d fb72 32cf babf
00000270: ede6 b60e f7df c13f 060f 8335 d20c cf3f
00000280: a3ca 6991 bcf2 b23f 0e93 2d03 3c9f c73f
00000290: c86d 6311 bc5f c6bf 6110 3379 e732 d7bf
000002a0: 0940 e0f9 6a84 d1bf 31db 7550 21a7 d73f
000002b0: 93fe 4feb 967d bbbf f3a0 9ba5 bd5b cdbf
000002c0: 96be 8322 7338 c03f 7539 51f2 2de4 bdbf
000002d0: 0540 9236 d45c ce3f 2b7a 6db1 640d a5bf
000002e0: 0aec fb92 2ca7 c83f 3ffa 5b79 b0e3 d03f
000002f0: f176 f420 ca13 c33f 47d9 a390 f6fe c1bf
00000300: 38d6 878c a9f5 d1bf f9d8 fcca e762 c53f
00000310: 652d fa5f fd58 cdbf 6fc4 f330 7ce5 d5bf
00000320: 9b2b 8030 51f0 acbf 4e8e 0d49 75aa bdbf
00000330: e2aa b863 7c83 d53f dc9b fe8c 7237 d7bf
00000340: 3170 63b1 4fc2 bb3f 5e13 d155 43b3 a3bf
00000350: b5b0 7df1 7480 9fbf 6761 7df4 ad88 cbbf
00000360: b13f 8b0c f790 bdbf db52 966a 3767 c7bf
00000370: 1da1 4552 0aa6 bcbf 31a1 a40a 6c9d d2bf
00000380: 67e6 edc0 bb43 d03f 61b6 8ea9 9116 d63f
00000390: 915e 9448 30a1 d63f ae7f dbef f38b be3f
000003a0: 2618 293a 8a5b d23f fc98 dc4c ad4f d3bf
000003b0: 42f6 0840 1c91 c73f 9339 4612 d121 cf3f
000003c0: 471b 42cc c4de cdbf ad48 2d6c 342a c53f
000003d0: bb64 0c30 dc81 bc3f 8632 8158 3fa5 c0bf
000003e0: 3f7a 95a6 3e1d 963f 49a8 60ba cf5f 983f
000003f0: 36ab 54e6 1f65 c0bf 9eec f314 2e1f d53f
00000400: 3b01 06b0 6dc5 d53f 36e6 6490 7d9c ab3f
00000410: 3130 67dc b2db 9abf 78dd 6f81 f070 d9bf
00000420: 197a d528 356f db3f be39 1ea5 4670 cd3f
00000430: 17c3 532d 08e5 d53f fd62 cea8 2e66 cbbf
00000440: 6c3e da71 13e3 5e3f 906f f8aa f4da c43f
00000450: df26 b22d 2974 d5bf db89 5ebc 4b8a bdbf
00000460: 1aaa aa96 48ce c5bf 33f1 97af b333 d13f
00000470: 903a 9d54 3e67 b93f 7aee fb6a c42f bf3f
00000480: e1c0 a663 ec13 9ebf c301 583c 866c db3f
00000490: 733c 520c 5990 d6bf fa83 fd3b 73d0 c5bf
000004a0: aad3 f9dd 4a49 d83f d78f 0e00 8f8e c33f
000004b0: 667a 7260 ce2a c6bf efaf 11b5 8f8e d43f
000004c0: 3575 bdf1 4edd d1bf fa5f b424 ef89 d2bf
000004d0: 6a01 b530 f82f c83f a2be 0dc2 8a94 d4bf
000004e0: a97b 335a 28a8 c1bf 6b64 40ac 8fd7 c3bf
000004f0: 26bf c6ef 34ae d63f d424 2482 e78c d03f
00000500: 59ec 16c3 8f77 cabf 9a97 a840 8247 a53f
00000510: bbc4 1e45 ba93 c93f 5767 5d1b d800 c1bf
00000520: 50f7 ecda 5cbe b93f 5a77 d2fa ca2a b8bf
00000530: 9f79 cca9 607e d73f 7506 472e 96ab d23f
00000540: b02c cec2 e78c c23f 0f8c 3819 dd4c cf3f
00000550: a9e1 f97e 7b3e bc3f 53b4 9814 6e11 c23f
00000560: d855 64ee d6a3 d93f 8b6e 0bc8 2cbd d23f
00000570: b86d 86f2 2b01 c93f d613 f0f7 90d6 c3bf
00000580: 7b10 8702 d04f b43f a2b7 6319 a8b2 ac3f
00000590: afb9 9e44 65fd 783f 6a55 ecf8 40d5 d9bf
000005a0: dede 40f2 bff0 883f 0852 25e2 86d5 d2bf
000005b0: 6974 fc3c efee db3f 18f7 1fd8 c814 a9bf
000005c0: 0d98 9038 238b cdbf 274a 99ad 2497 cabf
000005d0: 6c5d 8ae4 64a2 bdbf 92fa d69a f8cf c53f
000005e0: 2aff 7fb0 421d d5bf 95f2 d6c8 48ec c2bf
000005f0: 896b 0d12 c733 b03f e0f0 4210 da06 d1bf
00000600: 24d1 7a50 59a6 d53f f7ff cbf4 2e81 c1bf
00000610: e199 df48 704b d03f 3e0a 7221 6976 d4bf
00000620: 2180 2fcb 2992 d23f 3a11 3d8a 2bb3 c13f
00000630: c5d3 1ab5 6545 c9bf 4634 d381 f9be d5bf
00000640: 09cd ccf2 9f93 b8bf 5751 3e74 4403 cdbf
00000650: d7f2 3a70 fb88 cd3f 8554 7da4 55bc b33f
00000660: e88e 2476 a36f d93f 5570 c73f 4276 b4bf
00000670: fe8f 72c4 6e43 973f a02b 123d d6bb b13f
00000680: 7d1a b316 bf01 b7bf 4c80 fd84 5d76 d63f
00000690: 8311 e096 7be0 a8bf 0ab2 6a6b ce2b d03f
000006a0: 8b8a 9f1c 5b1e aabf 13ad 98ed eace d8bf
000006b0: b620 4e42 139d ac3f f607 185f b855 c93f
000006c0: ed57 2c01 5a0e d2bf 075d 0601 1228 afbf
000006d0: d61c 9e64 13f6 d0bf 221e 6519 0f3a c23f
000006e0: 6fbb 0775 d3f3 cdbf c472 4e6b 0647 da3f
000006f0: 64d9 ef94 5f20 a4bf 18ff 0768 7d2a dc3f
00000700: 85bd 3d00 a9f7 a63f 0668 418d 0b01 d13f
00000710: 81dc 78f5 37b2 b9bf 2b37 7d1d 104c b93f
00000720: dd83 78b9 3f45 d6bf 6e24 6ffc b101 d0bf
00000730: 07c0 dc89 6ba0 d8bf 39e4 c275 5552 d43f
00000740: e199 b04e 4768 d8bf 4853 e4f8 c337 1e3f
00000750: b068 1b98 c622 c13f 24bd e5d8 62c1 a83f
00000760: 4dea 1691 5c14 c13f 57a3 04f4 faa1 bf3f
00000770: 0875 ac51 270d 6bbf c4a3 a4a3 656e d53f
00000780: c637 ecc1 a941 bcbf 1200 c83f 7eb2 dd3f
00000790: c28c 5647 7dd8 893f 8ba1 417d c50a d0bf
000007a0: 7802 07fc d62a d2bf 15d2 ae81 400e cb3f
000007b0: 90a3 64e2 302f cbbf deb4 cb69 4cda ce3f
000007c0: 2972 9491 b189 d33f cff1 b301 f2c7 d23f
000007d0: c2ef 0054 a1ae d1bf 9b92 1658 2df6 da3f
000007e0: 2aa9 cd63 dbe7 b23f c728 9b39 2e36 d73f
000007f0: c2ee 2025 4107 cd3f 5005 6711 0c60 cfbf
0.01486180880512134 0.11087290285964989 -0.3328394433637592 0.15367379446308319 0.23456900443734863 0.22255882923992937 -0.24367001480464687 0.14329567828355122
-0.1464730901917962 0.4021879866665112 0.011265871978293662 0.015627538778570486 -0.3584645279005403 0.2582186875728599 -0.20229458375560877 -0.11048729607942041
-0.332027712652226 -0.3234982752633173 0.19035269268417374 0.14522796466709867 -0.1797636318618901 -0.08136556608613314 -0.11736758550513793 -0.41809495819955694
0.134274054667571 -0.37507936060605646 -0.16870558908460412 -0.3723335910741341 -0.3650133546057388 0.38023710182411324 0.30005963485843995 -0.29639767929835314
-0.013720746811298066 -0.10564213231636624 -0.20478297342981214 -0.09112704743213419 -0.02999102038589132 -0.14211202474429083 -0.17257614339284608 -0.2110119318848617
-0.03572737550445756 0.3470491846986114 -0.060764944618746625 0.09678036225409174 0.40917013707777905 0.20396290404148246 0.21120239694212883 -0.10928630446868134
0.3435216668856658 -0.07126803831938656 0.09131975643292349 0.02957343859939713 -0.2548523067794421 -0.2404091683613502 0.1336967389196858 0.0985496777319398
0.30536689524879385 -0.20621020313970362 -0.19154502334239867 0.04967906280565871 0.0006531709873400599 0.200518606115531 -0.3274025008416234 -0.2045454208379301
-0.05407711598328572 -0.02276100454160925 0.2395329968935399 -0.3903341410120175 -0.2994194419274893 -0.2445026514413069 -0.22482341983793175 -0.37460243507469737
0.07672047989935188 0.21883817609209094 -0.3494879941856479 -0.29711871750074287 0.18913433005669525 -0.10472407633925702 0.13964737146834896 0.24257876980674825
0.07401636648300296 0.18454694895913132 -0.17479658936541242 -0.36248194538007367 -0.2737071457095231 0.36957581384142474 -0.10738509411748458 -0.22936220728229947
0.12672270951542391 -0.11676299253415386 0.23720791496862162 -0.04111780801644146 0.19260174920040668 0.2638970551633157 0.149041429606704 -0.14059335768224399
-0.28061903690045 0.16708085452564328 -0.22927825151814854 -0.3421316602753625 -0.05652097432183397 -0.1158822348930297 0.33615026224530997 -0.36275924462318954
0.10843370514652474 -0.03847704336707268 -0.030763461341323423 -0.21510862768151215 -0.11549324089287329 -0.18283741669133388 -0.11190857418626306 -0.2908582786499379
0.2541341194224515 0.3451275020441696 0.353588171843037 0.1193230114545247 0.28683715514887564 -0.3017380953409796 0.1841159165068565 0.24321950332928263
-0.23336086247965168 0.16535048753809659 0.11135650799805578 -0.1300429517890686 0.02159593478915611 0.02380299162920377 -0.1280860781347088 0.33002807661223155
0.34017507734099056 0.05392830264686348 -0.026228708937012072 -0.3975182785065594 0.42866257655796997 0.22998889028936093 0.3421040003441233 -0.21405585520258077
0.001885193814278009 0.1629319987122213 -0.33521489584437164 -0.11539147709712642 -0.1703577743222276 0.2687806334286222 0.09923162046218637 0.12182262050549211
-0.029372876722562394 0.42849880116412126 -0.35256029322858423 -0.17042389325345636 0.37947341611225716 0.15278804304864366 -0.17318134030661553 0.32120125467804334
-0.279132591318404 -0.28966883263046805 0.18896391275667251 -0.32156628561549827 -0.137944263499745 -0.155015906436151 0.3543827382627448 0.25860011777019776
-0.2067737295709289 0.0415611938408766 0.1998207890988278 -0.13283826194929801 0.10056095452179403 -0.09440296767794845 0.3670884760084849 0.2917228176048419
0.1449250889967053 0.2445331929348815 0.11032840585710936 0.141156921440969 0.4006249740644683 0.29279632125483407 0.1953482565121314 -0.15498554331148168
0.0793428426905524 0.056050541972452864 0.006101031854923652 -0.4036409788980878 0.012177943783270914 -0.2942826469855224 0.4364584060256847 -0.04898669851534815
-0.23080864202455623 -0.2077375266695338 -0.11575918750383146 0.17040927467856598 -0.32991091953589324 -0.1478358250295925 0.06329006376965486 -0.266043201332435
0.3382781301436515 -0.13675486519787203 0.25460440746829077 -0.31972721353682576 0.29017109720553164 0.1382803368561641 -0.19743033736236107 -0.3397811668226648
-0.0960025756619879 -0.22666221309612908 0.2307428644179683 0.07709250703676858 0.3974388746012054 -0.07992948586564926 0.022718172779278227 0.06927241316786459
-0.08987039856138242 0.35097444522216814 -0.048587667624846474 0.25267372598571625 -0.05101284717945472 -0.38762925341389226 0.055885888904471256 0.19792847293143695
-0.2821259509522623 -0.060852587342362034 -0.2650192720979708 0.14239681949605748 -0.23400347914090555 0.41058502654213336 -0.03930948918416524 0.4400933757715264
0.04485824706977851 0.26568878931505 -0.1003756498620181 0.0988168785090379 -0.34797661888484105 -0.2501034703423731 -0.3847912641822408 0.317525258065476
-0.38136465725474805 0.00011527188891975488 0.1338737719259533 0.04835041902230788 0.1334338863797079 0.12356537301515168 -0.0033021705579715545 0.3348630998685247
-0.11037693962518266 0.46401935795438576 0.012619951953473655 -0.2506574366766691 -0.28386473285721747 0.2113724358765842 -0.2123776536402855 0.24103694120223101
0.3052791520765675 0.29345369497584967 -0.2762835808132388 0.42127545931206506 0.07385035692792444 0.3626819193419916 0.22678388894006757 -0.24511862611511015

transformer.encoder.layers.0.self_attn.out_proj.bias f8 [16]
00000000: 635c 51f4 e6f1 953f 9230 3d5f 4d73 953f
00000010: a4ea c9b8 1c21 b1bf 8137 a5f6 84b2 86bf
00000020: 8257 fb67 2e56 b53f f0b9 1863 42cb acbf
00000030: 64ba 5e13 824f 8fbf f742 3413 63f0 8cbf
00000040: d9c2 af1e a1ad 743f 0177 8887 0196 71bf
00000050: 5958 0141 d326 993f 53b1 5e04 8d72 7cbf
00000060: 8408 eaaa 845a a8bf 7164 9598 ce98 a73f
00000070: a523 947c 460f b4bf d025 a56b d3b7 ae3f
0.021430596029258796 0.02094765561859952 -0.06691150199359669 -0.011082686211604688 0.08334627188318502 -0.056238245579482427 -0.015288368431211903 -0.014130376838268328
0.005048398375024654 -0.004293447470016921 0.024562168924909453 -0.006945181701592712 -0.04756559931139839 0.04608770001022656 -0.07835808316680344 0.05999623002078247

transformer.encoder.layers.0.linear1.weight f8 [128, 16]
00000000: 7687 709d be6b b23f f2dc 4571 8b9a 93bf
00000010: d1a5 1fbf 3879 bbbf 37c1 4c85 42eb a5bf
00000020: 21db ef2f 24fa c2bf 17d6 6dc9 9b80 b53f
00000030: 37d0 e6ca b128 d0bf 6967 9ef3 e608 cfbf
00000040: 6f4b 35e4 dfc4 b83f 5530 cd5b 2162 97bf
00000050: 072b 3359 6245 91bf 2cc0 c1db 81fe b1bf
00000060: 1512 1d7f 2d54 c33f 6e9c d81c 975d cdbf
00000070: b532 b243 59f9 77bf 61df 91a4 592b a2bf
00000080: 0326 1879 c812 b23f 5c2c 5827 353e cebf
00000090: 604a 3f64 de34 ccbf 5cb2 5841 b90d b9bf
000000a0: 31d8 38b9 1a11 c4bf 8b90 a4b7 c2f9 a63f
000000b0: 98a7 0229 ba0a bfbf 275a 81e9 d5c6 b43f
000000c0: d91a 9795 30fe b0bf cffc f387 d710 b53f
000000d0: 1d1e ee79 5fca b5bf d1f1 7bb1 05c3 c5bf
000000e0: 598a 8433 f576 b1bf 62ed b2fb 72b1 b7bf
000000f0: 4725 28b4 1cef b23f 0de5 be09 b69a a83f
00000100: abca d39e 1d11 a93f 59de 5b0b 3fce b73f
00000110: c8c3 053a fd00 aa3f 84a9 1982 8cb4 a0bf
00000120: 4455 8d82 2546 a63f cd7c 989c 0865 bdbf
00000130: 31a6 f467 47e2 c0bf af13 7b9e ecef c43f
00000140: 2452 9da3 cdec a23f 4362 0555 2281 c43f
00000150: 35eb 7df5 64fe b63f 450a c4ae 9d10 bc3f
00000160: 3bef a5e0 e31f c13f 644f ab55 7689 ab3f
00000170: 0ecd 0e51 43f1 b73f 5bca 4a7b 6ef9 aebf
00000180: 117e 5456 a469 b23f 2a80 74d6 fcbf a03f
00000190: 7462 2a5b 2fda c83f d151 9aea 1cd7 bf3f
000001a0: 859c b9e0 dcfa c5bf d621 3b03 dc42 c1bf
000001b0: aab7 032d d3d2 b63f d919 a93f c96c b2bf
000001c0: e6a3 b537 7655 b6bf 6c85 9723 5e2c abbf
000001d0: 3457 0df0 0c28 b93f 7f38 9ac2 73f8 c0bf
000001e0: 2131 fc57 4dc1 713f 93d3 73e3 7469 ab3f
000001f0: d985 2a20 ba35 71bf 9c93 fc00 69db bd3f
00000200: 15ef 8576 f307 b3bf 295e 2b52 f5be c1bf
00000210: 528e 574e d401 9bbf 209e ea56 a9b0 c73f
00000220: ab8a 178f f728 b33f cce7 8211 9781 b03f
00000230: 8a1a 775f 1d1b bb3f f963 cf94 faed d4bf
00000240: 12c8 0688 60c4 d53f 7522 a5d8 a386 cc3f
00000250: 30a5 58a3 5c7c b73f 44bf 5273 6ae8 a9bf
00000260: ec06 d77e 671c b6bf 6b5c c072 b494 b9bf
00000270: 3be0 180f be14 b13f 97f7 18ff 7e61 bcbf
00000280: b21f 0f82 f538 a83f 4611 dfec b537 bd3f
00000290: dca9 b3f2 7da3 a53f f41a 7495 03b1 b13f
000002a0: d0bb 0ff9 2617 a4bf fc79 ae91 c01a dc3f
000002b0: 68d2 8a95 0880 c7bf 6fd2 d372 89c3 b83f
000002c0: 4b50 fecb 1f90 99bf c7aa 711c 1068 a0bf
000002d0: 52ad b5c1 d786 d0bf 0abb 153c 19b1 933f
000002e0: a725 f8e3 d62c b5bf c26e 210b e142 90bf
000002f0: bc95 21e7 f976 a6bf 7681 7067 3376 9ebf
00000300: fc67 7031 f781 cebf 7191 1172 f75b 76bf
00000310: 70fd 49d1 c689 a9bf d561 cb51 fafd b9bf
00000320: 733f 507b 5c8e b8bf fc6d 1ddd 8ec0 bebf
00000330: ce65 1330 c2a5 cd3f 653d f686 4b5d c03f
00000340: 9d85 1ed7 4717 c6bf c467 2a56 1dec 7d3f
00000350: e82c 8e47 0cbd b9bf cb4d ae22 f025 c9bf
00000360: e20b 93c4 cadf ba3f 02ef a33a 96c9 c7bf
00000370: d821 d0d3 d342 823f 3e9c 050e 0d14 c7bf
00000380: 0e24 d480 36a3 d13f e652 2f48 2cc7 8bbf
00000390: f136 2ce9 e031 b93f 3c36 f320 0abf a3bf
000003a0: efac 336b 7d01 babf a623 7805 b8f5 c2bf
000003b0: c6bc 4a36 7317 a3bf 3743 1ed7 7b46 8c3f
000003c0: 0a76 3343 0b21 bfbf 0ddc 8ecd 5ca0 9a3f
000003d0: 9763 7d15 0a4a cbbf cfc7 9164 a7b0 bf3f
000003e0: 4699 b1f7 b8d4 b43f 507e 23d4 6fca b63f
000003f0: 9e1a 0b64 bbb1 c1bf ba02 b4df 7b1e 833f
00000400: 9bae 8c40 c3f6 bbbf 9c4e 3f19 6c79 973f
00000410: 4978 08d1 ea58 a63f 6f82 138f 4cf2 c23f
00000420: b3c5 5ee2 e57a c2bf 3ed7 c629 c592 ca3f
00000430: 0634 9d1e ba0d c1bf 3aca 2c11 bf22 6d3f
00000440: fac0 b2b8 a6f3 bd3f cdcc 7d4f 1f26 c53f
00000450: ba2f 269e c22c 893f 52db 01cd 042e b1bf
00000460: 9fda 15b5 e01d 85bf cc66 1f85 bc9e 97bf
00000470: e48a d411 d2b6 a03f ac60 5ee3 46d8 8e3f
00000480: 4280 e462 9b32 9e3f 910c 41d1 9ac3 963f
00000490: ed64 5634 2a8d c03f 3911 85d4 2cb3 9a3f
000004a0: 252e 5a2c 291f b1bf e207 32ce ebbc c93f
000004b0: 8b4b 3b0b 223f b53f 3cc5 75dd d09c c4bf
000004c0: a670 d708 b299 c7bf 13e2 2e0a a8f5 b43f
000004d0: 1211 c3a0 7886 a6bf 66b7 72b8 df47 a8bf
000004e0: 3b98 9528 80da b5bf 8b24 a182 d5de c5bf
000004f0: ab3a e29f 49c8 a2bf 177e 8abc b250 c4bf
00000500: cef9 5f43 e454 c03f a324 dd2a e7f8 86bf
00000510: a467 97aa 3960 bebf 3836 7ebf 22fb 8e3f
00000520: cb41 545c 1984 7e3f f55e fc2d 96fa cb3f
00000530: 92a1 7eb4 d7d0 22bf 2da2 ccd8 92e8 b2bf
00000540: 90bc 0dd6 b1dd c3bf 8218 a1e6 d9fd bb3f
00000550: 5a1a a17e 31dc c13f 5f55 5a8a c6fd b03f
00000560: 26b6 4932 b33e a0bf 286e 90ff 4744 cdbf
00000570: bcc3 19d9 dc16 b93f b40a 8c58 f94a a9bf
00000580: 56b7 1185 2d3b b8bf fe93 3548 9d6f a53f
00000590: de57 7681 c325 d13f 531d 70be d5c5 bbbf
000005a0: 188b 4400 ab69 cfbf 7c96 9392 4857 c5bf
000005b0: d3a0 201b 4d23 c9bf 38ec 65e8 4f91 bcbf
000005c0: 7bb4 0476 f76b c43f 5455 6dbe bb41 bbbf
000005d0: 0ab5 c051 3bec b9bf c888 2d3f 0571 c1bf
000005e0: 17d7 b72c 4f55 c23f bb1c 88e1 b594 c2bf
000005f0: 4286 7327 3731 b2bf f378 0b33 147d c3bf
00000600: acae 1017 af2a b43f a0db 5f8d 3832 a63f
00000610: 52a7 02e6 7912 b3bf 4a32 b253 85dd aebf
00000620: b247 dcae dc39 c13f 66ec d41b 99d8 b9bf
00000630: 19ce a129 4211 d9bf 2a6a 0806 bbef d1bf
00000640: ad8f 5780 b8f4 c93f 44e5 85c6 6f96 d43f
00000650: ee30 4064 ddf1 d13f 5acd c2d5 7e45 a8bf
00000660: 1f00 144a 6c52 b83f 0002 fa77 b397 b1bf
00000670: b1d8 5aa5 3a82 a23f 4b28 5134 e650 c33f
00000680: 1ec2 7b9e a114 ba3f ad79 4426 75f0 af3f
00000690: 4bcc 8004 523f bcbf 1eba 3d3e 243d 9c3f
000006a0: b193 be5d cc89 bdbf ed71 dba5 df66 bbbf
000006b0: b070 a3f9 b96d d0bf 1907 167c 2429 c63f
000006c0: fd74 3d06 4cbc b93f 3d21 fd7e 2523 c9bf
000006d0: d708 d05f a2ee d0bf 9d3f 8983 b6ac b3bf
000006e0: 30c9 5e75 32be 90bf 9a6d b025 76ee 6c3f
000006f0: 8899 cdc0 7b5c a93f 4e48 af98 aa6b c2bf
00000700: 0c30 29ac 2cbb a5bf bcd4 19b0 957b c0bf
00000710: 59da 53b9 4bd3 b93f f369 375a 8711 9f3f
00000720: a509 8d0f 31f5 babf c113 4fa7 98ce cc3f
00000730: 0f87 18f0 f11b a9bf 4358 1492 8d2e 9b3f
00000740: 6b2e d100 35dd b4bf ea60 0d9a ec52 c6bf
00000750: 35d2 4326 3219 c03f 3a1f 0b1c 4fbb d0bf
00000760: 284f ac59 53c8 b63f ab7a 8163 5dc5 e0bf
00000770: 694a 909d 55d1 c23f 792d 9d69 9747 c8bf
00000780: e843 e494 25f0 c2bf abf0 ff2f 7679 bfbf
00000790: 727d 4073 fafa c8bf dbfc bcfe 7c6e b4bf
000007a0: d26f 506b d240 a3bf adce 7dcd 60e9 80bf
000007b0: 4456 e297 8ec0 74bf 9f6d 5ba6 ead8 a7bf
000007c0: 06f8 92d7 dffc c13f e161 6c90 aa61 cabf
000007d0: f7ec a1f0 3f8c cdbf 6dea 0d59 5f9c c43f
000007e0: 06d1 60b3 3d42 963f 3b9a c061 d4cc b43f
000007f0: 504e f3dd 770a a03f fd38 0665 0734 c1bf
0.07195655196895054 -0.0191442287336629 -0.1073184458361063 -0.04281051518626316 -0.1482587083880498 0.08399366061879508 -0.2524837953053551 -0.2424591722054246
0.09675406762589288 -0.02283527491390232 -0.016866242117241217 -0.0702897225871772 0.15100640017239245 -0.22941864880087642 -0.0058530318157294274 -0.0354869855299842
0.07059910732655088 -0.23627342625727266 -0.2203634252060338 -0.09786565633175698 -0.156771984520391 0.04487427226766368 -0.12125743390302401 0.08115899039089723
-0.0663786282740192 0.08228823727766897 -0.08511921622095327 -0.1700141064283245 -0.06822140224225261 -0.09255140919679186 0.07396106146201929 0.04805535191503383
0.048958707464313043 0.09299081828418689 0.05078879674227427 -0.03262747848642092 0.04350392550137852 -0.11482290099273769 -0.13190548492393497 0.16357190836256794
0.03696291563270318 0.1601908602849723 0.0898192500443827 0.10962853924505918 0.13378571004056447 0.053783128698028176 0.09352513054800601 -0.06049676184683924
0.07192446811358645 0.03271474950656768 0.19415847732013314 0.12437611320121468 -0.1717182252207047 -0.13485288770449583 0.08915443276393256 -0.07197244457447684
-0.08724154338928222 -0.05307287392111956 0.09826737270972502 -0.13258215906211387 0.004334737895771463 0.053538944974128054 -0.004201628735843476 0.116629183522106
-0.07434007304794606 -0.1386400843828011 -0.026374165803544188 0.18507878059357186 0.07484385722595259 0.06447738816760235 0.10588248806662129 -0.32702507526624874
0.34011090549313494 0.22285888746616292 0.09174136150308665 -0.050601317002814145 -0.08637091490438892 -0.09992530633495426 0.06672275417884148 -0.11086267211882582
0.047309562803604335 0.11413132699005243 0.0422629698531016 0.06910726927535987 -0.03923913755703945 0.43913282610620263 -0.18359477331036378 0.0967336564388661
-0.024963852716226403 -0.032043937179727026 -0.25823015133820093 0.019230264942446097 -0.0827154451909765 -0.01588012342868584 -0.04387646624017402 -0.029747775257534546
-0.2383412352945128 -0.0054587999194136575 -0.04987927727506303 -0.10153164383826348 -0.0959222603853485 -0.12012570284189644 0.2316210493798238 0.12784713830886144
-0.17258546832912894 0.007305254550965704 -0.10054089304883329 -0.19647027676965786 0.10497729586772622 -0.1858394419031058 0.008916525746841694 -0.1802994078127273
0.2755867250530749 -0.01356348605433184 0.09841733639424512 -0.03856689121458287 -0.10158523432953691 -0.1481237436967408 -0.03728828466170735 0.0138063120864743
-0.12159796133661174 0.026002359434382828 -0.21319700288111385 0.12378927426632845 0.08137088820658275 0.08902644089857259 -0.13823645005159774 0.00933548714101683
-0.10923405004421698 0.022924126664135444 0.04364713479684263 0.14801938043730753 -0.1443755488703978 0.20760407009009357 -0.13323141569927105 0.0035566074160666957
0.1169990731166343 0.16522590047279664 0.01229240460522606 -0.06710844044742473 -0.010310893560683097 -0.02306646883503198 0.032644810368102545 0.015060952962628292
0.02948992529957218 0.02223054792581231 0.12930800967732328 0.026074123831919514 -0.06688172657794007 0.2010779148877751 0.08299458288392551 -0.16103564084509425
-0.18437791282383847 0.08187341927158114 -0.04399468386103157 -0.0474233544021974 -0.08536530485943754 -0.1708628547515086 -0.03668432308869759 -0.1587127132997785
0.1275906876544028 -0.01121693229255733 -0.11865578093366352 0.01512744089975647 0.007450198235588744 0.21858479733850059 -0.00014355309599279866 -0.07386129181816932
-0.15520308448637765 0.10934221153829252 0.13953226740905472 0.06637230756526467 -0.031728362930931106 -0.22864627817840355 0.09800510692890801 -0.049400131281819
-0.09465298174629075 0.041867175163851286 0.2679299129753171 -0.10848747157443954 -0.24541223061631778 -0.1667261806207313 -0.19638980698187555 -0.11159228729040727
0.1595448805104843 -0.10647176169489586 -0.10126085992734005 -0.13626161179406027 0.14322843249799952 -0.14516328346528504 -0.07106346810498912 -0.15225460522100995
0.07877630532373797 0.04335190511476772 -0.0745006739186043 -0.060283819643789885 0.13457830942257726 -0.10096127442823075 -0.3916783720553397 -0.28025699223658995
0.20278078333569508 0.3216819227887593 0.2803872565280149 -0.04740520820032641 0.0950076752524187 -0.06872102431407967 0.03614981907360127 0.15090634874860806
0.10187730902885803 0.06238142101414055 -0.11034119234027277 0.02757698659791618 -0.11538388527567524 -0.1070384769368002 -0.2566971719622968 0.17313057001961665
0.1005294337496316 -0.19638508511185107 -0.26456508022978426 -0.07685414038974021 -0.016350544370376585 0.003531676060004774 0.04953371742776641 -0.1439107175379512
-0.04244365312169415 -0.12877150629689094 0.10088036799047852 0.03034030426156593 -0.10530382756863917 0.22505481881503722 -0.04904132896287027 0.02654477314089144
-0.0815003516192349 -0.1744056465347577 0.12576891773609736 -0.26143243540399264 0.08899422587665795 -0.5240923827621676 0.1470133799890221 -0.18968479782993677
-0.147953698826796 -0.12294710800046242 -0.1951592505219924 -0.07981091708369396 -0.03760392723071927 -0.008257633467770498 -0.0050664491701773486 -0.04657681732870888
0.14052961374358136 -0.20610553790972033 -0.23084258317599168 0.16102210853917445 0.0217370644315489 0.08125045191318574 0.03132986626010548 -0.13440029557063574

transformer.encoder.layers.0.linear1.bias f8 [128]
00000000: 7ebf 4ad5 83b0 c43f b1fb 27a2 1955 c1bf
00000010: ae04 2f50 3bfb b13f 12a9 f25e d164 b8bf
00000020: 1455 02e5 5159 903f 1a91 6bb3 51da 72bf
00000030: bbe1 3835 b550 ac3f b5fb 98a4 3d23 cfbf
00000040: 8c54 4988 0b0e b2bf 2ab7 d795 4473 c33f
00000050: 243b 583d 4d99 c73f 0d7e dd6f 3637 c5bf
00000060: a84d 2c4b 3db4 bebf e2ae b675 c2af b23f
00000070: b9fc 7df1 1b20 b23f 63dc 739e de64 ad3f
00000080: 6197 451e df93 b03f fd3a fe4c 6aa2 bf3f
00000090: c30a d63e 1a5a ccbf 42e4 541a 7564 7bbf
000000a0: c560 ad49 b388 cabf d7e5 10c1 bbc6 bbbf
000000b0: 172d 7235 1278 c93f 05c5 17bd dede c33f
000000c0: 5512 bd94 1731 c83f 35c0 df3a 982a c2bf
000000d0: 995a ecc8 9a8d bcbf 96db 8d93 e66a c8bf
000000e0: 918c 8ce8 6880 d4bf 776c dce4 f0b1 d1bf
000000f0: 9d2a 4183 e24e d1bf 8708 f104 1eb8 bb3f
00000100: 060a 1576 cf91 c3bf 9896 2f58 a660 c3bf
00000110: 34f4 251f 044b 9f3f 0e72 1d6d 94c7 c53f
00000120: cd4e cdd6 de12 653f 6d07 c5d4 f13b c2bf
00000130: 96ee bde9 336e b63f 7919 88f9 0520 cabf
00000140: 2cdd 6397 9fa6 c23f 8735 cdd3 a0f6 c83f
00000150: 1db6 b020 e784 d0bf 689d a44f e978 cb3f
00000160: 6242 fc78 835d a53f f4d6 34e4 3336 813f
00000170: 83ac 8170 05da 87bf 7aac 0b06 d23e a93f
00000180: c138 1e4d fddd af3f f913 2905 a297 98bf
00000190: 0824 42fd 79de b33f 703f 3e29 2124 9cbf
000001a0: d243 3edf 4de9 cdbf e7b5 9a32 4fb8 9b3f
000001b0: a51a 658f 2ba8 c7bf 021f 937f aece 7b3f
000001c0: f648 129e 4c42 c8bf 3581 6e24 f383 b9bf
000001d0: 098f 3ed8 4861 b13f 0de4 ff16 f6ec 78bf
000001e0: f9f5 0c47 af6c c43f ec8c 4b13 12ca bd3f
000001f0: 0f5b 6d22 9cbb c03f 4d5c 4f01 3ed1 d2bf
00000200: 908c d7e3 d432 cfbf 052e 11e3 6425 c83f
00000210: 0992 94f8 a388 c7bf 4753 60a1 5723 883f
00000220: 8485 5981 57a9 d2bf 66da 398b c4f2 b5bf
00000230: cf45 0bae 79e3 833f e2db 8b59 fc38 c4bf
00000240: 251a 0c8e 1afc 85bf d375 23c9 7dea d3bf
00000250: 86b0 3195 8968 a73f f1dc bc04 a956 bc3f
00000260: f64c b7c5 cc0c ba3f cf73 086b e7e4 a2bf
00000270: 672b 25f9 cc4e be3f 1b96 ef85 ee28 c1bf
00000280: 0731 3bf5 90be c2bf 88ae 9439 f447 cfbf
00000290: 6e9d 8ed9 7697 c7bf 88f5 b9fd 267c cfbf
000002a0: 5263 620f d638 9e3f 0f7d c85e 0484 ce3f
000002b0: f20f afda b41f d1bf 9864 7f7e 66c0 c03f
000002c0: ed80 10de ff5b cdbf 94d0 6e13 8769 b73f
000002d0: dc0a dedf d258 d0bf f5f6 5c7d 78f4 c4bf
000002e0: f89c c3c9 e518 a53f 5fa7 7e9c 561a ccbf
000002f0: b663 182f d0d7 c2bf 0724 559f 1032 c3bf
00000300: 6d89 700e b654 c7bf 51da c0b5 5320 ae3f
00000310: a5a0 7698 4647 bb3f 1aba 91fc 6f88 c8bf
00000320: 08a0 cc41 223f bc3f bd2f c001 b140 b63f
00000330: 33dc 8675 1950 6d3f 6aeb 859a cbc8 b13f
00000340: 81d6 1827 508b c43f 4656 78e3 0447 b0bf
00000350: 1a34 f98b 8e90 bb3f d4fe 4609 9526 223f
00000360: aa31 490d 08a2 c3bf 3ea7 1513 1458 d1bf
00000370: a211 d2cb 6fec c4bf 6ed8 54b3 0316 8cbf
00000380: 47a9 f4c6 abda b6bf 79e4 7f1e 3f17 c43f
00000390: 4ee4 43e8 8a5e b43f 007f c64a 64ea 8dbf
000003a0: 82aa 4c1f e992 c03f 4b1e 7b86 25db 76bf
000003b0: 6f98 beac bbfc cebf cd41 be04 2947 c4bf
000003c0: 0d45 4e59 dc52 b03f 82b9 be15 db40 bc3f
000003d0: 5c81 4410 2fa3 c43f 8326 d8f5 9a3e c0bf
000003e0: bd4f 2d4e e1aa ccbf 8db3 64db 3952 ac3f
000003f0: 24ca b1e0 6f77 ba3f 9b54 2790 905d c0bf
0.1616368094887512 -0.13540954988272128 0.07023974139794362 -0.09528835838378694 0.015965728380781988 -0.004602736610398029 0.05530325197873106 -0.2432629636477636
-0.07052681042962855 0.15195519749198044 0.18436589713425022 -0.16574745618980594 -0.11993773541717323 0.07299437879435858 0.07080244680217875 0.05741019901500335
0.06475634087618466 0.12357200984682133 -0.22149971073311833 -0.006687600548780872 -0.20729676339647632 -0.1085011812546307 0.19897678002994532 0.15523895485925024
0.18899817240357444 -0.14192488550861673 -0.11153571515419926 -0.19076235012809367 -0.3203375121103785 -0.2764856562586781 -0.2704397470267084 0.10827815647738435
-0.1528872801373639 -0.15138701730682125 0.03055960121263386 0.17015319183236993 0.002572474701460914 -0.14245436562674332 0.08761906105604064 -0.20410227474367185
0.14570994274229443 0.1950264963328829 -0.2581117457619671 0.21462742222613973 0.04172907688019191 0.008404164697462836 -0.011646311279227333 0.04930740665243945
0.06224052015669335 -0.024015933575601143 0.07761347230020033 -0.027481573240549506 -0.23368237877414672 0.027070271934169467 -0.18481964589792202 0.0067889038411477216
-0.18952329366999948 -0.09966964377827454 0.06789069442180219 -0.006085358894773141 0.1595667931486984 0.11636460276672594 0.13072539978994555 -0.29402113082818887
-0.24373875737282846 0.1886411770559421 -0.1838574374934441 0.011786160099327992 -0.29158580428892145 -0.08573559187957755 0.009711218475248721 -0.15798906681422326
-0.010734755954684047 -0.31118721620972883 0.045719432317896255 0.11069733014743456 0.10175781085063193 -0.03690264874987969 0.11838990290304495 -0.13406163730466933
-0.14644062017612944 -0.24438336192666932 -0.18430982230095644 -0.24597632779106626 0.02951368779085623 0.23840384128650569 -0.26756020885318244 0.1308715932525828
-0.22937010138503613 0.09145397400317484 -0.2554213701443311 -0.16371065255400877 0.041205578689011035 -0.2195537819036941 -0.1472110967595463 -0.14996536044989758
-0.18227267937715955 0.05884038537663073 0.10655633184672071 -0.19166374046786033 0.11033834558895717 0.08692461292974847 0.0035782334564049777 0.06947014353310768
0.16050149830850916 -0.06358366540401858 0.10767451207466686 0.000138478939915024 -0.15338230751730225 -0.27100087989548516 -0.16346547557999452 -0.013713864240895126
-0.08927415473286714 0.15695942868459037 0.07956760569131058 -0.014607223064387664 0.12948335674566996 -0.005580088217989119 -0.2420878022650785 -0.15842163783646726
0.06376435451808878 0.11036462098011238 0.16122997564617492 -0.12691056255453156 -0.22396484677540043 0.05531483462468776 0.10338496432977046 -0.12785536803008743
